navigation/checkpoint.pth (torch_old, 28417 bytes, 6 tensors)

fc1.weight f4 [64, 37]
00000000: 40cc 653e 1f2d 8ebe aff4 f4be 724f edbe
00000010: fab1 7ebe 91bc 62be feac 8c3e b60f 623d
00000020: f460 2fbe ddb8 b93c c9cd c53c 8adb e1be
00000030: e8e3 74be 9ac5 22be a04a a6be 1b9d a4be
00000040: 5769 483e 77b5 82bd 1c11 7cbc d979 1a3d
00000050: 5d61 023e 78c1 62be 21c6 7bbe 1401 503e
00000060: de7f 70be cd2d 003d fc65 f2bc f85b 57be
00000070: 73e2 00be 56f9 37be a665 f5bc 2b9e 8dbe
00000080: bc47 b9be 0f51 e63d 9761 3cbf 964e 2e3e
00000090: 0a19 31bc 12f0 4d3d 4d8d 9c3d ac48 053a
000000a0: 4e02 9abc 8221 08be c8f5 3abe e79d 24be
000000b0: 86be debd 7092 5fbd 5d1b e23d 904f 363c
000000c0: c3fa c8bc 9bdd b8bc 8422 b6bc aa6c 163d
000000d0: 50b1 8e3d 642f 0cbc b09d e8bc b730 15bd
000000e0: 964b 57be a82d 11be 9d7d 17be 16b7 19be
000000f0: c01b d4bd 4bf1 913d 1dbd 18be 44cc 58bd
00000100: 2b91 013d 00a3 493d b123 0a3e 9944 0c3d
00000110: 11c2 053e 3eb2 ecbb a038 0ebe 88cd 8dbe
00000120: 4d16 8f3e 4fe9 db3d 8269 783e 5816 753e
00000130: 9cc6 92be 08eb 7dbe aec9 5a3e 02c0 1fbf
00000140: 8f97 4f3e 53c5 1c3e 5ae8 0f3d f1bf adbe
00000150: 4605 d83d 9b98 57bd b812 283d 4ba9 d9be
00000160: 5201 6e3d 6635 d5be 1d6e 20bc 339c 733e
00000170: 3193 a5bc 07e2 763d f0a0 fbbe e7f6 ccbd
00000180: 38a3 813e a813 8dbe 4996 f23e fcf9 7fbe
00000190: 2c40 67bd 2f33 3b3e e64b fbbd 3379 20bf
000001a0: 26f4 89be 9de7 b6be 8c51 57bc 64d3 95be
000001b0: eb5e e5bd 9f39 da3c 4419 a63b b2fe f93e
000001c0: c849 ddbe d90a 72be bc13 8cbe cf30 e7bf
000001d0: d046 c43d 7b2e e73d 9098 6c3d b3b4 9fbd
000001e0: c0cf 843e 56df a83d a6c0 2abd 8a60 7f3d
000001f0: 725d 1ebd dc0a 8abd 1076 673c 7a14 a0bb
00000200: 2f3d 7ebd bd4b 16be ff01 34be b9ee af3d
00000210: 56b6 1d3d 8a07 ba3b 9d0f 5a3d 3741 0dbe
00000220: d5c7 7b3c 2b3d 293e 80de 8f3d 7e68 39bd
00000230: e52f 883d 01b3 463e 9be3 fb3d 670d cd3d
00000240: f242 133d 2345 08be 5be1 933c 1e7b 57bc
00000250: 793c 573d 9d7b 8abd aa68 953d 8e90 6f3d
00000260: 3595 1bbd 8915 963e f2c2 d83d d390 323d
00000270: 4274 eebd cd72 f7be 0166 7e3e 4b80 be3d
00000280: bccb 9b3d c9f2 c7bd 12a1 9dbe 920e 863d
00000290: 6bd2 a43d 23af fa3d 426e 463e b9a8 563e
000002a0: c8a4 713a 1eb2 d33d 4e97 423e 1e36 7c3e
000002b0: 645f a73e 3259 813e c399 2f3e 2481 6b3d
000002c0: 8ac8 ec3d cbd8 9dbe 1915 503e 7317 a63d
000002d0: d01e 193e 5796 743e 3a59 513e eac1 5e3c
000002e0: 5838 6a3c 601a eabd 8513 33bb 117f 87bd
000002f0: 09c7 cf3d a4c9 623e 09e3 d93d 2f95 ae3e
00000300: 2d73 dabd 71e6 16bf 2f3b afbf 7703 2dbc
00000310: 3eb2 0ebf 8677 403d 7e08 04be ab04 0dbf
00000320: e87f 4a3e b665 dabe ab9e 91bd 4fae bcbe
00000330: accb 92be 8060 083e bf15 8cbe 2d96 e53d
00000340: 00fd a9be 7fc8 8e3d 1d2b d9bd 2f23 e43c
00000350: bf65 223e 9558 55bc a584 b93b c3dc cabc
00000360: 00da ac3c 2e26 013e fd1c 8ebe 42ad 7ebf
00000370: d9df 1abe 4879 753c a0c4 5d3e 669c e13c
00000380: 9327 0cbf d90a 1c3e 8399 d63b 49f5 3f3d
00000390: 6098 92bc 7b7d 873d c9a8 27bf 1003 1ebe
000003a0: 87cb 843e f2f4 1fbe eb80 d23d 2bea 82be
000003b0: df04 413d 6e02 96bd 9156 92bd fafb 693d
000003c0: 17b0 1bbe 9c78 8bbd 5c22 843e 8037 403e
000003d0: 58bf d6bd 3c5f 07bf c047 aabe 0235 1b3e
000003e0: 7a4d 063b 8ea4 3ebe a06a a4be f2f8 a6be
000003f0: aa26 253e ce67 08be a4b2 1f3d 2015 433c
0.22441196 -0.277688 -0.4784293 -0.46349674 -0.2487258 -0.22142245 0.27475733 0.055190764
-0.17126828 0.022671157 0.024145978 -0.44112808 -0.23915064 -0.15895692 -0.3247881 -0.32151112
0.19571434 -0.06382268 -0.015384939 0.03771386 0.12732454 -0.22144115 -0.24587299 0.20312911
-0.23486277 0.03129368 -0.029589646 -0.21031177 -0.12586384 -0.17966208 -0.029955696 -0.27659735
-0.3618754 0.112459294 -0.7358641 0.17022166 -0.010809192 0.050277777 0.076441385 0.00050843763
-0.018799927 -0.13294032 -0.1825782 -0.1607586 -0.10876183 -0.054583013 0.110403754 0.011127368
-0.024533635 -0.022566607 -0.022233255 0.036724724 0.069674134 -0.008556221 -0.028395504 -0.03642341
-0.21024927 -0.14177573 -0.14794011 -0.15011248 -0.103568554 0.07126101 -0.14915891 -0.052929178
0.031632584 0.049227715 0.13490178 0.034245107 0.13062312 -0.0072233966 -0.13888788 -0.2769587
0.27946702 0.107378595 0.24258998 0.23934305 -0.28667152 -0.24796689 0.21365997 -0.62402356
0.20272659 0.15309648 0.035133697 -0.33935502 0.10547881 -0.05263577 0.041033477 -0.42511973
0.058106728 -0.41642302 -0.009791878 0.23790054 -0.020211788 0.06027415 -0.49146223 -0.100080304
0.2531984 -0.2755406 0.47380283 -0.24997705 -0.056457683 0.18281244 -0.12270336 -0.62684935
-0.26944083 -0.35723582 -0.013142001 -0.2926284 -0.11199745 0.026638804 0.00506893 0.4882713
-0.43220353 -0.2363695 -0.27358806 -1.806177 0.09583819 0.11288162 0.057762682 -0.077981375
0.2593975 0.08245723 -0.04168763 0.062347926 -0.038663335 -0.067403525 0.014127269 -0.0048852535
-0.062070068 -0.1467733 -0.17578886 0.085904546 0.038503967 0.0056771683 0.053237546 -0.13794409
0.015367468 0.1652724 0.070248604 -0.045265667 0.0664976 0.19404222 0.12299272 0.10012322
0.035952516 -0.13307624 0.018051794 -0.013151912 0.052547906 -0.067618586 0.07295354 0.058487467
-0.03798409 0.29313305 0.10584058 0.043595146 -0.11643268 -0.48329774 0.24843599 0.09301814
0.076072186 -0.097631045 -0.3078695 0.06545748 0.080479465 0.12240436 0.19377998 0.209628
0.0009217975 0.103367075 0.1900303 0.24630019 0.32689965 0.25263363 0.17148499 0.057496205
0.11561687 -0.30829462 0.20320548 0.08109941 0.1495316 0.23885475 0.20444193 0.013596037
0.01429566 -0.11430812 -0.0027324867 -0.06616033 0.10145385 0.22147232 0.10639007 0.34098193
-0.10666499 -0.58945376 -1.3689936 -0.010559908 -0.55740726 0.046988986 -0.12893865 -0.5508525
0.19775355 -0.42655724 -0.07110342 -0.36851737 -0.28671014 0.13318062 -0.2736034 0.112102844
-0.33200836 0.06971835 -0.10603926 0.027848808 0.15859126 -0.013021608 0.0056615644 -0.02476347
0.021100044 0.1261222 -0.2775649 -0.9948312 -0.15124454 0.014982529 0.21657038 0.027540397
-0.54747885 0.15238513 0.0065490617 0.04686478 -0.017894924 0.066157304 -0.6549192 -0.15430856
0.2593653 -0.15620783 0.102784954 -0.2556928 0.047123786 -0.07324682 -0.071454175 0.05712507
-0.15203892 -0.06810114 0.25807464 0.18771172 -0.10485715 -0.5287969 -0.33257866 0.1515694
0.0020492957 -0.1861746 -0.32112598 -0.32611805 0.1612803 -0.13320848 0.038988724 0.011906892

fc1.bias f4 [64]
00000000: 40b5 103d 1d7b edbd be5f 45be 7b82 1dbd
00000010: 4608 d33e cb11 92bd 8ba8 42bd 6718 173d
00000020: 9f2e 0e3d 009d 18be 0f41 313e c8b7 8a3e
00000030: 6113 a33e 4aa5 e13d 5e86 dcbc ec4c 99bd
00000040: adc9 14bb 63f8 253c 08bb 5fbd f656 20be
00000050: af77 f5bc 6a47 653d 2c8b b73c e988 85bd
00000060: 2af6 d1bd 3589 303d 22e7 063d 8abc 18be
00000070: 9125 2f3e 3cbf 403e 1ffd 85bd ec4e 82bd
00000080: 510c a13d 10f0 513d 2f77 1cbe 59f6 2fbd
00000090: fd4d 04bc dd2e c23c f081 4e3c 4c19 d1bd
000000a0: 8ee0 81bd 272b 863b b360 3ebe c240 6d3d
000000b0: 174e 4cbd 74ec 35bd 4281 41bd f53b 85bd
000000c0: a516 bdbd b7a6 22bd ef6b 3cbe cbc3 203e
000000d0: 3a7f acbd a640 06be 1425 f7bd d119 a5bd
000000e0: 9028 593d 39f5 a7bd 8de1 07be 9cd3 e9bd
000000f0: 36fc 113d 285f 0e3d 631b 98bc dcaf 973d
0.035329103 -0.115957476 -0.19274804 -0.038454514 0.4121725 -0.071323 -0.047524016 0.036888506
0.03471243 -0.14903641 0.17309974 0.2709334 0.31850722 0.110178545 -0.02691954 -0.07485375
-0.0022703216 0.010130021 -0.054621726 -0.15658173 -0.029964296 0.05597631 0.02240523 -0.06520254
-0.1025203 0.0430996 0.03293527 -0.14915672 0.17104174 0.1882295 -0.0654242 -0.063627094
0.07863677 0.051254332 -0.1527984 -0.042959545 -0.0080752345 0.023703987 0.012604222 -0.10209903
-0.063416585 0.0040944996 -0.18591575 0.057923086 -0.04987916 -0.044414952 -0.04724241 -0.065055765
-0.09232835 -0.039709773 -0.18400548 0.15699689 -0.08422704 -0.13110599 -0.12067619 -0.08061565
0.0530172 -0.082010694 -0.13269635 -0.114173144 0.035640918 0.034758717 -0.018567747 0.074065894

fc2.weight f4 [64, 64]
00000000: b8bd f0be 34e8 cc3d 70de 8b3e b7a0 fb3d
00000010: f6a8 7b3d 9ab2 1b3d cdc7 29be bf04 593e
00000020: c8ee a13d c086 abbd 7d6f babd 4e48 7c3d
00000030: 0556 34be 8b30 7b3e 61de c1bb cad8 383e
00000040: 6f34 f9bd 4d6d 77bd 3ceb 55be 187f 0dbe
00000050: f7e1 ae3d c256 873e bd60 9fbc 5d93 843d
00000060: 53a4 aa3d 15df 0f3e 31f8 043e 3e42 c73d
00000070: 7d16 67be ca89 513e b06d ac3e d4d4 86be
00000080: 4d2c f03d c232 d13d 4bf2 893c 7cd1 13be
00000090: fd10 2e3e cf82 083e 3d3a c23e 7d1b ad3c
000000a0: 67d7 12bd ba9f a33d 8289 373e c1f4 00be
000000b0: 82c5 a2bd 98f7 59bd a437 01bd 0ff2 7e3e
000000c0: c449 2ebc db2b e2bc c632 e13b ac87 d23b
000000d0: fec9 71be 38e5 743d e141 eabe fa13 173e
000000e0: 1348 113e 94b2 2b3e afac 093e 5bd6 59be
000000f0: 4eb5 413d 3675 1f3e be7d d1bc d10d 92bd
00000100: 7f0e 1cbd 68ab ccbc 599e 953e b9cc 75be
00000110: 9c70 223d 72e6 ab3d ff9c 3c3e 4a69 d03e
00000120: f5ab 72be d0fb 193e 534e a3be af0c f73e
00000130: b3e1 aebe 8c17 c3be 58dc b3bd 27a2 c0bd
00000140: 4070 86bd 6b9a 8dbe ff4f 683d aaba bfbc
00000150: dd27 ba3d 4462 21bd af34 80bd ad0b 39bd
00000160: 965c 303e 0528 8b3d bcd0 083d 04b5 36be
00000170: 804e f83d 2dfc a33d e5e2 b93e 7d2e f93d
00000180: c63c 923d db3b 2abd 4bfe 27bd f99b 893e
00000190: ea0f 213c 30f6 08be 494e 25bf e8c9 71be
000001a0: eeb6 533d 55b6 9e3e 9b2b 1bbe 39b1 6a3c
000001b0: 5774 f5b9 209d 973e 67bc e9bd d59d a9be
000001c0: 6e25 333d 0a5e 80bb 3d2f 1d3e 9a16 193e
000001d0: 2f8c 853d 2782 7a3c 7b94 d33e 8de3 84be
000001e0: 2a71 febe f11a e4bb df2b 64bd 9ab8 9f3d
000001f0: eb13 27be 2e6b eabd 8246 93be 34ff 25be
00000200: ae27 89be 8dc2 94be fa2c 8abe e6ca 0dbe
00000210: eab8 173e 3b12 473c aa50 13bf 1a44 fdbd
00000220: feb2 8c3e 3a70 43bd ae81 97be b4af 84be
00000230: bac5 84be 049f 803d ec4c 103f 63bf 863e
00000240: ad0f a33d e907 433d 3aa8 883e 8a83 d9be
00000250: 7c59 29bf 7ec4 21be d391 c5bd d136 db3d
00000260: 0370 03bf 8d7f 833e b446 d6be e26f 163d
00000270: 4d09 22bf 87ea 10be 2cb6 47be dcfd 0b3e
00000280: 42ac 37be 2beb 053e b658 53be c352 8dbe
00000290: ce97 4f3e 2f2a 183e f887 7bbe 794d e8be
000002a0: a90f a83d 0786 d0be c93f eabd c620 92bd
000002b0: b643 5bbe edcc 9fbe 7105 0c3e 799a 15bf
000002c0: 0391 1fbd a6b7 33bd a46c d8be 98cf 4cbe
000002d0: f1c7 fcbe 6ddd 393e a6b7 bfbe 4f37 bfbe
000002e0: 0f40 c8be 0723 8bbe fb7a b5bd 610f 2d3e
000002f0: 9997 50be 454b ffbe ad9f 373c 766c 07be
00000300: dc7d af3d c317 bbbe c168 3ebe d4e1 7ebf
00000310: facb 903c 6a7a 5bbf e34c 1bbf 2167 0b3e
00000320: 93b7 75be f5aa 81be fa68 83bd abaa 913e
00000330: 8234 35be ec4e 0d3e 1725 45bd eac4 983d
00000340: 43fc a3bd dc94 19be 4698 0bbf 721f c3bd
00000350: 6bb1 ab3e d045 a13b f430 a5be f792 d5be
00000360: 7d04 fbbd db9b b3bd cbd5 4b3e 39f2 80be
00000370: dde7 a33e 05c6 08bf 8bb1 d93e ca99 33bf
00000380: eb4b ec3d 5b2e 7d3d 3c08 a4be 0b94 c8be
00000390: d8fb f9bd 0164 03bd 3dde de3c 66a0 efbe
000003a0: 8774 55bd e506 863e 7391 df3e ad7d a8bd
000003b0: b12a 9fbe 7eb0 67bd d823 393d a819 c0be
000003c0: cecd e4be 21e1 aa3b 1eab 18bf 8305 41be
000003d0: 1b50 733e 57cc a93e c942 45be 9780 23be
000003e0: 8807 593d 037b 06bf f775 a9be f5bd 363d
000003f0: 7808 3bbf 9745 fe3e f4f0 8bbe 9c76 e1be
-0.47019744 0.10005227 0.27318144 0.12286513 0.06144043 0.038012125 -0.16580124 0.21193217
0.07906872 -0.08375311 -0.09103296 0.061592393 -0.17610939 0.24530236 -0.005916402 0.18051448
-0.12168204 -0.06040697 -0.20890516 -0.13818014 0.08539193 0.26433378 -0.019455308 0.0647342
0.083321236 0.14049943 0.12985303 0.097294316 -0.22567172 0.20462719 0.33677435 -0.2633425
0.117272 0.102147594 0.016839167 -0.1443538 0.16998668 0.1333115 0.37935057 0.021131271
-0.035849955 0.0798945 0.17923549 -0.12593366 -0.07947828 -0.05321464 -0.031547204 0.24897026
-0.010637704 -0.027608803 0.0068725077 0.0064248648 -0.2361221 0.059788913 -0.45753387 0.14753714
0.1418765 0.16767341 0.1344478 -0.21273176 0.047292046 0.15572056 -0.025572654 -0.071315415
-0.038099762 -0.024984077 0.29222372 -0.24003877 0.039658174 0.08393563 0.18419264 0.4070533
-0.23698409 0.15037465 -0.31895694 0.48251864 -0.3415657 -0.38103902 -0.087822616 -0.09405928
-0.06564379 -0.27656874 0.056716915 -0.023404438 0.090896346 -0.039400354 -0.062600486 -0.04517715
0.17222819 0.067947425 0.03340219 -0.1784249 0.12124348 0.08007083 0.3630592 0.1216707
0.07140498 -0.04156099 -0.041013997 0.2687681 0.009830454 -0.13375163 -0.6457258 -0.23612177
0.051688127 0.30998483 -0.15153353 0.01432448 -0.0004681672 0.29612064 -0.11412888 -0.3312823
0.043736868 -0.0039174603 0.15350051 0.14950028 0.065208785 0.01528982 0.4132422 -0.25954857
-0.49695712 -0.0069612195 -0.0557059 0.07798882 -0.16316192 -0.11446224 -0.2876473 -0.16210634
-0.26788086 -0.2905468 -0.2698744 -0.13846931 0.14816633 0.012150343 -0.5754496 -0.12366505
0.2748031 -0.04771445 -0.29591125 -0.259153 -0.25932103 0.0628033 0.56367373 0.2631789
0.07961974 0.047614966 0.26690847 -0.4248317 -0.6615217 -0.15797612 -0.096469544 0.10703815
-0.5134279 0.2568325 -0.41850817 0.036727794 -0.6329544 -0.14151965 -0.19503087 0.13671058
-0.17936805 0.1307799 -0.2063931 -0.27602205 0.20272753 0.14859842 -0.24563587 -0.45371607
0.08206112 -0.40727255 -0.11437947 -0.07135157 -0.21412548 -0.31211033 0.1367395 -0.5843883
-0.038956653 -0.043876313 -0.42270386 -0.20001066 -0.49371293 0.18150873 -0.374448 -0.37346885
-0.39111373 -0.2717516 -0.08861347 0.16900398 -0.2037033 -0.49862114 0.011207503 -0.13224968
0.08568928 -0.36541566 -0.18594648 -0.99563336 0.017675389 -0.85733664 -0.60664195 0.1361356
-0.2399581 -0.25325742 -0.06416507 0.28450522 -0.17695811 0.13799638 -0.048131075 0.074594334
-0.080070995 -0.14998192 -0.54529226 -0.09527482 0.33533797 0.0049216524 -0.3226391 -0.41713688
-0.122567154 -0.087699614 0.19905774 -0.251848 0.32012835 -0.53427154 0.42518267 -0.7015654
0.11537918 0.061811786 -0.32037532 -0.39175448 -0.122062385 -0.032077793 0.02720558 -0.46802062
-0.052113082 0.26177135 0.43665656 -0.08227096 -0.31087258 -0.0565648 0.0452002 -0.37519574
-0.44688267 0.0052148257 -0.59636104 -0.18849759 0.23761027 0.3316371 -0.19263758 -0.15967022
0.052985698 -0.5253145 -0.33097813 0.04461475 -0.730598 0.49662468 -0.2733227 -0.44035804

fc2.bias f4 [64]
00000000: 3cf0 22be a3fa dcbc b836 2e3d 0209 4cbd
00000010: f48a 3e3e 1781 98be 2bc4 eb3c cfe0 26be
00000020: e6c3 603c 54df 323f 2ca6 c7bd 92ba ba3e
00000030: 8b46 893d 81ec 21be d489 1d3e 9c33 773d
00000040: 25ba 163e 3cfe 32be 4b20 34be 8b1e 813e
00000050: e744 c13c d1d6 4e3f 95e9 4ebe 1cb1 96bd
00000060: f872 c1bd 89b1 85be ea01 663d 910d b0bc
00000070: ad9a dabc 7f47 3f3d b97c ea3c 9c6c cabc
00000080: 2739 9bbc 7765 313b 0d98 3f3d 0c47 61bd
00000090: 47eb c03d 1cbc 82bc e0ef 093f ba45 34be
000000a0: ded8 13bd d338 493f ba31 333f 88f1 31bd
000000b0: e62a 023e fbba 3fbd 0c5a c13d 6cc9 143d
000000c0: 7a29 e03b 4ccf 90bd ed58 c23d 1819 2a3f
000000d0: 8fa1 7cbb 42fc 913b f51a 21be 84d0 a4be
000000e0: d5dc 50be fe90 a1bd 23fd b2bd d458 94be
000000f0: f63d bebd 8e18 f83d 300a b13d 3273 a33d
-0.15911955 -0.026974982 0.042532653 -0.049813278 0.18607694 -0.29785988 0.028780064 -0.16296695
0.013718581 0.6987202 -0.09748492 0.36470467 0.06702908 -0.15812875 0.15384609 0.060351953
0.14719446 -0.17479795 -0.17590444 0.25218615 0.023592426 0.80796534 -0.20206292 -0.07358
-0.09445757 -0.2611201 0.05615417 -0.021490844 -0.026685083 0.046699043 0.028623926 -0.024709992
-0.01894815 0.0027068534 0.046775866 -0.054999396 0.094198756 -0.015958838 0.53881645 -0.17604724
-0.036095493 0.7860233 0.6999775 -0.043443233 0.12711677 -0.046809178 0.09441003 0.036324903
0.006840882 -0.07070789 0.094896175 0.6644454 -0.0038548445 0.0044551203 -0.1573294 -0.32190335
-0.2039674 -0.07888983 -0.08739688 -0.2897402 -0.09289162 0.121140584 0.08644521 0.07980956

fc3.weight f4 [4, 64]
00000000: e586 63be 269b 8f3e d87f 33be 6546 09bf
00000010: c6a7 923e be1f 26be 39d6 6bbc 4cb3 2abe
00000020: 3d5e dc3d 11e6 7a3e 6c1b 92bd 1765 cb3e
00000030: 65f7 043f d79e 4a3e 9717 543e 1921 1a3d
00000040: daa6 2dbf 7605 75be eb76 04bf 1e59 7f3e
00000050: 34bd cd3e 6946 8e3e 9e91 99be 5135 d7bd
00000060: d35f 96be 5523 91bd 5975 b13e 4b6d a53d
00000070: f599 b0bd a65a c53e b14f 48bf 6369 df3e
00000080: 74c3 033e 303b 73be 72fb af3e 4891 143f
00000090: ff52 3d3e bc8c b43e cfc5 733e 1da5 2cbe
000000a0: ede4 613e 9061 763e 6d08 553e 85e1 4f3e
000000b0: 1d21 ce3d 8484 09be be7b 123e 038e f53d
000000c0: fc20 57bd 96ed 193e ce68 bc3d 3933 af3e
000000d0: e142 f83d 9f54 0bbe 2372 1bbe 5b05 d9bd
000000e0: 04c9 e6be f022 c5bd 8bfb 92be 08d0 0bbd
000000f0: f030 a9be 8f41 96ba 63bf d43c 764a c93c
00000100: 45e1 43be f81b 7c3e 5af2 263e 9cd6 b1be
00000110: 50a9 8e3e dfd6 9abe be14 493e 3f40 ab3c
00000120: fa0d b0bd 390e 7a3e 8b65 27be 3d0a cd3e
00000130: 313b 033f 8137 5abe a946 7d3e af34 8d39
00000140: 7af2 e9bc a134 5dbe 979c 56bf f523 873e
00000150: 908e 9d3e 88e8 8b3e 9aa1 5b3d 6e11 19bd
00000160: ed24 623e c6e7 e5bd a013 0b3f 30e1 503e
00000170: 5686 7a3e 34a2 5f3e e8bf 383e e90e 993e
00000180: 0709 353e c6ae 4bbe 5931 803e 58e1 e93e
00000190: 04e6 383e 3580 a23e de42 523e 7974 c9bd
000001a0: d64b 1c3e 7a9f 703e ba5d 353e ea97 073e
000001b0: 58d1 2e3e ace7 16be 4234 263e 3ce1 363e
000001c0: 4c8d 1dbd 29a0 453e ff65 113e c200 943e
000001d0: e513 f73e b7dd 14bc 69d9 a5bd a222 ebbd
000001e0: 6f03 90be 00f6 85be b114 00be 46b9 c0bd
000001f0: b364 dfbe 96dc 7f3e 0db5 7d3d a74e 553d
00000200: 05dc 083d a257 ac3e 87f1 383e f883 30be
00000210: 5e2e b73e c456 5bbe 1615 6d3d f1c4 c73d
00000220: 1e7b 32be 60fb 133e 8943 bbbd 5795 993d
00000230: e566 e33e 8c4c 98be 8c72 123e b5e2 a33e
00000240: 8585 3d3e 9a2e 9cbe 1174 0a3d d271 c43d
00000250: 2a16 35bd 0d35 9b3e 16b6 d9be 56bf 7b3e
00000260: e859 c93e cc15 d7bd 7acb 8abe dc11 a43d
00000270: a1a6 f0be 1575 b73e 8388 c5bd 0dcc a63d
00000280: 4ce8 5dbd 7c1f f1be 5090 3e3e e617 ba3e
00000290: c23d aa3d 27dd cf3d b312 823e 6d55 21bd
000002a0: a0f7 0d3f a1f7 743e b1fa 8d3e 3258 da3d
000002b0: 8982 8abc 7a71 38be 587c 773e e709 a73e
000002c0: 9fc1 ba3e 7c3e 9c3e 49bd db3c 167a b53e
000002d0: 9e8f bcbd aab7 283e 2190 333d 6587 7a3e
000002e0: 49e8 7bbe 97e7 4a3c 2b6e 8abe 9435 68bd
000002f0: e4ea cdbe cf23 793e 6a16 11bf 35cb 9a3e
00000300: 6d28 bf3b b1c7 a23e 1013 46be 04af 41bf
00000310: fddd 2a3e d566 2dbe 3d18 0a3e 7fe0 8fbd
00000320: fbb2 7a3e f986 883e 807c 383e eb1a 3ebc
00000330: d09c c43e 2638 e7bd c1f6 3b3e 36b0 e63d
00000340: 5b44 e83e a1b8 e03d 3bba 9f3e 7b9b 583e
00000350: f607 a83e 856f 723e 627e 63be af6e 513e
00000360: 5278 bfbe a6c4 8fbe d394 ee3e b33d c03e
00000370: cb8f d93e fb17 bbbd 2caf 14be 2e0d 743e
00000380: 5e23 3d3e 8aac 41bc 97b7 0c3c f1a9 8b3e
00000390: cac6 9a3c 9fe3 833e 96dc 883e dc7d d2bd
000003a0: 56cf 2f3e cbf2 8e3e aa76 673e 75ae 52bd
000003b0: 0eb1 983e cbb6 93be c831 b93d 4fa9 5f3e
000003c0: fc14 773b a5f2 f33d ea71 813e 467c af3e
000003d0: 18ba 12bf 67c1 0a3e aac3 cf3e 2078 a6bc
000003e0: 1121 04be f7ac f2be 9f59 2abe 4351 eabe
000003f0: 4d22 28be 34a2 c53e 13a4 ffbe ff1c 97be
-0.22219427 0.28048056 -0.17529237 -0.5362304 0.28643626 -0.16223046 -0.014394336 -0.16669959
0.10760162 0.24501826 -0.071341366 0.39725563 0.51939994 0.19787155 0.20712124 0.03762922
-0.6783272 -0.23927864 -0.51743954 0.2493634 0.40183413 0.27788094 -0.2999391 -0.10508216
-0.29369983 -0.07086817 0.34659842 0.080774866 -0.08623115 0.38545722 -0.782466 0.4363509
0.12867528 -0.23753047 0.34371525 0.5803418 0.18488692 0.35263622 0.23805927 -0.1685986
0.22059985 0.24060655 0.20803995 0.20300873 0.100649096 -0.13429457 0.14305016 0.11989977
-0.05252169 0.15032038 0.091996774 0.34218767 0.12122131 -0.13606499 -0.15180258 -0.105967246
-0.45075238 -0.096258044 -0.28707537 -0.03413394 -0.3304515 -0.001146363 0.025970167 0.024571639
-0.19128902 0.24620044 0.16303387 -0.34734046 0.2786355 -0.3024206 0.19636819 0.020904658
-0.08596416 0.24419488 -0.1634733 0.40046874 0.51262194 -0.21310236 0.24733986 0.00026932868
-0.028558005 -0.21602108 -0.8383269 0.2639462 0.3077283 0.27325845 0.053620912 -0.037370138
0.22084399 -0.11225848 0.5432682 0.20398402 0.24465308 0.2183922 0.18041956 0.29894188
0.17679225 -0.1989089 0.2503765 0.45679736 0.18056494 0.3173844 0.2053332 -0.098366685
0.15263304 0.23498335 0.17711535 0.13241544 0.17072046 -0.14736813 0.16230872 0.17859358
-0.03846483 0.19299378 0.14199065 0.28906828 0.48257366 -0.009086064 -0.08098108 -0.11481215
-0.2812762 -0.26164246 -0.12507893 -0.09410338 -0.43631515 0.2498649 0.06194024 0.05207696
0.033412952 0.3366061 0.18060885 -0.17237842 0.35777563 -0.21419817 0.057881437 0.097543605
-0.17429778 0.1445136 -0.09143741 0.074991874 0.4441444 -0.297459 0.14301509 0.320089
0.18507965 -0.30504304 0.033802096 0.09592022 -0.04421059 0.30313912 -0.42521733 0.24584708
0.39326406 -0.10502204 -0.27108365 0.08011219 -0.47002128 0.35831514 -0.09645178 0.08144388
-0.054176614 -0.47094333 0.18609738 0.36346358 0.083125606 0.10149603 0.2540489 -0.03938811
0.5545597 0.23922588 0.27730325 0.10661353 -0.016907947 -0.18012038 0.24168527 0.32624742
0.36475846 0.30516422 0.026823657 0.35444707 -0.0920708 0.16476312 0.043838624 0.24465711
-0.24600329 0.012384317 -0.27037176 -0.05669172 -0.4021827 0.24330066 -0.56674826 0.3023316
0.0058336766 0.31792977 -0.1934321 -0.7565768 0.16686244 -0.16933759 0.13485809 -0.07025241
0.24482338 0.26665476 0.18016243 -0.011603097 0.38400888 -0.11290006 0.18355848 0.11264078
0.4536465 0.10972715 0.3119677 0.21153061 0.32818574 0.23675354 -0.2221618 0.20452379
-0.37396485 -0.28079718 0.4659792 0.37547073 0.42492518 -0.09135433 -0.14519948 0.23833153
0.18470523 -0.011820922 0.008588693 0.27278093 0.018893618 0.257596 0.26730794 -0.10277912
0.17168936 0.2791961 0.2260386 -0.051435906 0.29822582 -0.28850397 0.09042698 0.2184193
0.0037701717 0.11911515 0.25282222 0.342745 -0.57315207 0.1355034 0.40578967 -0.020320952
-0.12903239 -0.47397587 -0.1663575 -0.45765123 -0.16419335 0.38600314 -0.49929866 -0.2951431

fc3.bias f4 [4]
00000000: 0c41 013f a3ec e53e 3552 cf3e 6f61 a73e
0.5048988 0.44907102 0.40492406 0.32691523
