navigation/checkpoint.pth (torch_old, 28417 bytes, 6 tensors)

fc1.weight f4 [64, 37]
0.15336925 -0.16334875 0.12439056 -0.3062678 -0.007976624 -0.17962396 0.22873741 0.22399552
-0.06288761 -0.29799977 0.04675581 -0.089142375 -0.078108065 -0.12857997 -0.09687637 0.10232892
-0.0016323931 0.19730446 0.020832198 -0.07142519 0.18383396 0.08833939 0.06626348 0.06306051
-0.30105212 0.0048518134 0.2536668 -0.21363965 0.046401557 0.03265627 -0.10755852 0.20366569
-0.011515515 0.015348587 -0.058006607 -0.06199562 -0.12194767 0.2505377 -0.00400815 0.12107518
0.1608922 -0.34587634 0.017569082 -0.19322512 0.13066794 -0.08515214 -0.18084013 0.14910032
-0.021765966 0.059226364 0.0032139865 -0.3966858 0.14987485 0.11571645 0.06909867 0.1236154
-9.568202e-05 -0.093936816 -0.03389725 0.007788078 0.121978536 0.1871657 -0.00997587 0.03549909
-0.008688544 0.38213438 0.4091521 0.09510746 0.18716827 0.1458695 0.026874276 -0.33166763
0.019269474 -0.014154286 0.11228863 0.113298304 0.15380111 0.15077108 0.044082884 -0.063605525
0.050958447 0.093826436 0.11625027 0.02267485 0.46003893 -0.4675965 -0.6631025 -0.48728484
-2.384758 0.013002515 0.08002991 0.11483574 0.12749882 0.07972096 -0.113619715 -0.09208217
-0.013795961 0.12351938 0.2447303 0.0943277 0.061912227 0.09891043 0.14172295 -0.011115524
-0.047964722 -0.065471 -0.08395341 -0.024510808 0.007856623 0.04845617 0.0051126345 -0.2640547
0.18637633 0.10791255 0.112006105 -0.9543771 0.06779215 -0.050437987 -0.31293306 0.15620062
-0.8818428 0.18046094 -0.3016056 -0.08809119 -0.55843323 -0.81852627 -0.06406078 0.001393391
0.11180773 -0.27859628 -0.78810704 0.07228964 -0.391817 -0.07760577 -0.07535238 -0.9955685
-0.29068667 -0.13767633 0.120324865 0.19150253 -1.0679905 0.17641103 -0.02800829 -0.3824371
0.14692508 -1.8293645 0.10228687 0.019858114 -0.13212802 -0.013863577 -0.09157544 0.030266391
0.030442541 0.5010318 -0.6123669 -0.48154235 -0.7458975 -2.1298134 0.023700483 0.055352483
-0.0045849886 -0.01180644 0.0025850108 -0.06055396 0.0078690415 0.036152147 0.21329987 0.17864189
-0.08668636 0.09915746 0.056523405 0.20455757 0.23480874 0.17176597 0.14086775 0.015025985
0.07420657 -0.091048814 0.16644669 -0.015458588 0.06469257 0.18208712 0.20506775 0.005383983
0.0014430373 -0.058265995 -0.03410592 0.078890905 -0.29090193 0.048328526 0.31123763 -0.29052332
-0.32497522 -0.18853234 -0.50848645 -0.05804123 -0.06308736 -0.019131621 -0.1058537 0.09966285
-0.0644971 0.072356 -0.16894165 0.08757626 -0.07371248 0.06028455 0.13328816 -0.14919166
0.18817131 -0.1921082 -0.121714175 -0.10526693 0.11257012 0.06596237 0.025559256 -0.09079095
-0.2298866 0.046198916 0.18999574 -0.09154424 0.21877426 0.024133185 0.009482486 0.10966709
-0.27002168 0.18701175 -0.17177263 -0.13586135 -0.18752931 0.019006653 0.2638775 0.048082944
-0.03174774 0.18185988 0.04852425 0.13738638 -0.021775367 -0.094461724 0.0081168525 -0.09701881
0.17793831 0.1302347 0.11568199 -0.14684317 -0.06889937 -0.022468267 0.038525015 -0.13166596
0.011707067 -0.16768551 0.13314848 0.19437759 0.06086348 0.118384436 0.05498924 -0.06174521
00000000: d40c 1d3e e544 27be 7ac0 fe3d 22cf 9cbe
00000010: 63b0 02bc 58ef 37be 243a 6a3e 155f 653e
00000020: 38cb 80bd 6d93 98be 0583 3f3d 4790 b6bd
00000030: 1ff7 9fbd 78aa 03be 1e67 c6bd d391 d13d
00000040: 06f6 d5ba 2e0a 4a3e 49a8 aa3c 5f47 92bd
00000050: f83e 3c3e 48eb b43d 26b5 873d de25 813d
00000060: 8123 9abe f6fb 9e3b 9de0 813e 5ac4 5abe
00000070: 8f0f 3e3d 95c2 053d a447 dcbd bd8d 503e
00000080: 92ab 3cbc a478 7b3c 5698 6dbd 1fef 7dbd
00000090: b3bf f9bd 7a46 803e cd56 83bb 44f6 f73d
000000a0: edc0 243e b416 b1be 09ed 8f3c cedc 45be
000000b0: d1cd 053e 3f64 aebd 282e 39be c1ad 183e
000000c0: 8a4e b2bc 5897 723d bfa1 523b 671a cbbe
000000d0: cb78 193e bffc ec3d 9a83 8d3d 122a fd3d
000000e0: e5a8 c8b8 f261 c0bd d8d7 0abd 2233 ff3b
000000f0: e2cf f93d 5ea8 3f3e d571 23bc 7e67 113d
00000100: 655a 0ebc 1ea7 c33e 627c d13e b3c7 c23d
00000110: 0aa9 3f3e d05e 153e 7127 dc3c 57d0 a9be
00000120: 04db 9d3c 61e7 67bc 95f7 e53d f108 e83d
00000130: 0a7e 1d3e bc63 1a3e 4190 343d 9d43 82bd
00000140: ceb9 503d 1328 c03d 9f14 ee3d 9bc0 b93c
00000150: 398a eb3e cf68 efbe 16c1 29bf 667d f9be
00000160: e09f 18c0 8008 553c b9e6 a33d 002f eb3d
00000170: 0d8f 023e be44 a33d 74b1 e8bd 9495 bcbd
00000180: 7408 62bc bbf7 fc3d 949a 7a3e e22e c13d
00000190: ad97 7d3d 8d91 ca3d d21f 113e e31d 36bc
000001a0: a876 44bd a915 86bd c4ef abbd e4ca c8bc
000001b0: 11b9 003c fa79 463d e387 a73b 2d32 87be
000001c0: 70d9 3e3e 4101 dd3d 7563 e53d 0f52 74bf
000001d0: 9cd6 8a3d 1098 4ebd c338 a0be 0ef3 1f3e
000001e0: 73c0 61bf c1ca 383e 0d6c 9abe 2769 b4bd
000001f0: 7bf5 0ebf f08a 51bf 4c32 83bd 72a2 b63a
00000200: 73fb e43d 2ca4 8ebe 62c1 49bf 970c 943d
00000210: 3d9c c8be c6ef 9ebd 5952 9abd 94dd 7ebf
00000220: e2d4 94be 06fb 0cbe e26c f63d 3d19 443e
00000230: eab3 88bf 18a5 343e a471 e5bc ccce c3be
00000240: 8773 163e 9e28 eabf c77b d13d 7cad a23c
00000250: 914c 07be 0e24 63bc e78b bbbd 39f1 f73c
00000260: a362 f93c 9f43 003f 14c4 1cbf b88c f6be
00000270: 23f3 3ebf dd4e 08c0 8427 c23c 49b9 623d
00000280: ac3d 96bb cc6f 41bc 4969 293b 6e07 78bd
00000290: 27ed 003c 4614 143d 486b 5a3e e6ed 363e
000002a0: 9e88 b1bd 1113 cb3d 1685 673d 8a77 513e
000002b0: b471 703e 6be3 2f3e a33f 103e 8d2f 763c
000002c0: 9df9 973d cd77 babd 0071 2a3e 0446 7dbc
000002d0: 8a7d 843d 0c75 3a3e 48fd 513e 1f6c b03b
000002e0: 4c24 bd3a 53a8 6ebd a6b2 0bbd 8e91 a13d
000002f0: 19f1 94be 22f4 453d 8a5a 9f3e 79bf 94be
00000300: 2763 a6be 9f0e 41be 2b2c 02bf a4bc 6dbd
00000310: f233 81bd ebb9 9cbc d3c9 d8bd 091c cc3d
00000320: 0e17 84bd 622f 943d 0aff 2cbe 2f5b b33d
00000330: 92f6 96bd efec 763d b17c 083e b3c5 18be
00000340: fbaf 403e 03b8 44be 4845 f9bd 3096 d7bd
00000350: 2a8b e63d 4717 873d a561 d13c 9bf0 b9bd
00000360: 6567 6bbe 133b 3d3d 3e8e 423e 8c7b bbbd
00000370: 5c06 603e f5b2 c53c 6e5c 1b3c 2499 e03d
00000380: 4840 8abe 0280 3f3e 2ae5 2fbe 3d1f 0bbe
00000390: af07 40be d7b3 9b3c f41a 873e 9ff2 443d
000003a0: eb09 02bd 7a39 3a3e 5dc1 463d 04af 0c3e
000003b0: 4162 b2bc 2675 c1bd 8cfc 043c ccb1 c6bd
000003c0: 7635 363e 3f5c 053e aeea ec3d 0e5e 16be
000003d0: 1d1b 8dbd 5f0f b8bc 68cc 1d3d 71d3 06be
000003e0: ffce 3f3c c0b5 2bbe 1358 083e eb0a 473e
000003f0: fc4b 793d 8a73 f23d 663c 613d 8ce8 7cbd

fc1.bias f4 [64]
0.09387104 0.076053426 -0.091466874 -0.04235795 0.2743515 -0.12295015 -0.09157335 -0.04138087
0.08340697 -0.21852429 0.3355617 0.25689933 0.10611588 0.1245765 -0.17027774 -0.16577007
0.13939317 0.05281778 0.14368303 -0.19648364 -0.06166884 0.11763355 0.202964 -0.06767121
-0.1901474 0.10590756 0.037770025 -0.18522656 0.20846571 0.14698888 -0.034089588 -0.13891062
0.23976023 0.08390292 -0.23361441 0.090379916 -0.053922977 -0.04416499 -0.07085265 -0.26277757
-0.1655651 -0.037715264 -0.09094356 0.15048482 0.09116297 -0.038076337 -0.021103775 -0.14973418
-0.17171058 0.14385325 -0.14149788 0.11380575 0.14981319 -0.16228312 -0.21085715 0.010698762
0.111554354 0.052447703 -0.052394375 -0.0034878193 0.022067556 -0.051697683 0.03178998 0.026998544
00000000: 763f c03d e6c1 9b3d fc52 bbbd 887f 2dbd
00000010: cd77 8c3e 4acd fbbd cf8a bbbd fd7e 29bd
00000020: 46d1 aa3d d5c4 5fbe bece ab3e 4f88 833e
00000030: 4853 d93d f721 ff3d 4a5d 2ebe a1bf 29be
00000040: 15bd 0e3e 7557 583d a521 133e 0233 49be
00000050: 7798 7cbd dce9 f03d cbd5 4f3e 3497 8abd
00000060: 00b6 42be 10e6 d83d beb4 1a3d 08ac 3dbe
00000070: 0978 553e 4184 163e 86a1 0bbd 963e 0ebe
00000080: b583 753e 4bd5 ab3d 9e38 6fbe 1b19 b93d
00000090: 57de 5cbd 59e6 34bd 321b 91bd c88a 86be
000000a0: e689 29be 527b 1abd 9e40 babd b118 1a3e
000000b0: a7b3 ba3d eff5 1bbd d3e1 acbc eb53 19be
000000c0: e6d4 2fbe 444e 133e d2e4 10be fd12 e93d
000000d0: a168 193e 8c2d 26be f0ea 57be dc49 2f3c
000000e0: 9c76 e43d 67d3 563d 7c9b 56bd e693 64bb
000000f0: 05c7 b43c f3c0 53bd 3636 023d 0d2c dd3c

fc2.weight f4 [64, 64]
-0.0075925617 0.08140607 0.058996655 -0.18350588 0.24646235 -0.62974703 0.04100435 -0.12417349
0.042848513 0.061127603 0.07258812 0.09454162 -0.32678878 0.25856265 -0.25421837 -0.49474403
-0.5673377 -0.46218684 -0.111311235 0.012040318 -0.1784331 -0.1566851 0.14997005 -0.2071813
-0.4183387 -0.15842555 -0.09909183 0.053898282 0.043359756 -0.31174558 0.20908579 -0.120829575
0.05498288 -0.14837578 -0.53816164 -0.44963092 -0.21187748 -0.012513095 -0.3945364 -0.3402125
-0.939562 -0.6120223 0.15899278 -0.53913414 -0.81894785 -0.030978454 -0.76758105 -0.037063576
-0.11775884 0.122842655 -0.5410594 -0.048315346 -0.38030705 -0.06470278 -0.4298819 -0.50679594
-0.29350433 -0.20239457 -0.67039335 0.02805267 -0.08883194 -0.00730427 -0.49035951 0.019312121
-0.1024794 0.028445981 -0.20776302 0.21273965 0.324634 0.058646936 -0.06949756 0.07934552
-0.19483057 -0.014683131 0.022202263 0.346342 -0.61563045 0.08280162 -0.024133326 -0.14749609
-0.03921072 0.27970034 -0.07351811 0.17617418 0.13585451 -0.30484003 0.06410514 0.13515177
-0.13108297 0.15958312 -0.32729825 -0.095866755 0.1408678 -0.063099496 -0.22538525 0.4644037
0.015362658 0.43912655 -0.05039718 0.12423501 0.05378654 -0.15545991 0.26365438 -0.09090631
0.059194814 0.11290567 0.25610128 -0.048042696 -0.03827796 -0.34470278 0.1077295 -0.14246327
-0.14980322 0.058514107 0.029863944 0.1120836 -0.117486134 0.18141802 0.08502307 0.03082247
-0.13457917 -0.04604914 0.13616335 0.015077126 -0.18366137 0.031759825 0.09160841 -0.08622856
0.048912786 0.26172394 0.6765773 0.2276609 -0.026829103 0.054303523 -0.14098814 -0.028355714
-0.4590342 -0.25856918 0.12161347 -0.27082217 0.13416211 0.04016285 0.21259369 0.16554046
-0.22095297 -0.1977605 -0.09992392 0.29450616 -0.095135204 -0.27311072 -0.073089555 -0.0381947
-0.085757844 0.45392126 -0.27456015 0.045595597 0.076362275 -0.048869655 0.66099006 0.096185744
0.026195126 -0.020506231 0.04811176 0.27864206 0.04255788 -0.0067794174 0.04320212 -0.13814735
-0.042710856 -0.21874906 -0.033648387 -0.16347316 -0.029544825 -0.029616404 -0.09602107 -0.016009897
0.18181434 -0.030351793 0.0814521 0.17483515 -0.08158944 0.5309285 -0.049305856 -0.010006584
-0.3901267 -0.11025088 -0.556683 0.28126094 -0.21205702 0.36113933 0.21245673 -0.023976315
-0.041308258 0.013305904 -0.04301324 0.47235647 -0.13950674 -0.23520337 -0.23321237 0.2101313
-0.34044838 -0.21524522 -0.15636708 -0.13880488 0.025053296 0.0039061124 0.10256023 -0.17136511
-0.17271046 -0.16272675 -0.04805094 -0.40220854 -0.121294506 0.25620162 -0.01821107 0.19133753
-0.15096955 -0.076456636 0.3586189 0.15147033 0.16262789 0.012423813 0.34597898 -0.07546604
-0.30412087 -0.37543935 -0.36779982 0.33989713 -0.12101741 0.19777572 0.06154946 -0.3183884
-0.48089415 0.145671 -0.10486966 -0.13576321 -0.07987849 0.4652649 0.07885091 0.3308039
0.2525304 0.37447518 -0.13101062 -0.0033837445 0.089837335 -0.23195651 -0.74399626 -0.0739194
-0.17805034 -0.06883278 -0.23118535 -0.38288236 -0.24030948 -0.03720283 -0.17119423 -0.13051446
00000000: 06cb f8bb 3ab8 a63d 7aa6 713d f7e8 3bbe
00000010: a060 7c3e 1a37 21bf 2df4 273d ac4e febd
00000020: ec81 2f3d f060 7a3d 15a9 943d 099f c13d
00000030: dc50 a7be 5362 843e e928 82be 174f fdbe
00000040: 0b3d 11bf c1a3 ecbe 25f7 e3bd c144 453c
00000050: 2bb7 36be 0f72 20be c091 193e 5627 54be
00000060: 7d30 d6be 4f3a 22be a8f0 cabd 72c4 5c3d
00000070: 009a 313d 1e9d 9fbe 961a 563e 7f75 f7bd
00000080: ba35 613d d2ef 17be f6c4 09bf 0636 e6be
00000090: 69f6 58be b903 4dbc ad00 cabe 5530 aebe
000000a0: 2387 70bf 7ead 1cbf 01cf 223e b204 0abf
000000b0: 91a6 51bf 87c6 fdbc 3180 44bf facf 17bd
000000c0: 8c2b f1bd ee94 fb3d de82 0abf 50e6 45bd
000000d0: 9bb7 c2be e482 84bd 7b19 dcbe 61bd 01bf
000000e0: 3346 96be 8640 4fbe e69e 2bbf b7ce e53c
000000f0: 85ed b5bd a858 efbb 6710 fbbe 7434 9e3c
00000100: b8e0 d1bd 8c07 e93c d4bf 54be 6cd8 593e
00000110: 6d36 a63e c537 703d bd54 8ebd e77f a23d
00000120: aa81 47be 8491 70bc 85e1 b53c bd53 b13e
00000130: f599 1dbf e593 a93d 41b3 c5bc 3709 17be
00000140: 6c9b 20bd e234 8f3e aa90 96bd 0167 343e
00000150: 721d 0b3e fe13 9cbe 8e49 833d 3a65 0a3e
00000160: 9d3a 06be c269 233e a393 a7be ca55 c4bd
00000170: a63f 103e 4f3a 81bd 64cb 66be 52c6 ed3e
00000180: a8b3 7b3c 32d5 e03e 466d 4ebd ed6e fe3d
00000190: 464f 5c3d e230 1fbe b5fd 863e 162d babd
000001a0: 4376 723d 173b e73d b51f 833e 6bc8 44bd
000001b0: 5ac9 1cbd e27c b0be 49a1 dc3d e4e1 11be
000001c0: 0466 19be 7dac 6f3d 3ba5 f43c 168c e53d
000001d0: 929c f0bd a5c5 393e 9320 ae3d 687f fc3c
000001e0: 1fcf 09be 069e 3cbd 686e 0b3e 0d06 773c
000001f0: ba11 3cbe 9716 023d 319d bb3d 9998 b0bd
00000200: c658 483d ae00 863e 2c34 2d3f f01f 693e
00000210: b5c8 dbbc 5f6d 5e3d 325f 10be 3e4a e8bc
00000220: 8806 ebbe 2e63 84be 7c10 f93d 34a9 8abe
00000230: cb61 093e cd81 243d 29b2 593e 7083 293e
00000240: 7f41 62be ba81 4abe eaa4 ccbd 83c9 963e
00000250: 3fd6 c2bd 2bd5 8bbe faaf 95bd 0c72 1cbd
00000260: cfa1 afbd 5e68 e83e 2693 8cbe 73c2 3a3d
00000270: d363 9c3d 8c2b 48bd a536 293f 08fd c43d
00000280: 2997 d63c affc a7bc d610 453d 2caa 8e3e
00000290: 2c51 2e3d e025 debb b5f4 303d 8076 0dbe
000002a0: 94f1 2ebd c1ff 5fbe e4d2 09bd 8265 27be
000002b0: fd07 f2bc 1a9e f2bc b2a6 c4bd 3027 83bc
000002c0: 8a2d 3a3e 53a4 f8bc 5cd0 a63d fc07 333e
000002d0: 5d18 a7bd eeea 073f f0f4 49bd a8f2 23bc
000002e0: b0be c7be 37cb e1bd c782 0ebf 6f01 903e
000002f0: 7a25 59be 41e7 b83e 428e 593e fa69 c4bc
00000300: d932 29bd 0201 5a3c a72e 30bd b5d8 f13e
00000310: dbda 0ebe 27d9 70be 39cf 6ebe a92c 573e
00000320: 404f aebe 3e69 5cbe b11e 20be de22 0ebe
00000330: 923c cd3c b1fd 7f3b 190b d23d 567a 2fbe
00000340: 03db 30be d7a1 26be 10d1 44bd 47ee cdbe
00000350: 4169 f8bd dc2c 833e 622f 95bc fced 433e
00000360: c397 1abe 4c95 9cbd e59c b73e 0a1b 1b3e
00000370: ed87 263e 408d 4b3c 2824 b13e f08d 9abd
00000380: bbb5 9bbe 9639 c0be 4250 bcbe ff06 ae3e
00000390: fad7 f7bd b885 4a3e 491b 7c3d ce03 a3be
000003a0: c237 f6be c72a 153e e8c5 d6bd 8305 0bbe
000003b0: 5597 a3bd 3337 ee3e 967c a13d 215f a93e
000003c0: aa4b 813e 36bb bf3e a627 06be d0c1 5dbb
000003d0: a3fc b73d 0286 6dbe 8a76 3ebf 0e63 97bd
000003e0: d452 36be 33f8 8cbd dabb 6cbe 2809 c4be
000003f0: b013 76be ff61 18bd 8a4d 2fbe 95a5 05be

fc2.bias f4 [64]
-0.00838229 0.12187319 0.12184538 -0.07762844 0.103967935 -0.13434197 0.013669554 -0.08003051
0.023799108 0.6456021 -0.022582848 0.3074674 0.40830126 -0.03139806 -0.10702202 0.26795116
-0.025982557 0.020462954 -0.02139505 0.0702646 0.43266562 0.50417084 -0.099523224 -0.081945695
-0.07510975 -0.25673488 -0.05084337 -0.014881748 0.036698785 0.08235445 0.08757015 0.35506263
-0.014814557 0.07455594 0.12012032 0.14701046 -0.1613057 -0.12856619 0.099560104 -0.11793058
-0.14945817 0.6837869 0.21091071 -0.104004376 0.099810906 -0.2373527 0.5235261 -0.024400644
-0.05897347 -0.013810592 -0.24936892 0.45636865 -0.061367318 -0.02387608 0.12537798 -0.18074685
-0.19545236 -0.13332343 0.02813747 -0.25180385 0.023791706 0.5414821 0.14164287 -0.12058141
00000000: df55 09bc a798 f93d 128a f93d a9fb 9ebd
00000010: 24ed d43d f190 09be 44f6 5f3c 09e7 a3bd
00000020: 59f6 c23c 2e46 253f aaff b8bc 5e6c 9d3e
00000030: dd0c d13e 419b 00bd 5c2e dbbd e530 893e
00000040: 5fd9 d4bc eda1 a73c ac44 afbc e3e6 8f3d
00000050: 5986 dd3e 5711 013f d5d2 cbbd 25d3 a7bd
00000060: 24d3 99bd c172 83be 2341 50bd 93d2 73bc
00000070: 7751 163d 73a9 a83d fb57 b33d c5ca b53e
00000080: c1b8 72bc c9b0 983d a401 f63d e989 163e
00000090: 522d 25be dba6 03be 2be6 cb3d 9785 f1bd
000000a0: 900b 19be a90c 2f3f faf8 573e 3f00 d5bd
000000b0: a969 cc3d 960c 73be ce05 063f dce3 c7bc
000000c0: 2a8e 71bd d245 62bc 915a 7fbe 27a9 e93e
000000d0: 4c5c 7bbd c597 c3bc 1663 003e b415 39be
000000e0: aa24 48be f085 08be 8d80 e63c 6fec 80be
000000f0: d3e6 c23c 929e 0a3f d40a 113e 63f3 f6bd

fc3.weight f4 [4, 64]
-0.18912992 0.20242935 0.08053996 -0.34174994 0.2866286 -0.12746666 0.17489877 -0.1789635
0.030722102 0.18362178 -0.2494625 0.15378316 0.14087501 -0.114668176 -0.05531665 0.033972807
-0.018872857 0.6888036 0.052366607 0.09998 0.11568591 0.15272868 -0.0345118 0.016938059
-0.554314 -0.10400281 -0.074919455 0.02945132 0.5439518 0.17289905 -0.13666542 0.15332139
0.24425946 0.1282456 0.039631736 0.28567162 0.1368224 0.17445494 0.21865194 0.23445985
0.08018756 0.19396394 0.06814569 -0.1172589 0.47698182 -0.15996681 0.21130233 0.4111297
-0.22353393 0.16675399 -0.15460782 0.23514327 -0.23381214 0.44877478 0.019843072 -0.26356742
-0.35947865 0.10024632 0.2907258 -0.29937807 -0.20863701 0.19525608 -0.1289609 -0.1340213
0.035935353 0.2112791 0.19021498 0.02952937 0.2966809 -0.61925566 0.12047129 -0.17988871
0.1392312 0.18289107 0.18633656 0.18793009 0.11457512 -0.27799612 -0.13194981 0.14174269
-0.11479445 0.48194733 0.044899307 0.07574837 0.2099366 0.19738589 -0.19699396 0.12031712
0.24476054 -0.11789541 -0.07162413 0.07977531 0.46307823 0.29258075 0.1523877 0.1269144
0.24763554 0.1328074 0.051035643 0.30155253 0.057874873 -0.42079583 0.23165797 0.37998328
0.118997455 0.19515434 0.010293689 -0.072849065 0.5277573 -0.05079517 0.20418812 0.12463074
-0.29661626 0.19401088 -0.2205741 0.20772524 0.41230577 0.5087706 -0.008443152 -0.11250422
-0.2547438 -0.1434707 0.31778163 -0.036571372 0.04226103 0.17419103 -0.011269646 -0.043116003
-0.5362615 0.1995942 0.35820368 -0.087866805 0.5050373 0.1530608 0.19621216 -0.06410694
0.01852966 0.22058861 -0.74996114 0.19500323 0.15279266 -0.35813004 -0.3031892 0.28771555
0.03141938 0.54642 -0.18344764 0.28914455 0.046523236 0.3272974 -0.6836173 0.28909913
-0.27331778 -0.016425794 0.1565614 0.35066846 0.430938 0.41528925 -0.31473213 0.041027818
0.17456758 0.24125607 0.15562361 0.3469454 -0.04229207 0.4081689 0.026941564 -0.19504769
0.041407768 0.23624502 0.095989875 0.024748474 0.42466822 0.005755899 0.1889571 -0.12422394
0.12417204 0.030837238 -0.22184859 0.23005112 -0.55464584 0.059792962 0.03769272 -0.35563505
-0.21408111 0.0029032223 0.34424636 -0.15368062 -0.35667035 0.17543349 -0.092503056 -0.39594066
0.11162909 0.041202568 0.2288922 -0.4185957 0.1379272 0.044486247 -0.6309765 -0.07909631
0.39762953 0.2317347 -0.1535351 0.05784942 0.13184117 0.34700146 0.21848479 0.20073171
0.11740197 0.3477173 0.1639196 0.17279848 0.08707876 0.26728866 -0.03610021 0.24193516
-0.12640342 -0.16211975 -0.13760826 0.095272124 0.36318794 0.054604042 -0.20090257 0.17087449
0.15789409 0.25159323 -0.059573997 0.16395813 -0.27723023 0.30711076 0.21539347 0.08458503
-0.098305225 0.21821263 0.19288005 -0.28216 0.32594573 -0.2580393 0.18509538 0.15725717
-0.026960995 0.15914479 0.10192319 0.24536483 0.12642626 0.73425615 0.25204906 -0.09763357
-0.5105843 -0.23464839 -0.19537969 -0.0741322 -0.39805418 0.11436147 0.29481876 -0.0790082
00000000: 46ab 41be a449 4f3e 22f2 a43d d9f9 aebe
00000010: fcc0 923e 9f86 02be aa18 333e 3542 37be
00000020: ebac fb3c 5907 3c3e 1973 7fbe 5579 1d3e
00000030: 8a41 103e 26d7 eabd b693 62bd 1227 0b3d
00000040: 409b 9abc 6f55 303f 5e7e 563d 50c2 cc3d
00000050: bcec ec3d e864 1c3e 3f5c 0dbd afc1 8a3c
00000060: 86e7 0dbf 6dff d4bd 5f6f 99bd e543 f13c
00000070: 6d40 0b3f 730c 313e 05f2 0bbe 4800 1d3e
00000080: 271f 7a3e d152 033e e354 223d 8d43 923e
00000090: 2c1b 0c3e 51a4 323e 4be6 5f3e 3e16 703e
000000a0: 6039 a43d 7c9e 463e f88f 8b3d 6f25 f0bd
000000b0: f636 f43e 57ce 23be a35f 583e 987f d23e
000000c0: 14e6 64be 8fc1 2a3e 8351 1ebe 66c9 703e
000000d0: 736c 6fbe cfc5 e53e f08d a23c 4ff2 86be
000000e0: 960d b8be f14d cd3d 03da 943e 1548 99be
000000f0: f1a4 55be 36f1 473e 530e 04be e13c 09be
00000100: f330 133d 8c59 583e b7c7 423e 94e7 f13c
00000110: 8fe6 973e 8a87 1ebf a7b9 f63d bf34 38be
00000120: a092 0e3e cc47 3b3e 03cf 3e3e bf70 403e
00000130: 5ca6 ea3d 8255 8ebe da1d 07be ff24 113e
00000140: 5a19 ebbd cdc1 f63e 56e8 373d f621 9b3d
00000150: 9ff9 563e 871f 4a3e c9b8 49be d268 f63d
00000160: 82a2 7a3e 2673 f1bd acaf 92bd 3d61 a33d
00000170: 9718 ed3e 25cd 953e 850b 1c3e d9f5 013e
00000180: 2c94 7d3e aafe 073e c00a 513d 1865 9a3e
00000190: 340e 6d3d 8d72 d7be bf37 6d3e 2b8d c23e
000001a0: f0b4 f33d 8ad6 473e dca6 283c e431 95bd
000001b0: 1a1b 073f 990e 50bd b116 513e 673e ff3d
000001c0: 16de 97be caaa 463e 2dde 61be edb5 543e
000001d0: be19 d33e ca3e 023f 2555 0abc 9d68 e6bd
000001e0: c86d 82be fce9 12be 46b4 a23e ddcb 15bd
000001f0: e719 2d3d 225f 323e 52a4 38bc 689a 30bd
00000200: 6f48 09bf 6c62 4c3e 7966 b73e 83f3 b3bd
00000210: 204a 013f f8bb 1c3e d7eb 483e 804a 83bd
00000220: 83cb 973c fbe1 613e 74fd 3fbf edae 473e
00000230: ae75 1c3e d25c b7be 9d3b 9bbe 744f 933e
00000240: 9cb1 003d 2ee2 0b3f b3d9 3bbe c10a 943e
00000250: 268f 3e3d 8693 a73e 8b01 2fbf cd04 943e
00000260: 4ff0 8bbe 638f 86bc a251 203e d18a b33e
00000270: e8a3 dc3e cba0 d43e 9224 a1be c90c 283d
00000280: d8c1 323e d50b 773e cc5b 1f3e d4a2 b13e
00000290: 733a 2dbd 84fb d03e 8eb4 dc3c 95ba 47be
000002a0: 319b 293d 37ea 713e 5796 c43d 50bd ca3c
000002b0: 1d6e d93e fb9b bc3b f87d 413e 1f69 febd
000002c0: e94d fe3d 609e fc3c 472c 63be 8592 6b3e
000002d0: 45fd 0dbf 77e9 743d ae63 1a3d cc15 b6be
000002e0: 1438 5bbe fd43 3e3b 0f41 b03e 745e 1dbe
000002f0: 7f9d b6be d6a4 333e 3e72 bdbd bcb8 cabe
00000300: cb9d e43d 06c4 283d b862 6a3e 2d52 d6be
00000310: ca3c 0d3e 3637 363d ad87 21bf 3ffd a1bd
00000320: 1996 cb3e dc4b 6d3e 4e38 1dbe 83f3 6c3d
00000330: 5f01 073e 2daa b13e 7aba 5f3e 9d8c 4d3e
00000340: 7270 f03d 0008 b23e 8ada 273e 16f2 303e
00000350: 5956 b23d 0fda 883e d0dd 13bd dabd 773e
00000360: e66f 01be b802 26be 2ee9 0cbe 081e c33d
00000370: c5f3 b93e 7da8 5f3d 67b9 4dbe b9f9 2e3e
00000380: fdae 213e d4d0 803e dd03 74bd a4e4 273e
00000390: 1ff1 8dbe 9f3d 9d3e 1b90 5c3e eb3a ad3d
000003a0: 4054 c9bd 2273 5f3e 5982 453e 4777 90be
000003b0: 5ce2 a63e ba1d 84be a589 3d3e 0608 213e
000003c0: 4edd dcbc daf6 223e 1bbd d03d eb40 7b3e
000003d0: e375 013e 36f8 3b3f 930c 813e 1cf4 c7bd
000003e0: a7b5 02bf ab47 70be 9d11 48be 9fd2 97bd
000003f0: c2cd cbbe 5936 ea3d 7cf2 963e 0dcf a1bd

fc3.bias f4 [4]
0.53524727 0.40828425 0.29027742 0.32459733
00000000: f705 093f a20a d13e 3e9f 943e 9f31 a63e
