navigation/checkpoint.pth (torch_old, 28417 bytes, 6 tensors)

fc1.weight f4 [64, 37]
000000 30 f7 e0 bb 3e 37 27 3c d2 ac 88 3d c0 1f 0c bf
       -0.0068654045 0.010206042 0.06673588 -0.54735947
000010 e8 9a 42 be 68 5f 5a be 78 91 e8 3d 39 d0 9a 3e
       -0.19004405 -0.21325457 0.11355871 0.30236986
000020 ea 84 e1 be 21 61 0f be 72 b6 ab 3d 92 c2 27 bd
       -0.44046718 -0.14001895 0.08384408 -0.04095704
000030 ea 96 4f be 1b 48 95 be 12 25 64 be be 50 0f be
       -0.20272413 -0.29156575 -0.22279766 -0.13995644
000040 9a 18 66 3d 9f cf f0 3d 5c f6 01 3d c3 bb a6 be
       0.056175806 0.117583506 0.031729087 -0.32565126
000050 4d 9c 60 be e6 09 ed 3d ae 1d f9 3d a6 c3 a7 3e
       -0.21934624 0.115741536 0.12163864 0.32766455
000060 82 4a b6 3e 00 bc 22 3e ad 9f d5 bd 79 31 8c bd
       0.3560372 0.15892029 -0.10430846 -0.06845374
000070 52 84 c1 bd eb 87 a8 be 09 4a 02 be c9 eb 69 3e
       -0.09449066 -0.32916197 -0.12723555 0.22843851
000080 fd 6e cf bd 02 52 b5 be da bf 20 3c 13 60 24 bd
       -0.10128591 -0.3541413 0.009811366 -0.040130686
000090 7c 95 9c bc 31 dc 19 3e d7 e9 96 bb 29 6e 7b 3e
       -0.019114248 0.15025403 -0.0046055126 0.24553742
0000a0 f4 d5 02 be 50 d9 a7 3d d9 dd 67 3d e4 a2 3f 3b
       -0.12776929 0.08195746 0.056608055 0.0029241377
0000b0 37 82 aa bd e1 53 a6 be a2 3c 9d be ba db b4 3d
       -0.08325618 -0.3248587 -0.30710322 0.08830972
0000c0 82 fc ea 3d 62 ed 98 bd e3 a9 0d 3d cc 8f eb be
       0.11473943 -0.07467152 0.034585845 -0.46008146
0000d0 53 d9 c7 3b 53 fd 0d 3e ad 51 2e 3d 06 4e 91 3d
       0.006098905 0.13866167 0.04255836 0.0709496
0000e0 c5 17 ff 3d 88 7b 87 3d de 1b b1 be ce e8 ac bd
       0.124557056 0.066153586 -0.34591573 -0.084428415
0000f0 2b dc 89 bd 96 6b 52 bd bb 43 11 be 85 fe c5 3d
       -0.06731447 -0.051372133 -0.14185993 0.096676864
000100 3d 01 34 3e 3f 73 51 3d a0 9e 12 be 9c 9b ba 3d
       0.17578597 0.051135298 -0.14318323 0.091117114
000110 f9 a5 92 bd f9 8d 49 3e 74 30 8a 3d 7c d7 6d 3e
       -0.07160563 0.19683065 0.06747523 0.23226732
000120 1d 9f 75 bd e1 d2 d4 bc 8f f8 39 3e 70 a7 12 3d
       -0.059966195 -0.025979461 0.18161224 0.035804212
000130 75 8a 99 3d fb 58 c9 bc 42 2e a4 bd 8a 68 40 bf
       0.07497112 -0.024578562 -0.080166355 -0.75159514
000140 49 f1 53 3e 86 a5 91 3e 33 6c 43 be d1 9b b6 bf
       0.20697512 0.28446597 -0.19084243 -1.4266301
000150 a9 5e db bc e4 88 08 3c 28 8e 04 be de db 96 3d
       -0.026778536 0.0083334185 -0.12944853 0.07366155
000160 af e1 b6 bc 9a 9e b0 be 58 21 4f 3e 2f 0e 64 3d
       -0.022324411 -0.34496003 0.20227563 0.05567759
000170 ee 62 07 be 49 b0 82 bd 37 fa 24 bd d7 9f 40 3d
       -0.13221332 -0.0638128 -0.040277686 0.047027435
000180 5f e2 c8 3d 3e 78 54 bd 96 50 60 bd 67 18 be be
       0.09808802 -0.051872484 -0.054764353 -0.37127993
000190 df 08 4a 3d a3 89 a9 3e 5e 7c ee bd 0d 3b 48 bf
       0.049324866 0.3311282 -0.11644815 -0.78215104
0001a0 8e 82 63 be c8 cf fd 3d 0a e8 c6 bc c8 ba 1c be
       -0.22217771 0.12393147 -0.024280567 -0.15305626
0001b0 32 1f 60 be d2 de 10 bc af e6 b2 3c bb 89 8b be
       -0.218869 -0.008842187 0.021838514 -0.27253518
0001c0 3e 82 1c be 7e 21 5c 3e 61 cd 3f 3e 06 4d 4f bf
       -0.15284058 0.21497151 0.1873069 -0.80976903
0001d0 21 a6 f3 3d dd 89 60 be 78 51 b4 bd f2 b4 1a be
       0.11896921 -0.2192759 -0.088046014 -0.15108088
0001e0 fc 92 92 be bd 7f 51 3e ea d1 7a be 4e 62 e6 be
       -0.28627765 0.20458885 -0.24494138 -0.44996876
0001f0 b7 2d 5a bf 2d 95 57 bf e8 19 78 bd 29 b0 3c be
       -0.85226005 -0.84212 -0.06057158 -0.18426575
000200 38 10 27 bd ab 69 87 be 4b 69 9d be b1 ad 88 3c
       -0.04078695 -0.26447806 -0.30744395 0.016684385
000210 6e 94 d0 be 34 b5 cf 3d f8 9d 94 3e ad 28 12 3d
       -0.40738243 0.10141984 0.2902677 0.035683323
000220 2e e6 d1 be b2 5a e1 be 98 c3 bb 3e 7d fb 51 be
       -0.40995926 -0.44014508 0.36672664 -0.20506091
000230 05 e1 17 3d 59 ea db bd 3d 54 12 3e 86 bf 2a 3e
       0.03707983 -0.10738058 0.14289947 0.16674623
000240 f3 5c c5 bd 82 68 a3 be 17 14 15 bd eb fc 0b bd
       -0.09636869 -0.3191567 -0.036396112 -0.03417675
000250 74 12 6d 3d 35 86 63 be 0b 92 83 bd 66 db 4d be
       0.057878926 -0.22219165 -0.0642434 -0.20103225
000260 f5 c5 81 be 4b 31 74 3e db 14 08 3e 8a 1f 56 bd
       -0.25346342 0.23846929 0.13289206 -0.05227617
000270 4e 48 4b be 17 ea 07 bf 48 a2 95 3c 4f 00 d5 3c
       -0.19851801 -0.5309157 0.018265858 0.026001124
000280 fa 91 49 bd 15 2a 79 bd 5e 93 9f be b8 fb 87 bc
       -0.04921148 -0.06083115 -0.3116712 -0.016599521
000290 0d df e2 bd ae 34 3a bd 8d e1 cd 3d be 5c 34 3e
       -0.110777 -0.045460396 0.10052786 0.17613503
0002a0 fe d7 51 ba 60 51 a3 3d 28 ed d6 bc 67 52 45 3c
       -0.00080049026 0.079745054 -0.026236132 0.012043572
0002b0 f2 08 65 3d ab 00 0f 3e 77 ac 7a bd 72 f4 1f bd
       0.055916734 0.13965099 -0.06119963 -0.03905148
0002c0 55 98 5d 3e f0 1b 2f 3e d3 0d 7e 3e b0 5d 30 be
       0.21640141 0.17100501 0.24809961 -0.17223239
0002d0 92 de 5e bd 7e 27 ae 3d e9 5d 3f 3e d4 50 11 bd
       -0.05441148 0.08503626 0.18688168 -0.035477474
0002e0 27 e5 9f 3b 3c 4c 39 bb 05 1a 97 3d 8a d4 ad bd
       0.004879612 -0.00282742 0.0737801 -0.08487804
0002f0 b4 45 02 3e 02 2f 98 3d 45 db 59 3e 39 4e c4 3d
       0.12721902 0.07430841 0.21275051 0.09585232
000300 e9 3c 5e 3d 2b 76 da be 1b 79 92 bf d7 a9 cb bc
       0.054257307 -0.4266828 -1.1443208 -0.02486126
000310 0e 16 8a bd 21 31 a2 3c 23 8d 53 3c 2d ed 13 3d
       -0.06742488 0.019798817 0.012912068 0.03611486
000320 86 bf 48 3c 1d fd 63 3e 10 a1 f5 bd dc 5c b4 3d
       0.012252694 0.22264524 -0.11993611 0.08806774
000330 05 24 72 bd d5 15 12 3e ab e7 3f 3e 2a 5c d4 bc
       -0.059116382 0.14266141 0.18740718 -0.025922853
000340 72 55 35 3e 1f 05 1a 3e 21 37 59 3c 97 29 a4 bc
       0.17708376 0.15041016 0.013257773 -0.020039363
000350 64 44 01 3e f9 78 bc 3d c5 5f 8a 3e 25 bb e6 3c
       0.12623745 0.09202761 0.2702619 0.02816541
000360 70 a2 f4 bd c8 c8 2e 3b d7 2a 34 3e 2e 30 8e bd
       -0.11945045 0.0026669968 0.17594467 -0.06942783
000370 11 07 c5 bc aa 06 77 bc dc bf 87 3b 04 11 7f 3d
       -0.024051221 -0.015077272 0.0041427445 0.062272087
000380 f2 03 cd 3c fe f4 39 be 7a d8 3c 3d e8 48 09 be
       0.025026295 -0.18159863 0.046104886 -0.13406718
000390 a2 bb 20 be c6 bd f2 bb 58 12 8d 3e 99 43 d0 3d
       -0.15696576 -0.0074078767 0.27553058 0.10169143
0003a0 5c 8a e4 3d 08 28 89 3e 9c 8f 83 bd 5c 34 54 be
       0.111592025 0.26788354 -0.06423876 -0.20723099
0003b0 5c 56 a3 bb 9c d8 da bc 45 b5 05 be 42 42 21 3e
       -0.00498466 -0.026714616 -0.1305743 0.15747932
0003c0 36 71 05 be df 27 f1 3d c9 70 7b 3d 73 62 91 3c
       -0.13031468 0.11775183 0.061386857 0.01774714
0003d0 0a ca f9 3c 9a 9f 81 be 9a af 01 bd 36 6b 0a bb
       0.030491848 -0.2531708 -0.031661607 -0.0021121032
0003e0 4c 11 90 bd f1 a7 d4 bd d8 0a b0 3d cf ef 29 3d
       -0.07034549 -0.10383595 0.08595818 0.041488465
0003f0 6a a9 f0 bb 91 e2 15 3e c2 47 8d bc 7a 5c 14 be
       -0.0073444145 0.1463721 -0.01724613 -0.14488402

fc1.bias f4 [64]
000000 7a 30 90 3d bf 6b 02 3c 96 fd 77 bd 45 a2 6d bd
       0.07040496 0.007960259 -0.060544573 -0.05801608
000010 fb 51 6a 3e 9b 4b 11 3d 46 0b d8 bd 33 6c d6 3d
       0.22882836 0.035472494 -0.10549025 0.10469856
000020 dc 4f 68 3d 5e 85 84 be 5b ad 0e 3d 53 54 79 3e
       0.056716785 -0.25883 0.034833293 0.24348573
000030 0d da 29 3d 12 20 0a 3d 2b 15 9d bd 37 56 e2 bd
       0.041467715 0.03372199 -0.07670053 -0.110516004
000040 cd 96 8d bd 44 c7 b5 3d 60 fb 2b bd 88 1e 2b be
       -0.069135286 0.088758975 -0.041987777 -0.16710865
000050 51 4e 42 be 9a 2a 9b 3c da 87 00 bd d7 06 15 be
       -0.18975188 0.018941212 -0.03137956 -0.1455339
000060 54 e7 f9 3b dd 00 22 3e e2 13 3b bd 0a 65 02 be
       0.0076264534 0.15820642 -0.04567326 -0.12733856
000070 40 8c e1 3d 7f 36 db 3d 24 68 d7 bd 68 f2 92 be
       0.11013079 0.10703754 -0.1051791 -0.28700566
000080 8f 97 07 3e dc 3d 69 bd 78 8c 0d be 60 0a 3c 3d
       0.13241409 -0.05694376 -0.13823116 0.045908332
000090 d6 43 ad bd 5f ea 99 bc 1a ac c5 bb c9 62 ae bd
       -0.08460204 -0.018788515 -0.006032479 -0.085149355
0000a0 89 1d ab bd d3 59 a9 bc 7d 20 9c bd 21 8b 9d 3e
       -0.08355243 -0.020672714 -0.07623384 0.3077021
0000b0 cd 6a a1 ba 02 19 e4 bd 03 4f ff bc 33 9c 07 be
       -0.0012315154 -0.11137582 -0.031165605 -0.13243179
0000c0 5c 83 0f be da ab bb 3d 30 95 c5 bd 8e 45 8e bd
       -0.14014953 0.091636375 -0.09647596 -0.0694686
0000d0 e1 80 ba bc 2f c8 20 be ee bc a6 bd cd 21 b9 3b
       -0.022766532 -0.15701364 -0.08141504 0.0056497813
0000e0 26 b2 fa 3d 3a 00 6a 3c 2f c7 49 be 66 f2 4e bd
       0.1224101 0.014282281 -0.19704889 -0.050524138
0000f0 a7 a3 22 3d a3 47 44 3d 8c 17 54 bc 60 9d 5b 3d
       0.039706852 0.04791988 -0.012945067 0.05361688

fc2.weight f4 [64, 64]
000000 d5 40 45 3d 6f c4 70 3e 9c 1d 09 3f 61 31 49 3e
       0.04815753 0.23512433 0.53560805 0.19647743
000010 0a 98 8b be 03 d8 95 bd ec 1e fe 3c 1c 47 ab 3e
       -0.27264434 -0.073165916 0.031020604 0.3345269
000020 89 75 c7 3e 76 3a 60 be 7e d0 8d 3d 37 a0 9b be
       0.3895686 -0.21897301 0.06924532 -0.30395672
000030 49 f1 0b be c0 d1 af 3e b9 6c 3f be 85 4d bf bd
       -0.13666262 0.34339714 -0.18693818 -0.093409576
000040 43 25 88 be 4f 4c 2c be bf 69 26 be 78 ab d0 3e
       -0.26590928 -0.16825984 -0.16251276 0.4075582
000050 ba 1f ff be 3c 37 64 be f9 df d4 bd 7d 9b c0 be
       -0.49828893 -0.22286695 -0.10394282 -0.37618628
000060 c2 04 19 be 56 b0 51 be 79 03 15 3e 2f 27 9c bd
       -0.14943221 -0.20477423 0.14552106 -0.07624661
000070 d2 83 58 3e 62 bc bd be 38 23 a5 be e5 3d 4a be
       0.21144035 -0.37057787 -0.32253432 -0.19750173
000080 d8 20 7f 3e fa 61 59 3d 2b 5e b9 be 04 58 8f be
       0.24914873 0.053071953 -0.36204657 -0.27996838
000090 e9 46 fb 3c 9e 39 0e be 51 b8 35 bb fd db 2d bf
       0.030673461 -0.13889167 -0.002772827 -0.679138
0000a0 1e 87 0d bf 3e 2c 42 3d e9 a7 e3 3e b0 8c d5 bd
       -0.552843 0.047405474 0.44464043 -0.10427225
0000b0 40 c2 71 3d c4 95 b1 be 93 97 cd be 44 b3 5d 3e
       0.05902314 -0.34684575 -0.40154704 0.21650416
0000c0 03 1e c2 be e3 e5 95 bd 8b 54 ff bd 7c bf f4 bd
       -0.37913522 -0.07319238 -0.12467297 -0.11950585
0000d0 4e 70 2a be 60 90 b4 be 41 d2 3e be 7b f8 33 be
       -0.16644403 -0.352664 -0.18634893 -0.17575257
0000e0 5e d8 ad 3e b4 ac 73 be 4e 07 7f be 75 31 dc be
       0.33954138 -0.2379635 -0.2490513 -0.43006483
0000f0 f5 59 02 be b5 1e 81 3e ef ad 31 bf 93 92 8e 3c
       -0.12729628 0.2521874 -0.69406027 0.017403876
000100 9e b8 90 bc 88 e9 4a 3d 1d 36 30 bd a2 6e 52 3e
       -0.017666157 0.04953912 -0.043020356 0.20550016
000110 ff 76 f6 3c be ef 0b 3c 80 b1 b3 bd 39 33 80 3e
       0.030086039 0.008541046 -0.0877409 0.2503908
000120 33 bd 7f bd aa c1 2e be f6 da 04 3d be af 6e 3a
       -0.062436294 -0.17066064 0.03243538 0.0009105167
000130 0e 6b d1 3d 78 84 ab 3e cd d5 50 be 28 2b c5 3d
       0.10225497 0.33499503 -0.20394059 0.09627372
000140 85 b9 08 bd 15 74 3c be b7 62 21 be df a9 ec bc
       -0.03338005 -0.18403657 -0.15760313 -0.028889595
000150 2c 10 34 3e a3 3f 48 3d d7 d5 b7 3d 76 79 24 3e
       0.17584294 0.048888814 0.089763336 0.16061959
000160 72 71 09 3b 09 ba 41 bd 2c 03 0a be 3c e6 b6 be
       0.002097216 -0.047296558 -0.13477772 -0.3572253
000170 2c a8 0c be d3 bd 36 3e 5c 72 74 be 8e 19 91 3c
       -0.13736027 0.1784585 -0.2387175 0.01771238
000180 09 94 52 3c ea 6b cc bc 08 71 9a bd cd e4 d9 3d
       0.012852677 -0.024953801 -0.0754109 0.106393434
000190 62 82 35 be 01 71 5a 3e 44 b4 8a 3e 27 88 8c bd
       -0.17725518 0.2133217 0.27090657 -0.068619065
0001a0 60 bb a6 3d 41 25 96 be 19 25 f1 3c 72 34 04 be
       0.08141208 -0.29325297 0.029436635 -0.12910631
0001b0 26 07 44 bd ff df 89 3d 43 37 e2 bd 4e 43 02 be
       -0.04785838 0.06732177 -0.110456966 -0.12720987
0001c0 da 3b 90 be 3c e6 e0 bd 32 3c 15 3f b7 73 1a 3e
       -0.28170663 -0.10981414 0.58294976 0.15083204
0001d0 f5 d7 17 3c 88 ef 20 be 3a 3c 25 bf bd d6 5e 3e
       0.009267797 -0.15716374 -0.64545023 0.21761604
0001e0 ae be 0d be 72 51 85 3c bd b8 09 3e 53 6c 88 3e
       -0.1384227 0.016274188 0.13449378 0.26645145
0001f0 bd 3f 61 be 41 f3 11 bc 19 3b 63 be 51 12 a4 bd
       -0.2199697 -0.008908094 -0.22190513 -0.08011306
000200 11 e4 15 be 7b 42 fe 3c cb f4 2f 3e 55 2b 77 3e
       -0.14637782 0.03103756 0.17183225 0.24137624
000210 68 98 b3 3d 8d d6 b6 bd 0c 34 7a be ea a1 db bd
       0.087693036 -0.08927641 -0.24433917 -0.10724242
000220 c5 4b 81 be b4 d0 dc be ab 29 20 3e 66 f3 73 be
       -0.2525312 -0.43127978 0.15640895 -0.23823318
000230 c1 4a af 3d 73 10 2d 3e b7 f6 52 be f3 88 59 3e
       0.0855918 0.16900806 -0.20601927 0.21243648
000240 e4 7c 3c 3d e3 65 83 be 25 b1 77 3e 1b 91 b1 3c
       0.046017542 -0.2566367 0.24188669 0.021675637
000250 02 b0 05 3e 1c ab 81 3e f3 1f d4 be 06 4f 96 bc
       0.13055423 0.2532586 -0.41430625 -0.018348228
000260 54 20 ce bd 72 bc 89 3d bd b9 7a be a1 aa b4 be
       -0.1006476 0.06725396 -0.24484916 -0.3528643
000270 ec b6 20 3c a8 0e c0 3d 75 26 83 3d 6d 9a b1 bc
       0.009809237 0.093777955 0.064038195 -0.021680081
000280 fb 64 69 bd 00 cf c5 bc 6d 47 e2 be ab 00 29 3e
       -0.056981068 -0.024146557 -0.4419512 0.16504161
000290 76 d1 f7 3c 05 2e 1a 3c 46 41 27 3d b7 2d e5 3e
       0.030251246 0.009410386 0.040833734 0.4476144
0002a0 9b d7 f8 bc c8 5b 38 be 85 59 88 be 27 f6 84 be
       -0.030376246 -0.18003762 -0.26630798 -0.2596905
0002b0 2e d1 54 3c 76 39 b2 3d ff b6 89 be 2b 7c 2c be
       0.012989325 0.08702366 -0.26897427 -0.16844241
0002c0 2d 37 85 be 2f 42 1d be 38 a4 85 be a2 6e 7e 3e
       -0.26018658 -0.15357278 -0.2610185 0.2484689
0002d0 a1 da 8c 3d 93 6d 7f be a5 bb c1 be b4 c1 ac be
       0.06877638 -0.24944143 -0.37838474 -0.33741534
0002e0 eb be 3b be 4b 02 02 be 88 02 4e be b9 98 eb 39
       -0.18334548 -0.12696187 -0.20118153 0.0004493648
0002f0 09 33 9d 3d 48 4f a0 3d 01 45 85 be 78 06 bb 3d
       0.0767575 0.07827622 -0.26029208 0.09132093
000300 3d f6 59 be 11 25 c3 bd 2b 85 64 bd 79 c0 69 3d
       -0.21285339 -0.09528554 -0.05579106 0.05706832
000310 e0 69 4d bd d9 7f 4e bd 03 7a 42 3d 96 9b 72 3e
       -0.0501498 -0.050414894 0.04747964 0.23692164
000320 0e 37 fc be a9 d3 85 be 9a ca 99 3d a1 98 9f bd
       -0.49260753 -0.26138046 0.07509346 -0.077927835
000330 5c bc 16 3d 1a b4 21 bd a3 87 98 be 8f ef 1f 3c
       0.036800727 -0.0394784 -0.29790983 0.009761705
000340 c0 83 5e bd d3 31 bf bd 3e 73 28 bd ee 60 6c 3c
       -0.054324865 -0.09335675 -0.04112553 0.014427407
000350 9f e3 ce bd 57 c5 88 3d 08 c0 30 be 71 3a 0e be
       -0.10102009 0.066782646 -0.17260754 -0.13889481
000360 39 80 f1 bd f3 26 7d 3e 26 bd 82 3e e4 c2 e3 bc
       -0.11792035 0.24721889 0.25534934 -0.027802892
000370 b5 be a2 3c 6e ec 32 be a8 b9 9f bd df cd db bc
       0.019866327 -0.17473003 -0.07799083 -0.026831565
000380 f8 7b 11 3d 18 a8 a2 3e a3 3d 04 b9 50 fb f8 bc
       0.035518616 0.3176887 -0.00012611462 -0.030393273
000390 4f bd 85 3d fb d4 12 3f 45 79 04 3e b4 30 3d be
       0.065302484 0.5735623 0.12936886 -0.1847561
0003a0 b0 99 db 3e 68 13 f6 3e 0f d9 6e be 25 41 05 be
       0.42890692 0.4806168 -0.23324989 -0.13013132
0003b0 67 90 05 3e 9c 55 b9 3c a0 bf 21 3d 17 0b 3a be
       0.13043366 0.02262383 0.03948939 -0.18168293
0003c0 7b 42 d5 bd d4 d3 22 3e f9 cc df 3d 29 b9 d6 3d
       -0.10413071 0.15901119 0.10927767 0.10484535
0003d0 11 93 40 3c f4 c7 98 3c 43 db 2f 3e df d3 b2 3d
       0.011753813 0.018650033 0.17173485 0.087318175
0003e0 f0 7e b8 be 86 77 63 bd 92 ae 8c bc 9e 5b f3 bd
       -0.36034346 -0.05553391 -0.017173085 -0.11882709
0003f0 c1 08 35 be c9 fd 91 bc 58 db e3 be 98 84 b9 bd
       -0.1767912 -0.01782121 -0.44503284 -0.090584934

fc2.bias f4 [64]
000000 78 8d a3 bc a1 69 59 3d a1 24 1c 3e 19 1e f3 3c
       -0.019964918 0.05307925 0.15248348 0.029677438
000010 82 b0 df 3d 15 a2 9b be 7e e2 8c bd e4 92 e4 bd
       0.10922338 -0.30397096 -0.068791375 -0.1116083
000020 c3 3a a6 3d 42 86 32 3f fb 0d 58 bc 50 ee 98 3e
       0.08116677 0.6973611 -0.013186927 0.29869318
000030 03 69 b4 3e 33 df b1 3d cd 2a b4 bd f7 af 11 3e
       0.35236368 0.0868515 -0.08797226 0.14227282
000040 33 79 8c 3d e4 ea 91 bb e7 fb f4 3c 68 99 92 3e
       0.068590544 -0.00445305 0.029905273 0.28632665
000050 f6 c8 44 3e e8 51 40 3f e7 72 33 be 12 cc 4f be
       0.19217286 0.7512498 -0.175243 -0.2029269
000060 51 be 54 bd 8f c9 3d be 6d f7 9e bc bb d7 d8 bd
       -0.051939312 -0.1853392 -0.019405091 -0.10588022
000070 1d d2 25 3c 6e 79 80 3e 54 fc bc 3d e1 31 af bd
       0.010120896 0.25092643 0.09227815 -0.085544355
000080 99 1a 59 3d 2e f8 98 3d e2 0a 9e 3e ca 14 a7 3d
       0.05300388 0.074692115 0.30867678 0.08158262
000090 8c f2 54 3b 04 7a 3b be e9 9f 50 3e 3e 41 a6 bd
       0.0032493202 -0.18308264 0.20373501 -0.08117913
0000a0 6f 3f 64 bc 36 89 26 3f 20 fb 18 3f 39 49 ac bd
       -0.013931139 0.6505312 0.59758186 -0.084124036
0000b0 24 46 9d 3d 43 56 67 be e5 14 f5 bc 27 d6 fd bd
       0.07679394 -0.225915 -0.02991719 -0.12394362
0000c0 3b a0 fc bd 67 47 ec bd c0 ca ff bd 08 f1 0f 3f
       -0.12335249 -0.115370564 -0.12489843 0.5622716
0000d0 77 60 a1 bd 39 e7 b9 bd 54 3a e2 3d 88 85 21 3d
       -0.07879727 -0.09077305 0.110462815 0.039433986
0000e0 ab ba aa be 75 4c 3b be 5b 82 af 3d 4a f7 b2 bd
       -0.3334554 -0.18290885 0.08569785 -0.08738573
0000f0 3e dc 0b be 67 d4 fd 3e ff 80 03 3e 91 99 5d be
       -0.13658234 0.49576113 0.12842177 -0.21640612

fc3.weight f4 [4, 64]
000000 4d a2 d4 be bb 1e 2a 3e ae f0 d7 3d dd 44 b0 be
       -0.41530076 0.16613285 0.10543953 -0.3442754
000010 bd 3d bf 3e 43 02 89 be 12 53 1d 3e f0 72 e2 be
       0.3735179 -0.26759538 0.1536372 -0.44228315
000020 7f 3c af 3d 97 b9 55 3e 29 fe 41 3d a1 98 9b 3e
       0.085564606 0.20871578 0.047361527 0.30389884
000030 16 c9 2e 3e 7c 00 a0 3e 01 d0 b8 bc c1 ee ff be
       0.17068896 0.3125037 -0.022560121 -0.49986842
000040 08 a9 6a 3e fb 01 73 3e 19 0f 4e 3e d7 9d 47 3e
       0.22916043 0.23731224 0.20122947 0.19493805
000050 15 97 e9 3d 55 5d 83 3e 4d 7d 96 be 3f 39 98 be
       0.1140577 0.25657144 -0.29392472 -0.29731175
000060 cd 97 9b be 11 ea 29 be 13 1c 24 be 70 ea 4a be
       -0.30389252 -0.16593195 -0.16026334 -0.19815993
000070 51 ff 91 3e e7 b6 eb 3e 5f 64 93 be b4 84 08 3e
       0.28515103 0.4603798 -0.28787515 0.13331872
000080 6c 2e 1b 3e 08 f6 0b 3f 92 f8 5e 3e d9 86 34 3e
       0.15154427 0.5467229 0.2177451 0.17629565
000090 5d 78 72 3e f1 ad 02 3e ce 96 f8 3d 53 ea 89 3d
       0.23678727 0.12761666 0.12138139 0.06734147
0000a0 62 03 57 3d 3d 15 59 3e 87 7e 0d 3e 50 da 5f 3e
       0.05249346 0.21199508 0.13817798 0.21860623
0000b0 ee 5a b8 3e 70 fa 7f be c9 1b e3 bb a0 2f a9 3e
       0.36006874 -0.24997878 -0.0069308025 0.33044147
0000c0 2b 9a 59 be 48 0a bf bc 46 48 62 be 15 91 9e 3e
       -0.21250217 -0.023320332 -0.22097883 0.30970064
0000d0 39 a9 a9 3e 20 e7 f4 3e 1c 98 6a 3d 53 6c 4c 3d
       0.3313692 0.47832584 0.05727397 0.049907994
0000e0 87 91 13 be 6b e0 0d 3d 3e 71 98 3e 44 e8 56 3d
       -0.14410983 0.03463785 0.29773897 0.0524676
0000f0 e4 d7 33 bd 7b 7c 46 3e 50 15 af be eb 6e 1a be
       -0.04390706 0.19383423 -0.34195948 -0.15081374
000100 57 4c 5d 3c f9 84 2b 3e d5 da 86 3e 26 d1 98 be
       0.01350697 0.16749944 0.2633883 -0.29847068
000110 e4 f3 0f 3f 74 8e a9 be 85 e7 1d be 0a 4b 08 be
       0.5623152 -0.33116496 -0.15420349 -0.13309875
000120 f0 71 4d 3e 95 a8 8c 3e ae 3c 60 3b 4b 42 67 3e
       0.20062995 0.27472368 0.0034215855 0.22583883
000130 60 dd 35 3e fa cb 5f 3e ce 0c 93 bb 24 04 63 3e
       0.17760229 0.21855155 -0.0044876104 0.22169548
000140 ef 87 7c 3e 54 22 e9 3d d1 b8 19 3e 8c 85 1e 3e
       0.2466123 0.11383501 0.15011908 0.15480632
000150 ea ed 0e 3e 69 34 6c 3e cf ea b5 3c f5 c5 7d be
       0.13957945 0.23066868 0.022206692 -0.24782546
000160 70 45 0a be ed 1f 8c bd 1a 68 51 be 82 bd 34 be
       -0.13503051 -0.06842027 -0.20449868 -0.17650416
000170 96 d9 ee 3e 96 c0 83 3e 0e fe f9 3d 87 5a 2a 3e
       0.4665038 0.2573287 0.1220666 0.16636096
000180 40 9d 8f 3e 92 f4 fb 3e 2c 39 2b 3e 3e dc 98 3e
       0.2804966 0.4921003 0.16721028 0.2985553
000190 03 b9 80 3e 8b 63 b6 3e 3b 45 14 3e e2 b9 dc 3d
       0.25141153 0.3562282 0.14479534 0.10777642
0001a0 03 c8 47 3e c1 fb 5e 3e 7c 75 27 3e f8 5a cc bb
       0.19509892 0.21775724 0.1635341 -0.0062364303
0001b0 ae e7 b9 3e 89 93 4a bd c2 6b ea 3d 4c 88 00 be
       0.3630957 -0.049457107 0.114463344 -0.12551993
0001c0 b9 55 56 be 82 56 b1 3d 60 98 39 3e bf f4 82 3e
       -0.20931138 0.08659078 0.18124533 0.2557735
0001d0 1d ed 28 3f 54 f8 d1 3e e6 a6 00 3d 0c 38 28 3e
       0.65986806 0.41009772 0.031409167 0.1642763
0001e0 ff 94 25 be a7 27 bf bd 1b 79 03 3f 34 8b 85 3e
       -0.16170119 -0.09333735 0.5135667 0.26082766
0001f0 a6 23 ce 3d 23 c5 72 3d 4c f4 2d bc 29 49 9c be
       0.10065393 0.059270035 -0.010617327 -0.30524567
000200 f1 67 24 bf 35 6d 97 3e 37 2e de 3d e3 d9 b6 bd
       -0.642211 0.29575506 0.108486585 -0.08928277
000210 54 43 e1 3e 0d 14 1b 3d 4a b2 f1 3d 2d d5 77 bd
       0.4399668 0.03786092 0.11801584 -0.060506035
000220 f4 bf da bd 02 75 64 3e 2d 73 26 be d5 7e 06 3e
       -0.106811434 0.2231026 -0.16254874 0.1313432
000230 20 24 25 3e 3f a7 62 3d 66 5c 98 bd 40 b2 ce be
       0.16127062 0.05533528 -0.074394986 -0.4037037
000240 40 fa 5d 3e 3f ce b4 3d b5 86 a5 3d c4 88 9d 3d
       0.21677494 0.08828401 0.08082334 0.076921016
000250 ea 26 cf 3a 72 97 75 3e c8 ee c3 be 9a 47 9a 3d
       0.0015804444 0.23983553 -0.38268113 0.07533188
000260 c5 41 86 be 67 f2 54 be 80 d7 41 3e 40 60 c1 be
       -0.26222053 -0.20795594 0.18929863 -0.37768745
000270 b9 aa c0 be af 04 b5 3e 31 39 af 3e 44 40 52 3e
       -0.3763025 0.35355136 0.3422332 0.20532328
000280 12 93 57 be 7e 2e 8a 3e 0b a6 33 3e b7 9f 8a 3e
       -0.21052197 0.26988596 0.17543809 0.27074978
000290 98 79 77 bc 0e 8a 07 3e ba 40 8a 3e c1 76 21 3f
       -0.015104674 0.13236257 0.27002507 0.6307183
0002a0 9d 3c 56 bc 5f f1 74 3e 6f f0 78 3e b8 1b 56 bd
       -0.013075975 0.23920201 0.24310468 -0.05227253
0002b0 0d 62 07 3e 51 8b 82 be b8 a9 0e 3e 60 d2 88 3e
       0.13220997 -0.25496915 0.1393193 0.26723003
0002c0 ab 1a b8 bd 51 5a ab 3e 05 1c 7e 3d 93 a9 6b 3e
       -0.089894615 0.33467343 0.06203844 0.23013906
0002d0 e1 ec 0c be cc a4 d1 3e ef 3b 8a 3e e4 ea 95 3e
       -0.13762237 0.40946043 0.2699885 0.2928077
0002e0 8d 02 06 be 76 1b 94 be 8d 21 b4 3e d3 d2 3a 3f
       -0.1308691 -0.289272 0.35181847 0.7297794
0002f0 14 02 05 be e4 41 54 3e 56 e8 da 3e 54 8d 7a 3c
       -0.12989074 0.2072826 0.42755383 0.015292484
000300 13 08 56 be 84 c0 98 3e e7 76 02 bf 21 0c ed be
       -0.20901518 0.29834378 -0.5096268 -0.46298316
000310 96 7b 4e 3e 2d 96 a4 be 3c 4b 1f bf 38 12 18 be
       0.20164332 -0.32145825 -0.62224174 -0.148507
000320 9c 2a 76 3e 1e 39 4b 3e 46 46 89 3e 0d 70 12 3d
       0.24039692 0.19846007 0.26811427 0.03575139
000330 cd b7 31 3e 59 94 e5 3d 90 f8 66 3d 80 6c 09 be
       0.1735527 0.11209936 0.05638939 -0.13420296
000340 60 2b 5a 3e 0d 3e 2f 3e a0 dd 69 3e f0 a0 c8 3d
       0.21305609 0.17113514 0.2283845 0.097963214
000350 64 ac 73 3e 8a 23 65 3e 06 0b 93 bd aa e6 b9 3c
       0.2379623 0.22376838 -0.07179837 0.022692997
000360 c9 6f bc bd 8c 9a 62 be e1 61 21 be 08 9a 82 3d
       -0.09201009 -0.22129267 -0.15759994 0.063770354
000370 85 5b 2a 3f 47 bb a9 3c 4e 82 50 3d 7d fe ab 3e
       0.665459 0.020719184 0.05090552 0.33592597
000380 36 20 0e be 29 51 e4 3e 12 db 1f 3e 8d 2d d9 3d
       -0.13879475 0.4459317 0.15610912 0.10604391
000390 81 4c 22 bd b1 f5 09 3f 25 27 89 3e 37 c3 ce 3e
       -0.03962374 0.5389052 0.26787677 0.40383312
0003a0 1c ba 16 bf bc 3c 5e 3e ed 49 98 3e 27 93 7a 3d
       -0.5887773 0.21702856 0.297439 0.06117549
0003b0 c9 32 a2 3e 9f 46 1c be d9 ed 86 3e 11 64 f6 be
       0.3167937 -0.15261315 0.26353338 -0.4812322
0003c0 4b 80 04 be 6c af 5c be 1b b1 19 3f ab 2d ad 3e
       -0.12939565 -0.21551293 0.60035866 0.33823904
0003d0 57 34 97 be c8 c2 ef 3e 6c f5 e3 bd 85 0c c6 3e
       -0.2953212 0.46828294 -0.11130795 0.38681427
0003e0 65 ec 48 be 60 75 74 3e 8f 11 6a be ae b5 87 be
       -0.19621427 0.238729 -0.2285826 -0.26505798
0003f0 24 df 48 be a6 ca 10 3e 30 71 92 be 08 b4 63 be
       -0.19616371 0.14139804 -0.2860198 -0.22236645

fc3.bias f4 [4]
000000 35 92 d8 3e fb 1f dd 3e ba 1c ac 3e 17 59 c1 3e
       0.42299047 0.43188462 0.33615667 0.37763283
