p1_navigation/dqn_trained_model.pth (torch_old, 28417 bytes, 6 tensors)

fc1.weight f4 [64, 37]
00000000: 96b9 08be 37e9 2c3d e58a 8bbd 2ee4 65be
00000010: 1556 0b3e f6ac 2cbe d379 6f3c a2b5 9c3e
00000020: 5be2 0cbd f051 8abf eb22 0ebe dc50 7abe
00000030: 24c1 c6bc b212 603d e640 873d fccc 67bd
00000040: 8091 03bd a268 ca3d a5d9 963d 47c0 973e
00000050: 718f 38bd 37e8 773e 93e4 2bbe e649 473e
00000060: d9b4 103e 386c 55bd b146 12be cebd 063d
00000070: 0b19 14be 6199 6e3d 6468 c0be 1e7c 743e
00000080: 559a c8bc 0e62 61bc ce19 ebbd ae3e db3b
00000090: e33e 843c 8b4d 8b3e 577c 083c 884b 0f3e
000000a0: 2aaf 133d 1fc2 36bd 2a7d 833e 1c73 dbbd
000000b0: 867d f9bd 8e50 2ebf 6eaa ddbf a449 6e3d
000000c0: e039 31bd 9cbb c43d ff08 8fbc 0ac2 febd
000000d0: 59af 073e 23ed 903d 90b3 873d e072 da3d
000000e0: 4f1a 253e 9c91 35be 74c2 5b3d 7378 243c
000000f0: d3ef e4bc 92c1 20bd c4bd 40bd 2435 b43d
00000100: 87ac 0cbc ea3a 7c3e f005 943e 2a1a b53d
00000110: b2df 003e 5ed3 2a3d 12c8 543e 4781 2e3e
00000120: e7ad 98bc d630 4eba c3c2 2abd 58b3 c2bd
00000130: 634e b03e b139 e5be 3c4c cebe 01ab 81be
00000140: 3126 713b 3963 0f3e 3773 c5be 95d8 83be
00000150: b402 d63e 1ed6 1bbf 10fc 94be 3fbd aebe
00000160: 391e b8be f2f2 88be 6bb9 a73d 8850 ad3e
00000170: 5eba e2bc 15c2 343d 86eb f33c 676d df3d
00000180: 7779 9abe 58d2 abbe 77b8 f5be 4f6e 16bf
00000190: c13d 2a3e 1b88 003e ae33 acbb 15b1 88be
000001a0: a264 a7be 9206 043e 36ea 0fbf 6942 a93d
000001b0: db5b e9be 20e5 523e c6f2 0abe 8d36 26be
000001c0: e2db 5e3e ae6c 893e dc50 14be 188b b3bf
000001d0: 732a a9be 1455 8ebd bac4 2f3e 9ca4 7fbe
000001e0: acf4 75bf 9049 c73d 8b8f 6cbe 72b2 04be
000001f0: d994 16be 5812 90bd 291f 9fbd a866 023e
00000200: 855c 573c 8586 a6be ee51 82bf cf37 823e
00000210: 200b 80be 44f9 4dbe 91ee fdbe 7167 253d
00000220: d039 52be 8278 b4be 93e6 823e 39bd d1be
00000230: 3b91 6ebf d4cd 243e 5e32 bf3d 3435 d8bd
00000240: 0ba3 babe b950 a0be 8726 af3e 3b51 183d
00000250: 651c 6cbe f494 63be 11a3 29ba 949a 8cbe
00000260: b70e cabd c08e 96bc c8b2 fe3e 7420 cabe
00000270: a678 8bbd 63ba 4abf 6fb3 8ebe a3b9 093d
00000280: 619c 723d 90c3 023a bec0 c13d 5ab1 92be
00000290: f51a 33bb baf8 00bb 88cc 3e3d a1fe 043d
000002a0: c99c 9abd d026 9dbd 93b7 04bc 7155 0b3e
000002b0: d4a2 cf3e 8ab1 203c 7cc0 9fbd 4be0 153d
000002c0: 53bf 1fbe b03d c4be 7c01 533e 5278 23be
000002d0: e103 36be 02a7 88be ebae 58bd 026f ed3d
000002e0: d997 11bc 3c30 d9bd cc08 353d a656 e03b
000002f0: 8e4a 7c3c 331f 9a3d 2a80 a33e 1eed 07bd
00000300: 6f75 38be 6fbe 0cbf 67b9 f1bf 3ece afbd
00000310: e9aa 0fbd 457b f13c 9fca 08bd 0824 953d
00000320: b6d9 1e3b 761c 13bd 9ec8 10bd 3277 d13d
00000330: 797f bf3d 8e4b 3a3e eb16 99bd f01f 063e
00000340: 7de5 233e 446f 743e a308 3dbd 9514 3c3d
00000350: 3f33 5abd 25aa 273e d988 113e 6e4c 1cbb
00000360: 9a28 0cbe 834e 9b3c 7cf4 0c3d 3b8d 1a3d
00000370: 9c27 7d3d 10fa a63c 4c90 453e 3553 253e
00000380: 188f 89be b890 12bf 2a2a 68bf 2e46 e9bc
00000390: fdeb a63c 4519 06bd 5f39 31be 0737 983e
000003a0: 520d 8bbd 69fd a9bd c1d8 063e 6fd9 1d3e
000003b0: 9b88 ca3e 9820 28be 9da6 e0bc dc27 923d
000003c0: ce05 be3d 1c4b 493e 6c3d a93d fc71 44bd
000003d0: 28b5 06bd 9f7c 0dbe 6470 f13e 99ae 63be
000003e0: 72bf b7bc 22e5 51bc 72fd 893d 0abf 993c
000003f0: 1441 3fbe a73e 01be 7a0b e43d 37d7 543e
-0.13352045 0.0422146 -0.068136014 -0.22450325 0.13607056 -0.16862854 0.0146164475 0.30607325
-0.034395557 -1.0806255 -0.13880508 -0.24444908 -0.024262019 0.05470533 0.06604175 -0.056591973
-0.03212118 0.098832384 0.07365731 0.29638883 -0.04505867 0.24209677 -0.16786413 0.19461784
0.14131488 -0.05210516 -0.14284779 0.032895856 -0.14462678 0.058251742 -0.37579644 0.23875472
-0.024487654 -0.013756288 -0.11479531 0.0066908216 0.016143268 0.27207598 0.008330426 0.13993657
0.03605572 -0.044618722 0.2568143 -0.10715315 -0.12182145 -0.68091667 -1.7317636 0.058175698
-0.043268085 0.09606096 -0.017460344 -0.12439354 0.13250484 0.0707648 0.06626046 0.10666442
0.16123317 -0.17731327 0.05365224 0.010038483 -0.027946388 -0.039247103 -0.047055975 0.08799198
-0.008586056 0.24631849 0.2891078 0.08842881 0.12585333 0.04170548 0.20779446 0.17041503
-0.01863761 -0.00078655535 -0.041689645 -0.09506863 0.34434804 -0.44770578 -0.40292537 -0.25325778
0.0036796445 0.14002694 -0.38564464 -0.25751176 0.41798937 -0.6087359 -0.29098558 -0.34128758
-0.35960558 -0.26747853 0.081896625 0.33850503 -0.027676757 0.044130404 0.029775392 0.10909539
-0.30170795 -0.33558917 -0.47992298 -0.5876207 0.1662512 0.1255192 -0.005255184 -0.26697603
-0.32693964 0.12893131 -0.5621675 0.0826462 -0.45577893 0.20595217 -0.13569173 -0.16231747
0.21763566 0.2684073 -0.1448397 -1.4026823 -0.330402 -0.06949821 0.17164889 -0.24965137
-0.96076465 0.09730828 -0.23101632 -0.12958696 -0.14705218 -0.07034749 -0.07769615 0.12734473
0.013144617 -0.32524505 -1.0181253 0.25433204 -0.25008488 -0.20114619 -0.49596074 0.040381853
-0.20529866 -0.3524819 0.2556654 -0.40964678 -0.93190354 0.16094142 0.09335779 -0.10557023
-0.36452517 -0.31311586 0.34209082 0.037186842 -0.23057707 -0.2222479 -0.0006471137 -0.27461684
-0.09866088 -0.018378615 0.49745774 -0.39477885 -0.06810121 -0.79190654 -0.27871272 0.033624303
0.059231166 0.00049882475 0.09460591 -0.28650934 -0.00273293 -0.0019679503 0.046581775 0.032469396
-0.07549436 -0.076734185 -0.008100408 0.13606812 0.40553916 0.009807954 -0.07800385 0.036590856
-0.15600328 -0.38328314 0.20606035 -0.15963867 -0.17774917 -0.26689917 -0.05290119 0.11593439
-0.008886301 -0.10604903 0.044197842 0.006846267 0.015398635 0.07525482 0.3193372 -0.033185117
-0.18013547 -0.5497808 -1.8884705 -0.085842595 -0.035075102 0.029477725 -0.03339636 0.07282263
0.0024238653 -0.035915814 -0.035347573 0.10227813 0.09350485 0.18192884 -0.074750744 0.1309812
0.16005512 0.2387057 -0.046150815 0.045918066 -0.05327153 0.16373499 0.1421236 -0.0023849267
-0.13687363 0.018958336 0.034412846 0.037732344 0.061805353 0.020382911 0.19293326 0.16145022
-0.26866984 -0.57252073 -0.9068934 -0.028475847 0.0203762 -0.032738943 -0.17307042 0.29729483
-0.0678965 -0.08300287 0.13168623 0.15414976 0.39557347 -0.16418684 -0.027423197 0.07136509
0.09278451 0.19657558 0.082636684 -0.047960266 -0.032887608 -0.1381707 0.4715606 -0.22234572
-0.022430155 -0.012810977 0.06737794 0.018767852 -0.18677169 -0.12621556 0.111350015 0.20785223

fc1.bias f4 [64]
00000000: 7028 543d 855c 273d 8366 94bd 584d 073d
00000010: 2325 d83c 7012 8abd 6473 18be 515d 703d
00000020: 865a 023d 99b0 9abe 46ab c83e 92d2 a73e
00000030: c365 4b3e 7932 173d c8e2 06bd ccac c1bd
00000040: 2da4 653e 5926 3bbb ea22 423d 23cc 5abe
00000050: cadf b5bb 7d34 083d 7d6c d7bc 4def cdbd
00000060: 23d6 d0bc d073 413e 95f9 e13c f64a 44be
00000070: 34f5 4b3e 8958 303d 71f1 433d 4bdd 1bbe
00000080: bc8a 2b3e 5272 893c 8e65 043c f67c 163d
00000090: 1e18 9fbd 9afb a63b 495e 2ebc 57d6 7abe
000000a0: 0ac1 1cbe 3541 6d3d 8e44 eebd 4993 943e
000000b0: e94b c8bc 789b fbbc 3b4f 0cbd f76f 27be
000000c0: 4185 c3bd d7d9 073e e061 11be 42ff e73c
000000d0: 008a 733d 987c c9bb 1593 1bbe 0191 c03c
000000e0: b877 e03d fc4a 9bbc 3836 a8bd b004 a4bd
000000f0: 4976 94bd 2cfa 163d 7b53 d93d fb5a 213e
0.051796377 0.040859718 -0.07246115 0.033032745 0.026384896 -0.06741798 -0.14887768 0.058682743
0.03182461 -0.30212858 0.3919317 0.3277784 0.19863038 0.03691337 -0.03293112 -0.094567865
0.2242591 -0.0028556793 0.047396578 -0.21366934 -0.0055503594 0.03325318 -0.026296848 -0.100554086
-0.025492733 0.18891835 0.02758483 -0.1916922 0.19917756 0.043053184 0.04783768 -0.15221135
0.16752142 0.016778145 0.008080853 0.036740266 -0.07768272 0.005095911 -0.0106425965 -0.24495827
-0.15308014 0.057923514 -0.116341695 0.2901862 -0.02445026 -0.030713782 -0.034255248 -0.16351305
-0.095469005 0.13266693 -0.14197493 0.028319959 0.05945778 -0.006148886 -0.15192826 0.023506643
0.109603345 -0.018956654 -0.082134664 -0.080087066 -0.072491236 0.036859676 0.10611626 0.15757363

fc2.weight f4 [64, 64]
00000000: 9034 f8be 1675 1fbe 4dd4 743e 5ad8 84be
00000010: 68d3 9d3c abd2 28bf cd78 32be 1595 ad3d
00000020: 8d4c 0fbd b5d2 5a3d d113 d13d 0ab4 0dbf
00000030: 3d6b 0e3c 992c 833e 7101 7abe 5271 87be
00000040: c27f b93d 7501 113e da56 92be 06b9 e8be
00000050: d637 54bf 4df1 41bf befc 963e 83eb 4dbf
00000060: 4f21 35be fdbc ecbe 8c61 3bbf c384 e4be
00000070: e3d7 68be 8aa8 c6bd 124a 153f 447f 85bb
00000080: 14ee 0d3d 8ffe 0ebd 76f3 6cbd ff8c 29bf
00000090: a74f eabe b4be f43d 00c6 29bf e60a e5be
000000a0: ef0f 3abf 1c76 8abe 62d2 593e 7072 7ebe
000000b0: 2b3f c1be ec7c 78be afe6 66bf 6e77 04bf
000000c0: dff7 2dbf 1887 093e f6bf 6ebf 9b07 39bf
000000d0: 32cf 33bf 47f7 80be c46f 2fbf 3989 e9be
000000e0: 3fe9 a13e 08e4 9cbe be95 96be 6b1e 25bf
000000f0: ae5e bcbd 7ca5 b2be 4871 22bf a89c 6d3e
00000100: 300a 63be 44cf 153e ba4c 6dbd 7246 613e
00000110: 2b94 013e 2163 0f3e bb8e b13d 3b72 9a3e
00000120: 4d71 3cbe bc3f 3fbc 1d86 1d3d 07ad e83e
00000130: 46e3 91bb 2104 823d 376d 6bbe da7b efbd
00000140: 756a f33d 90a3 dbbd 3083 5e3e 790d 20be
00000150: 0f03 eb3d c590 a2bd 841f d0b8 f5f5 91bd
00000160: 6a17 20bd 1d46 843c befd ccbe 2473 64be
00000170: d691 5a3d 9bf9 aebd f090 7a3e 2da5 92be
00000180: 78f1 03be b825 b73d 3f3e 963d 3efd 46bd
00000190: 2917 69bd c023 d03d abee 823e c622 15be
000001a0: d302 873d e4c1 38bf 9165 ed39 5964 9dbd
000001b0: 8c89 6bbc 4966 1bbe d2d9 7b3d 615e 9cbd
000001c0: 1d66 98bd 8326 ab3d c42d c53c c0fa 6a3d
000001d0: b35e 7cbd 6028 ca3e 72bf 8a3c 54d1 00bd
000001e0: 9067 1cbe dec9 ccbd b36d 1c3e f92a dbbd
000001f0: 3a53 823b d7a7 9bbe 55d5 aa3d 49d7 3fbd
00000200: f2c5 663d d840 2ebe 6205 6cbd d865 433e
00000210: 7a5a 1d3e b348 b7bd a78d 0bbd aee1 16be
00000220: 09ba 9dbd 72ef a9be 478a 693e bdc7 78be
00000230: 2450 2f3e e86d 40bd 16f8 60ba f85c 423d
00000240: 8a61 81be 4c24 d43d f030 d3be 16da 1a3e
00000250: 0a68 b4be 8f46 bb3d d296 763e 3393 5a3e
00000260: b945 e4be c951 0e3e b5d4 a6be 2c80 8bbe
00000270: a485 2fbf d748 c73c 65b5 6abe 13a4 a3bd
00000280: 181a dcbc a317 2e3d 4a22 9cbd da0f e53d
00000290: eac8 e43d 21ae 113d 9adb 253f 4394 01be
000002a0: ff2f 413e dda6 163e a2ca 743d a2b1 40be
000002b0: 91fb 72bd 97f0 56bd 1645 19bd 29d7 4fbe
000002c0: eaa7 0fbd 6f2a 07bf 46dc 64bc 9125 113e
000002d0: cdf8 2abe d3d8 c3be 90d6 aebc 9f6c d1bd
000002e0: 708f aabc d9ad 38be 80d0 9dbe 03ae 353e
000002f0: a687 2bbe 7767 63be 7a91 0b3f d211 dabd
00000300: 2d70 a2bb 3167 0abe 7027 c23e 0925 f03e
00000310: 5b83 b83e 6652 c8bd 8f9b 2ebd d2c4 2a3e
00000320: 76ce aebe 03f3 623e 4029 b4bd 4219 dd3d
00000330: d1d6 983d 6776 80bd 3ee8 b63d d87c a9bb
00000340: cf04 bbbd ae68 333e 4f25 9c3d e1ff 0ebe
00000350: 9e00 043e 9282 e03c c819 f73b 61e6 10be
00000360: c62f 7abc 6923 a1bd 3e53 713c 6293 00be
00000370: 99af 2f3e c962 18be 301f f03e 013d 5fbd
00000380: 0a7d 753d fa6f 643c d41e 2ebd cff5 333e
00000390: 2c3f abbe 0ef9 853c 5b4b fabd d8ec 2d3e
000003a0: 9384 e7bc 5131 a03d c98c 0fbe 9cbb 93be
000003b0: c87b 013e 7da9 3d3d 9b5f 543d 16e0 d2bd
000003c0: c027 f0bd 3a40 0e3e be94 64be c05f 98be
000003d0: fd86 cdbd 6200 cebc f464 0c3e c0cb 483e
000003e0: 0344 c2be 09c0 e6bd 7860 51bd e6f7 0d3e
000003f0: 5862 903d cfc7 e4bc dd83 c9be c7ca 23be
-0.48477602 -0.15572008 0.23909111 -0.25946313 0.019265845 -0.65946454 -0.17428894 0.08475701
-0.034985114 0.053423602 0.10208858 -0.5535284 0.00869256 0.25619963 -0.24414612 -0.26453644
0.09057571 0.14160712 -0.28581887 -0.45453662 -0.828977 -0.7575882 0.29489702 -0.8043749
-0.17688487 -0.46237937 -0.7319572 -0.4463254 -0.22738604 -0.09700115 0.5831615 -0.004074009
0.034650877 -0.034910735 -0.05784937 -0.6623077 -0.45763895 0.11950436 -0.6631775 -0.44734877
-0.7268056 -0.27043235 0.21271661 -0.24848342 -0.37743506 -0.24266404 -0.90195745 -0.51744735
-0.67956346 0.1343044 -0.9326166 -0.7227723 -0.7023803 -0.25188658 -0.68529916 -0.45612505
0.31623265 -0.30642724 -0.2941112 -0.6449954 -0.09197746 -0.3489188 -0.63454103 0.23204291
-0.22171855 0.14629847 -0.0579345 0.21999529 0.12654178 0.14002658 0.08669802 0.30165276
-0.18402596 -0.01167291 0.03845798 0.4544451 -0.004452142 0.06348444 -0.22990881 -0.11693545
0.118855394 -0.107245564 0.21729732 -0.1563014 0.11475193 -0.07937769 -9.924083e-05 -0.07126991
-0.03908483 0.016146714 -0.4003734 -0.22309548 0.053361736 -0.08543702 0.24469352 -0.28641644
-0.12885082 0.08942741 0.07336091 -0.048581354 -0.056906853 0.10163069 0.25572714 -0.14564046
0.065923356 -0.72170854 0.00045279835 -0.076851554 -0.014376055 -0.15175737 0.061487027 -0.07635189
-0.074413516 0.08356955 0.024069674 0.05736804 -0.06161375 0.3948393 0.016936991 -0.03144963
-0.15273881 -0.099994406 0.15276222 -0.10701556 0.0039772065 -0.3040149 0.08341471 -0.04683617
0.05634112 -0.17016923 -0.05762232 0.19081819 0.15366545 -0.08949413 -0.034070637 -0.14734527
-0.07701499 -0.33190495 0.22806655 -0.24294944 0.17120415 -0.046979815 -0.00085818896 0.047451943
-0.2526973 0.103584856 -0.41248274 0.15122256 -0.35235626 0.09144317 0.24080971 0.21345215
-0.44584444 0.13898386 -0.32584158 -0.27246225 -0.68563294 0.024326725 -0.22920759 -0.07990279
-0.026867911 0.04250301 -0.076237276 0.11184664 0.11171134 0.035566453 0.6478821 -0.12654214
0.18865965 0.14712091 0.05976356 -0.18817762 -0.059321944 -0.052475538 -0.0374194 -0.20296921
-0.035072245 -0.52799124 -0.013968533 0.14174487 -0.16696472 -0.3825136 -0.021342546 -0.10225796
-0.02082035 -0.18035068 -0.30823135 0.17742161 -0.16750965 -0.22207437 0.54518855 -0.1064793
-0.00495722 -0.13515927 0.37920713 0.46903256 0.36037716 -0.09781341 -0.04262882 0.16676643
-0.34141892 0.22163014 -0.0879693 0.10795833 0.07462848 -0.062725835 0.089310154 -0.0051723532
-0.091317765 0.17520401 0.076243035 -0.13964798 0.1289086 0.02740601 0.007540915 -0.14150383
-0.015270179 -0.07868082 0.014729319 -0.12556222 0.17156829 -0.14881434 0.46898794 -0.054501537
0.0599337 0.013942713 -0.04250987 0.17574237 -0.33446634 0.01635411 -0.12221404 0.1698488
-0.028261459 0.07821906 -0.14018549 -0.28854072 0.12644875 0.046304215 0.05184899 -0.10296647
-0.11726332 0.13891688 -0.22322366 -0.2976055 -0.100355126 -0.025146667 0.13710386 0.19608974
-0.37942514 -0.112670965 -0.05111739 0.13864097 0.070500076 -0.027927307 -0.39358416 -0.15995322

fc2.bias f4 [64]
00000000: dfb6 033e 062e 4a3e 821f a73d fde4 613c
00000010: 0775 6b3e a438 19be 609f 98bd faab 18be
00000020: b175 9dbb fbc5 273f 0eb9 b6bb 71f7 813e
00000030: ffff 3f3e 96db c8bd 162c 9cbd 06d1 a9bd
00000040: ee31 58bd 625b db3d 8274 debd 7df3 823e
00000050: f1b8 d53e 4634 273f 056a 13be 21fb d8bd
00000060: 8b06 edbc 4921 33be c01f bf3d f526 65bb
00000070: f917 6a3d 241e 9b3d 5465 003e 4ca6 bb3e
00000080: 5ce8 0b3b baec 3b3e b707 1f3e a445 c13c
00000090: 7caf e0bd d87e ecbd 5d99 a93d 3c23 f2bd
000000a0: 0bf1 9bbd dc21 313f 8bc3 a93e 7121 8cbd
000000b0: 825b 833d 91e8 84be 6ac1 023f 3128 00bd
000000c0: 00d1 4e3c 0e69 27bc 76ae 76be fe31 603e
000000d0: 3e40 523b d984 15be 421a 083e 7f57 65be
000000e0: d821 91be 7d40 41be 49c6 973d 1edd 8ebd
000000f0: 4eb0 4dbd e047 dc3e 48db c63d b59d 743c
0.12862729 0.19744119 0.081603065 0.013787505 0.22993861 -0.14963013 -0.07452273 -0.14909354
-0.0048052897 0.6553647 -0.0055762595 0.25384095 0.18749999 -0.09807508 -0.07625596 -0.08291821
-0.05278199 0.10710789 -0.10862066 0.25576392 0.41742662 0.6531414 -0.14395912 -0.10594774
-0.028933784 -0.17493166 0.09332228 -0.0034965847 0.05715177 0.07574108 0.12538654 0.36650312
0.0021348214 0.18352023 0.15530287 0.023592778 -0.10970971 -0.11547631 0.08281205 -0.11823127
-0.07614335 0.6919229 0.33157 -0.06842316 0.06413938 -0.25958684 0.51076376 -0.03128833
0.012623072 -0.010217918 -0.24089989 0.2189407 0.0032081748 -0.14601459 0.13291267 -0.22396658
-0.28346133 -0.18872257 0.07410867 -0.069757685 -0.050216965 0.43023586 0.09709793 0.014930178

fc3.weight f4 [4, 64]
00000000: d866 30be 9060 6a3e a7af 2b3f c85d 493e
00000010: 405c 4c3e efab ba3d 06d7 9c3e 2134 2fbe
00000020: 6da3 b13e 1cea 363e 8cb2 c4be 2115 563e
00000030: 2504 5c3d 0a2e 1d3e 3050 1cbd 0df5 04be
00000040: 7005 c5bd 9c3d 223e 48e0 49be 3e50 0b3e
00000050: 4407 013e 3cfd 423e 8b7f 663e 3b00 19be
00000060: 1134 9a3d f9ef 34be dd5e 013e 2bab 2dbe
00000070: 33ad 7d3e d15f a83d 37fc 173e 2728 4e3e
00000080: 4aa9 b93e 7919 8e3e e540 813d 3e18 623d
00000090: 8150 6b3e 4ffb 2d3e 1b2e 1a3d 90a1 07bd
000000a0: 611a 663e 3640 573e 61de 613e a929 65be
000000b0: 515d 023f f8fc dcbd 0026 693e e433 833e
000000c0: 9071 623d e99c 463e 4493 30be da86 833e
000000d0: 1939 83bb 8774 e2bd 78fc 9d3d e099 d6be
000000e0: 90cf 4cbe dc69 863e 9f67 a63c 2fff 953d
000000f0: 0e15 17bf 9c8c d93d bd40 12bf 9f25 403e
00000100: 828b 963e 10c1 2e3e 0640 033f 1141 1f3e
00000110: 7322 113e 1e38 d7be b465 0e3d b145 45bd
00000120: 90ba cb3e 317d 613e deba d1bd 259a 353e
00000130: 457a df3c 6b50 c53e 60de a5bc 4268 01be
00000140: 6767 c5bd d5d3 343e 0c1d 023b e44b e33d
00000150: 568d e93d 719f 5c3e 1d52 8d3d 189d e7bd
00000160: 0ddd 1b3e 3b04 4abe 3420 7abe 8c97 29be
00000170: a8a4 293e 9722 463e a70a 6b3d 5259 1c3e
00000180: aae8 843e 160c 8e3e f526 0e3e 5304 ca3d
00000190: 93d8 e23e 90d4 41be 9bfc a33d 6cc6 333d
000001a0: 6789 dd3e 4032 4f3e 22b2 903e f41a adbd
000001b0: f76d 0c3f d7f4 c2bd 2797 563e 41b8 9f3e
000001c0: b3bf c13e 28f5 5e3e 52ed c2bd d9b2 683e
000001d0: 33fa d73c f564 10be 340b b43d cd7a babd
000001e0: cd62 4fbe 5c67 15be e0ef 5cbd a496 883c
000001f0: 11f7 c6bc e3ce 8c3d f125 0bbf 0add 603e
00000200: 3240 5fbf e960 283e 2fd8 f63e 872b e63e
00000210: 1c37 843e bca5 7f3e 6b08 b53d b37e 19bd
00000220: 27a7 353e 6031 553e 19c2 59be 8574 ab3e
00000230: a8cf ed3d f4d5 4f3d 665c 98bd f00f 3b3d
00000240: 1b57 b2be 66c4 f53d 408d 8f3d fb94 b93d
00000250: 77b6 d83d ad10 8d3e 7bc8 a3be 5885 abbd
00000260: c2f9 ef3e befe 8fbe 4855 76be 9cb2 4fbe
00000270: 1b38 0d3f 25c5 4c3e fe47 633e a31f 893d
00000280: 92ee 853e fed1 6f3d 48fd dc3d 89cf 243f
00000290: 57f9 6f3e 7c04 a73e dcaf 3c3e 9250 b53d
000002a0: 081b 44be 7d13 7d3e 76cc 723e c2d6 91bd
000002b0: c832 7e3e dcc6 0a3c abca 553e 718a 1d3e
000002c0: bdc1 a7be a826 22bd 1cf7 15be 6299 0f3e
000002d0: cd4b 08bf 9bf0 27be a6b9 2f3e 1653 36be
000002e0: abfb 76be 65cd d0be f72a c93e 59bb 333e
000002f0: e120 e7bd aba0 523e e150 32bf 2b2c a4be
00000300: cc28 23be 867e 1a3d acf6 da3e ded7 67be
00000310: f300 183e 98fa b83e c742 03bf 7da6 63bd
00000320: 5f4f d83e 50f5 7d3e e43b 08bf 799c 893d
00000330: 5b9d 523e 7dac 903e 6e38 323d b41d 80be
00000340: 33d2 d23c af04 403e 560b 5a3e 81bc 4a3e
00000350: ae09 063e d14c 803e 967b 0cbe eacf 613e
00000360: 0e6b c43d 7977 f1bd 6e01 7c3e 5ddb 323e
00000370: 58a8 193f 3f3e aebd be0e 1abf 2c9b 323e
00000380: 9c1f d53e 0b3b 4c3e a310 42bd 4ef3 4a3e
00000390: 491d d5be 3da7 b73e 15ef 203e 8936 8a3e
000003a0: 05ae 1d3f c71f 7a3e 6a9d 003e 5958 9bbe
000003b0: 5181 1e3f 7046 94be cd72 153e 7be2 393e
000003c0: bd41 1f3f 74a1 6cbd 3b4c 4abe 60da 863e
000003d0: 6bae c6be 9071 6bbe 6fc3 4b3e b3f7 c33d
000003e0: 7e14 5abe d31b 083e d6ba 04bf f26d f5bd
000003f0: 6f67 25be c7be 1c3e 82cb 22be 5dd7 2cbe
-0.17226732 0.22888398 0.670649 0.19664681 0.19957066 0.09114825 0.306328 -0.1710973
0.34694996 0.17862743 -0.3841747 0.20906498 0.05371489 0.15349594 -0.03816241 -0.12984104
-0.09620178 0.15843815 -0.19714463 0.13604829 0.12600428 0.19041914 0.22509591 -0.14941494
0.07529462 -0.17669667 0.12633844 -0.16959827 0.24773102 0.082214005 0.14842306 0.20132504
0.3626197 0.2775381 0.06311206 0.0551989 0.22979929 0.16990398 0.037641626 -0.033113062
0.22471 0.21020588 0.22057487 -0.22379173 0.5092364 -0.107904375 0.22768402 0.25625527
0.055284083 0.19395794 -0.17243677 0.2568882 -0.0040046093 -0.11057382 0.0771417 -0.41914272
-0.20001054 0.2625264 0.020313082 0.07324063 -0.590165 0.10622522 -0.5713003 0.18764351
0.2940331 0.17065835 0.51269567 0.15552165 0.14173298 -0.42035002 0.03476496 -0.048162166
0.39790773 0.22020413 -0.1024072 0.17734583 0.027279982 0.38537917 -0.020247638 -0.12637427
-0.09638863 0.17658933 0.001985374 0.11098459 0.11403911 0.21545197 0.069004275 -0.1130926
0.15221043 -0.19728176 -0.24426347 -0.16561717 0.16566718 0.19349132 0.057383206 0.15268448
0.2595876 0.27743596 0.13882048 0.09864106 0.44305858 -0.18928742 0.08007165 0.0438904
0.43268892 0.20234013 0.28260905 -0.084524065 0.54855293 -0.09519356 0.20956098 0.31195262
0.37841567 0.21773207 -0.095179215 0.22724475 0.026364421 -0.14101012 0.08791199 -0.09105454
-0.20252533 -0.1459021 -0.0539397 0.016673394 -0.024287732 0.06875398 -0.5435477 0.2195932
-0.8720733 0.16443218 0.4821181 0.44955084 0.25823295 0.24965566 0.08839496 -0.037474345
0.17739545 0.20819616 -0.21265449 0.33487335 0.11611873 0.05074115 -0.074394986 0.045669496
-0.3483208 0.12000351 0.07009363 0.09061619 0.105816774 0.27551785 -0.31988892 -0.08375043
0.46870238 -0.2812404 -0.2405597 -0.20282978 0.55163735 0.1999708 0.22195432 0.06695487
0.26158577 0.058549874 0.10790497 0.64379174 0.2343496 0.3262061 0.1842646 0.08853258
-0.19150937 0.24714465 0.23710808 -0.0712104 0.24824059 0.008470263 0.20878093 0.15384842
-0.32764998 -0.039587647 -0.14645046 0.14023355 -0.5324066 -0.16400377 0.17160663 -0.17805132
-0.24119441 -0.40781704 0.39290592 0.17551936 -0.11285568 0.20569102 -0.6965466 -0.32064947
-0.15933532 0.03771832 0.4276632 -0.2264094 0.14844112 0.36128688 -0.5127377 -0.055578697
0.42248055 0.2480061 -0.53216386 0.06719298 0.20567839 0.28256598 0.043510847 -0.25022662
0.025734996 0.18751787 0.21293387 0.19798471 0.1308963 0.25058606 -0.1371902 0.22051969
0.095907316 -0.11790366 0.2460992 0.17466493 0.600225 -0.08507966 -0.60178745 0.17442006
0.4162568 0.19944398 -0.047379147 0.19819376 -0.41623905 0.3586978 0.15716203 0.26994732
0.6159366 0.24426185 0.12560049 -0.3034084 0.6191607 -0.2895999 0.14594574 0.18152802
0.62209684 -0.05777116 -0.19755642 0.26338482 -0.38804945 -0.2299254 0.19898771 0.09568729
-0.2129688 0.13291864 -0.5184759 -0.11983861 -0.16152738 0.15307151 -0.15897945 -0.1687903

fc3.bias f4 [4]
00000000: b1b9 e93e 7a56 bf3e 1233 b33e 4ad9 a43e
0.45649484 0.37370664 0.349999 0.32197028
