p3_collab-compet/ddpg_critic_agent0.pth (torch_old, 532687 bytes, 9 tensors)

fcs1.weight f4 [400, 24]
000000 ab 66 98 bd c8 15 8f 3f e2 a0 5d be f9 18 f9 3e
       -0.07441457 1.1178522 -0.21643403 0.48651865
000010 5e a2 10 bd 4e d4 2d 3f a2 e2 85 be d1 88 01 3f
       -0.035311095 0.67902076 -0.2614947 0.5059939
000020 f0 6c 2b be c4 41 62 3f 10 b1 2f bc d8 9f 33 bf
       -0.16740775 0.883816 -0.010723367 -0.7016578
000030 0f 24 f6 3d f9 23 96 3e 8c ab a2 bc 56 64 45 bf
       0.120185964 0.2932432 -0.01985719 -0.77106225
000040 5e 67 9d bf 95 54 9a 3f 50 32 06 be 2d 1d 31 bf
       -1.229717 1.2057062 -0.1310513 -0.69185144
000050 2e 7d 1f 3f 5f d0 3d bf 69 15 13 be 97 c0 37 bf
       0.62300384 -0.74146074 -0.14363636 -0.71778244
000060 f6 66 59 3e ce 73 83 bf 1c 2b d9 3d 16 f2 5c bf
       0.21230683 -1.0269716 0.106039256 -0.86306894
000070 fa 4c aa 3e ac 6b dc bf 85 74 1f 3e ae 1d 66 bf
       0.33261853 -1.7220359 0.15571792 -0.8988904
000080 0e 2b 4b 3d 36 c3 ae bf 01 71 a3 bd 40 b8 a7 be
       0.049601607 -1.3653324 -0.07980538 -0.3275776
000090 c2 49 70 3e 44 d5 9e bf 58 4d 8a bc 40 09 a2 be
       0.23465636 -1.2408834 -0.016882583 -0.31647682
0000a0 84 c2 26 be f9 bd ff bf 56 c7 b7 bd 22 1d f5 bc
       -0.1628514 -1.997985 -0.08973567 -0.029921118
0000b0 37 8e 1a bf f7 f9 ba bf b0 09 be bd 01 58 38 bd
       -0.6037325 -1.4607533 -0.092791915 -0.045005802
0000c0 29 a8 78 3e 67 89 60 3f d8 7f 06 bf 75 04 63 3e
       0.24282898 0.8770966 -0.52538824 0.22169669
0000d0 10 aa 91 3c 25 b8 51 bf 2e ed 0b bf 66 8e 8e 3e
       0.017781287 -0.8192161 -0.5465878 0.27843016
0000e0 ff b9 98 3d be 10 55 3f c4 b7 13 be 96 01 f6 be
       0.07457351 0.8322867 -0.1442557 -0.48048085
0000f0 c2 b9 01 be bd 60 db be 84 60 c9 bd b2 51 e3 be
       -0.12668517 -0.42847243 -0.09832862 -0.44398266
000100 4d 49 56 3e c1 97 4b 3f a2 5d 13 3e bc a3 ae bf
       0.209264 0.79528433 0.14391187 -1.3643718
000110 ff c7 71 be 57 3a eb be 62 45 fc 3d 98 16 ae bf
       -0.23611449 -0.45942947 0.12317921 -1.3600645
000120 06 08 b5 3e 5b 62 93 bd c9 b0 cb be 77 b4 0d bf
       0.35357684 -0.07196494 -0.39783314 -0.5535349
000130 95 f4 89 be 38 ef 43 bf 65 30 eb be ef 89 1b bf
       -0.26944414 -0.76536894 -0.4593536 -0.60757345
000140 8f fa 89 be bc 55 a0 3e 61 80 b3 3d 82 b9 78 3e
       -0.26948974 0.3131541 0.08764721 0.24289516
000150 c8 15 25 bd 77 bb 5b be 1f 2b 05 3e 56 a7 71 3e
       -0.040303975 -0.21458231 0.1300473 0.2359899
000160 de 8d 20 bf 7f 1d 2a 3f 39 8c 96 3d 0b 25 a4 3f
       -0.6271647 0.6645126 0.07350964 1.2823805
000170 24 76 14 3f 07 9b 1f 3e 19 50 a8 3d a3 99 a7 3f
       0.5799277 0.15586482 0.082184024 1.3093761
000180 18 a4 9b 3f e3 5b 10 bf d1 e6 ea 3b dd 4e 98 3d
       1.2159452 -0.5639021 0.0071686287 0.07436917
000190 51 fe ae be 22 76 aa bf a5 34 8e 3d 5c 37 00 3d
       -0.34178403 -1.3317301 0.06943635 0.031302795
0001a0 f5 dc 9b 3f 8a 90 90 be 64 26 28 be 94 9c ab be
       1.2176806 -0.28235275 -0.16420895 -0.33517897
0001b0 4a 66 98 be 87 8e af bf 1b 04 5b be f6 00 9f be
       -0.2976554 -1.3715371 -0.21388285 -0.3105542
0001c0 d6 54 33 3f 9a fc 22 bf 83 7a 42 3b a9 79 2c 3e
       0.70051324 -0.6366669 0.0029675073 0.16843285
0001d0 8d ae 3e bf 94 b0 bd be 4f 8a ef 3c e5 c2 0a 3e
       -0.74485093 -0.3704878 0.029240755 0.13550909
0001e0 73 4b 04 be ae c3 ce 3f 27 80 c6 3c ec 57 bd 39
       -0.12919407 1.6153467 0.02423103 0.00036114396
0001f0 ca f9 c4 3f 54 4e ec 3e 2e 90 31 bd 57 5a 12 3d
       1.538873 0.4615351 -0.04335039 0.035730686
000200 80 c0 91 3d 94 12 aa 3f 5e 8a ec bc 1c 49 bf ba
       0.071167946 1.328692 -0.028874572 -0.0014593932
000210 12 32 dc 3f 7e 5e d2 bd cc d0 b8 3c 3c 77 68 3c
       1.720278 -0.10271929 0.0225605 0.014188584
000220 b6 73 08 3e 96 1c 8f 3f df 14 9b bb a3 1e 9b bc
       0.1332539 1.1180599 -0.0047327126 -0.018935507
000230 55 8a 0c 40 b8 e9 a7 be 74 81 10 bd 5b 25 c2 bc
       2.195943 -0.327955 -0.035279706 -0.023699453
000240 b6 a7 95 3e 3d 27 32 bf c1 5f 0e 3e 73 b1 96 be
       0.29229516 -0.6959112 0.13903715 -0.29432258
000250 18 3a 39 be f2 31 02 c0 4c c6 40 3d 83 b8 97 be
       -0.18088567 -2.0342984 0.04706411 -0.2963296
000260 aa 83 de 3e de 83 f4 be 2c bf 45 3d 3e 0a c4 3d
       0.43459827 -0.47756857 0.04827802 0.09572266
000270 71 2b 04 be 02 36 76 c0 68 9b 3c 3d 66 b9 e3 3d
       -0.12907197 -3.8470464 0.046046644 0.11119346
000280 ef a9 a4 3e b7 3a 1b bc 6b 6b 84 3d 68 25 81 bd
       0.321609 -0.009474448 0.06465801 -0.06305963
000290 4e 45 87 3d bd ca de be f6 e0 91 3d ec ab 54 bd
       0.06605016 -0.43514052 0.07122986 -0.05192177
0002a0 b9 b1 74 3e b4 30 30 3f 09 aa 34 bd 26 89 50 3d
       0.23895921 0.68824315 -0.04410747 0.050912045
0002b0 dd 06 86 bf 5f 79 91 3f 52 fb 18 3d b5 08 00 3d
       -1.0470845 1.1365165 0.037349053 0.031258304
0002c0 c4 42 1f bd f0 39 44 3f f1 3a 8e bc e7 0b 0c bd
       -0.038882032 0.76650906 -0.01736209 -0.03419104
0002d0 69 5d fb be a9 3d 01 3f aa 79 93 bb b7 52 0f bd
       -0.49094704 0.5048471 -0.0045005875 -0.034990992
0002e0 a6 4c ea 3c 14 8f d5 3f bb d0 34 bd 8f 2f bc 3f
       0.028601002 1.6684289 -0.044144373 1.4702014
0002f0 ce 3b 51 3f 7a f8 9c bf 29 d3 96 bc a1 4c b6 3f
       0.8173188 -1.2263329 -0.018411236 1.4242135
000300 b5 97 65 3d a9 93 68 bd 40 d8 1c 3d 71 5a e4 3c
       0.056052882 -0.056781445 0.03829217 0.027875157
000310 99 4e 41 3c ed ab 8c 3d e6 0b 67 3d 05 36 b9 3c
       0.011798524 0.0686873 0.05640783 0.022608766
000320 21 3c 83 3d 1d d0 92 bd e2 0d 26 3d e0 ca ed 3c
       0.06407953 -0.07168601 0.040540583 0.029027402
000330 6f 9e 0b bd 13 a2 b9 3d cf 6a 93 3c 50 b8 40 bd
       -0.03408664 0.09064116 0.017995266 -0.047050774
000340 dc 7c 83 3b 94 74 59 bd cd de f4 bc 8d ba b0 3c
       0.004012687 -0.053089693 -0.029891396 0.02157333
000350 7a 30 18 bd 31 d8 cd 3c 85 65 9a 3b ef 8f af 3c
       -0.037155606 0.025127502 0.004711809 0.021430938
000360 22 b0 2f bf 28 4d a6 3f d2 32 1b be 4a e8 fd be
       -0.6862813 1.2992296 -0.15156105 -0.49591285
000370 ee 56 19 3e 93 9a d7 3f c2 dd 30 be 32 8d fe be
       0.14974567 1.6844047 -0.17272094 -0.49717098
000380 73 5d 7a 3e 59 78 c4 3f f3 b4 48 3e 60 85 9a 3e
       0.2444971 1.5349227 0.19600277 0.30179882
000390 93 6f a0 be a0 62 b3 3f 7d 52 4f 3e b4 55 99 3e
       -0.31335124 1.4014473 0.2024631 0.299482
0003a0 8c e0 4b 3e cd bb cc 3f b7 ab f1 3b 48 dd 0b 3e
       0.19909877 1.5994812 0.0073752063 0.13658631
0003b0 bb bd 6a bf 8c 02 7a 3f 27 a2 6d bb 34 37 04 3e
       -0.91695756 0.97660136 -0.003625998 0.12911683
0003c0 03 38 b1 be 79 35 14 3f 2d 7c f3 bc 05 20 f6 be
       -0.34613046 0.5789409 -0.029722298 -0.48071304
0003d0 e9 c8 5e 3e d5 34 12 bf 6f 79 a9 3c 69 4a d5 be
       0.21756329 -0.57111865 0.020687787 -0.41658333
0003e0 d8 30 a9 bf a5 1c 93 3d 21 57 c6 3c ad 16 3a bf
       -1.3218031 0.07183198 0.024211468 -0.7269085
0003f0 ef 28 95 3e 9b ab e0 3e c6 db ab 3d 6d 8c 23 bf
       0.29132792 0.43880925 0.08391528 -0.6388615

fcs1.bias f4 [400]
000000 16 1c 70 3d c4 83 0a 3d 59 a0 f9 3d f3 1b 2b 3d
       0.058620535 0.033817068 0.12188787 0.0417747
000010 8e c0 27 be 0a fd 52 bc 7b db b0 3d 10 ee 10 3b
       -0.16382048 -0.012877712 0.086356126 0.0022114553
000020 b0 e2 23 bc a1 c1 25 be 2a 5d cf 3d ef 43 4c 3e
       -0.010002777 -0.16187145 0.101251915 0.1994779
000030 a7 7b 40 be 60 ff 9d 3d 84 63 b7 3c 20 d9 0e be
       -0.1879717 0.077147245 0.02238632 -0.13950014
000040 03 03 35 3e 79 5e 0c be 71 d4 c1 3c 0a e0 3d 3d
       0.1767693 -0.13707913 0.02366087 0.04635624
000050 cc ce f5 3c 39 b9 28 3e 16 6e a8 bc 14 12 e8 bd
       0.030005835 0.16476907 -0.020560306 -0.11331573
000060 2e ae 87 3d bf 8b c9 bd b6 ca a3 bd f4 b1 b4 bb
       0.06625019 -0.098411076 -0.079976484 -0.0055143777
000070 b4 67 27 be b9 cc f2 3c be f4 4e be 83 da 49 3e
       -0.16348153 0.029638635 -0.20210549 0.19712262
000080 f9 56 bc 3c ad 5e 42 3e 9e 25 16 be 49 f7 04 be
       0.02299069 0.18981428 -0.14662787 -0.12984957
000090 dd 3d 15 3e 2e 21 49 be 9a cb a2 3d be 71 34 be
       0.1457438 -0.19641563 0.0794899 -0.17621514
0000a0 76 e4 ea 3d b2 96 19 be 26 a8 4a 3e 7e fd 3c 3e
       0.11469357 -0.14998892 0.19790706 0.18456075
0000b0 7f ee 16 bd d5 48 89 bd 02 d8 07 3e 5e 4a d1 3d
       -0.03684854 -0.06703345 0.13265994 0.102192625
0000c0 52 fe 1a 3e a7 9a 18 3e 92 69 19 3e 72 7e 39 3e
       0.15136078 0.14902745 0.14981678 0.18114641
0000d0 7e c0 14 bd 7e 89 19 be 30 80 ab 3d cc 5c d3 3d
       -0.036316387 -0.14993855 0.08374059 0.10320434
0000e0 fa 67 f5 bd 4c 1b c6 bd 8d 5a 9a 3d ac 76 1b bd
       -0.119827226 -0.09673175 0.075368024 -0.03795497
0000f0 33 5b 99 3d 80 c8 47 be ac e0 fc bd ad d7 42 3d
       0.07488098 -0.19510078 -0.1234754 0.047568966
000100 5d 3c 8e 3d f9 c7 26 bd 20 5a 50 3d 02 62 a0 3d
       0.06945107 -0.040718053 0.0508672 0.078311935
000110 e0 05 fa bd 29 cb 1e 3e 76 db ac 3d d5 7a 35 3e
       -0.12208152 0.15507187 0.08440296 0.17722638
000120 ce b7 f5 bb 97 97 00 3e 22 96 a2 bd 8d 31 a5 bd
       -0.007498718 0.12557827 -0.07938792 -0.08066092
000130 1a c3 2e be f9 1c 12 3e be a1 6e 3d 82 c1 48 3e
       -0.17066613 0.14268865 0.058259718 0.19605067
000140 64 f8 48 3e b0 8d 89 bd c6 2f 69 3d d2 e2 2a 3e
       0.19626004 -0.06716478 0.056930326 0.16688088
000150 82 c6 04 be 8b fe 27 3e 61 01 0a 3c 83 27 4c be
       -0.1296635 0.16405694 0.00842318 -0.19936948
000160 5d 13 40 be 45 84 8c 3d 8c a2 c8 bd d6 74 e1 3d
       -0.18757387 0.06861166 -0.09796628 0.11008613
000170 56 2b 1c 3e 0c 1c 88 3d a0 8c a1 bc b0 17 d3 3c
       0.15250906 0.066459745 -0.019720376 0.025768131
000180 a0 4d 92 3d b4 40 19 3e be e5 b8 3d c5 03 3a be
       0.07143712 0.14966089 0.09028195 -0.181655
000190 9f 76 e7 3d 05 cc b0 bc d8 d0 86 3c c7 e9 ff bd
       0.11301922 -0.02158166 0.016457006 -0.12495761
0001a0 52 e0 30 3e 6a f8 52 3c b9 1f 5d 3d de 2d 4d 3e
       0.17273071 0.012876609 0.05398533 0.20037028
0001b0 a4 4d 2e be c0 dd 14 3e 23 4c 72 3d 53 98 41 be
       -0.17021805 0.14537716 0.05915464 -0.18905763
0001c0 c8 3e 0e be 93 80 99 3c 59 b9 d7 bd ff c7 46 be
       -0.13891137 0.018738067 -0.10533399 -0.1941223
0001d0 4c c1 e7 bc 2d a0 6a 3d 1a 1a 00 be 80 3b ff bd
       -0.028290413 0.05728166 -0.12509957 -0.124625206
0001e0 b7 e8 b2 3d bc 51 1b bd 37 bd 30 be 9e 49 3b be
       0.08735793 -0.037919745 -0.1725968 -0.18289801
0001f0 06 38 de bd bc a9 33 be 78 6a ed 3d 48 6c 90 3d
       -0.108505294 -0.17545217 0.11592573 0.07051903
000200 4d 44 a7 bd b1 8b e5 bd 03 2e fb 3d f1 cd 51 3d
       -0.08167324 -0.11208285 0.122646354 0.05122179
000210 6c 54 1f be 22 5d 51 3d 38 ad ec 3d d0 83 73 3c
       -0.15559548 0.05111421 0.11556476 0.0148629695
000220 cc 51 a6 3d c8 2b 96 bc dd 1b 40 3c cf f8 c7 bd
       0.0812107 -0.018331423 0.011725393 -0.09764253
000230 32 b7 5d 3d 07 19 1c be ed 32 bd bd fb ac cf bd
       0.054129787 -0.15243922 -0.09238229 -0.10140415
000240 df 5c dc bd 32 88 31 3e 5f 5f 30 be 9e 83 06 3d
       -0.10759901 0.1733711 -0.17223881 0.032840364
000250 61 b6 88 3d 7d 4a 88 bd bf 88 10 3e c8 d0 c5 3c
       0.06675411 -0.066548325 0.14114664 0.024147406
000260 d0 36 9d bd 56 29 50 be ff 79 15 be 3f 00 55 bc
       -0.0767647 -0.20328268 -0.14597319 -0.013000547
000270 75 d9 3e 3e b0 0b d1 3d 61 93 83 3d ba 5f 81 bd
       0.18637641 0.10207307 0.06424595 -0.063170865
000280 aa 79 4e bd c2 66 5c 3d 3c f4 2e be 1c 11 21 3d
       -0.050408997 0.053808935 -0.17085356 0.039322957
000290 b6 12 f3 3b a7 76 53 3d a1 d7 93 bd 83 4d 4a be
       0.007418002 0.051626828 -0.07218862 -0.19756131
0002a0 ad 21 9d 3d cc 84 02 3d 9a 42 13 be f8 7e 8b 3d
       0.07672439 0.031864926 -0.14380875 0.06811327
0002b0 f3 81 07 3e cb a7 1f bd 88 56 48 be 13 6a c1 bd
       0.13233165 -0.03897838 -0.19564259 -0.0944406
0002c0 26 bb 16 3b 6f 76 d3 3c 3a 71 23 be dd 7c 23 be
       0.0022999733 0.02581331 -0.15961161 -0.159656
0002d0 3a f4 92 bb cf cf 60 bd de 6c 37 be ae 36 05 be
       -0.0044846805 -0.05488568 -0.17912623 -0.1300914
0002e0 83 b8 0c 3e 0e e7 16 3e f0 52 c4 bd c6 a3 18 be
       0.1374226 0.14736578 -0.095861316 -0.14906225
0002f0 64 84 2a be 40 f8 7d bd fe 07 d6 3d bf 40 6f bd
       -0.16652066 -0.062004328 0.10450743 -0.058411356
000300 02 1e f5 3d 8d f4 95 3c 67 37 fc bd 1a 7e cb 3d
       0.11968614 0.018305087 -0.12315255 0.09936161
000310 79 83 12 be 57 45 39 be 1d 82 af bd c0 43 9a bb
       -0.14307965 -0.18092857 -0.08569739 -0.0047077835
000320 c6 dc d8 3b 7e e7 2b bc c1 8e 12 3e 38 f0 06 3e
       0.006618115 -0.010492204 0.14312269 0.13177574
000330 41 45 b9 3d 2e d6 24 be 31 09 33 3e e6 72 81 bd
       0.09046412 -0.16097328 0.17483975 -0.06320743
000340 2d 08 4f 3e 2b 4f 30 3e 42 1a dd 3d f5 b6 0c be
       0.20217963 0.172177 0.10796024 -0.13741668
000350 40 9d f7 3d 34 8f cc 3d 64 57 1b be 59 b7 08 3d
       0.1209054 0.09988251 -0.15170056 0.03337798
000360 8c 84 b6 3a 74 58 18 3c c2 cb 19 be d2 ef 1a 3e
       0.0013925 0.009298433 -0.15019134 0.15130547
000370 54 70 0c be 41 8c f7 3d f3 e5 79 bc 60 66 05 bd
       -0.13714725 0.12087298 -0.015252578 -0.032568336
000380 dc e9 e9 3d ac 84 32 bd 07 22 05 bd 1b f9 37 3c
       0.11421558 -0.043583557 -0.032503154 0.011228825
000390 11 66 80 3d 96 49 04 be 31 47 1b be 0f 96 2e be
       0.062694676 -0.12918696 -0.15163876 -0.1704943
0003a0 36 69 8a bd ed cc 21 3e 9b 47 11 3e 4c 7e eb 3d
       -0.06758349 0.15800829 0.14187472 0.114986986
0003b0 d3 82 ad 3d 15 b8 43 be 46 c3 21 3e 79 de cc 3d
       0.08472218 -0.1911319 0.15797147 0.10003371
0003c0 98 12 4a 3e 85 bb 8c ba ef 35 50 3d 98 da 50 3d
       0.19733655 -0.0010737038 0.050832685 0.050989717
0003d0 72 58 f6 3d 98 20 12 3e 8b a2 27 3e 6a 69 42 3e
       0.12028588 0.14270246 0.16370599 0.18985525
0003e0 50 84 2e bd 3d 1b 25 be 8f 2b 07 be 8e 38 38 be
       -0.04260665 -0.16123672 -0.1320021 -0.17990324
0003f0 44 92 3b be b3 a8 20 3e 61 66 bf 3d 34 3f a5 bd
       -0.18317515 0.15689354 0.09345699 -0.08068696

bn1.weight f4 [400]
000000 f1 e5 b4 3e b3 76 c9 3e 6a e1 94 3e 3d a5 95 3e
       0.3533168 0.39348373 0.29078227 0.2922763
000010 81 33 90 3e 20 e3 56 3f a9 aa 0c 3f 88 c9 b2 3e
       0.28164294 0.83940315 0.54947907 0.3491938
000020 be 34 4a 3b 79 c3 91 3e 1d 3a e7 3e 2c a7 cb 3e
       0.003085419 0.28469446 0.45161524 0.3977598
000030 71 2d 67 3e ca 90 a1 3e 8f 15 74 3e b4 ac c0 3e
       0.22575928 0.31555778 0.23836349 0.37631762
000040 ae cd 15 3f e9 7b 0e 3f f0 d3 e2 3e 46 19 8d 3e
       0.5851697 0.5565782 0.4430232 0.27558345
000050 eb 17 ee 3e 7b 29 f4 3e f1 98 f3 3e 7e 7e d4 3e
       0.46502623 0.47687897 0.47577623 0.41502756
000060 b3 02 e1 3e dd 68 cb 3e 57 78 ea 3e 5d 77 c6 3e
       0.43947372 0.39728442 0.45794937 0.38762942
000070 58 04 d2 3e 0d a0 bd 3e f7 58 01 3f 97 07 26 3f
       0.4101894 0.37036172 0.50526375 0.6485533
000080 c7 3f f6 3e e7 a3 b3 3e 68 a4 24 3f 55 75 a5 3e
       0.48095533 0.35085985 0.64313364 0.3231608
000090 a7 4f 27 3f 10 19 d7 3e 04 a1 18 3e 56 f9 a4 3e
       0.65355915 0.4201131 0.14905173 0.32221478
0000a0 06 da cb 3e 61 fa c2 3e d1 46 b1 3e bb 43 98 3e
       0.39814776 0.3808165 0.3462434 0.29739174
0000b0 8d 25 dc 3e 08 12 e3 3e 0c d8 05 3f 6c 6a 79 3e
       0.429974 0.44349694 0.52282786 0.24357003
0000c0 e0 75 b0 3e c8 35 17 3f ab 6e 09 3d 51 8e 17 3f
       0.3446493 0.5906644 0.033552807 0.5920153
0000d0 5e 37 d1 3e f6 c5 c4 3e 8c ca 25 3f 71 e2 fb 3e
       0.40862554 0.38432282 0.64762187 0.491962
0000e0 50 7e fb 3e 1f a5 b2 b9 cf 45 46 3e c5 65 12 3f
       0.49119806 -0.0003407383 0.19362567 0.5718654
0000f0 bb 05 08 3f 33 6b cd 3e 1f f9 21 3f c2 c7 f6 3e
       0.53133744 0.4012085 0.63270754 0.48199278
000100 0e ad e4 3e ab 0e a3 3e 2c 56 08 3c 2b 54 e6 3e
       0.4466328 0.31847128 0.008321326 0.4498609
000110 70 9f d4 3e 01 b6 95 3e df 73 d6 3e 9e f1 3e 3f
       0.4152789 0.2924042 0.41885278 0.7458743
000120 79 5c c2 3e cb 05 1b 3f ed 0a ce 3e 0e f3 5b 3e
       0.37961176 0.60555714 0.4024271 0.21479437
000130 03 aa b1 3e 06 f6 c1 3e 9f b8 b7 3e e2 15 5f 3c
       0.3470002 0.37883013 0.35883042 0.013616057
000140 91 36 ad 3e 8f 01 1f 3f b9 da cc 3e e1 dc 71 3e
       0.33830693 0.62111753 0.40010622 0.23619415
000150 4f 76 b2 3e 6d 67 62 3e aa 78 ce 3e bd b1 1a 3f
       0.34855887 0.22109766 0.40326434 0.6042746
000160 c7 20 d3 3e 98 1d d3 3e 92 ff 93 3e 7e 44 d2 3e
       0.41235945 0.41233516 0.28905922 0.4106788
000170 26 7c 0d 3f 11 14 8c 3e 02 f4 8b 3e 2a 81 75 3b
       0.5526756 0.2735906 0.273346 0.003746102
000180 fd e6 19 3f 77 5c d5 3e 97 f5 9b 3e 1f ab e3 3e
       0.60118085 0.41672108 0.30460808 0.44466493
000190 f6 8a c3 3e 92 42 95 3e da e9 b3 3e c7 32 09 3f
       0.38191956 0.29152352 0.35139352 0.53593105
0001a0 49 18 4c 3e e0 03 ba 3e 1c ae 9d 3e 91 cd 9a 3e
       0.19931139 0.3633108 0.30796897 0.3023496
0001b0 cc 08 d3 3e da d1 cb 3e 1e e9 08 3f 1d d5 93 3e
       0.4121765 0.39808542 0.5348071 0.2887353
0001c0 96 af 9e 3e e1 2f e3 3e 52 a9 8d 3e bf 87 01 3f
       0.30993336 0.44372466 0.27668244 0.5059776
0001d0 a3 5a 06 3f 0f fe c1 3e 44 99 b7 3e f2 3e 53 3f
       0.5248205 0.37889144 0.3585912 0.8251792
0001e0 9e 16 9c 3e b7 72 c4 3e e9 82 0a 3f 8b 48 9a 3e
       0.30486006 0.3836877 0.54106003 0.3013347
0001f0 59 ab d2 3e 9a 26 04 3f 1d 94 e9 3e 34 a2 e4 3e
       0.41146353 0.516214 0.45620814 0.44655
000200 1b b3 d7 3e 09 6f aa 3e 7b da 90 3e d9 73 a9 3e
       0.42128834 0.33287838 0.28291687 0.33096197
000210 1e 1d 99 3e cc d3 b1 3e 50 94 0b 3f 9a d5 f8 3e
       0.29905027 0.347319 0.5452318 0.48600465
000220 b3 d9 18 3f 38 ee 7f 3e 18 86 f6 3e d6 60 80 3e
       0.5970718 0.24993217 0.4814918 0.2507388
000230 d0 7c 2b 3f 59 e9 32 3f 12 dc 96 3e 71 9c dc 3e
       0.66987324 0.6988731 0.29464775 0.43088105
000240 b6 1d dc 3e e3 ce a3 3e 3d d9 d3 3e 0c 5d d5 3e
       0.42991418 0.3199378 0.41376677 0.41672552
000250 f7 5c cb 3e f1 fb c4 3e a4 ef 7f 3e ee 0f 50 3f
       0.39719364 0.38473466 0.2499376 0.81274307
000260 e4 83 ce 3e e3 fd 15 3f b0 9d 00 3f 6e 41 a7 3e
       0.40335 0.58590525 0.5024061 0.32667106
000270 f3 31 c1 3e 05 11 15 3d 8f d5 c5 3e 15 be 9f 3e
       0.3773342 0.036393184 0.38639495 0.3119971
000280 f5 2b f8 3e 9f d5 65 3e 64 45 20 3f b6 58 f2 3e
       0.48471037 0.22444771 0.6260588 0.47333306
000290 a8 7a c4 3e 29 ac dd 3e d2 09 fb 3e f8 06 0e bb
       0.3837483 0.4329541 0.4903093 -0.0021671634
0002a0 35 cc d1 3e 92 08 e9 3e 18 81 9c 3d c5 dd 96 3e
       0.4097611 0.4551435 0.0764181 0.29466072
0002b0 70 48 df 3e 94 4c e6 3e 81 5e c6 3e 9f e3 e5 3e
       0.43609953 0.449803 0.38743976 0.44900224
0002c0 15 c9 25 3f 43 62 8f 3e e6 7b e4 3e cf a2 fe 3e
       0.6475995 0.28004655 0.44625777 0.49733588
0002d0 ef 03 94 3e 20 1e 00 3f 87 c8 b1 3e 1c e8 ee 3e
       0.2890925 0.5004597 0.34723303 0.4666146
0002e0 69 65 22 3f c5 7c ce 3e 6e b0 a1 3e 51 fc 4d 3f
       0.6343599 0.40329567 0.31579918 0.8046313
0002f0 87 be e1 3e fa 70 3f ba 4e 09 ea 3e e0 24 21 3f
       0.44090673 -0.00073029066 0.45710224 0.6294689
000300 0c f4 42 3e df 82 14 3f c3 13 4f 3f 68 52 d0 3e
       0.19038409 0.58012193 0.8088953 0.4068787
000310 26 cb 0e 3f 80 71 18 3f 9a b0 a7 3e 28 d7 c5 3e
       0.5577873 0.5954819 0.32751924 0.38640714
000320 ed 97 99 3e fa 10 cd 3e b7 2b d7 3e 2c f1 f4 3e
       0.29998723 0.40052015 0.4202554 0.4784025
000330 41 58 94 3f e7 0b 2a 3f 24 78 a4 3e 00 1c 58 3f
       1.1589433 0.6642441 0.3212291 0.84417725
000340 9b 47 cb 3e e7 78 a4 3e 1f 02 93 3e 06 c4 69 bc
       0.39703068 0.3212349 0.28712556 -0.014267927
000350 14 b5 88 3e 33 dc 8e 3e 9a 1d a6 3e 8b b1 b2 3e
       0.26700652 0.27902374 0.3244446 0.3490108
000360 9a f0 cb 3e 7d 4e ba 3e e6 fa ec ba d7 16 43 3f
       0.39832002 0.36388007 -0.0018080145 0.76206726
000370 12 b4 80 3e e9 a4 14 3f 20 1e a0 3e b4 5d 72 3e
       0.25137383 0.5806413 0.31272984 0.23668557
000380 9e 38 66 3c 21 f3 3a 3b cf 31 84 3d a4 e1 50 3e
       0.0140515845 0.0028526264 0.06454813 0.20398575
000390 be de ae 3e 70 da 19 3f ae cd 51 3e 0e 03 b7 3e
       0.34154314 0.60098934 0.20488617 0.35744518
0003a0 ac f0 ae 3e e1 9d 9c 3e f2 03 1f 3f 67 99 95 3e
       0.34167993 0.30589202 0.62115395 0.292186
0003b0 ed 1b a9 3e aa df e3 3e bc ff 2f 3f e1 26 68 3e
       0.33029118 0.4450658 0.68749595 0.22671081
0003c0 5a 5e 90 3e 3a 77 dc 3e 71 36 c3 3e 4c 1a 71 3f
       0.28196985 0.43059713 0.38127473 0.9418075
0003d0 b5 67 0e 3f 3b 26 c3 3e 09 54 d0 3e a3 8e 62 3f
       0.55626994 0.38115105 0.40689114 0.88498896
0003e0 fa d7 c2 3e e8 63 79 3e 1b 73 e6 3e db 1b 63 3f
       0.38055402 0.24354517 0.45009694 0.8871438
0003f0 b8 01 11 3f d3 35 c6 3e 24 cc 80 3e 65 3c 02 3f
       0.5664325 0.3871294 0.25155747 0.50873405

bn1.bias f4 [400]
000000 03 08 3a bf 04 a5 11 bf 5a b7 62 be 31 f5 02 bf
       -0.72668475 -0.5689242 -0.22140256 -0.5115538
000010 57 4a 01 bf ea bb 8a bd a2 c0 18 bf 32 32 86 be
       -0.5050406 -0.06774123 -0.59668934 -0.2621017
000020 09 3b 27 bd 02 01 be be 78 d2 01 bf 7f a4 3e bf
       -0.040827785 -0.37110144 -0.50711775 -0.7446975
000030 7d 15 97 bc 42 9b bc be 79 2a 85 be a4 a6 0a bf
       -0.018442864 -0.36837202 -0.26008967 -0.54160523
000040 b8 55 7b bf de 4f 4f be 2c 94 2d bf cc a9 96 be
       -0.9817767 -0.2024531 -0.6780422 -0.2942642
000050 5d 26 ee be 1d a8 4b bf 82 d4 0e bf 42 2a b5 be
       -0.46513644 -0.79553396 -0.5579301 -0.35383803
000060 ba 22 d9 be 0b 46 b3 be 0e d4 1b bf 0a a0 03 bf
       -0.42409307 -0.35014376 -0.60870445 -0.51416075
000070 e6 ec 0c be 50 4a ff be 17 3d 80 3d 6b 9d ac be
       -0.13762245 -0.49861383 0.06261652 -0.3371385
000080 f3 7b 08 bf 13 d4 aa bd a4 e3 7a bf aa 42 e7 be
       -0.5331413 -0.08341231 -0.980036 -0.45168048
000090 aa ea 12 bf 7e 17 ba be f5 c6 a7 bd 26 b3 b4 be
       -0.5738932 -0.36346048 -0.08192245 -0.3529293
0000a0 ff 36 11 bf de 7e 12 bf 7d 02 1d bf b4 12 91 be
       -0.5672454 -0.57224834 -0.6133192 -0.28334582
0000b0 45 62 ef bd a6 fa 97 be 89 c6 bd be b1 1e 91 be
       -0.11688665 -0.29683417 -0.37065533 -0.28343728
0000c0 6a ea e4 be 21 4e a4 be 02 0e a2 be 96 c6 5e bf
       -0.44710094 -0.32090858 -0.31651312 -0.8702177
0000d0 9c 1a ff be 6c 60 e5 be df 65 da be 5f 7d b1 be
       -0.4982499 -0.44800127 -0.42655846 -0.34665963
0000e0 1b 9b c5 be 09 7a 44 bb 52 e8 70 be e3 31 5d bf
       -0.385949 -0.0029979965 -0.23526123 -0.86404246
0000f0 c1 d9 48 bf b8 c6 0c bf 2e 3a 32 bf aa 8f 28 be
       -0.78457266 -0.5499072 -0.69620025 -0.16461053
000100 c2 a6 28 bf 9f 10 fa be 39 59 24 bd 23 26 1a bf
       -0.6587945 -0.48840806 -0.04012415 -0.6021444
000110 d5 6c e3 be a3 4e 72 be dc af 0d bf f6 f0 16 bf
       -0.4441897 -0.2366281 -0.55346465 -0.5896143
000120 75 74 f3 be f1 1a cc bd ec ba 04 bf 69 96 5d be
       -0.47549787 -0.09966076 -0.5184772 -0.21639408
000130 79 52 04 bf 5c 89 e1 3d fa cc 41 bf ff 1d 8a bd
       -0.51688343 0.11012527 -0.75703394 -0.067440026
000140 f0 2a db be 8b 2d d3 be 0d a3 27 bd c7 99 2b be
       -0.42806196 -0.41245684 -0.04092698 -0.1675788
000150 02 e3 38 bf 00 5f c3 bd c9 a0 11 bf 7e cf 4f bf
       -0.72221386 -0.09539604 -0.56885964 -0.8117598
000160 52 e9 38 bf 44 81 e7 be b7 52 ad be cc 76 ef be
       -0.7223102 -0.4521581 -0.3385217 -0.46770322
000170 cc 9d c3 be 0e 17 5d be 4c 60 02 be 55 94 55 bc
       -0.38206327 -0.21590826 -0.12732047 -0.013035853
000180 b1 1e fa be 17 b0 54 3d ed 1e c5 be aa dd 07 bf
       -0.4885154 0.051925745 -0.38500157 -0.5307261
000190 d9 91 9c be 94 0e a1 be 1a d3 b1 be 68 2e 08 bf
       -0.30580023 -0.31456435 -0.3473137 -0.5319581
0001a0 f8 ad 56 bd 14 02 0b bf 84 e6 92 be aa 3f 15 bf
       -0.052412003 -0.54300046 -0.28691494 -0.5830027
0001b0 2c b3 97 be 37 51 0b bf cc 23 fb bd 1f f0 ca be
       -0.29628885 -0.544208 -0.12262687 -0.39636323
0001c0 08 84 b3 be 9b 31 01 bf f6 f4 b1 be 81 47 a6 be
       -0.3506167 -0.50466317 -0.34757203 -0.32476428
0001d0 36 f2 1a bf c4 39 b3 be e2 c9 d9 be 39 36 ce be
       -0.60525835 -0.3500501 -0.42536837 -0.40275744
0001e0 2e 6e 08 bf fa 50 fd be 02 c8 ec 3d f8 ca cc be
       -0.5329312 -0.49475843 0.11561586 -0.39998603
0001f0 e4 02 0c bf be ab 18 bf ec 61 0d bf 87 d3 32 bf
       -0.5469191 -0.5963706 -0.5522754 -0.69854015
000200 32 d5 47 bf c5 33 22 bf 02 43 79 be c3 9a af be
       -0.78059685 -0.63360244 -0.24341968 -0.3429776
000210 77 e1 8f be bc e5 bd be bd 49 da be b3 46 b5 be
       -0.28101704 -0.37089336 -0.42634383 -0.35405502
000220 b2 2e 16 bf 0e 24 60 be 95 4d 3e bf b3 6b 44 be
       -0.58665 -0.21888754 -0.7433713 -0.19181709
000230 98 57 3a bf 95 62 fc be 65 69 c1 be be c7 38 bc
       -0.7278991 -0.49293962 -0.37775722 -0.011278091
000240 e8 1b ae be 55 9e 13 bf dd 43 db be 02 dc fe be
       -0.34005666 -0.5766347 -0.42825213 -0.49777228
000250 48 c0 04 bf 5c c7 e9 be 07 6c 3f be e0 2c 16 bf
       -0.518559 -0.45659912 -0.18693553 -0.58662224
000260 78 8a 18 bf f4 99 c0 be 6f df 58 3d af a7 92 be
       -0.59586287 -0.37617457 0.052947458 -0.28643557
000270 14 ba 82 be 3c 14 5f be b1 62 11 bf 9e 59 d0 be
       -0.2553259 -0.21785063 -0.56791216 -0.40693372
000280 6d bf 44 bf 35 7c 80 be e4 0e 10 bf 51 cd fe 3c
       -0.7685459 -0.25094762 -0.5627272 0.031103762
000290 21 20 23 bf 8c c3 8d be f9 d2 6d bd 5c b5 1e bc
       -0.637209 -0.27688253 -0.058062527 -0.009686794
0002a0 e8 5b cb bd c0 b9 09 bf a6 97 7d be 0b 7f da be
       -0.09929639 -0.53799057 -0.2476488 -0.4267505
0002b0 d7 b5 0f bf d3 9f c7 be 4f c8 30 bf 5d fc 0d bf
       -0.5613684 -0.38989124 -0.69055647 -0.554632
0002c0 f7 ce 0a bf 36 ff 1b bf 01 6b e7 be b6 9e f8 be
       -0.54222053 -0.60936296 -0.45198825 -0.48558587
0002d0 88 0b 31 be 1a a5 4e be e2 67 8b be 9e 1c ca be
       -0.17289555 -0.20180169 -0.27227694 -0.39474958
0002e0 92 e4 4a bf 87 df 22 bf dc 1c a9 be 7d 4b 71 be
       -0.7925502 -0.63622326 -0.3302983 -0.23563953
0002f0 97 b4 bc be 23 85 57 bb ee 9e 24 bf 34 c4 60 bf
       -0.3685653 -0.0032885752 -0.6430501 -0.8779938
000300 ac 50 02 be 6d f3 bb be ea 66 48 be 3f 65 c7 be
       -0.12726086 -0.36709157 -0.19570509 -0.38944432
000310 6e bb 9d be ba b9 16 bf 99 a3 f2 be 50 ea 8b be
       -0.3080706 -0.58877146 -0.4739044 -0.27327204
000320 ec 64 23 be 38 bd e9 be a9 52 cf be 98 74 20 bf
       -0.15956467 -0.45652175 -0.40492752 -0.6267791
000330 15 3f 9b be d8 13 23 bf d4 47 af be cf 45 59 bf
       -0.30321565 -0.63702154 -0.34234488 -0.84872144
000340 9d 75 1a bf c7 5e 89 be ff 7f 5b be e2 5d 90 bd
       -0.60335714 -0.26830122 -0.21435545 -0.07049157
000350 96 fa 93 be 53 49 bc be 14 e2 f6 be 48 70 18 bf
       -0.2890212 -0.36774692 -0.4821936 -0.5954633
000360 45 ab 0c bf c2 3e c5 be ed 27 4a bc e6 4a 81 be
       -0.54948837 -0.38524443 -0.012338621 -0.25252455
000370 48 5e ee be 8d 66 1d bf 25 67 06 bf 20 ea 3d be
       -0.46556306 -0.61484605 -0.52501136 -0.18546343
000380 e4 59 87 bd 35 c7 57 bc 0c fa 79 be 5a c0 92 be
       -0.06608942 -0.013170053 -0.24411792 -0.28662378
000390 eb c8 b0 be d6 13 d3 be 25 4c de bd 11 a8 01 bf
       -0.34528288 -0.4122607 -0.10854367 -0.50647074
0003a0 d9 f6 2f be 97 30 c1 be 95 de 3a bf 21 63 7f be
       -0.17184009 -0.37732384 -0.72995883 -0.24940158
0003b0 03 a5 4c be 66 a3 fc be ac e1 9e be 45 78 93 bd
       -0.19984822 -0.49343413 -0.3103155 -0.07200674
0003c0 18 a4 f1 be 3e ae 19 bf 35 a7 65 bf 7c 86 3f be
       -0.47195506 -0.600315 -0.8970826 -0.18703645
0003d0 0b dd 25 bf 1a e3 67 bd 5e 45 a4 be bf 6b 27 bf
       -0.6479041 -0.056613065 -0.32084173 -0.6539878
0003e0 8b 1b 0d bf 32 fa ca be e8 96 99 be 7c f8 8f bf
       -0.5512015 -0.3964401 -0.29997945 -1.1247706
0003f0 98 0d a4 be ce 14 5f bf cb d0 92 be ae 83 1a bf
       -0.3204162 -0.8714112 -0.2867492 -0.6035718

bn1.running_mean f4 [400]
000000 6b 7e f0 40 ca 3c 50 c1 68 4c 6f c1 89 0b 90 bf
       7.515432 -13.014841 -14.956154 -1.125352
000010 16 a0 0a c2 d0 88 8d c0 96 fb de c1 77 1c 3b c0
       -34.656334 -4.4229507 -27.872845 -2.9236124
000020 c3 57 61 3e 85 49 4d 41 35 62 06 42 b3 4a ce bf
       0.22006135 12.830449 33.595905 -1.6116546
000030 57 7e 15 41 8e b9 5c c1 0b ed 84 be 32 03 54 bf
       9.343345 -13.795301 -0.259621 -0.82817376
000040 3b 42 6d 40 31 04 06 41 1d 55 aa c0 82 45 f7 40
       3.7071674 8.376023 -5.32289 7.727235
000050 94 1e 46 c1 31 c4 ce 40 92 49 03 c1 c4 1e 1e 41
       -12.382465 6.461449 -8.2054615 9.882511
000060 d0 ff 01 c0 06 16 58 41 29 a1 65 c1 2b 5f 06 41
       -2.0312386 13.505377 -14.351846 8.398234
000070 4a 90 60 41 34 bf bc c1 fa b5 b8 bd 5e 41 3d 40
       14.035227 -23.59336 -0.09019084 2.9571147
000080 4d 1c 88 41 de d2 96 3d 99 2c d7 c1 86 f9 c1 c0
       17.013819 0.073644385 -26.896776 -6.0617094
000090 16 fd 0c 41 f3 04 17 42 a3 08 95 41 7d 5e de 3d
       8.811789 37.754833 18.629217 0.10857866
0000a0 d4 01 2a 3f a3 c0 6f c1 19 d5 f5 c0 66 91 02 c2
       0.6640904 -14.98453 -7.682263 -32.64199
0000b0 50 42 b3 41 45 42 99 41 ad c5 30 c1 c3 c6 42 41
       22.40738 19.157358 -11.048261 12.173526
0000c0 94 15 57 c1 2c af d4 bf 82 83 71 41 0d 6e 09 41
       -13.442768 -1.6615958 15.094606 8.589368
0000d0 4b 5c d2 bf ef 20 62 41 5c 89 83 c0 3a 22 5f c1
       -1.6434416 14.13304 -4.1105175 -13.945856
0000e0 aa 05 0b 41 79 eb 41 bf 3e c8 fe c0 53 00 07 41
       8.688883 -0.7574993 -7.9619436 8.437579
0000f0 19 96 ce c1 52 60 08 c1 b8 af cc be 77 fa 8c 41
       -25.82329 -8.523516 -0.39977813 17.622297
000100 d5 5b b8 3f 51 e2 85 c0 d2 b3 e3 bf ca 86 b6 40
       1.4403025 -4.1838765 -1.7789252 5.7039537
000110 7e 4c b5 c0 61 f6 8e c0 89 30 93 c0 f7 1b 46 40
       -5.6655874 -4.4675756 -4.5996747 3.0954568
000120 dd 1f 3e c1 62 2f 63 41 73 fb 36 40 94 fa 79 c0
       -11.882779 14.199068 2.8590972 -3.905919
000130 c6 b1 0e c2 15 25 84 3f dc 21 5c c1 d7 48 3b 40
       -35.673607 1.0323817 -13.758266 2.9263208
000140 86 06 7b c1 e3 93 b6 bf 20 fe d5 40 51 ab 42 c1
       -15.689093 -1.4263881 6.687271 -12.166825
000150 9c a3 70 c1 06 3c 9d 41 58 dd 0b 41 ef 0c 91 41
       -15.039944 19.654308 8.741539 18.131315
000160 ae de c2 c0 e6 4d 02 42 6b 96 94 c0 56 b6 1c c1
       -6.0896826 32.576073 -4.6433616 -9.794516
000170 d5 7f fe c0 3f 8d 15 c1 06 d0 06 41 9c 33 08 3f
       -7.9531045 -9.346984 8.425787 0.5320375
000180 52 03 66 41 4a eb 96 40 2a 0a 63 40 16 24 61 41
       14.375811 4.716222 3.5474954 14.07131
000190 21 df fe c1 96 a1 9f 40 3a d7 ca 41 c5 ee aa bc
       -31.85895 4.988475 25.355091 -0.020865807
0001a0 c8 7f cf 41 55 6a 40 c1 d9 af 99 41 1f f2 72 41
       25.937393 -12.02596 19.210863 15.184112
0001b0 44 ad 81 41 e0 e8 ce c0 39 8c 84 41 d7 fa c6 c0
       16.209602 -6.465927 16.568468 -6.21812
0001c0 c7 83 a2 41 ae 91 cc 40 a5 d0 62 3f 31 25 5f 41
       20.314344 6.392783 0.88599616 13.94658
0001d0 6f e2 9f 41 67 30 0c c1 4e 34 38 41 d5 0f 14 bf
       19.985563 -8.761817 11.51277 -0.5783666
0001e0 09 ca 99 c1 66 35 3e 41 ca 48 fd be 8c 83 64 c1
       -19.22365 11.888037 -0.49469596 -14.282116
0001f0 6d 07 86 40 2a 31 8f bf 09 e0 de c0 1d 61 02 c1
       4.1884065 -1.1186879 -6.964848 -8.148709
000200 88 99 52 41 64 98 68 41 f6 e9 43 40 42 41 5c 3f
       13.162483 14.537205 3.0611548 0.86037076
000210 22 52 a9 c1 11 95 64 c1 15 ad 20 41 1c f5 a1 c1
       -21.165104 -14.286393 10.042256 -20.244682
000220 bf af ca bf b5 13 10 41 ae 57 02 41 da e6 b8 41
       -1.5834883 9.004811 8.146406 23.11272
000230 11 54 85 3f 2d 79 05 40 c4 4e 27 41 0b a8 33 40
       1.041628 2.085521 10.45673 2.8071315
000240 80 6b 2e c0 3b 8c 04 41 fc eb f1 c0 93 cf 96 c1
       -2.7253113 8.284236 -7.5600567 -18.851355
000250 97 26 aa c1 ae bb 1d c1 5f d6 2f c0 53 d4 71 bf
       -21.268843 -9.85832 -2.7474592 -0.94464606
000260 a1 d6 92 41 63 c8 0a 41 57 e4 74 41 44 17 a4 c0
       18.3548 8.673923 15.305747 -5.12784
000270 25 6a 9a c1 8e 36 86 c0 2b 0e 85 41 74 9f c7 c1
       -19.301828 -4.1941595 16.631918 -24.952858
000280 20 f4 07 40 b5 64 02 c2 75 99 e2 41 d6 b0 06 41
       2.1242752 -32.598347 28.32493 8.418173
000290 c0 57 8c 40 e7 f9 72 40 07 87 bf bf 6a 6f 42 be
       4.3857117 3.7965028 -1.4963082 -0.18987814
0002a0 8b 84 9b 41 a5 02 62 c1 18 84 a5 40 79 1a a2 c0
       19.439718 -14.125646 5.1723747 -5.0657315
0002b0 d8 a1 f4 c0 31 15 ae 40 a9 d4 3d c1 b3 04 3a 41
       -7.6447563 5.440087 -11.864419 11.626147
0002c0 01 55 94 40 92 36 91 41 44 45 96 40 b3 67 c6 41
       4.6353765 18.151646 4.6959553 24.800634
0002d0 88 59 2a 41 6e 47 a1 41 f2 67 c9 c0 df fe ff bf
       10.646858 20.159878 -6.2939386 -1.9999655
0002e0 ae 80 24 41 fe 4c 48 41 c2 3e c9 41 cc 1c 27 41
       10.281416 12.518797 25.155643 10.4445305
0002f0 ea f0 6a 41 b2 6d 5a bf ac 63 8d c1 a9 05 28 40
       14.683817 -0.8532363 -17.673668 2.6253455
000300 88 41 96 c1 2c 4b ce 41 a8 ce 25 41 0c 85 2b 41
       -18.781998 25.786705 10.362953 10.719982
000310 f8 6a a7 41 fe 70 e0 40 ce b0 dc c0 d3 a9 02 c0
       20.92723 7.013793 -6.8965826 -2.0416152
000320 62 89 d4 c0 bd 8d c9 41 4e e3 b7 41 87 65 db 41
       -6.6417704 25.194208 22.985989 27.424574
000330 08 52 a8 3f be 74 57 41 54 d9 fe bf 80 e7 04 c1
       1.3150034 13.4660015 -1.9910073 -8.306519
000340 8a f6 de 41 06 ff f3 40 4e d5 14 c1 b1 39 60 3e
       27.87038 7.624881 -9.302076 0.21897008
000350 1d 4a 4b 41 bd 99 26 42 cf c0 81 c0 4b ea 9a c1
       12.705594 41.650135 -4.054786 -19.3644
000360 6b cb 43 41 38 ec 9f 41 ad 3c b5 3e 30 b2 8e 3f
       12.237163 19.990341 0.35397854 1.1148129
000370 ea 6b a6 c1 25 1f c4 40 b8 79 15 40 95 3c 96 40
       -20.802692 6.128802 2.3355541 4.6948953
000380 1f 72 19 3f 55 83 9a be 31 e9 6e 41 f1 49 ef 41
       0.5993976 -0.30178323 14.9319315 29.911104
000390 53 0a 6a c1 98 c5 3e 41 dc 56 c2 40 6a 3d 3f c1
       -14.627521 11.923241 6.073103 -11.952494
0003a0 58 7a 4e 40 5f 3d 88 c0 f8 7d a0 c0 9f 6b 86 c1
       3.2262173 -4.2574916 -5.015377 -16.80255
0003b0 68 90 d3 c0 4b 50 f0 41 3b 81 71 40 f2 b6 5d 40
       -6.6113777 30.039206 3.7735126 3.464291
0003c0 a9 10 7c c0 1f 53 bc c1 36 d0 d8 c1 30 6f 38 3f
       -3.9385169 -23.540586 -27.101665 0.7204466
0003d0 f6 f0 0b 41 b0 f2 62 c1 17 df 46 3c 7e d4 bf 3f
       8.746328 -14.18425 0.01213815 1.4986722
0003e0 e1 fc 9b c1 19 5d 8d c1 be dd b7 40 1b cd 16 c1
       -19.498476 -17.670458 5.745818 -9.425075
0003f0 9f 8a 0d bf d3 7a 42 c1 12 c6 00 c2 df dd a1 c1
       -0.55289644 -12.154986 -32.193428 -20.233335

bn1.running_var f4 [400]
000000 b9 e9 5b 43 51 17 7a 43 bf ec ed 43 6d 9d bc 43
       219.91298 250.09108 475.84958 377.2299
000010 42 1b 2a 43 25 65 37 44 c5 67 4b 43 6b 60 1b 43
       170.10648 733.5804 203.40535 155.37663
000020 38 fb ba 40 f4 65 4e 43 7c 5c 96 43 15 21 50 43
       5.8431664 206.39825 300.72253 208.12923
000030 06 d0 b9 43 0b 1d ad 43 b6 34 a3 42 90 8d ec 43
       371.62518 346.2269 81.60295 473.10596
000040 16 e6 0e 43 6d 47 19 42 f3 f7 d5 43 e8 f9 60 43
       142.89877 38.31975 427.9371 224.9762
000050 90 73 de 42 8f dc f1 43 5d 5e ac 43 e1 24 05 43
       111.22571 483.7231 344.7372 133.14406
000060 37 a4 99 43 80 4d dd 43 3f 9a 7a 43 93 26 07 43
       307.28293 442.60547 250.60252 135.15068
000070 a2 38 de 42 47 e3 dc 42 5c 1e 9e 40 8b 89 60 41
       111.11061 110.4439 4.941206 14.03358
000080 f7 62 1d 43 2e 87 eb 43 ee d4 9c 42 a0 43 d9 42
       157.38658 471.0561 78.41588 108.63208
000090 18 e9 05 43 76 38 92 43 fa e5 0b 44 86 ac 15 43
       133.91052 292.4411 559.5934 149.67392
0000a0 93 82 89 43 cd c1 ba 42 2e 1f 7a 43 c3 f8 10 44
       275.0201 93.37852 250.1218 579.8869
0000b0 4f 1a f2 42 6e 43 95 42 50 77 3a 43 d1 90 88 43
       121.051384 74.6317 186.46606 273.13138
0000c0 91 17 28 44 18 fb 49 43 fd e6 32 43 ff 65 62 43
       672.3682 201.98083 178.9023 226.39842
0000d0 56 f6 14 41 a0 23 d1 43 74 13 53 43 23 6f 9b 42
       9.310141 418.27832 211.07599 77.717064
0000e0 6b d1 d2 42 6b b6 29 3f 13 be 3b 43 6b bc 0f 43
       105.40902 0.6629397 187.74248 143.73601
0000f0 84 be 33 43 f8 3c 8d 43 0b ad 83 40 52 45 71 42
       179.7442 282.47632 4.1148734 60.317696
000100 ac f0 95 43 42 24 d1 43 e1 45 1f 41 45 cf 2a 43
       299.88025 418.28326 9.95456 170.80965
000110 cf dd 9c 43 21 d7 96 43 d5 34 f5 42 8c 3c 26 43
       313.73288 301.6807 122.60319 166.23651
000120 96 11 31 43 4d ef d0 42 25 b7 27 44 49 ef 54 43
       177.0687 104.467384 670.86163 212.93471
000130 c4 97 66 43 09 02 a6 41 a2 eb cd 42 d8 24 c4 41
       230.59283 20.750994 102.96022 24.51799
000140 6e 6e b1 43 00 5e 3b 43 5e 8c 9d 42 4d 2f 4a 43
       354.86273 187.36719 78.774155 202.18477
000150 d6 86 2c 43 56 6b b6 43 ff 8f 92 44 58 8e 33 43
       172.5267 364.83856 1172.4999 179.55603
000160 33 2e cb 42 8b 0e fd 43 94 78 a3 43 da 72 b0 43
       101.59023 506.11362 326.94202 352.89728
000170 52 2d 05 43 6f 78 98 43 4b 6f bd 43 17 d5 c2 40
       133.17703 304.9409 378.86948 6.088512
000180 35 7b 8e 42 5b 3c 9e 41 ca 09 d4 43 24 ea 95 43
       71.24064 19.77947 424.07648 299.82922
000190 a6 bf c4 42 33 ab 6e 43 18 a5 b6 43 51 4d 87 43
       98.37431 238.66875 365.2898 270.60403
0001a0 23 78 f1 44 b3 7a 67 43 3f 23 92 43 d7 f1 3b 43
       1931.7543 231.4793 292.27536 187.94469
0001b0 36 0e 4f 43 44 24 cf 43 36 88 ad 42 16 55 4f 43
       207.05551 414.28333 86.76604 207.33237
0001c0 62 d6 3d 43 04 11 17 43 b5 a8 a3 43 85 b1 98 42
       189.83743 151.06647 327.31802 76.34672
0001d0 ba b6 5e 43 25 c3 16 43 19 5c 45 43 6b 8f 4e 41
       222.71378 150.76228 197.35976 12.910014
0001e0 7d 22 e2 42 b5 7a a5 43 b0 ee ef 40 0c c2 ea 43
       113.06736 330.95865 7.4978867 469.516
0001f0 4b f9 04 43 cf fe 3a 44 d0 76 b5 43 0b aa 68 43
       132.9738 747.9814 362.92822 232.66423
000200 4e 41 28 43 ea 3d bf 43 8f 73 56 43 51 a1 30 43
       168.2551 382.4837 214.4514 176.63014
000210 47 d9 1e 43 f0 e0 1a 44 e5 17 0f 42 d8 3a 14 43
       158.84874 619.51465 35.773335 148.22986
000220 a2 6a 13 42 a6 4e ec 42 09 66 24 43 c9 8f 02 43
       36.854134 118.15361 164.39857 130.56166
000230 99 a0 48 43 7b 6e 34 43 92 1c 26 44 4e 14 02 44
       200.62733 180.43156 664.4464 520.31726
000240 5a 0d 8f 41 3f 62 e8 43 24 7f 7d 43 3e 83 88 43
       17.88152 464.76755 253.49664 273.02533
000250 7e c2 a1 43 55 ec 01 44 f8 a6 46 43 06 71 1a 40
       323.51947 519.6927 198.65222 2.4131484
000260 da c4 9b 43 e7 df 22 42 46 e5 d9 44 41 f0 9d 44
       311.5379 40.718655 1743.1648 1263.5079
000270 f2 d3 18 43 cb e2 9f 42 5c bd 91 44 5e a9 a5 42
       152.82791 79.942955 1165.9175 82.830795
000280 51 c1 2e 42 09 58 5d 43 dc 86 23 44 16 e3 fc 42
       43.688786 221.34389 654.1072 126.44353
000290 d6 bb 0e 44 af d5 ef 42 6e 85 05 41 74 41 3c 40
       570.93494 119.91735 8.345076 2.941495
0002a0 ab 22 3a 43 75 cf f3 43 cc 84 d8 43 dd bf ba 43
       186.13542 487.62076 433.03748 373.49893
0002b0 96 a5 7c 43 b6 fd 28 43 ec 32 84 43 44 f6 d3 43
       252.64682 168.99106 264.39783 423.92395
0002c0 5f c4 cc 42 12 a6 3f 43 3e a7 b0 43 33 dc 64 43
       102.38354 191.64871 353.30658 228.86015
0002d0 40 51 c4 43 62 4d 48 42 94 71 e0 42 1c e8 85 42
       392.63477 50.07557 112.22183 66.95334
0002e0 d2 1b 7f 42 e1 0c 61 41 12 e2 95 43 b4 05 14 42
       63.77717 14.065644 299.76617 37.00557
0002f0 af b7 a2 43 b8 bc 8a 40 e5 0d a0 43 43 d7 df 42
       325.43503 4.335537 320.10855 111.92043
000300 92 54 ee 43 8e 60 46 43 30 6b 3c 43 f7 3b 1b 43
       476.6607 198.37717 188.4187 155.23424
000310 0e 5d 4d 43 25 44 9b 43 60 7c ba 43 01 e7 1f 43
       205.3635 310.53238 372.97168 159.90236
000320 87 b6 b7 43 f6 fb 27 44 21 09 d2 43 13 c4 21 44
       367.426 671.9369 420.07132 647.06366
000330 90 95 2b 41 7f 3b bf 42 73 67 8f 43 45 dd 06 43
       10.724014 95.6162 286.8082 134.86433
000340 00 cf ef 43 63 dd a1 43 fe e3 a4 43 c1 4b 31 41
       479.6172 323.72958 329.7812 11.080995
000350 21 e8 72 43 46 48 1b 44 c4 1d 0e 43 c3 44 0a 43
       242.90675 621.1293 142.11627 138.2686
000360 e1 f7 37 43 45 ec 1f 44 6f 98 5a 40 d1 b8 26 42
       183.96828 639.6917 3.4155538 41.680485
000370 69 a5 0c 44 70 26 6b 41 e4 08 16 43 87 82 c8 43
       562.58453 14.696884 150.03473 401.01974
000380 d6 07 1c 41 09 9f d7 3f b2 f7 80 43 cb 95 1a 44
       9.751913 1.6845409 257.93512 618.3405
000390 5c b4 79 43 86 6f b9 42 71 bd 95 42 6f c7 50 43
       249.70453 92.71782 74.87 208.77904
0003a0 64 3c f2 42 03 b1 86 43 ec 42 12 43 67 1e 8c 43
       121.11795 269.3829 146.26141 280.23752
0003b0 66 3f 8b 43 a5 ed 95 43 25 74 93 41 a6 e5 61 43
       278.4953 299.8566 18.431711 225.89706
0003c0 2e a6 e7 43 1a c7 ff 42 e3 59 d0 42 0d ee 16 41
       463.29828 127.88887 104.17556 9.433118
0003d0 cc ba 71 43 a0 4c 56 43 91 5f 8a 44 18 62 54 41
       241.72968 214.29932 1106.9865 13.273949
0003e0 01 60 b4 42 a4 3e f0 42 4b 31 41 43 46 3c 24 43
       90.18751 120.122345 193.19255 164.23544
0003f0 fd 55 da 41 9b 88 54 42 28 66 39 43 28 4e 28 44
       27.291986 53.133404 185.39905 673.2212

fc2.weight f4 [300, 402]
000000 52 99 39 bd ca ea 50 ba 15 a6 ea bc d1 23 c0 bd
       -0.045312233 -0.00079695566 -0.028643647 -0.093818314
000010 37 48 e6 bc 63 d1 75 3c fe 88 0c bd 09 d9 84 bd
       -0.028110607 0.015003535 -0.034310333 -0.06486709
000020 94 59 bb bc c8 8a 91 bd 42 2e 3c bb cb 8f a5 bc
       -0.022869863 -0.071065485 -0.0028714095 -0.020210167
000030 74 8a d5 bb cb 21 2f bd 1c 71 85 bc 9c 10 8f bc
       -0.006516749 -0.042756837 -0.016289286 -0.017463975
000040 2f 10 88 bd 1f a2 d9 bd 26 e1 06 bd 95 a4 10 3d
       -0.06643712 -0.10626625 -0.032929562 0.035313208
000050 14 6a 0d 3c a9 15 61 3c 97 cd 64 3c c8 f0 88 bd
       0.008631248 0.013738074 0.013965032 -0.066865504
000060 de 6f 87 3a 5e a9 1e 3c 7e 02 a1 bd 29 20 c4 ba
       0.0010333022 0.009683935 -0.078618035 -0.0014963198
000070 5d 26 2d bd 5c aa 24 bd f0 c6 7a 3b 45 e0 84 bd
       -0.042272914 -0.04020153 0.0038265549 -0.064880885
000080 98 95 44 bd 3c e7 10 bc 04 46 8c bc 2c 65 5e 3c
       -0.047994226 -0.008844193 -0.01712323 0.013573926
000090 a2 df 1a 3d 79 96 74 bd b3 c4 e5 bc 97 03 92 3c
       0.03781093 -0.059713814 -0.028047895 0.017823977
0000a0 29 63 37 bb 46 28 34 3c 78 77 68 bd 7b 3f 00 3c
       -0.0027982688 0.01099593 -0.05675456 0.007827635
0000b0 a0 72 4d bd 4d 8a e2 bc 16 bb 81 bd 66 e8 1d bd
       -0.050158143 -0.027653838 -0.06334512 -0.03855171
0000c0 90 09 1f bd ad 3d 27 bc 0f c0 2a bd 7b d3 fa 3c
       -0.03882748 -0.010207576 -0.041687068 0.03061842
0000d0 48 22 72 bc dc bf be bd 0f 8e 40 bc 41 bd 98 3b
       -0.014778681 -0.09313938 -0.011752619 0.0046612327
0000e0 97 a3 93 bd e9 3a 0e 3d 79 92 cf bc b4 9f 67 bd
       -0.07208937 0.03472415 -0.025338398 -0.05654879
0000f0 4d 6a 28 3d a5 3b 93 bc ab 52 60 bd 38 8d cf bd
       0.041117 -0.017972777 -0.05476634 -0.10134357
000100 b5 14 ad bd 72 78 b8 3c b3 68 30 3d 9f 64 a4 bd
       -0.08451215 0.02251837 0.0430686 -0.080270045
000110 e3 01 ce bc fd 1f 9b bd a9 71 4b bd e1 6f 1b 3d
       -0.025147384 -0.07574461 -0.04966894 0.037948493
000120 7f 9e 18 3c 29 8b 9c bd e3 a1 4e bd 98 bd 54 bc
       0.009315132 -0.0764373 -0.050447356 -0.012984656
000130 df 0b 2b bd 9f c9 bb bd 2e 9a 06 3d c7 d6 4c bd
       -0.041759368 -0.091693155 0.03286188 -0.050009515
000140 f0 8a 41 bd 38 fd 17 bd 4b aa 14 bd 76 26 3f 3c
       -0.04725164 -0.037106723 -0.036295217 0.011666885
000150 50 32 31 3c a3 4a c1 3c 47 22 26 bd 52 d0 90 bc
       0.010815218 0.02359516 -0.040560033 -0.01767746
000160 50 5f 75 3d 87 d9 71 3c b9 69 0a 3d 4d 2e ce bc
       0.05990535 0.014761335 0.03379223 -0.025168562
000170 95 89 aa bb 69 4e 05 bd cb 14 62 bd cf ea 0a 3d
       -0.0052043893 -0.03254548 -0.05519561 0.033915337
000180 d3 c3 a7 bc 90 b9 0d bd c0 b4 72 bc 0f b6 19 3c
       -0.020479118 -0.034600794 -0.014813602 0.009381785
000190 3a b2 6a 3c dd c6 82 bd ed d2 f9 3b 75 82 4c bd
       0.014324719 -0.063855864 0.0076240213 -0.0499291
0001a0 39 e6 79 bc 85 56 37 bd 40 17 70 bd 47 92 be 3c
       -0.015252643 -0.044760246 -0.058615923 0.02326311
0001b0 86 93 7a 3c 94 73 c7 bd d6 da 3b bc 53 47 4a 3c
       0.015293961 -0.09738842 -0.011465749 0.012346107
0001c0 99 24 a4 bc 2c d3 87 3c 56 7e 5b bd 0c c9 8a bd
       -0.020036982 0.016580187 -0.05358728 -0.06776628
0001d0 06 ff 07 3d 84 a2 45 bd 78 51 6c bc 64 b2 e3 bd
       0.033202194 -0.04825069 -0.014423721 -0.1111801
0001e0 69 6c 48 bd 3d b8 55 bd a8 52 9f bb ae cf 6f bb
       -0.048931513 -0.052177656 -0.0048621483 -0.0036592293
0001f0 44 a2 9f bc 09 c9 06 bd df 01 d4 bc f0 6e 06 3d
       -0.019486554 -0.032906566 -0.025879798 0.032820642
000200 f2 99 b9 3c f0 46 9c bd 89 cc cd 3c 74 36 4c bd
       0.022656415 -0.07630718 0.025121944 -0.049856618
000210 aa 6f 4f bc 18 c8 48 bd f0 e6 db bb 08 a3 e6 bc
       -0.0126609 -0.04901895 -0.0067108795 -0.028153911
000220 5a 4c 6e bd 3c 51 b8 bd 8c 59 89 bd 6f 2b 84 bd
       -0.058178283 -0.08999869 -0.06706533 -0.06453597
000230 94 2a a5 3c 8e 99 2c bd 1f 59 bc bc 40 44 e8 bc
       0.020161904 -0.04213863 -0.022991715 -0.028352857
000240 bd 2c 51 bd 8e d4 89 bd b3 73 a9 bd b4 eb 06 bd
       -0.051068056 -0.06729995 -0.08274021 -0.032939628
000250 d7 45 fa 3c d2 92 7b bd 57 df e7 bc dc 24 2d bd
       0.03055088 -0.061419316 -0.028304739 -0.04227148
000260 dc 56 e6 3c 2a b1 bf bd 58 4c 34 bd ba df c7 bd
       0.02811759 -0.09359963 -0.04401812 -0.09759469
000270 1a a7 6a bd 57 77 54 bc 63 84 39 bc 7e f4 2e bc
       -0.057288267 -0.012967906 -0.011323067 -0.010678409
000280 89 39 9b 3c be 40 65 bd 85 0d f3 bc 3b 49 88 bd
       0.018948333 -0.055969946 -0.029669533 -0.066545926
000290 42 39 1c bc de 4e ca bc 21 96 83 bd 1c 8e 9f 3a
       -0.009535136 -0.02469581 -0.06425119 0.0012173089
0002a0 1e c5 c3 bd d9 93 0d bd 68 7c 32 bb 13 2f 13 3d
       -0.095590815 -0.034564827 -0.0027234796 0.035933565
0002b0 e5 41 12 3c 22 92 93 3a 0f 2e 81 bd f5 4c 47 bd
       0.008926843 0.0011258761 -0.06307613 -0.048657376
0002c0 71 40 1e 3c d7 a7 81 bd 3d d4 21 3c 0c 40 70 bc
       0.009658919 -0.06330841 0.009877262 -0.014663707
0002d0 a1 65 4d 3c 3f 9c db bd 38 6d 49 3d 84 8d 35 3d
       0.012536437 -0.10723161 0.049176425 0.044324413
0002e0 6e c9 82 ba fc ea 29 3b 16 2e c5 bc 1a bf 7d 3c
       -0.0009978244 0.0025927415 -0.024069827 0.015487457
0002f0 cc 87 33 3c 1b 24 3f 3d 97 1b 21 bd 06 90 14 bd
       0.0109576695 0.046665292 -0.039332952 -0.036270164
000300 88 53 06 bd 5b 27 26 bd 04 f9 a9 bb 8e d8 8b bc
       -0.032794505 -0.040564876 -0.0051871557 -0.017071035
000310 31 f2 e1 bc 72 c7 bd bd 28 24 1b bd a9 7d bc bd
       -0.027581306 -0.09266557 -0.03787628 -0.09203655
000320 10 f6 8f bc fe 08 61 bc d9 99 58 bc 80 4f 2b bd
       -0.017573386 -0.013735054 -0.013220274 -0.041823864
000330 3a b3 ba bc e3 66 96 3c be 95 40 bd b9 a6 39 bd
       -0.02279054 0.018359607 -0.047017805 -0.045325015
000340 99 73 d0 bb 25 7a 96 bd 1f 53 bb 3b cf 51 0c 3d
       -0.0063614366 -0.07347516 0.005716696 0.034257706
000350 cf d0 d5 bc 49 5f 15 bd 90 07 2c bc f3 29 db bc
       -0.026100544 -0.036467824 -0.01049985 -0.026753401
000360 f0 c9 5c bd 0b bf 83 bc 91 62 99 3a bb 39 96 bd
       -0.05390352 -0.016082307 0.0011702349 -0.0733523
000370 9b 0a b4 bc e7 a2 fe bd 6c 1d 8f bc 44 a0 55 bb
       -0.021977713 -0.12433415 -0.017470084 -0.0032596746
000380 45 5c 02 bd 84 06 80 3b 30 82 c5 3c 1c 43 1d bd
       -0.031826276 0.0039070267 0.02410993 -0.03839408
000390 c5 43 f6 bc 72 a9 94 bc 83 45 ed bd 27 4f ca bc
       -0.030061612 -0.018147204 -0.11585524 -0.024695946
0003a0 be f2 0a bd 47 ed 80 3a 81 d5 75 bd 20 b4 76 bd
       -0.033922903 0.0009836339 -0.060018066 -0.060230374
0003b0 c9 a9 85 bd 66 4b 9f bd aa 03 fa bc 1b 16 74 bd
       -0.065265246 -0.07778053 -0.030519325 -0.059591394
0003c0 05 c0 3a bc fd bf ac 3c 74 03 41 3d 46 e0 e5 bc
       -0.01139832 0.02108764 0.047122434 -0.028061043
0003d0 41 3c d0 3c 18 87 09 bc 8c 44 88 bd 31 ea cd 3c
       0.025419356 -0.008394025 -0.06653699 0.025136085
0003e0 fd 24 df 3a be b0 a5 bb da 5b a8 3c 2f 53 1c bd
       0.0017024573 -0.0050564697 0.02055161 -0.038165268
0003f0 3d e2 74 bd a2 be a6 bc d1 b3 8c bd 1e dc 39 bd
       -0.05978607 -0.020354573 -0.06870235 -0.045375936
