p3_collab-compet/ddpg_actor_agent0.pth (torch_old, 163785 bytes, 10 tensors)

fc1.weight f4 [256, 24]
000000 f8 0a 4a 3b 1b d4 19 3f e6 99 40 bd fa 87 80 3e
       0.0030829292 0.6008927 -0.04702177 0.25103742
000010 a8 d3 b2 be 47 52 d6 bb 32 07 82 bd ec ea 61 3e
       -0.34927106 -0.00654057 -0.06349029 0.22062272
000020 18 0e c0 bd 0f 59 1a 3f f2 84 ba 3d 2b 3e 25 3e
       -0.09377688 0.6029214 0.091073886 0.16136996
000030 4c 8d 15 3d 80 bd a6 3e a1 b2 d7 3d ab c5 53 3e
       0.036511704 0.32566452 0.10532118 0.20680873
000040 b4 26 bc 3c 22 83 12 3f 0e 44 0a 3e 8f 33 e2 3e
       0.022967674 0.5723134 0.13502523 0.4417996
000050 44 ac be 3e 68 12 68 3f 06 2e 03 3e dd db d0 3e
       0.37240803 0.90653086 0.12810525 0.40792742
000060 aa 7c 85 bd 80 8f 8b be 3b 29 a3 bc ce 25 89 3d
       -0.065179184 -0.2725792 -0.019917121 0.06696664
000070 dd 09 2a 3f b9 e4 61 3f c5 b2 ed bb e0 43 24 3d
       0.664213 0.8823963 -0.007253977 0.040103793
000080 9d 64 4a bc 31 be 67 be 44 0f 75 bc 3e 1c 0f 3c
       -0.01235309 -0.22631146 -0.014957253 0.008734761
000090 b9 2a 2f 3e bb 46 41 bc d9 b8 3b bc 05 cb 33 bd
       0.17106141 -0.011796649 -0.011457645 -0.043894786
0000a0 da 25 86 bd fe a6 59 bd b3 4e a7 3c 0f f7 e7 3b
       -0.06550188 -0.05313777 0.020423269 0.007079012
0000b0 c6 c4 38 bf 94 41 86 bf 11 e5 9b bc 49 29 ae bd
       -0.7217525 -1.0488763 -0.019030126 -0.08503968
0000c0 1f cc 00 be e1 ad c2 bd 66 c1 96 3d 88 cf 34 3e
       -0.12577866 -0.09505821 0.073611066 0.17657292
0000d0 cf a0 3b be 63 52 8c be a5 1a da 3b 13 16 aa 3d
       -0.18323062 -0.27406606 0.0066560083 0.083049916
0000e0 85 c7 c9 3d c9 77 08 bd aa 31 5d 3e d3 06 d1 3e
       0.098525085 -0.03331736 0.21600977 0.4082552
0000f0 ce 6e ae be 94 ff 80 3e b4 d7 4f 3e 03 df c3 3e
       -0.34068912 0.2519499 0.20297128 0.38256082
000100 32 53 ec 3d 0a da b3 3d 91 93 8a 3d 49 7b 94 3d
       0.11539306 0.08781822 0.06766427 0.07250077
000110 6c ea 10 bf 5a 1b 7b 3f b0 86 f5 3d 7d 0a 87 3d
       -0.566077 0.9808861 0.1198858 0.06593797
000120 b0 10 18 bf ac 54 2f bf ba 80 8f 3d 5e f5 8d 3d
       -0.59400463 -0.68488574 0.070069745 0.06931566
000130 9e 1d 33 be 99 ae 2f be 14 66 e0 bc 12 07 9d 3d
       -0.17491767 -0.17156447 -0.027392425 0.07667364
000140 04 9e 2b bf bf c4 09 bf 5e 93 9b bd 6d b5 ac be
       -0.6703799 -0.53815836 -0.075964674 -0.33732167
000150 b2 0f 62 3e bd 68 59 be 2c d6 df 3c 21 12 d1 be
       0.220763 -0.2123136 0.027323805 -0.40834144
000160 09 f2 ef be 96 5d 2d bf 1f e0 1f 3d 14 7f 03 be
       -0.46864346 -0.67720926 0.039032098 -0.12841445
000170 8b d1 05 3f 11 8c 36 3e 4b ed cb 3d 99 53 2e be
       0.5227286 0.17826869 0.099573694 -0.17024077
000180 2b c4 20 be 6d 91 92 3e d2 3e 00 bc c0 a7 28 3d
       -0.15699832 0.28626576 -0.0078274775 0.041175604
000190 02 4e c8 3e c9 34 ef bf 7a 5b 96 3d d7 f8 92 3a
       0.39122015 -1.8687984 0.073416665 0.0011213076
0001a0 d9 0a c0 bd 6a 0a 61 3e 1b 74 25 3d a9 37 ee bd
       -0.09377069 0.21976629 0.04039393 -0.1163171
0001b0 16 98 29 3e 0a 1b 8d bf 5b 84 ea 3b 7f 28 b0 bd
       0.16561922 -1.1023877 0.0071568913 -0.08601474
0001c0 4f 32 10 be 5b bd 43 3e d7 24 95 3c 0a 6a 80 3c
       -0.14081691 0.19115202 0.018206043 0.015675563
0001d0 68 4f 8e 3e 2e 43 9e 3e c2 51 50 bb fe 83 f4 bc
       0.27794957 0.3091063 -0.0031787013 -0.029848095
0001e0 82 7c 7e 3e 7b b0 2f bf b3 89 45 bd 69 5d eb bd
       0.24852183 -0.6862866 -0.048227023 -0.11492426
0001f0 5e 57 9c 3d 01 a5 c7 3e bd 55 c0 bd c3 4d 26 be
       0.076338515 0.38993075 -0.09391353 -0.16240601
000200 fb a0 46 bb 6f ba 38 bf 56 24 19 3b 5c 0f bc 3e
       -0.0030308354 -0.72159475 0.0023367605 0.36730468
000210 f0 42 b4 3c df 68 3c 3f 34 80 4b bd 38 48 a7 3e
       0.022004575 0.7359752 -0.04968281 0.32672286
000220 8a 43 30 bd 52 61 fd be 66 10 aa 3d 94 10 15 3f
       -0.04303316 -0.49488312 0.08303909 0.5822842
000230 7d ad 53 3e 23 5d 32 3f f4 63 87 3b fe b6 25 3f
       0.2067165 0.69673365 0.0041317884 0.6473235
000240 50 f3 c3 bd a3 0f 12 3e bc f6 3c 3c bc ba a1 be
       -0.095678926 0.14263777 0.011533435 -0.3158778
000250 02 3a 44 be 7a 83 8a be 83 11 ad bc 39 8f 5e be
       -0.19162753 -0.27053434 -0.021126514 -0.21734323
000260 cd eb 70 be 6b 09 a5 3d f7 aa 5e bd c4 bb 8d bb
       -0.23527451 0.08058437 -0.054362264 -0.004325362
000270 c7 2b b3 3d db f9 36 3f 0b 0e 47 3d f3 37 26 bd
       0.08748584 0.71475 0.048597377 -0.0405807
000280 90 91 a5 be 7a d4 f1 3d 24 12 10 3d 54 0c fc 3d
       -0.32337618 0.11808105 0.03517355 0.12307039
000290 f4 ba a0 3e 52 f7 10 40 78 6a 61 3d b3 32 8b 3d
       0.31392634 2.2650952 0.055033177 0.067967795
0002a0 40 94 e6 be 13 3c d1 bd 03 00 65 3c 65 d8 04 be
       -0.4503498 -0.102165364 0.013977054 -0.12973173
0002b0 21 b0 c5 3c 59 a7 db 3e f4 cf 59 3c cb 9b 2f be
       0.024131836 0.42901114 0.013294209 -0.17149274
0002c0 14 19 ea be a3 7c 12 3d 6c cf 53 bc 69 fa d5 3d
       -0.45722258 0.035763394 -0.012927871 0.104481526
0002d0 0c 5c de be f6 01 79 be d3 5e 5d bd e0 0c e8 3d
       -0.434296 -0.24317154 -0.05404551 0.11330581
0002e0 7e b3 d0 be 3a 1f 5c 3e ff 03 8e bc 20 f0 07 3c
       -0.40761942 0.21496287 -0.01733589 0.008296996
0002f0 96 fa 6c bf 34 72 8a bf be c5 78 bd 6f c2 ac 3d
       -0.92569864 -1.0816102 -0.060735457 0.08435523
000300 ef f7 89 be 18 bf 06 be cb 54 41 bc 9a 9f 24 3e
       -0.2694697 -0.13158834 -0.011800001 0.16076508
000310 f9 47 35 3e e4 fa 3b 3f 0c 28 64 3b 70 7b 06 3e
       0.17703237 0.73429704 0.003481391 0.13133025
000320 06 e9 ac be 32 34 2e bd 00 e0 72 bb 6e 7d 8e 3c
       -0.33771533 -0.042530246 -0.0037059784 0.017393794
000330 15 85 40 3e a9 e7 c9 be ad 38 53 bd 0b 05 ba 3b
       0.18800767 -0.39434555 -0.051567722 0.0056768707
000340 64 ad 53 be 7f df 01 bd 6d 0d 4c bd 3e 55 50 3e
       -0.20671612 -0.031707283 -0.04981749 0.20345017
000350 0d 3c 3b 3e c1 14 c8 bf 9c c2 a4 3b e0 7b 6f 3e
       0.18284626 -1.5631334 0.005028082 0.23387098
000360 0f 16 ef ba b7 4a e8 be 54 3d f4 3c 48 9d b2 bc
       -0.0018240827 -0.45369503 0.0298144 -0.021803513
000370 57 ef 0f bd 58 ac 65 3f e2 b1 47 bd 5a bc ab bc
       -0.03514036 0.897161 -0.048753627 -0.020963836
000380 9e 99 d2 3d db ab ad be 1a e1 83 3b 22 8c 31 bd
       0.102832064 -0.33920178 0.004024637 -0.04334653
000390 42 d0 6b be e6 86 91 3f a2 7b de 3c ea f8 e7 3c
       -0.23028663 1.1369293 0.027158562 0.028316934
0003a0 46 57 25 3e 6e 55 99 be 9f 60 d5 3c cf a2 65 bd
       0.16146573 -0.2994799 0.02604705 -0.05606347
0003b0 98 b3 e8 be 88 fb 9e 3f 78 fd c3 bb 2b 13 0e bd
       -0.4544952 1.2420511 -0.0059811436 -0.03468625
0003c0 bf ae 6f 3d ef c3 92 3e bc 04 86 3d a4 49 29 3d
       0.05851626 0.2866511 0.06543872 0.041329995
0003d0 7d 6a ef bb d6 91 ac 3f c0 10 6a 3c f0 ab 69 bb
       -0.0073063956 1.3482006 0.01428622 -0.0035655461
0003e0 15 24 1c 3e 4b d2 83 3e 59 71 df 3c 53 56 bd bd
       0.15248139 0.25746378 0.027275728 -0.09244981
0003f0 bb 64 e2 3e 4e 3f df 3e 30 08 d2 bc f2 5e e6 bd
       0.44217476 0.43602985 -0.02563867 -0.11248578

fc1.bias f4 [256]
000000 8d 69 d6 3d 8b b8 14 be 5c d9 10 3e 8c 9a 0b be
       0.10469351 -0.14523523 0.14145416 -0.13633174
000010 9e f9 3a 3e 9b 2d 0e 3e 74 b6 95 3d 9a 7e 4c be
       0.18259284 0.13884585 0.07310191 -0.1997017
000020 14 7f a7 bd f2 69 c3 3d 9b 92 3e be f8 fb c7 3d
       -0.08178535 0.09541692 -0.18610613 0.09764856
000030 f1 49 a8 bd bd b5 18 be d8 5f 0e bb 2e ee ff 3c
       -0.08217228 -0.14913078 -0.0021724608 0.031241503
000040 0b 06 1e 3e a1 27 05 be d2 de 29 be 4b b7 8c bd
       0.15431993 -0.13003398 -0.16588905 -0.06870898
000050 5f f9 1e 3d 3c 66 ba bd 61 37 9f bd 75 f8 91 bd
       0.038812038 -0.09101531 -0.077742346 -0.071274675
000060 49 48 b3 3d 60 6f db 3c 46 37 37 3e 86 8c 04 3e
       0.08754022 0.026786506 0.17892179 0.1294423
000070 ab 0a 35 be 4f 21 58 3d d8 0a 37 be dd c5 40 be
       -0.17679851 0.05276614 -0.1787523 -0.18825479
000080 31 69 91 bd 29 33 50 3e d1 d8 95 3c dc 32 16 be
       -0.07100142 0.20332016 0.018291863 -0.14667839
000090 fc 7d 3c be 3e 96 1d 3e 89 db 21 3e 21 f5 e7 bd
       -0.18407434 0.15389344 0.15806402 -0.113260515
0000a0 81 97 11 3e cb 6e 9a 3d 58 10 d7 bd fc 01 80 3d
       0.1421795 0.07540663 -0.10501164 0.062503785
0000b0 70 c0 fa 3b cb 73 57 bd 69 88 55 bd 8d 8e 1a 3e
       0.007652335 -0.052600663 -0.052132044 0.15093441
0000c0 b0 89 b4 3d 93 68 b6 3d 51 73 73 3d 16 cf 0e 3e
       0.08815324 0.08906665 0.059436146 0.13946185
0000d0 2d 79 55 bd f6 82 38 bb a9 d7 2c 3e 4d 96 fa 3d
       -0.052117515 -0.002815423 0.16879143 0.12235699
0000e0 75 79 4f 3d c0 d9 d4 bd 68 d5 56 bd ed bf 03 3d
       0.05065294 -0.10393095 -0.052449614 0.032165457
0000f0 7b 28 01 be 76 90 bd 3d ad d9 01 be ea 43 14 be
       -0.12613098 0.09256069 -0.12680693 -0.14479032
000100 a9 35 96 3d f3 c8 ce bd 31 ed 50 be 57 12 03 3e
       0.073344536 -0.10096922 -0.20402981 0.12799965
000110 e3 8e aa bd 52 6d 9e bd e2 57 c2 bd 3e e9 ee bd
       -0.08328035 -0.07735695 -0.094894186 -0.11665581
000120 26 71 0c be c2 c5 b6 bd 00 e6 18 be af 50 91 bc
       -0.13715038 -0.08924438 -0.14931488 -0.017738668
000130 eb 33 85 3d cb 31 02 be e3 b5 48 be 28 da 91 3d
       0.06504043 -0.12714307 -0.19600634 0.07121688
000140 03 f4 e6 bd 5a d1 64 3d 28 af 80 bc f7 a0 37 3d
       -0.1127701 0.055863716 -0.015708521 0.044831242
000150 62 d5 16 bb c3 d2 82 bd 0c 27 22 be 35 68 0f 3e
       -0.002301537 -0.06387856 -0.15835208 0.14004596
000160 ec c3 c5 3d 01 43 ad 3c 1c 48 32 3e 2c f3 3f 3e
       0.0965651 0.021150114 0.1741032 0.18745106
000170 14 1e 28 be e7 93 d2 3d eb fb 3f 3e fc 0c 3a bc
       -0.16417724 0.102821164 0.18748443 -0.011355635
000180 2f e8 45 be c5 10 98 bd c4 9f 99 3c 9c 83 32 bd
       -0.19326852 -0.074250735 0.01875294 -0.043582544
000190 70 d9 c8 3d 3b c5 a2 3d e4 d7 46 be a4 ae e1 3c
       0.09807098 0.07947775 -0.19418293 0.027549095
0001a0 14 0a 05 3d e2 74 05 3e fa c4 d6 3c 0d 93 e3 3d
       0.032480314 0.13032869 0.026216973 0.11112032
0001b0 76 7b 2b 3d e2 f1 0a be d3 20 22 be 18 ac 8e bd
       0.04186579 -0.13568833 -0.15832834 -0.06966418
0001c0 a4 ff 79 3a 5a 13 f4 bd 49 23 39 be f5 00 33 3e
       0.00095366896 -0.119177535 -0.18079866 0.17480834
0001d0 60 f7 bb 3c 7c 58 a1 3d ed 64 d4 bd 0e f1 09 3d
       0.022945106 0.07878205 -0.103708126 0.033677153
0001e0 8d e7 83 bc e0 68 db 3d 5f 6b 98 bd 2c 1f 3a 3e
       -0.016101623 0.10713363 -0.074423544 0.18175954
0001f0 10 af 2d 3c 50 f1 0b 3c b6 ad 12 3e d8 e6 d8 bb
       0.01060082 0.00854142 0.14324078 -0.0066193156
000200 00 9c 73 3d 57 7e 67 bc 1e 5f 21 3e 35 38 4b be
       0.059474945 -0.014129243 0.1575894 -0.1984566
000210 d7 85 49 3e 64 2b f6 bd ac 47 4c 3e 8d 92 8d 3d
       0.19679962 -0.12019995 0.19949216 0.06912718
000220 1a f5 04 be c1 94 32 be 29 b6 65 3d ea b4 a9 3d
       -0.12984124 -0.17439558 0.056081925 0.0828646
000230 45 db 0e be 94 27 05 3e dc b6 be bd e7 33 25 3e
       -0.13950832 0.13003379 -0.093122214 0.1613308
000240 54 89 08 3d b2 5c 33 be 33 92 05 3d c7 95 5d bd
       0.03333409 -0.17515829 0.03261013 -0.054097917
000250 9e 39 5d 3d 9c 27 9d bd c4 1f 37 3e 46 75 ee bd
       0.054010026 -0.076735705 0.17883211 -0.11643462
000260 4c c8 2b 3e 81 47 4f be 48 5a 17 3e 12 ea 0f be
       0.16775626 -0.2024212 0.14780533 -0.14054134
000270 ff 08 1b 3d da 71 52 bd f9 09 50 be 20 51 24 3e
       0.037850376 -0.05137811 -0.20316304 0.16046572
000280 32 2a 46 3d fa 63 e8 3d 40 1e c8 bd 4b 35 81 bd
       0.048380084 0.11347194 -0.09771395 -0.06308993
000290 f5 a7 c0 bd 1a ed 40 be 35 7d 36 3d 20 14 98 3d
       -0.09407035 -0.18840447 0.044553 0.074257135
0002a0 0f 06 cb bc 0e 08 08 be ce 15 c5 3c eb 2b b3 3d
       -0.024783162 -0.13284323 0.024058249 0.08748611
0002b0 65 ce 9e 3c 67 56 4f be a6 01 cd 3d 10 10 18 3e
       0.019385526 -0.20247804 0.1001008 0.14849877
0002c0 8e ae 88 bd d5 14 36 bd 64 b6 92 3b b1 2e 2a 3d
       -0.06673919 -0.04445346 0.004477309 0.041548435
0002d0 cd 6c 39 3e 6e 51 15 3e c2 a2 ba 3d 2e c0 09 be
       0.1810791 0.14581844 0.09113075 -0.13452217
0002e0 fc c1 fa 3d 8d c1 cb 3d 03 cc 43 3e 27 e5 a1 bd
       0.12244031 0.09949026 0.19120793 -0.079050355
0002f0 08 63 93 3d 52 f4 09 3e 61 cd c3 3d d5 0f a7 bc
       0.07196623 0.13472107 0.09560657 -0.020393291
000300 78 64 70 bd d1 6b 19 bd 41 e0 e8 3d d5 0f 84 bd
       -0.058689564 -0.037456337 0.11370898 -0.06448332
000310 50 c5 4f be 87 8e 06 bd be 01 40 be 76 e8 23 be
       -0.20290112 -0.03285077 -0.18750665 -0.16006646
000320 df 70 34 3e 5d 7a 03 be f0 ad f2 3d 6c 5d fb bd
       0.17621182 -0.12839647 0.11849582 -0.12273678
000330 b0 4a 4d be c7 ee 96 3b 5a da d6 3d 51 4b 1f 3c
       -0.20048022 0.004606101 0.10490866 0.009722547
000340 f2 10 f0 3d 18 3a 09 bc 73 d9 14 be 3e bb ff 3d
       0.11721982 -0.008375667 -0.14536075 0.124868855
000350 14 79 0f 3d bb 25 e7 bd 8d 0d ac bc 34 90 93 3d
       0.03502758 -0.112864934 -0.021002555 0.07205239
000360 d1 02 30 bd eb 5c 19 bc 2c 76 53 3d aa c1 85 3d
       -0.042971436 -0.009360532 0.05162637 0.06531079
000370 0a 74 f0 3d eb a8 53 bd 61 c3 78 3d 7e 47 45 3d
       0.11740883 -0.051674765 0.060733203 0.048163883
000380 b5 6b a0 bd ad 6e 00 3d 4a d2 e5 3b f8 bb 19 be
       -0.078330435 0.03135555 0.007013594 -0.1501311
000390 cd a9 3b be 04 13 36 3e 1e f7 be bd 0d ee 18 3e
       -0.18326493 0.17780691 -0.093244776 0.14934559
0003a0 b7 29 28 3d 0f ce ec 3d 20 0b e3 bc a7 5d 30 bd
       0.041055407 0.1156274 -0.027715266 -0.043058064
0003b0 17 b9 9a bd c3 95 46 be 00 a5 3c ba 2c 1c 30 3e
       -0.07554834 -0.19393067 -0.0007196218 0.17198247
0003c0 fc 1f 28 3d 88 80 8b bd 2a 59 04 be c4 76 44 bd
       0.041046128 -0.06811625 -0.12924638 -0.047964826
0003d0 e9 a2 ad bd 0a be ff 3d 00 d2 bc 3d 6f 00 58 3d
       -0.08478338 0.12487419 0.09219742 0.05273479
0003e0 5f 66 f5 3c 0a 5b ee 3b 2f 34 dc bd 28 d9 ca bc
       0.02995604 0.0072740363 -0.10752141 -0.024761751
0003f0 6d 7c 05 3e 9f 23 d6 bc 5b 25 90 3d f1 36 e8 bc
       0.13035746 -0.026140032 0.07038375 -0.02834651

bn1.weight f4 [256]
000000 4c d5 3c 3f 26 79 97 3f 0e a2 0e 3f 25 fb 55 3f
       0.73762965 1.1833847 0.55716026 0.8358634
000010 b3 a6 b5 3f 95 0f 53 3f c0 90 6c 3f d1 ae 3d 3f
       1.4191498 0.8244565 0.9240837 0.74094874
000020 3b 2f bd 3f b1 59 8e 3f ca 17 94 3f ee 49 ac 3f
       1.4780039 1.1121122 1.156976 1.3460062
000030 ba f1 0e 3f 78 fe 40 3f a7 0b 3a 3f bc e1 f2 3e
       0.55837595 0.7538829 0.7267403 0.47437847
000040 72 28 8d 3f 19 2c 40 3f 21 91 2e 3f b8 d2 0a 3f
       1.1027968 0.7506729 0.681902 0.5422778
000050 c5 23 36 3f 43 5f a0 3f 6c 01 f6 3e f6 f5 da 3e
       0.7114833 1.2529072 0.4804796 0.42765778
000060 36 8a c5 3e c5 3f 4a 3c a1 a5 07 3d 32 a3 e1 3e
       0.3858201 0.012344305 0.03311694 0.4406982
000070 d6 a0 e4 3e 97 c8 68 3f 91 9c 9c 3e ec 20 16 3f
       0.44653958 0.90931076 0.305882 0.58643985
000080 3c 3f b5 3e 1c bb 4b 3f ca 2f 02 3f ff 5f 9c 3f
       0.35399806 0.7958238 0.5085417 1.2216796
000090 1a e9 f6 3e 06 17 44 3f 94 39 0b 3f 2c dc 3b 3f
       0.48224717 0.7659763 0.5438473 0.7338283
0000a0 30 c6 79 3f 13 07 5d 3f 8a 07 93 3f 84 ea ed 3e
       0.97568035 0.8633892 1.1486676 0.46467984
0000b0 9e bb 35 3f b2 f7 92 3f 86 91 69 3f 0f 5f f3 3e
       0.70989406 1.1481841 0.91237676 0.4753346
0000c0 87 94 39 3f 04 73 10 3f 31 a0 80 3f 6b e3 48 3f
       0.7249226 0.564255 1.0048887 0.7847201
0000d0 c9 03 2d 3f 42 72 c4 3e da 07 da 3e f3 76 45 3f
       0.675839 0.38368422 0.42584115 0.7713463
0000e0 bd ec 2d 3f bf 4e 9a 3f b5 f8 6b 3f 7c c7 65 3f
       0.6793936 1.2055281 0.9217637 0.89757514
0000f0 06 76 34 3f 7b bc 25 3f 48 c3 90 3f 19 9e 21 3f
       0.7049259 0.64740723 1.1309595 0.6313186
000100 9b 24 ee 3e 44 66 dc 3e fe ce 88 3f 2d d5 2d 3f
       0.46512303 0.43046772 1.0688169 0.67903405
000110 a0 fe 3c 3f 8c 1e 99 3f da 2c 99 3f b0 0f 46 3f
       0.73826027 1.1962447 1.1966813 0.7736769
000120 9f 07 ca 3e 49 14 0e 3f e7 55 4d 3f b1 79 57 3f
       0.3945894 0.554997 0.802092 0.8417006
000130 d5 c4 0c 3f 80 a0 a2 3e 6d 6b 25 3f 7f d7 fa 3e
       0.5498784 0.31763077 0.64617044 0.48992535
000140 33 4c 45 bb 65 1b 2f 3f 21 80 53 3f 00 ba 08 3f
       -0.0030105233 0.68401176 0.82617384 0.53408813
000150 11 1c 42 3f f7 9f 87 3f 5f 04 e0 3e 22 95 c7 3f
       0.75824076 1.0595692 0.43753335 1.5592387
000160 22 a8 3f 3f d1 0e 5a 3f 93 04 f0 3e 50 ac 5e 3f
       0.74865925 0.8517886 0.4687849 0.8698168
000170 e0 f7 49 3f 46 85 a3 3f 74 c3 01 3f e5 c1 03 3f
       0.7889385 1.2775047 0.5068886 0.51467735
000180 25 b6 57 3f 5f 40 b0 3e ab f2 46 3f d8 a8 61 3f
       0.84262305 0.3442411 0.7771403 0.8814826
000190 1e 55 3a 3f ef d2 31 3f 7c e6 67 3f 34 be 47 3f
       0.7278613 0.69462484 0.90586066 0.780246
0001a0 6b e1 5f 3f 2d 93 b9 3e e7 cf ff 3e c7 08 11 3f
       0.87453336 0.362451 0.49963304 0.5665402
0001b0 c4 28 64 3f c7 ca 72 bc 67 34 81 3f 46 45 32 3f
       0.89124703 -0.014818854 1.0094117 0.6963695
0001c0 2c 48 5c 3f 85 23 75 3f c5 6f 07 3f c2 fd 9e 3f
       0.86047626 0.95757324 0.5290492 1.2421191
0001d0 4b c5 02 3f 85 92 26 3f 52 83 51 3f 21 e9 f6 3e
       0.51082295 0.6506732 0.81841004 0.48224738
0001e0 60 94 ec 3e a5 dd 41 3f eb c7 b4 3e 7f a7 83 3f
       0.4620695 0.7572883 0.35308775 1.0285491
0001f0 59 eb 95 bb 95 73 99 3b 98 ce 9e 3e 4e e5 a2 3e
       -0.004575175 0.004682968 0.31016994 0.3181557
000200 10 63 a7 3f 89 db 90 3f 0a df 43 3f 6e 51 26 3f
       1.3077106 1.1316997 0.76512206 0.64968
000210 82 00 c0 3e 55 04 08 3f f2 09 6f 3f 4d 9f d4 3e
       0.37500387 0.5313161 0.9337455 0.41527787
000220 b8 9a 32 3f 3b 04 2c 3f 59 14 63 3f 69 31 13 3f
       0.6976733 0.67193955 0.88702923 0.5749727
000230 43 bd cf 3e 36 c7 11 3f 1f fd 32 3f 21 fc 41 3f
       0.40574083 0.56944597 0.6991748 0.75775343
000240 ae 8a 31 3f 08 c1 0a 3f f4 b8 96 3f 46 84 6d 3f
       0.69352233 0.5420079 1.1775193 0.9277996
000250 cb 10 d5 3e 4a a8 33 3f c0 e3 85 3b 7b 3f d6 3f
       0.41614375 0.70178664 0.004085988 1.6738123
000260 23 ab 16 3f b5 db 4a 3f 90 d0 f6 3c 2b 30 1a 3f
       0.58854884 0.79241496 0.030128747 0.6022975
000270 67 d3 07 3f ae df 84 3f aa 07 18 3f ad fc 30 3f
       0.5305695 1.0380762 0.59386694 0.6913555
000280 82 7c 52 3f c7 a3 62 3f 64 5f 2d 3f d5 d8 b4 3e
       0.82221234 0.88531154 0.6772368 0.3532168
000290 47 46 d5 3d 10 47 c5 3e 1d 7f 26 3f c1 9c 88 3f
       0.10413795 0.3853078 0.6503771 1.0672837
0002a0 3b 80 ee 3e a2 9e 37 3f 77 ea ad 3f 4b 12 05 3f
       0.46582207 0.7172643 1.3587178 0.5198104
0002b0 3f c8 30 3f 36 45 01 3f 63 10 50 3f 42 95 52 3f
       0.6905555 0.5049623 0.81275004 0.82259
0002c0 8f cd 3a 3f 76 99 52 3f bf 9d 36 3f 64 19 a2 3f
       0.7296991 0.8226541 0.7133445 1.2663999
0002d0 cf 47 bf 3e e3 0b 83 3f bc 43 48 3f 99 f9 70 3f
       0.37359473 1.0238003 0.78228354 0.94130856
0002e0 97 0b 51 3f 9d d9 49 3f 9a 2f 6d 3f 0c 20 02 3f
       0.8165831 0.78847677 0.9265076 0.5083015
0002f0 bc 36 8e 3e 80 0c ca 3c 23 45 06 3f fe c9 23 3f
       0.27776134 0.024664164 0.52449244 0.6398009
000300 fc ff 17 3f c1 d2 38 3f ea 0c ea 3e 0c 9c 3e 3f
       0.59374976 0.72196585 0.45712978 0.7445686
000310 ee 02 1b 3f 13 2b 36 3f 8f 6d 36 3f 2f 5d 3e 3f
       0.60551345 0.71159476 0.71260923 0.74360937
000320 3e cb 70 3f be e5 77 3f c4 0b 3f 3f 91 69 91 3f
       0.9406012 0.96834934 0.7462733 1.1360341
000330 89 a7 1f 3f 9f 9f 2d 3f 8d 70 27 3f fd a5 83 3f
       0.62365013 0.6782169 0.65406114 1.0285031
000340 e3 4b 86 3e d9 45 4d 3f 14 e3 15 3f b4 d2 3d 3f
       0.26229772 0.80184704 0.5854962 0.7414963
000350 8b 91 ec 3e 4d 06 82 3f 92 81 92 3e 39 d7 35 bb
       0.4620479 1.0158173 0.2861448 -0.002774669
000360 4e a2 87 3f ce 61 9e 3f f2 d4 5a 3f 49 db 52 3f
       1.0596406 1.2373598 0.8548118 0.8236585
000370 d6 0c 73 3e f8 ce 8c 3f 6e e5 dd 3e e7 e0 cc 3e
       0.23735365 1.1000662 0.43339103 0.40015337
000380 81 5d b5 3e fa 80 26 3f c4 fe 0c 3f 90 50 fa 3e
       0.354229 0.6504055 0.5507624 0.4888959
000390 0d 1a 72 3f a4 07 95 3f 2b 14 5e 3f 94 83 71 3f
       0.94571 1.1642957 0.86749524 0.943414
0003a0 4d 49 46 3f 41 c5 4e 3f cf ef 27 3d e4 fd 38 3f
       0.774556 0.80769736 0.041000184 0.72262406
0003b0 0a 89 56 3f 42 bd 4a 3f 1a 17 63 bb 5a b3 4e 3f
       0.83802855 0.79195035 -0.003465122 0.8074242
0003c0 49 11 0b 3f 06 70 c8 3d 6c c5 f8 b9 58 58 8f 3f
       0.5432325 0.09786992 -0.00047449337 1.1198835
0003d0 e7 8b 58 3f 03 ac bb 3e 07 a7 24 3f 6d 89 ea 3e
       0.84588474 0.36654672 0.64317364 0.45807973
0003e0 92 48 1a 3f 93 8e 16 3f 63 88 bd 3e 76 a3 05 3f
       0.60266984 0.588113 0.37018117 0.52202547
0003f0 5a b2 40 3f a2 c4 50 3f a3 6e 1d 3f 0c 37 1a 3f
       0.7527214 0.8155004 0.61496943 0.60240245

bn1.bias f4 [256]
000000 0c 51 02 bf 47 8c 6d 3e 36 26 50 be 42 21 cc 3d
       -0.5090492 0.23198043 -0.20327076 0.09967281
000010 76 66 03 bf 8a 4c 71 be 7c b7 ae be a8 5c 24 bd
       -0.5132822 -0.23564354 -0.34124362 -0.040127426
000020 18 1b d9 3d 97 72 eb 3d a5 a1 2d be 1c 54 81 be
       0.10600871 0.11496466 -0.16956194 -0.25259483
000030 be 45 19 bf 92 a8 33 bf dc f7 d6 be 54 da 85 be
       -0.59872043 -0.7017909 -0.41985977 -0.26143134
000040 90 98 fa bc 0f 25 9e be cb 85 00 3c 27 74 17 bf
       -0.030590326 -0.30887648 0.007844399 -0.5916161
000050 2d bb b2 be 66 d8 23 3e 7f f8 92 be 62 57 63 be
       -0.3490843 0.16000518 -0.28705212 -0.22201303
000060 04 59 da be 48 2e 40 bd 80 92 d0 bd 81 da fa be
       -0.4264604 -0.046919137 -0.10184193 -0.4899483
000070 d8 d9 86 3d 42 74 b5 be 07 ea cd be 5a 05 8f be
       0.06584519 -0.3544026 -0.4021761 -0.2793377
000080 d0 d7 b6 be 1c 62 cf bb d4 02 cc be bf 03 86 be
       -0.35711527 -0.006328834 -0.39845908 -0.26174733
000090 f9 9b be be fd 5c b5 3d 5e 05 a7 be d5 b5 1c bf
       -0.37228373 0.08855627 -0.32621282 -0.61214954
0000a0 fe 69 7e be 2b 76 4f be d5 6a 0d bf 5c 38 fb be
       -0.2484512 -0.20259921 -0.5524114 -0.49066436
0000b0 70 32 a9 be 99 38 84 be 51 83 e6 be 7a 0e 01 bf
       -0.33046293 -0.2582443 -0.4502206 -0.50412714
0000c0 6b 32 0a bf ed 7f ff bd 82 49 f4 be 42 8d 17 bf
       -0.5398318 -0.12475572 -0.47712332 -0.5919992
0000d0 bc 32 31 be da 2c ef be d4 cb c7 be 85 0c 46 be
       -0.1730451 -0.46713907 -0.39022696 -0.19340713
0000e0 b3 6e 93 be 0e 9e 13 3e 7c 23 02 bf 1a 77 19 be
       -0.28795394 0.14415762 -0.50835395 -0.1498684
0000f0 83 f7 ec bd 98 a2 b5 3e bd 1f 43 be 4c a3 59 be
       -0.115706466 0.35475612 -0.19055076 -0.21253699
000100 e5 75 88 be f3 cd cc be 73 61 5d bd 81 cd 3c be
       -0.26652446 -0.40000877 -0.054048013 -0.18437769
000110 c9 34 9f be 7f e7 23 be 87 3e cc be 4c 28 e8 be
       -0.3109496 -0.16006278 -0.39891455 -0.45343244
000120 ea a6 aa be 04 3f 95 be ac 4c 23 be 3f d2 b2 be
       -0.3333047 -0.2914964 -0.15947217 -0.3492603
000130 ba c2 e8 be d0 05 da be d9 44 09 bf 70 e5 1f 3e
       -0.45461065 -0.4258256 -0.5362068 0.15614867
000140 c6 30 7e bc d7 ec de be 04 15 5a bf 1a 01 29 be
       -0.015514558 -0.4354007 -0.8518832 -0.16504326
000150 7d ad 1c be d8 2f 77 be eb a7 8b bd 13 b2 d5 3e
       -0.15300556 -0.24139345 -0.06819137 0.41737422
000160 70 1a 80 3e a0 fe 04 3e 5e b1 0d bf 7a ea 08 be
       0.2502017 0.12987757 -0.55348766 -0.13370696
000170 8a 8e ba be cc ab 60 be 7f 3a 3b be 4d 91 83 be
       -0.36436874 -0.21940535 -0.18284033 -0.25696793
000180 93 c3 9b be 79 1a e9 be da a5 43 be 22 31 06 bf
       -0.3042265 -0.4552801 -0.19106236 -0.5241872
000190 85 bc e9 be 24 3c 49 38 de 97 67 bd 2d 6a 73 be
       -0.4565164 4.7978145e-05 -0.056541316 -0.23770972
0001a0 07 5f ba be c6 db 40 be 28 cc 3a be a2 1d ae bd
       -0.36400625 -0.18833837 -0.18241942 -0.08501746
0001b0 7c e0 6f be 48 ed 41 bd 69 a0 76 be 68 1b b7 be
       -0.23425478 -0.04734543 -0.24084629 -0.35763097
0001c0 af c0 0d 3e 3c 7e 4c bd f0 bd 7d be fe 0a 70 be
       0.13843034 -0.049925074 -0.24779487 -0.23441693
0001d0 b2 58 ef be 4b ed 86 be a8 e5 65 be b7 2b f5 be
       -0.46747357 -0.26352915 -0.22450888 -0.47884914
0001e0 12 0a ca be e9 2e 2f bf 7e ef e2 be 60 bd d4 bd
       -0.39460808 -0.68430954 -0.44323343 -0.10387683
0001f0 33 19 8f bc de 24 da bc 26 cb 47 be 53 b6 da be
       -0.01746807 -0.026628908 -0.19511089 -0.42717227
000200 49 7f 35 bf 5a e0 dc be e1 5b 3c be 88 e9 0f be
       -0.70897347 -0.43139917 -0.18394424 -0.14053929
000210 79 31 19 bf c7 56 a9 be 19 37 c3 bd 37 95 ca be
       -0.59841114 -0.33074018 -0.095319934 -0.39566967
000220 01 fb 1c be d5 ed 8a be 59 b6 bb be f2 08 ce be
       -0.15330125 -0.27134576 -0.36662558 -0.402412
000230 a3 a7 9e be 21 06 cd be df e6 04 bf 7c 31 32 bf
       -0.30987272 -0.40043738 -0.5191478 -0.6960676
000240 c9 31 02 bf 3e 99 14 bf 6f f1 19 be bb ea c2 3d
       -0.50857216 -0.5804633 -0.15033506 0.095174275
000250 1d 9a 19 3e 49 9c 9b be ad da c9 bc e5 ed 8e be
       0.15000196 -0.30392674 -0.024640406 -0.27915874
000260 2c 03 29 be 4d 77 6e be 60 c8 ec bd 8f 0c 99 be
       -0.16505116 -0.23287697 -0.11561656 -0.29892394
000270 54 73 e0 be e1 f8 6f bd f9 59 aa be 7f 4c 1c bf
       -0.43837988 -0.05858696 -0.3327177 -0.61054224
000280 98 41 04 bf d7 3c 02 bf 7b d2 2c be e1 d2 8a be
       -0.5166259 -0.50874084 -0.16877167 -0.27114013
000290 a5 2d 84 be 18 91 b1 be 99 28 f8 bd c5 fc ed be
       -0.25816074 -0.3468101 -0.121171184 -0.4648191
0002a0 96 42 c0 bd 45 95 9f bc 31 d8 92 be a7 fc bd be
       -0.093877 -0.019480357 -0.28680566 -0.3710682
0002b0 d4 0d c7 be 1a 27 81 be 5a 34 d0 be 71 35 86 be
       -0.38877738 -0.25225145 -0.4066494 -0.26212648
0002c0 1c 89 03 bf ac 24 16 bf d0 ae ea be f4 6b bf be
       -0.5138109 -0.58649707 -0.45836496 -0.3738705
0002d0 cf 4e 8d bd a2 b7 3d bf cf 51 0e bf a6 3b 16 bf
       -0.06899797 -0.74108326 -0.5559358 -0.58684766
0002e0 bf 69 1f bf 57 d5 a5 be 78 1f 3d be 41 f6 81 be
       -0.6227073 -0.32389328 -0.18469036 -0.2538319
0002f0 84 df 8e be 02 b4 db bd 8b 43 12 bf d1 83 1a bf
       -0.27904904 -0.10727693 -0.5713431 -0.60357386
000300 5d a3 3c 3d df 82 b2 be dc 97 1d bd 5e 67 c6 bd
       0.046054233 -0.34865472 -0.038474903 -0.096876845
000310 57 be a6 bd 12 db 01 bf 91 a5 1a bf 37 a6 9c bd
       -0.08141773 -0.507249 -0.60408884 -0.076488905
000320 98 f7 30 bd ff 0a a9 bd ed 65 c3 be 54 87 0c 3e
       -0.043204874 -0.082540505 -0.381637 0.13723499
000330 86 9a 6c be 93 96 50 bf 24 fc 13 bf 76 40 1c be
       -0.23105821 -0.8147976 -0.5780661 -0.15258965
000340 7e 99 78 be 2b 47 4f bd 70 df a6 be 10 64 f3 bc
       -0.24277303 -0.05060498 -0.32592344 -0.0297108
000350 0a 0f 99 be 44 f9 f0 bd bb 46 80 be b5 42 95 bc
       -0.29894286 -0.11766294 -0.25053963 -0.018220285
000360 fb 4e 89 be 78 49 8a be 8e b8 1f be b9 38 c6 be
       -0.2681807 -0.27009177 -0.15597746 -0.3871515
000370 5d ed b2 be 9f c9 ab bd 74 32 8c be 04 48 37 be
       -0.3494672 -0.083880655 -0.27382243 -0.17898566
000380 fb 51 05 be 7d 67 91 be 6e 5a a2 be 89 0c f9 be
       -0.13019554 -0.28399268 -0.31709617 -0.48642376
000390 85 2f 00 be c0 29 72 be ba 12 04 bf 00 25 22 bf
       -0.12518127 -0.23648739 -0.51591074 -0.6333771
0003a0 45 9d b6 be 17 4c 07 bf 1f 78 05 be 54 2b e0 be
       -0.35666862 -0.5285048 -0.13034104 -0.43783057
0003b0 8a 4c d9 be 50 7d 0e bf 51 47 8c bc c3 2c 39 bf
       -0.42441207 -0.5565996 -0.01712385 -0.72333926
0003c0 df ad 70 be f5 da 88 be 7e 55 fd bb 11 8c 12 bf
       -0.23503827 -0.2672955 -0.0077311387 -0.57244974
0003d0 f6 c4 e0 be 7c ed a7 be a9 53 4c be 69 7a 92 be
       -0.4390027 -0.32798374 -0.19953789 -0.28609017
0003e0 23 55 00 bf 92 a9 10 bf 47 56 86 be e6 08 eb be
       -0.5012991 -0.56508744 -0.262377 -0.45905226
0003f0 d4 2e 1d bf f6 4b ab 3d 75 ed 8b be 0a 4c c4 be
       -0.6139958 0.08364098 -0.27329603 -0.38339263

bn1.running_mean f4 [256]
000000 eb 26 61 40 39 5c 6f 3f 90 d9 9f 40 65 6f 73 41
       3.5180004 0.93500096 4.995308 15.214696
000010 c1 35 42 c0 83 72 97 40 0c 78 34 41 3d 4e cf 40
       -3.0345309 4.7327285 11.279308 6.4783006
000020 fa 6a 42 40 6c 31 de 40 38 4d d9 bf ce 39 70 c0
       3.0377793 6.943533 -1.697669 -3.753528
000030 ea 6b 48 40 3f 93 bc 40 7b 14 4d bf 2d 26 43 41
       3.1315866 5.8929744 -0.80109376 12.19682
000040 29 e5 db 3e 8e 33 f7 c0 ba 6d 1a 41 07 30 fd be
       0.42948273 -7.7250433 9.651789 -0.49450704
000050 12 12 ad 41 9a cd 1f 41 75 6a 19 c0 7f e8 19 c0
       21.633823 9.987696 -2.3971226 -2.4048154
000060 a9 05 0d c1 65 4a 6f 3f 50 f1 c8 3f 13 78 ee c0
       -8.813882 0.9347289 1.5698643 -7.4521575
000070 d6 99 2c 41 da 39 54 3f 31 9e 7b 40 1a 59 95 40
       10.787558 0.82900774 3.9315302 4.6671267
000080 28 5f 6c c0 a6 9b b0 c0 4e 89 8e c0 c3 3a dc c0
       -3.6933079 -5.519 -4.454261 -6.882173
000090 b9 cc 3b 3f ac b1 36 41 90 7e 23 c1 5c fe 22 41
       0.73359257 11.418377 -10.218399 10.187099
0000a0 a4 e6 66 c0 61 33 6c 3f aa 0a 58 c0 8c e5 c4 bf
       -3.6078272 0.922659 -3.375651 -1.5382552
0000b0 f1 8e c0 40 b5 ec d3 c0 be a8 8d c0 68 87 92 40
       6.017449 -6.622645 -4.4268484 4.579029
0000c0 2f 0c dc 40 aa e6 20 41 16 5c 03 c0 98 20 48 c1
       6.8764873 10.056314 -2.0524955 -12.507957
0000d0 35 c8 55 40 d0 4a 03 c1 d0 80 11 41 2c f6 12 41
       3.3403447 -8.205765 9.093948 9.185101
0000e0 dd c9 65 c1 c8 36 3c 40 56 c8 1c bf 5c d5 35 41
       -14.361783 2.9408436 -0.6124319 11.36459
0000f0 49 0c 1d 41 45 88 4a 41 2f 10 a9 40 48 23 b3 c0
       9.815499 12.658269 5.2832255 -5.598057
000100 61 0d 2c 41 e4 15 44 c1 54 60 1c c1 18 8d 6c 41
       10.753266 -12.255344 -9.773518 14.784447
000110 db 99 aa 40 e7 37 c9 40 d3 7a 0b 41 84 8d 15 41
       5.331281 6.288074 8.717486 9.34705
000120 32 31 bf 3f 0e 69 eb 40 74 d8 f2 bf c1 a1 2e 40
       1.4936888 7.356574 -1.8972306 2.7286227
000130 2b 45 96 c0 fa 8d 18 c0 45 89 47 c0 5e 75 ec 40
       -4.6959434 -2.3836656 -3.1177533 7.389327
000140 4a b0 b4 be ea a8 86 40 5c 7f b5 40 1e b8 82 c1
       -0.35290748 4.2081194 5.671797 -16.339901
000150 a8 54 a9 bf d3 ce 34 41 db 73 86 c0 da bf a1 be
       -1.322896 11.300494 -4.2016425 -0.31591684
000160 b3 5b 08 41 f1 cb 0d 41 be c0 90 be 54 e3 a9 3f
       8.5223875 8.86229 -0.2827205 1.32725
000170 20 da b9 40 2d 52 20 c0 ee 80 8c 3f 02 63 81 c0
       5.8078766 -2.5050156 1.0976846 -4.043336
000180 54 f8 c0 c0 68 26 f2 be ac b3 02 41 f8 f6 c9 c0
       -6.0303135 -0.47294927 8.168865 -6.3113976
000190 73 83 c3 40 28 3b 65 40 7a c6 18 41 a9 12 60 3f
       6.109796 3.5817356 9.548456 0.87528473
0001a0 4d 8f 84 41 46 62 92 bf a0 8f d5 40 b4 3a e7 40
       16.569971 -1.1436241 6.6737823 7.225916
0001b0 9a 3a 0c c0 98 ba 6e c0 aa e0 0d c1 db 24 9c 40
       -2.1910768 -3.7301388 -8.86735 4.879499
0001c0 e3 77 2f 41 95 ee 11 41 c1 03 96 40 4d 44 b6 bf
       10.966769 9.120748 4.6879582 -1.4239594
0001d0 14 3c d1 40 90 e4 dc c0 50 7e 06 41 fb 6d 4c c0
       6.5385838 -6.9029007 8.405838 -3.1942127
0001e0 14 81 ee 3f a9 0c 8f 40 40 e4 8f c0 d4 3f 1c 41
       1.8633142 4.4702954 -4.4966125 9.765583
0001f0 d4 08 a3 3c 66 b3 18 be ab d2 43 40 e3 5f 55 c0
       0.01990167 -0.14912185 3.0597332 -3.3339775
000200 15 60 3d 3f 21 24 38 bf a6 c1 a6 3f a8 09 1d bf
       0.73974735 -0.7193013 1.3027847 -0.6134286
000210 c7 32 34 c1 a6 f2 03 40 d9 d2 4e c0 9e 08 c3 c0
       -11.262397 2.061685 -3.2316191 -6.094802
000220 8a f7 a5 40 65 39 b0 bd 9d 63 5e 41 46 cb 86 3f
       5.186467 -0.08604697 13.89932 1.0530784
000230 bb 8c cf c0 9f d0 de 40 f5 b9 b2 40 9b 20 fe 40
       -6.485929 6.9629664 5.5852 7.94148
000240 e8 4d ee 40 51 d5 4e c0 be 6b 0f c1 c3 1d 63 c0
       7.44701 -3.2317698 -8.963804 -3.5486915
000250 43 5e 22 41 66 76 87 c0 44 b6 56 3f 8d bd 98 bf
       10.148013 -4.233203 0.83871865 -1.1932846
000260 48 7f c1 c0 8a 53 48 c1 45 d9 bf 40 fa f2 f4 40
       -6.0467873 -12.520395 5.995272 7.65466
000270 7b 14 2d bf 75 53 09 40 86 5b a1 c0 f1 61 02 41
       -0.67609376 2.1457188 -5.0424223 8.148911
000280 7b e2 2a c0 42 b6 f8 c0 6f a4 0c 40 de 0b ba bf
       -2.6700733 -7.7722483 2.1975362 -1.4534872
000290 c2 e9 bc 40 a2 32 ae 40 7f 31 f5 40 89 50 c3 c0
       5.903535 5.443681 7.662292 -6.103581
0002a0 b6 8e 52 40 63 af 4e 41 0c b1 55 c0 fe 0b a2 be
       3.2899604 12.917819 -3.338931 -0.31649774
0002b0 d3 5b de 3f 4f 55 f1 3f 00 1a b7 3e 8f fd dc 3f
       1.7371773 1.8854159 0.35762024 1.726488
0002c0 8a 0e f9 40 32 91 10 3f 71 ac 29 c0 db 27 f7 40
       7.783025 0.5647155 -2.65115 7.723615
0002d0 a5 41 e0 3f d7 65 bc c0 37 8e 15 41 d3 b6 08 41
       1.7520033 -5.8874316 9.34722 8.544635
0002e0 84 e0 59 c1 14 b6 04 41 4b 43 9f 40 41 72 59 41
       -13.617313 8.294453 4.9769645 13.590394
0002f0 86 ff 85 3f f0 66 7e bf 54 35 bd bf 42 b7 42 c0
       1.0468605 -0.9937582 -1.47819 -3.0424352
000300 55 06 8b c0 02 3a ec c0 6e f9 ed 40 b5 44 21 41
       -4.344523 -7.382081 7.436698 10.079274
000310 80 a9 3f 41 5f c2 34 c1 3b 8f 94 bf dc e8 0b c1
       11.978882 -11.297454 -1.160621 -8.74435
000320 b4 c9 ef be b6 1e b1 3f 96 21 ea c0 7a d9 ee 3f
       -0.46833575 1.3837497 -7.3166 1.8660119
000330 78 52 66 c1 bb b8 ef c0 69 5d ce be da 9b 54 c0
       -14.395134 -7.4913 -0.4030564 -3.3220124
000340 c1 9f 41 c0 d2 57 21 41 07 ef 25 41 0f 85 11 40
       -3.0253756 10.0839405 10.370856 2.2737463
000350 39 0a 49 c0 01 10 78 3f ce 47 2a 41 e8 60 51 bf
       -3.141249 0.9689942 10.64253 -0.8178849
000360 03 c5 97 40 1f d0 2b c1 cd 16 11 41 39 1d 0b c0
       4.7427993 -10.738311 9.068067 -2.1736586
000370 94 d5 58 c0 ea 95 49 40 56 88 d1 40 01 8c 3b c1
       -3.3880358 3.149775 6.5478926 -11.721681
000380 0d b2 37 40 e0 38 64 40 0b dd 2f c0 10 9f d1 be
       2.8702424 3.5659714 -2.7478664 -0.40941668
000390 e0 04 0b 41 f2 cb b0 c0 c5 e5 52 c1 c2 e9 33 c0
       8.68869 -5.5248957 -13.181096 -2.8111424
0003a0 a9 0f bc bf 8c a0 e1 40 ab 99 db bc 38 69 50 41
       -1.4692279 7.050848 -0.026806673 13.025688
0003b0 18 43 0d c1 6a c1 c0 c0 8d c5 10 3f 15 39 b9 40
       -8.82888 -6.02361 0.5655144 5.788218
0003c0 9b 19 e4 bf 82 d6 d9 40 97 f5 7a bc d3 5d 83 40
       -1.7820314 6.807435 -0.015317342 4.105203
0003d0 32 f6 16 40 1b 33 98 40 56 cf 27 41 70 c9 4b bf
       2.3587766 4.7562385 10.488119 -0.79604244
0003e0 55 33 a3 3f 1e fd 8c 3f e4 8f d4 c0 53 80 12 41
       1.275004 1.1014745 -6.642565 9.156329
0003f0 72 5c 0f c1 c9 9b 12 41 14 44 ef bf 1c 45 ab 40
       -8.96007 9.1630335 -1.8692651 5.352186

bn1.running_var f4 [256]
000000 03 0b 99 42 99 45 ae 40 c9 ad f4 42 ab dc 27 42
       76.52151 5.445996 122.339424 41.965496
000010 65 a4 3d 42 68 ce 4a 42 34 5c 1a 42 2e 4f 0c 43
       47.41054 50.70157 38.590042 140.3093
000020 7e bc 8e 41 35 99 34 42 af e8 11 43 61 e6 4e 43
       17.842037 45.149616 145.90892 206.89992
000030 19 c7 82 43 be 20 e2 42 1b eb c5 42 68 c8 61 42
       261.55545 113.06395 98.95919 56.44571
000040 0b cd 8e 42 ec bf 44 42 59 7a 47 43 13 37 fe 42
       71.400475 49.187424 199.47792 127.10757
000050 55 f6 4d 42 bc 88 89 41 d2 5c 0b 43 3e d2 ad 43
       51.49056 17.191765 139.36258 347.64252
000060 36 1d 07 42 18 89 13 41 4e b4 b7 42 b2 e5 c5 42
       33.778526 9.22097 91.85216 98.94862
000070 14 dd 6c 43 80 ad b6 42 e1 f1 db 42 30 e0 7b 42
       236.86359 91.33887 109.97242 62.968933
000080 ea ea 30 43 36 e2 28 43 12 1a ea 42 ff db bd 42
       176.91763 168.88364 117.05092 94.92968
000090 03 ea 02 43 b3 60 9f 42 12 30 b7 42 23 bf 2f 43
       130.91411 79.688866 91.59389 175.74663
0000a0 1d ea e9 42 a6 5c 20 42 94 bd cf 42 37 9a 28 43
       116.95725 40.090477 103.87027 168.6024
0000b0 3f d9 a2 42 3b de 58 43 c8 5e ab 42 c4 1a 4d 43
       81.42431 216.86809 85.68512 205.10455
0000c0 d5 eb 9a 42 28 0a e8 42 57 5f 3b 42 ca 3e ac 43
       77.46061 116.01984 46.843105 344.49054
0000d0 3d 0d 4d 42 02 fa f1 42 ff 0f af 43 6a 0d 8e 42
       51.262928 120.9883 350.12497 71.0262
0000e0 23 4d 8f 42 91 14 ae 42 e4 e7 81 42 2d c4 9e 42
       71.65066 87.04017 64.95291 79.383156
0000f0 bd 72 f2 43 32 98 75 42 89 16 30 41 51 c1 75 41
       484.8964 61.39863 11.005502 15.359696
000100 56 7c 61 42 82 1d a8 42 5e 28 3e 43 c0 e8 88 42
       56.37142 84.05763 190.15768 68.45459
000110 ee 95 93 42 5c cf e4 42 87 a2 90 42 5e 89 08 43
       73.79283 114.405 72.31744 136.53659
000120 90 46 2e 43 9b a8 a2 43 c4 ce 6e 42 e8 01 39 43
       174.27563 325.31723 59.70192 185.00745
000130 b7 80 8d 43 e3 2c ec 42 fc 87 e3 42 f9 a4 40 43
       283.00558 118.08767 113.765594 192.64442
000140 2b 31 91 40 c7 e7 ef 41 84 3d 0a 43 fb 4e c3 42
       4.537252 29.988173 138.2403 97.65426
000150 d8 81 6a 43 f8 8c 95 42 b8 28 15 43 ae 55 72 40
       234.5072 74.77533 149.15906 3.7864795
000160 bf 5f cd 43 e5 4b d6 42 e2 71 2d 43 33 b2 92 42
       410.74802 107.14823 173.44485 73.348045
000170 0a c1 d3 42 2a 0d 39 42 1f f5 04 43 56 d6 69 42
       105.87703 46.262856 132.9575 58.459312
000180 09 9c 99 43 42 00 f9 42 df c1 9b 42 2a 99 b7 42
       307.21902 124.5005 77.878654 91.79915
000190 aa 44 8b 42 fa 6f c7 42 cc 8f f2 42 ee 10 55 41
       69.63411 99.718704 121.28085 13.316633
0001a0 19 ac 93 42 3a 7a a9 42 6e 33 81 43 dc ba 78 42
       73.83613 84.73872 258.4018 62.18248
0001b0 d6 d9 53 43 57 a5 40 42 79 2c 51 43 c6 0d 26 43
       211.85092 48.161465 209.17372 166.0538
0001c0 cf b5 05 42 19 9d e8 41 ed 40 5d 42 ca 9f 81 41
       33.427547 29.076708 55.313404 16.203022
0001d0 b9 b1 8b 42 b1 34 8d 43 bc fc 11 42 8a 82 d8 42
       69.847115 282.41165 36.49681 108.25496
0001e0 4e 16 04 43 92 a7 75 42 db d9 9f 42 5a 0e 8f 42
       132.08713 61.413643 79.9255 71.52803
0001f0 03 eb c4 3f ad 01 a6 40 13 00 92 42 31 94 c9 42
       1.538422 5.1877046 73.000145 100.78944
000200 90 20 51 42 4a 6c 16 43 3e 47 a0 42 39 eb 8a 42
       52.2818 150.423 80.139145 69.45942
000210 0c af 61 42 e8 49 7b 43 62 6e 15 43 9b d1 69 43
       56.420944 251.2887 149.43118 233.81877
000220 e2 b8 78 41 a2 39 8f 43 de 17 17 42 d9 19 90 42
       15.545137 286.45026 37.773308 72.05048
000230 ff 3b 7c 43 fc c9 e4 41 2e 38 49 42 fb c5 4e 42
       252.23436 28.598625 50.304863 51.69334
000240 58 20 61 43 5a 49 f6 42 8d 78 54 42 1b 05 30 43
       225.12634 123.143265 53.117725 176.01994
000250 f3 ff 81 42 a6 69 63 43 5c 71 76 40 64 cb 7f 42
       64.9999 227.41269 3.850669 63.948624
000260 7b 57 13 42 60 20 4c 43 c3 7e 3b 42 e2 f4 07 42
       36.83543 204.12646 46.87379 33.989143
000270 91 b4 d3 42 23 fb fd 40 d5 bc 2f 42 5d 0a 21 43
       105.85267 7.9369063 43.934406 161.04048
000280 32 cd 18 43 4f fb 90 42 a2 4a dd 41 ff 01 8b 43
       152.80154 72.49084 27.661442 278.0156
000290 65 0c c5 42 ea 2d 98 43 0b dc 22 43 d8 7d ad 42
       98.52421 304.3587 162.85954 86.74579
0002a0 9a aa 2d 43 cc 5c 8f 42 45 a6 16 42 24 96 4a 42
       173.66641 71.681244 37.662373 50.64662
0002b0 a0 08 23 42 04 61 32 43 c1 ad 02 42 a6 6b 76 43
       40.758423 178.37897 32.66968 246.4205
0002c0 8d e0 5f 43 dd 2f 24 42 62 57 87 42 11 97 ff 42
       223.87715 41.04674 67.67067 127.79505
0002d0 5b ea 8a 43 c7 65 85 42 8c 9a 99 42 77 44 cf 42
       277.8309 66.698784 76.80185 103.63372
0002e0 71 13 86 42 d9 56 8b 42 2b 8a 52 42 8c 97 98 42
       67.03797 69.669624 52.63493 76.29599
0002f0 5f 10 21 43 41 1b b2 41 11 7c 28 43 55 27 3d 42
       161.06395 22.263308 168.48463 47.28841
000300 d2 b2 17 43 89 62 39 42 dc 93 90 42 b8 bc c1 42
       151.69852 46.346226 72.28879 96.86859
000310 1b 98 c8 41 2b 28 57 42 5a d5 fa 42 83 cf 04 42
       25.07427 53.789227 125.4167 33.20265
000320 b8 0c bd 41 be f7 57 42 71 92 99 43 59 da d6 42
       23.63121 53.991936 307.14407 107.42646
000330 84 25 11 42 59 fb f9 42 e1 86 2b 43 35 c7 f1 41
       36.286636 124.99091 171.52687 30.22227
000340 34 d2 d3 42 51 4c a6 42 27 fc 8f 42 e5 09 1c 42
       105.91055 83.149055 71.992485 39.009663
000350 8f fe a8 43 bd bd df 41 65 fa de 42 53 ec 8b 3f
       337.98874 27.967646 111.48905 1.0931495
000360 51 88 98 41 4f 9d 16 43 2d 60 09 43 3a 67 c4 42
       19.06656 150.61449 137.37569 98.201614
000370 ec 97 e9 42 cb 05 d5 42 6e 0c 2f 44 e9 3c c6 42
       116.79672 106.511314 700.1942 99.118965
000380 69 81 83 43 d7 0e 18 43 19 ef 19 43 c0 4d df 42
       263.01102 152.05797 153.93398 111.651855
000390 08 29 a4 42 a2 00 8d 41 40 b4 2f 42 05 7e 05 43
       82.08014 17.625309 43.926025 133.49226
0003a0 89 7b 65 43 03 ce 6b 43 48 44 ae 41 f0 8c b9 42
       229.48256 235.80473 21.78334 92.77527
0003b0 64 cc 94 42 32 b1 34 43 af 07 57 41 2b 16 ab 43
       74.3992 180.69217 13.439376 342.1732
0003c0 ea 86 83 43 b5 96 8c 42 56 39 92 3f e8 cd 95 42
       263.05402 70.29435 1.1423748 74.90216
0003d0 58 54 33 43 78 f9 6d 42 7d c3 b9 42 d8 88 df 42
       179.32947 59.49362 92.88181 111.76727
0003e0 3f 24 90 42 09 32 17 43 aa eb 18 43 32 15 0b 43
       72.07079 151.19545 152.92056 139.0828
0003f0 4d 01 42 42 d6 39 6a 42 18 ef 32 43 46 53 d6 42
       48.50127 58.55648 178.93396 107.16264

fc2.weight f4 [128, 256]
000000 4c 09 61 3d e9 a7 00 bd 8e 77 10 bd 00 7d ec 3d
       0.054940507 -0.03141013 -0.035270266 0.11547279
000010 e1 0e 13 be cd 46 4a bd 86 f7 cf 3c 14 82 35 bd
       -0.14361145 -0.049383927 0.025386583 -0.044313505
000020 c5 87 28 3d f8 6a 93 3b f3 7c 19 3d de e8 90 bd
       0.041145105 0.0044988357 0.037472676 -0.07075666
000030 65 98 20 be d0 b4 45 3d 71 07 7b bb ec 8a cf 3c
       -0.15683134 0.04826814 -0.0038303996 0.025334798
000040 8b b5 b1 bd 17 9e 65 bc 17 27 8f bd 99 76 95 bd
       -0.08677205 -0.014014742 -0.06989878 -0.07298011
000050 3d df 66 bc 63 0b 2a bd d5 36 a8 3c 8a 2c 88 bd
       -0.01409131 -0.041514765 0.020533958 -0.0664912
000060 72 a9 69 3c fc d4 d9 bb fa b7 15 3d 3d 03 dc bd
       0.01426159 -0.006647704 0.036552407 -0.10742805
000070 84 ef 23 bc 09 7f 19 3d ec 7e 7d bc 34 0e eb bc
       -0.010005835 0.037474666 -0.015472155 -0.028693296
000080 fb 47 15 be b2 ac e9 bd db 4e 0b be aa 4d e4 bc
       -0.1457824 -0.11409892 -0.136043 -0.027869064
000090 01 dd d5 bc a6 cc b2 bd 20 53 b4 bc 71 f4 35 bd
       -0.02610636 -0.0873044 -0.022012293 -0.04442257
0000a0 94 8b b1 bd dd 90 14 3c a9 86 0c be 79 8b 80 3d
       -0.086692005 0.009067741 -0.13723244 0.06276602
0000b0 fe a7 47 3d 41 d5 d3 3d f3 ff cc bd 9e 1a 23 3c
       0.048744194 0.10343409 -0.10009756 0.0099550765
0000c0 05 61 a0 3c 17 f5 b7 bd ef 73 c6 3d dc 76 38 3d
       0.019577513 -0.08982294 0.09690081 0.045035228
0000d0 bb d9 c0 bc 92 cd 4b bd 77 c5 2b 3d 8e 68 c5 bc
       -0.023541322 -0.049756594 0.041936364 -0.024097707
0000e0 76 10 17 be a6 14 ac bd 92 bc cf bd fc 9a 28 3d
       -0.14752373 -0.08402376 -0.10143389 0.04116343
0000f0 a9 40 45 3d 56 b1 ee 3d 38 40 a9 bd fd 6b 20 be
       0.048157368 0.11654918 -0.08264202 -0.15666194
000100 3f 24 88 3d 38 c0 03 be 76 b6 d0 3c 9a a7 6a bd
       0.066475384 -0.12866294 0.02547763 -0.057288744
000110 e5 6c 02 3c 88 22 60 3c 4d 1d 8b 3a af de 12 be
       0.007960533 0.013680108 0.0010613591 -0.1434276
000120 cf 8f e1 bd 16 2d 6d 3d 1b 31 ee bc 1f a2 52 bc
       -0.110137574 0.057904325 -0.02907615 -0.0128560355
000130 d4 d3 40 bc ea 81 8d 3c 21 8d 34 3d f8 2f 7b 3d
       -0.011769254 0.017273862 0.044079904 0.061325043
000140 40 e9 94 3d 54 c8 59 bd f0 e5 4e bd 17 dd 85 bd
       0.072710514 -0.053169563 -0.050512254 -0.0653631
000150 c6 b7 89 3d d8 7a 7f 3d 26 99 6f bd 49 98 81 b9
       0.06724505 0.062373012 -0.058495663 -0.0002471826
000160 d1 9a 24 bd fa 55 c9 bd 56 97 33 be 58 a1 95 bd
       -0.040186707 -0.09830852 -0.17538199 -0.073061645
000170 9d 36 df bd 76 6f 53 3d 5d ed fd 3c 0f 53 2a be
       -0.108990885 0.05161997 0.030996973 -0.16633247
000180 69 f0 55 bd 5d f1 6a bc a1 03 51 bd da 3a 1c bd
       -0.052231226 -0.014339772 -0.05102885 -0.038142063
000190 88 b5 14 3d 1b 8c d1 bd 3e 9d 0b be e2 fc 15 be
       0.036305934 -0.10231801 -0.13634202 -0.14647248
0001a0 ce 53 60 bd a4 1b c2 bc 6a d2 85 3d ea 95 d1 bd
       -0.054767422 -0.02369482 0.06534274 -0.10233672
0001b0 f8 1c e3 bc 16 d0 05 bd de da f5 3a 56 14 36 3d
       -0.027723774 -0.03266915 0.0018757244 0.044452988
0001c0 c3 2f 7d 3b 43 f2 c6 bd 99 2a 9e bb ea 12 e9 3c
       0.0038633205 -0.097141765 -0.0048268554 0.028451402
0001d0 d2 3f c7 3c b4 fb 07 bd 86 7d 23 bd 7c 33 16 be
       0.024322424 -0.033199027 -0.03991463 -0.14668077
0001e0 70 ad 30 bd 3f 42 b5 ba 7d 65 3d bd c4 d3 e9 3c
       -0.043134153 -0.0013828947 -0.046239365 0.02854336
0001f0 52 a1 40 3d 32 2b 37 3c 70 4b 95 bd 9b 14 2d 3c
       0.047028847 0.011179732 -0.07289779 0.010563995
000200 c7 8c 56 bd 67 de 46 3d 93 b4 e9 bd 41 a7 f3 bd
       -0.05238035 0.048551943 -0.11411395 -0.118971355
000210 d4 fc 8e bd 9f 19 e9 bc 7f 73 a0 3d 6d 66 d0 3d
       -0.06981817 -0.0284546 0.07834529 0.10175786
000220 d0 b2 91 bc 3f 02 d6 bd 44 c6 27 bd 90 8a e7 bd
       -0.01778546 -0.10449647 -0.040960565 -0.113057256
000230 3b ee b4 bb 6d 19 cc 3c 49 0c ca 3c 21 68 b4 bb
       -0.0055215633 0.024914468 0.024664061 -0.005505577
000240 c2 3a 14 bd a6 1d 08 be 27 18 2a bd fa e3 06 bd
       -0.03618885 -0.1329256 -0.04152694 -0.03293226
000250 04 a0 81 bd d1 de 06 3c d0 bf c6 3c 04 08 6c 3d
       -0.06329349 0.0082318345 0.024261385 0.05762483
000260 e8 00 93 bd bc cb 41 bd 32 f8 4a bd 2c 7a b6 bd
       -0.07177907 -0.047313437 -0.049553104 -0.08910021
000270 17 02 67 3b e6 f0 e5 bc d4 83 26 bc 3d 3f ae bd
       0.0035249048 -0.02806897 -0.010163266 -0.085081555
000280 d4 8b bb 3c 83 6c d6 3c eb d0 88 bd 40 14 02 ba
       0.022893824 0.02617479 -0.06680473 -0.0004962124
000290 a4 69 41 3d 44 bb 47 bd ee 4e f2 bd 68 6e ac bc
       0.047219887 -0.048762575 -0.11831461 -0.02104874
0002a0 89 86 e5 bd 1c cc 43 3d 28 04 4b be df 7f 2a 3d
       -0.11207301 0.047802076 -0.19825804 0.041625854
0002b0 3e 81 8a bd 7d 29 15 bd c4 b3 b3 bd d2 b7 b1 bd
       -0.06762932 -0.03641652 -0.08774522 -0.08677639
0002c0 e9 be 36 bc 79 bf 48 bd e1 f9 8e bd da b5 c3 3c
       -0.011153915 -0.049010728 -0.06981254 0.023890425
0002d0 e6 5c 14 be 38 27 6f bd 90 66 43 3d 74 84 e0 bc
       -0.14488563 -0.05838701 0.047705233 -0.027406909
0002e0 b2 21 3e bd b2 d0 22 bd 82 1d d2 bb 89 4f 94 bd
       -0.046418853 -0.03974981 -0.006412209 -0.072417326
0002f0 3f 0d 8c bd d6 79 2c 3d a4 44 c4 bc 8b 59 5c bd
       -0.06838464 0.04210838 -0.023958512 -0.053796332
000300 05 9c 8b bd f3 38 08 bd df 4a ee bd 5e 61 9f bd
       -0.06816868 -0.033257436 -0.11635374 -0.07782243
000310 bb 6a e7 3c 8d da 0d bd 73 21 80 bd 33 10 8f bd
       0.028249135 -0.034632254 -0.0625638 -0.06985512
000320 85 73 90 bd d4 ea 61 bd 54 b5 d6 bd be 76 41 bd
       -0.070532836 -0.05515559 -0.10483804 -0.047232382
000330 c9 6c 37 3d 12 5c 1d bd 6b c0 b1 bd c1 58 96 bd
       0.04478148 -0.038417883 -0.08679279 -0.07341147
000340 17 e3 1d be f8 e4 26 bd 74 ae 7d 3d d8 5d 0d be
       -0.15418659 -0.040745705 0.06193395 -0.1380533
000350 ff 5a ac 3c 5d 0f 73 3d 56 30 37 bd 59 5b 3f bc
       0.021039484 0.059340823 -0.04472383 -0.011679494
000360 04 05 42 bd 3c c6 c0 bd 28 94 ab bd ef 65 0f 3d
       -0.047368065 -0.0941281 -0.08377868 0.03500932
000370 78 b0 32 3d e8 45 f7 39 bb 7e db bd 53 da 22 be
       0.043625325 0.00047163595 -0.10717531 -0.15903597
000380 40 b3 f3 3b df 9f 53 bc 82 96 a7 bb e9 f0 a2 bb
       0.0074371397 -0.012916534 -0.0051143775 -0.0049725664
000390 72 5f d0 bd 5e 3d ef bb c9 68 dd bd d4 91 24 3c
       -0.10174455 -0.0073010167 -0.10811002 0.010044534
0003a0 dc 89 b3 bd 86 fb 64 3d 50 b4 ac bc 79 ed 3b 3d
       -0.08766529 0.055903934 -0.021082073 0.04588077
0003b0 e4 c6 08 be 73 8c 1d 3d 66 e9 33 3d 1a 1a c8 bd
       -0.13357121 0.03846402 0.043923758 -0.097706035
0003c0 8e fa c3 bc f3 78 63 bd ff 58 a9 bd 32 a3 a5 bd
       -0.023923185 -0.055535268 -0.08268928 -0.08087768
0003d0 b5 85 d2 bd b5 69 2d bd a9 47 c0 bd 3f d1 e5 bd
       -0.10279409 -0.04233714 -0.09388668 -0.11221551
0003e0 03 4d 8c bd b7 4b e6 bb d2 3c 2f 3c 11 f6 9c bd
       -0.06850626 -0.007028069 0.010695653 -0.07664121
0003f0 5a 7c 8c bd 36 45 6f bd 83 07 01 bc 46 17 d4 3d
       -0.06859656 -0.058415614 -0.007875326 0.103560016
