p3_collab-compet/ddpg_actor_agent1.pth (torch_old, 163785 bytes, 10 tensors)

fc1.weight f4 [256, 24]
0	0x3c3aa2a2	0.011391314
1	0x3db10d71	0.08645142
2	0xbe07427d	-0.13208957
3	0x3c460f18	0.01208856
4	0x3dfe8c1b	0.12429067
5	0xbf83fe2b	-1.0311941
6	0xbe181fab	-0.1485583
7	0xbc9620c3	-0.018326169
8	0xbdc36b17	-0.0954191
9	0x3da6f2cf	0.08151781
10	0xbdad444e	-0.08460294
11	0xbe21ddd2	-0.15807274
12	0x3ead1714	0.3380667
13	0xbf34df7a	-0.706535
14	0xbd901696	-0.07035558
15	0xbde6adc9	-0.11263616
16	0x3e1e47b6	0.15457043
17	0x3e479bd4	0.19493037
18	0xbdaea999	-0.08528442
19	0x3e811bb1	0.2521644
20	0x3ef7eaa5	0.48421207
21	0xbf15de24	-0.58542085
22	0xbdbcd575	-0.09220401
23	0x3e5f87d2	0.21829155
24	0xbe76317c	-0.24042314
25	0xbf096e41	-0.5368386
26	0x3b91e200	0.00445199
27	0xbd29d4b2	-0.041462608
28	0x3eaab23f	0.33339116
29	0xbe0b77ba	-0.13619891
30	0x3c8c34cd	0.017115021
31	0xbd8bed88	-0.06832415
32	0xbe306065	-0.17224272
33	0xbf0dd604	-0.55404687
34	0xbe12719a	-0.14301148
35	0xbf36b526	-0.7137016
36	0xbd4370c1	-0.047714952
37	0x3e753002	0.23944095
38	0xbe0edc22	-0.13951162
39	0xbf442e7e	-0.7663344
40	0x3e079536	0.13240513
41	0xbead2c0e	-0.33822674
42	0xbc4c1982	-0.012457253
43	0xbdca3f3f	-0.098753445
44	0xbf0dee08	-0.5544133
45	0x3f262bb8	0.6491046
46	0xbd54a01f	-0.051910516
47	0xbe437450	-0.19087338
48	0xbede0411	-0.43362477
49	0xbea294a2	-0.31754023
50	0x3ceb9303	0.028756624
51	0x3ec4525b	0.38344082
52	0x3d432dfd	0.04765128
53	0xbec23213	-0.3792883
54	0xbd1c75e0	-0.03819835
55	0x3e947045	0.28991905
56	0xbe9b6a9a	-0.30354768
57	0xbeaf257c	-0.34208286
58	0x3da1c418	0.0789873
59	0x3abf78ae	0.0014608109
60	0x3e09a716	0.13442644
61	0x3f31db03	0.6947481
62	0x3d871055	0.06594912
63	0xbcc6866d	-0.024234021
64	0xbe4aef61	-0.19817878
65	0xbe5630a0	-0.20916986
66	0xbcbb341a	-0.022851992
67	0xbdf52d70	-0.11971557
68	0x3e3183d7	0.17335449
69	0x3fe8a9ef	1.817686
70	0x3cf099da	0.029370237
71	0xbe014f23	-0.12627845
72	0xbe76599c	-0.24057621
73	0xbf1836bb	-0.5945851
74	0x3ca4c803	0.020114904
75	0x3f02f0d4	0.51148725
76	0x3c426897	0.0118657565
77	0x3fb7965c	1.4342761
78	0xbd9e68b5	-0.07734815
79	0x3f04d309	0.51884514
80	0x3da86113	0.082216404
81	0xbe5f1f76	-0.21789345
82	0xbceb3e62	-0.02871627
83	0x3eb8e68b	0.3611339
84	0x3e8b9c0d	0.27267495
85	0x3f389c19	0.72113186
86	0x3d98b995	0.07457272
87	0x3e9489cd	0.29011384
88	0x3e6dd31f	0.23225068
89	0xbe4553c1	-0.19270231
90	0xbd40014c	-0.046876237
91	0x3e46f6e0	0.19430113
92	0x3ed205f5	0.4102017
93	0x3eb7e404	0.3591615
94	0x3c5fd7b2	0.013662266
95	0x3e1c22b2	0.1524761
96	0x3edbe77f	0.42950055
97	0xbecd4a4f	-0.40095755
98	0xbdcd167d	-0.10014055
99	0x3c1da025	0.009620701
100	0x3f41a2be	0.7563895
101	0x3eb4a90a	0.35285217
102	0xbc9acbac	-0.018895946
103	0xbcf94f18	-0.030433223
104	0xbd422c21	-0.047405366
105	0xbf3c2bca	-0.73504317
106	0xbe07f308	-0.13276303
107	0xbe83c616	-0.25737065
108	0x3dde139f	0.10843586
109	0x3f03df27	0.5151238
110	0xbe29fbe1	-0.1659999
111	0xbe6884ad	-0.22706862
112	0x3f07a09f	0.52979463
113	0xbeb89514	-0.36051238
114	0xbc175583	-0.009236696
115	0xbe8c5351	-0.27407315
116	0xbdd4706d	-0.10373006
117	0xbee5ac3d	-0.4485797
118	0xbcfad8ae	-0.030620899
119	0xbea3a20d	-0.31959572
120	0x3e7200b1	0.23633076
121	0xbe8128f8	-0.2522657
122	0xbe0d8ff3	-0.13824444
123	0xbe6d0ab6	-0.23148617
124	0x3f108a71	0.56461245
125	0x3ee6455c	0.44974792
126	0xbe3c58bb	-0.18393223
127	0xbe8ed4be	-0.27896684
128	0x3e1b223a	0.15149775
129	0xbeae40be	-0.3403377
130	0x3dfb6f29	0.122770615
131	0x3e9f025b	0.31056485
132	0x3de5593d	0.111986615
133	0x3f07f96b	0.53114957
134	0x3d90e500	0.07074928
135	0x3e8a3b09	0.26998165
136	0x3edfbf43	0.4370061
137	0xbe10462c	-0.14089268
138	0x3e0a9993	0.13535146
139	0x3eefb879	0.4682043
140	0xbdd1f3d2	-0.10251583
141	0x3f1e9514	0.61946225
142	0x3d6731d1	0.056443993
143	0x3f08828b	0.5332419
144	0x3e3c3386	0.1837903
145	0xbf294096	-0.66114175
146	0x3e4ac3dc	0.19801277
147	0x3d56c4eb	0.05243389
148	0xbe8a6ca1	-0.27036002
149	0x3be6f219	0.0070479033
150	0x3e29523e	0.16535279
151	0x3e1a9736	0.15096745
152	0x3e40aee8	0.18816721
153	0xbf21b737	-0.6317019
154	0xbe88c937	-0.26716015
155	0x3d2c3788	0.042045146
156	0x3d30ee2b	0.043195885
157	0xbd992c8a	-0.07479198
158	0xbe2824ab	-0.16420238
159	0x3bbdb6b5	0.0057896026
160	0x3cf85bf7	0.03031729
161	0xbeeb68ab	-0.45978293
162	0xbe5dc065	-0.21655424
163	0xbd8fa4d3	-0.070138596
164	0x3eb2ae81	0.3489876
165	0xbe3a0e42	-0.18169501
166	0xbe496a41	-0.19669439
167	0xbe003f93	-0.12524252
168	0x3dfb6655	0.12275378
169	0xbf40bdaa	-0.75289404
170	0xbd1183a7	-0.035525944
171	0x3de0b089	0.109711714
172	0x3e00727f	0.12543677
173	0xbf966536	-1.1749637
174	0xbd144f9e	-0.03620874
175	0x3d8b29a7	0.06795054
176	0x3b8b63d0	0.004253842
177	0xbf4e001f	-0.80468935
178	0xbe509c61	-0.20372154
179	0xbe4c4ef9	-0.19952
180	0xbcd97f93	-0.02655009
181	0xbf29c866	-0.6632141
182	0xbe7ab733	-0.24483947
183	0xbe4345e3	-0.19069628
184	0x3d13a22d	0.036043335
185	0xbf56b1da	-0.8386513
186	0xbc6090f1	-0.013706432
187	0x3d1f8adf	0.038950797
188	0x3dcc88bf	0.0998702
189	0xbdff9c9d	-0.124810435
190	0xbd69e8ad	-0.057106663
191	0x3deb89f9	0.115009256
192	0xbecdb125	-0.40174213
193	0xbf11a77a	-0.56896174
194	0x3d43bc97	0.047787275
195	0x3f2744a7	0.6533913
196	0xbca25ac0	-0.019818664
197	0xbf47d703	-0.78062457
198	0x3d812a2f	0.06306874
199	0x3f1fbba3	0.62395686
200	0xbe7c30bb	-0.24627964
201	0xbede49b2	-0.434156
202	0x3e1ab76c	0.15109032
203	0xbe533189	-0.20624365
204	0x3e66acf3	0.22526912
205	0x3d00ade0	0.03141582
206	0x3dd36969	0.1032284
207	0xbe5f3119	-0.21796073
208	0xbec17b4d	-0.37789384
209	0xbf12b4ab	-0.5730693
210	0xbd930ee4	-0.071805745
211	0xbec4f604	-0.38468945
212	0x3e84e5d3	0.25956592
213	0x3f8b2881	1.0871736
214	0xbc8af096	-0.016960423
215	0xbeb562d0	-0.3542695
216	0x3f1f1275	0.6213754
217	0xbd8a1dc7	-0.06743961
218	0xbb852420	-0.0040631443
219	0xbd00e96a	-0.0314726
220	0xbe453ec5	-0.19262226
221	0xbcab8e35	-0.020941833
222	0xbda93a8d	-0.08263121
223	0xbcfaf180	-0.030632734
224	0x3ed322d1	0.412375
225	0xbcc2f93f	-0.02380049
226	0xbe30f225	-0.17279871
227	0x3e856cf3	0.26059684
228	0xbe841bd2	-0.25802475
229	0x3eb8e56b	0.36112532
230	0xbe194181	-0.14966394
231	0x3eaa1dea	0.33225948
232	0x3f109d40	0.56489944
233	0x3e160810	0.14651513
234	0x3ac61638	0.0015112823
235	0x3f385acc	0.72013545
236	0xbe001e0e	-0.12511465
237	0x3ecd93cf	0.40151832
238	0xbcf9fd99	-0.030516433
239	0x3f3dd3c6	0.74151266
240	0x3ca0a0ff	0.019608019
241	0x3e95ccfc	0.29257953
242	0x3d820553	0.06348672
243	0xbe0c6286	-0.13709459
244	0xbf226544	-0.6343577
245	0x3ee7bc8b	0.45261034
246	0x3c4a1489	0.0123339975
247	0xbe3a5b8a	-0.18198982
248	0xbd017d32	-0.031613536
249	0x3e707548	0.23482239
250	0x3d64bc99	0.055843923
251	0xbea4faca	-0.32222587
252	0xbf36b2f8	-0.71366835
253	0x3d395db2	0.04525537
254	0x3b3fec11	0.0029284994
255	0xbeaf3cdc	-0.3422612

fc1.bias f4 [256]
0	0x3dd66f83	0.10470488
1	0xbe14a1fc	-0.14514917
2	0x3e10d820	0.14144945
3	0xbe0b86e4	-0.13625675
4	0x3e3b1d8d	0.18272991
5	0x3e0e29ef	0.13883184
6	0x3d95b8ef	0.07310664
7	0xbe4c5f24	-0.19958168
8	0xbda78804	-0.0818024
9	0x3dc3a81f	0.09553551
10	0xbe3e9df6	-0.18614945
11	0x3dc7f0bd	0.09762714
12	0xbda84d35	-0.08217851
13	0xbe18a3ea	-0.14906278
14	0xbb12f046	-0.0022421046
15	0x3d003320	0.031298757
16	0x3e1defbf	0.15423487
17	0xbe04fa99	-0.1298622
18	0xbe29e625	-0.165917
19	0xbd8cc5d3	-0.068736695
20	0x3d1ec19e	0.038758866
21	0xbdba4e2d	-0.09096942
22	0xbd9f34d7	-0.0777375
23	0xbd91f6a6	-0.071271226
24	0x3db34a8d	0.08754454
25	0x3cdb2a11	0.026753457
26	0x3e3738df	0.17892788
27	0x3e048f55	0.12945302
28	0xbe3506a6	-0.17678317
29	0x3d57e405	0.05270769
30	0xbe370ff0	-0.17877173
31	0xbe40c5cf	-0.18825458
32	0xbd9164e2	-0.0709932
33	0x3e5027c1	0.20327665
34	0x3c9552df	0.018227993
35	0xbe1656d0	-0.14681554
36	0xbe3c8172	-0.18408754
37	0x3e1d97cd	0.15389939
38	0x3e21dcb7	0.15806852
39	0xbde7f917	-0.11326807
40	0x3e117857	0.14206062
41	0x3d9a5bf2	0.075370684
42	0xbdd71919	-0.10502834
43	0x3d80610d	0.06268511
44	0x3bfc18b9	0.007693377
45	0xbd575d5b	-0.052579265
46	0xbd54f95e	-0.051995628
47	0x3e1a949c	0.15095752
48	0x3db46c49	0.08809716
49	0x3db63655	0.08897082
50	0x3d737bb3	0.05944414
51	0x3e0ed684	0.13949019
52	0xbd55e362	-0.052218802
53	0xbb3793a5	-0.0028011587
54	0x3e2ccbb2	0.16874579
55	0x3dfa9b55	0.122366585
56	0x3d4f7557	0.050649013
57	0xbdd4e0be	-0.10394429
58	0xbd569322	-0.05238641
59	0x3d03a958	0.03214392
60	0xbe012df2	-0.12615183
61	0x3dbd8895	0.092545666
62	0xbe01996e	-0.12656185
63	0xbe145fd6	-0.14489684
64	0x3d9631b1	0.07333697
65	0xbdcec20b	-0.100956045
66	0xbe50fa1e	-0.20407912
67	0x3e030815	0.12796052
68	0xbdaa7de8	-0.08324796
69	0xbd9e57dc	-0.077316016
70	0xbdc26ef2	-0.094938174
71	0xbdeefaf7	-0.116689615
72	0xbe0c7212	-0.1371539
73	0xbdb6baa0	-0.08922315
74	0xbe18df9d	-0.14929052
75	0xbc916563	-0.01774854
76	0x3d852ffe	0.065032944
77	0xbe0238cf	-0.12716983
78	0xbe48ce81	-0.19610025
79	0x3d91e829	0.07124359
80	0xbde6f403	-0.1127701
81	0x3d64e1bc	0.05587934
82	0xbc80d19c	-0.01572495
83	0x3d37a1cf	0.044832047
84	0xbb193472	-0.0023377207
85	0xbd82e15b	-0.063906394
86	0xbe222b2a	-0.15836778
87	0x3e0f9593	0.14021902
88	0x3dc5d8cb	0.096604906
89	0x3cad2a7e	0.021138426
90	0x3e32507c	0.17413515
91	0x3e3fe9ef	0.18741582
92	0xbe280dd7	-0.1641153
93	0x3dd1eb7a	0.10249992
94	0x3e3fef27	0.18743573
95	0xbc3bfcd2	-0.011473851
96	0xbe45e83f	-0.19326876
97	0xbd980c9f	-0.07424282
98	0x3c9a5c49	0.018842833
99	0xbd327b1b	-0.043574434
100	0x3dc8b8bd	0.09800861
101	0x3da2cc4c	0.07949123
102	0xbe46f890	-0.19430757
103	0x3ce17407	0.027521146
104	0x3d045ce9	0.03231517
105	0x3e057692	0.13033512
106	0x3cd6bfe6	0.026214551
107	0x3de392d8	0.111119926
108	0x3d2bd052	0.041946717
109	0xbe0af1e2	-0.13568833
110	0xbe21ff65	-0.15820082
111	0xbd8e94d0	-0.069619775
112	0x3a61de9f	0.0008616242
113	0xbdf3a745	-0.118971385
114	0xbe39238c	-0.18079966
115	0x3e330454	0.1748212
116	0x3cba715d	0.022759134
117	0x3da1616f	0.07879912
118	0xbdd433f5	-0.103614725
119	0x3d0a1a58	0.03371653
120	0xbc83f3b3	-0.016107416
121	0x3ddb6e30	0.10714376
122	0xbd98483f	-0.07435655
123	0x3e3a1094	0.18170387
124	0x3c2daf10	0.01060082
125	0x3c0bf150	0.00854142
126	0x3e12b895	0.14328225
127	0xbbd893c9	-0.0066094142
128	0x3d73b6ef	0.05950063
129	0xbc680c6e	-0.01416312
130	0x3e21629f	0.15760277
131	0xbe4b2ada	-0.19840565
132	0x3e498b84	0.19682127
133	0xbdf61b8b	-0.12016972
134	0x3e4c4d5c	0.19951385
135	0x3d8d93ce	0.06912957
136	0xbe04e879	-0.12979306
137	0xbe3297ad	-0.17440672
138	0x3d657590	0.05602032
139	0x3da9b782	0.082869545
140	0xbe0ed6ec	-0.13949174
141	0x3e052759	0.13003291
142	0xbdbedf95	-0.09319989
143	0x3e253e96	0.16137156
144	0x3d08801e	0.033325307
145	0xbe3361f1	-0.1751783
146	0x3d06037d	0.03271817
147	0xbd5d72ad	-0.05406444
148	0x3d5d3064	0.054001227
149	0xbd9d20c4	-0.07672265
150	0x3e371fc4	0.17883211
151	0xbdee5a4d	-0.11638317
152	0x3e2bbb6e	0.16770718
153	0xbe4f47cc	-0.20242232
154	0x3e178cd5	0.14799817
155	0xbe0f57a1	-0.13998272
156	0x3d1b4831	0.037910644
157	0xbd54f48d	-0.051991034
158	0xbe5011dd	-0.20319314
159	0x3e24a903	0.16080098
160	0x3d461b91	0.048366133
161	0x3de86c9a	0.11348839
162	0xbdc7fe06	-0.09765248
163	0xbd811c05	-0.063041724
164	0xbdc0b3f3	-0.094093226
165	0xbe40ee71	-0.18840958
166	0x3d36c513	0.04462154
167	0x3d983a6c	0.07433018
168	0xbcc7b294	-0.024377145
169	0xbe07ffad	-0.13281126
170	0x3cc7fb10	0.024411708
171	0x3db322db	0.087468825
172	0x3c9e6afc	0.019338124
173	0xbe4f59cc	-0.20249099
174	0x3dccdabc	0.10002658
175	0x3e18133f	0.14851092
176	0xbd889845	-0.06669668
177	0xbd360b20	-0.044444203
178	0x3b9762b7	0.004619922
179	0x3d2a6b9c	0.04160653
180	0x3e396f04	0.18108755
181	0x3e15489c	0.1457848
182	0x3dba8897	0.09108084
183	0xbe09c4c0	-0.1345396
184	0x3dfadda0	0.12249303
185	0x3dcbd4e2	0.099527135
186	0x3e43d06d	0.19122477
187	0xbda1cecc	-0.079007715
188	0x3d937e4f	0.07201826
189	0x3e09f3b6	0.13471875
190	0x3dc3ca02	0.09560014
191	0xbca5210d	-0.020157361
192	0xbd706170	-0.058686674
193	0xbd1948b8	-0.037422866
194	0x3de8e334	0.113714606
195	0xbd8410ce	-0.06448518
196	0xbe4fc251	-0.2028897
197	0xbd06b6eb	-0.032889288
198	0xbe3ff76f	-0.18746732
199	0xbe23e3da	-0.16004887
200	0x3e346ad3	0.17618875
201	0xbe038c52	-0.12846497
202	0x3df2a365	0.11847571
203	0xbdfb76f4	-0.12278548
204	0xbe4d5ba2	-0.20054486
205	0x3b973035	0.004613901
206	0x3dd6e22d	0.10492358
207	0x3c1c3a9a	0.009535456
208	0x3df0130e	0.117223844
209	0xbc07f09d	-0.008297113
210	0xbe14e251	-0.14539458
211	0x3dff8920	0.124773264
212	0x3d0f778c	0.03502612
213	0xbde7346e	-0.11289297
214	0xbcac0960	-0.021000564
215	0x3d939034	0.07205239
216	0xbd2f6b1d	-0.04282676
217	0xbc14e650	-0.009088114
218	0x3d535b29	0.05160061
219	0x3d85c64e	0.06531964
220	0x3df07720	0.11741471
221	0xbd53f99b	-0.051751714
222	0x3d78acdc	0.060711727
223	0x3d451808	0.04811862
224	0xbda06e9d	-0.07833598
225	0x3d006707	0.031348255
226	0x3be620da	0.007022959
227	0xbe19bfc8	-0.15014565
228	0xbe3bd18c	-0.18341655
229	0x3e362e8e	0.17791197
230	0xbdbf03d6	-0.093269035
231	0x3e18e702	0.14931872
232	0x3d280ef2	0.041029878
233	0x3deccb34	0.115621954
234	0xbce335fe	-0.027735706
235	0xbd304791	-0.043037
236	0xbd9add56	-0.07561748
237	0xbe4679c7	-0.19382392
238	0xba3ca500	-0.0007196218
239	0x3e30357e	0.17207906
240	0x3d281828	0.041038662
241	0xbd8b7eba	-0.068112805
242	0xbe04592a	-0.12924638
243	0xbd44aa05	-0.048013706
244	0xbdaceef5	-0.08444015
245	0x3dffc44c	0.124886125
246	0x3dbcd7e9	0.09220869
247	0x3d57ec0c	0.052715346
248	0x3cf4d621	0.02988726
249	0x3bedcc83	0.0072570457
250	0xbddc3cae	-0.10753761
251	0xbccac019	-0.024749802
252	0x3e0576ec	0.13033646
253	0xbcd5101a	-0.026008654
254	0x3d9011c6	0.0703464
255	0xbce83b62	-0.028348628

bn1.weight f4 [256]
0	0x3f6e2f19	0.93040615
1	0x3f0a6047	0.5405316
2	0x3f84cbb5	1.0374666
3	0x3fa165bc	1.2609172
4	0x3f748867	0.95520633
5	0x3f58dbc5	0.8471034
6	0x3effd011	0.4996343
7	0x3f295cf3	0.66157454
8	0x3f5eb0d7	0.86988586
9	0x3edfc91f	0.4370813
10	0x3de807f4	0.11329642
11	0x3f4e7fe4	0.80663896
12	0x3ee40df8	0.44541907
13	0x3f664b8e	0.8995904
14	0x3f22be17	0.63571304
15	0x3efa205c	0.48852813
16	0x3f36d87b	0.71424073
17	0x3f43d4a2	0.76496327
18	0x3f158828	0.5841088
19	0x3f3b436d	0.7314976
20	0x3f579ae8	0.84220743
21	0x3f518187	0.8183827
22	0x3e2e46b7	0.17019163
23	0x3b87bb6d	0.004142216
24	0x3f0aacf5	0.5417016
25	0x3ed7b839	0.42132738
26	0x3e9a4f0a	0.30138427
27	0x3eeb9216	0.46009892
28	0x3eec7ca1	0.46188834
29	0x3f3dad8e	0.7409295
30	0x3f1627a4	0.58654237
31	0x3f174555	0.5909017
32	0x3e3a855c	0.18214935
33	0x3f460f57	0.77367157
34	0x3f022a82	0.5084611
35	0x3f4f4adf	0.8097362
36	0x3ee0f735	0.43938604
37	0x3f11a977	0.5689921
38	0x3eb480ef	0.3525462
39	0x3f38385c	0.71961
40	0x3f04dcbc	0.51899314
41	0x3f6958e4	0.9115126
42	0x3f26122d	0.64871484
43	0x3f62a722	0.88536274
44	0x3f664cd7	0.89961
45	0x3f4f918a	0.8108145
46	0x3fc11a7b	1.5086206
47	0x3f297818	0.66198874
48	0x3f431b8d	0.76213914
49	0x3f4367c6	0.7633022
50	0x3f3f7ae4	0.7479689
51	0x3f104f9b	0.5637147
52	0x3f224a3e	0.63394535
53	0x3ea6a49c	0.32547462
54	0x3f3b4a2c	0.7316005
55	0x3f0c0cc6	0.5470699
56	0x3ea368d1	0.31915906
57	0x3ef4a138	0.4777925
58	0x3f78ab2f	0.97136205
59	0x3f103f74	0.5634682
60	0x3eda1d65	0.4260055
61	0x3f04f1f3	0.51931685
62	0x3f3b0ed0	0.7306948
63	0x3e9bf508	0.30460382
64	0x3f11f151	0.57008845
65	0x3eb0f479	0.34561518
66	0x3f54a232	0.8305999
67	0x3f689fa0	0.9086857
68	0x3f97e5de	1.1867025
69	0x3f82dd54	1.0223794
70	0x3f97c296	1.1856258
71	0x3f27c8f4	0.65541005
72	0x3d601da6	0.054715775
73	0x3ef36a11	0.4754186
74	0x3eda3a7a	0.4262274
75	0x3ea72398	0.32644343
76	0x3f5a83df	0.8535747
77	0x3f65a97c	0.8971174
78	0x3f29efc8	0.663815
79	0x3f028bcd	0.5099457
80	0xbb87b81f	-0.004141822
81	0x3f0feeb9	0.56223637
82	0x3f7b857a	0.98250544
83	0x3f1928d8	0.5982795
84	0x3f4fc991	0.8116694
85	0x3f57415c	0.84084105
86	0x3ecb7229	0.39735535
87	0x3f56aad6	0.83854425
88	0x3f201391	0.62529856
89	0x3f0ddf07	0.5541844
90	0x3ec3133c	0.38100612
91	0x3f2811f6	0.65652406
92	0x3f9c848f	1.2227954
93	0x3f1872b5	0.5955003
94	0x3f392a89	0.7233053
95	0x3f66339e	0.8992251
96	0x3f408638	0.752048
97	0x3f18c5c8	0.5967679
98	0x3f4a8aea	0.79118216
99	0x3f82a9a7	1.0208024
100	0x3ed72161	0.42017654
101	0x3c8c3d3d	0.017119044
102	0x3f80a342	1.0049822
103	0x3f374c4d	0.716008
104	0x3f748828	0.9552026
105	0x3eeecb22	0.46639353
106	0x3dafd394	0.08585277
107	0x3ee91dfb	0.45530686
108	0x3f8015ef	1.0006694
109	0x39a0564c	0.00030581874
110	0x3f981875	1.1882464
111	0x3f266a44	0.650059
112	0x3eb0748a	0.34463912
113	0x3f79ddfe	0.9760436
114	0x3ec8b2e7	0.39198992
115	0x3f70eb1e	0.9410876
116	0x3f4f99c1	0.81093985
117	0x3e64f8d4	0.22360545
118	0x3f6e05f5	0.9297784
119	0x3eb7580d	0.35809365
120	0x3f268f55	0.6506246
121	0x3f6ad32d	0.9172848
122	0x3f4c6551	0.79842097
123	0x3f62755b	0.8846032
124	0xbab4f935	-0.001380718
125	0xba3eb9c7	-0.0007275608
126	0x3f7a612e	0.97804534
127	0x3ed43fef	0.41455027
128	0x3f91aa11	1.1380025
129	0x3f4eb439	0.8074375
130	0x3ef83209	0.48475674
131	0x3f57a92d	0.84242517
132	0x3f0f3f91	0.5595637
133	0x3f197282	0.5994035
134	0x3f070d79	0.5275493
135	0x3e78c9fd	0.24295802
136	0x3edc9d65	0.43088832
137	0x3f1daa3b	0.61587876
138	0x3f2f9fb2	0.6860305
139	0x3e8e78b1	0.27826455
140	0x3ef4a2e7	0.47780535
141	0x3f08e430	0.53473186
142	0x3f56b647	0.83871883
143	0x3efe24d8	0.49637485
144	0x3f5e7e32	0.8691131
145	0x3f03eff5	0.5153802
146	0x3f3e342d	0.74298364
147	0x3f09fe7a	0.53903925
148	0x3f1fd3d0	0.62432575
149	0x3f124da7	0.5714974
150	0x3b6caefb	0.0036115039
151	0x3ed8da76	0.42354172
152	0x3f40049c	0.75007033
153	0x3f02271e	0.5084094
154	0x3f43f866	0.765509
155	0x3f5b25d5	0.856046
156	0x3ed88d4d	0.42295304
157	0x3f5830bf	0.8444938
158	0x3ed36ca7	0.41293833
159	0x3f80d7c4	1.0065846
160	0x3f33d9b0	0.7025404
161	0x3f32210e	0.6958169
162	0x3f364c54	0.7121022
163	0x3efa37fd	0.4887084
164	0x3f09112c	0.5354183
165	0xb9c809a6	-0.0003815416
166	0x3ef552a8	0.47914624
167	0x3f4892b6	0.78348863
168	0x3edab2e7	0.42714617
169	0x3ee6a145	0.45044914
170	0x3f272c27	0.65301746
171	0x3f14fabf	0.5819511
172	0x3f90b10c	1.130403
173	0x3f0ffd1a	0.5624558
174	0x3eab3ac4	0.33443272
175	0x3f610c83	0.87909716
176	0x3f6fde6a	0.9369875
177	0x3f2f4ad3	0.6847355
178	0x3fac1670	1.3444347
179	0x3f79161e	0.97299373
180	0x3ef5216d	0.47877064
181	0x3f29f933	0.6639587
182	0x3ed3d8a9	0.41376236
183	0x3f9abbdf	1.2088584
184	0x3f7668ca	0.96253645
185	0x3f0f75c5	0.5603908
186	0x3ed7c1e5	0.42140117
187	0x3eed78e1	0.46381286
188	0x3f5d8a1f	0.8653888
189	0x3e198808	0.14993298
190	0x3f40524a	0.75125563
191	0x3f8c6c1f	1.0970496
192	0x3ef76249	0.48317173
193	0x3cff28b4	0.031147338
194	0x3383b82b	6.133663e-08
195	0x3f537e36	0.8261446
196	0x3f92c9f2	1.1467879
197	0x3f2df073	0.6794502
198	0x3fae17fc	1.360107
199	0x3ef902a9	0.48634842
200	0x3f9ba2eb	1.2159094
201	0x3ee86f68	0.45397496
202	0x3f5281d5	0.8222936
203	0x3f4c3644	0.797703
204	0x3efcf26c	0.49403703
205	0x3f7da426	0.99078596
206	0x3ef72a66	0.48274535
207	0x3f11f89a	0.5701996
208	0x3eabd560	0.3356123
209	0x3f018731	0.5059691
210	0x3ed211a3	0.4102908
211	0x3c5fc8e1	0.013658733
212	0x3ec90502	0.39261633
213	0x3f9d8299	1.230548
214	0x3d39e500	0.045384407
215	0xbb01c161	-0.00197991
216	0x3f4de484	0.8042681
217	0x3f0d86bc	0.55283713
218	0x3f2e15a1	0.68001753
219	0x3f8de351	1.1084996
220	0x3e94414e	0.28956074
221	0x3f15c8f7	0.58509773
222	0x3ee76f23	0.45201978
223	0x3ed46264	0.41481316
224	0x3ee19f3b	0.44066796
225	0x3ee67a2c	0.45015085
226	0x3f20bdd5	0.6278966
227	0x3ec3be2d	0.3823103
228	0x3f8301f1	1.0234967
229	0x3f260ea4	0.6486609
230	0x3f78d9ce	0.97207344
231	0x3f7c9a8d	0.98673326
232	0x3f2bd11b	0.67115945
233	0x3f8a3ffb	1.0800775
234	0x3eb32611	0.3498998
235	0x3f1ed654	0.6204579
236	0x3f7eb48f	0.9949426
237	0x3f8f38d2	1.1189215
238	0xbaf9efb6	-0.0019068632
239	0x3f8cec4e	1.1009614
240	0x3edee246	0.43532008
241	0x3ead9f79	0.3391073
242	0xbaf37418	-0.0018574027
243	0x3f8f8662	1.1212885
244	0x3fa5b0d4	1.2944589
245	0x3e97fc44	0.2968465
246	0x3f12582a	0.5716578
247	0x3ecadf97	0.3962371
248	0x3f1d5603	0.6145937
249	0x3ea6bd5d	0.32566348
250	0xbee34421	-0.44387916
251	0x3ef7001e	0.48242277
252	0x3f30453a	0.6885563
253	0x3f5da955	0.86586505
254	0x3dafecfa	0.085901216
255	0x3f1e5274	0.61844563

bn1.bias f4 [256]
0	0xbe3eb788	-0.18624699
1	0xbe48ab24	-0.19596535
2	0xbe6a94e0	-0.22908354
3	0x3e2c91a8	0.16852438
4	0xbe98cac8	-0.2984221
5	0xbea40a5c	-0.32039154
6	0xbe0a995e	-0.13535067
7	0xbf0b5d08	-0.5443883
8	0xbeca78ff	-0.39545438
9	0xbee22256	-0.4416682
10	0xbdc11cfd	-0.09429357
11	0xbea0eede	-0.3143224
12	0xbf28b154	-0.6589558
13	0xbe489fb8	-0.19592178
14	0xbf1256e8	-0.5716386
15	0xbde721aa	-0.11285718
16	0xbf07682e	-0.5289334
17	0x3e14ffcb	0.14550702
18	0xbedd898c	-0.43269002
19	0xbf267f11	-0.6503764
20	0xbe48b345	-0.19599636
21	0xbf12274e	-0.57091224
22	0x3deeba04	0.116565734
23	0xbd4238e6	-0.047417544
24	0xbe83dabf	-0.25752828
25	0xbefc3a06	-0.49263018
26	0xbe8039be	-0.25044054
27	0xbe98e929	-0.29865387
28	0xbe9aed17	-0.3025901
29	0xbf0cb0ea	-0.5495745
30	0xbed04765	-0.4067947
31	0xbf1885c3	-0.59579104
32	0xbe363827	-0.17794858
33	0xbed82758	-0.42217517
34	0xbe816bc1	-0.25277522
35	0xbe9095f4	-0.28239405
36	0xbe31c2c5	-0.17359455
37	0xbef3ce85	-0.476185
38	0xbecfd0ed	-0.40589085
39	0xbf10f9b1	-0.56631
40	0xbecb6fc3	-0.39733705
41	0xbc5defda	-0.013545955
42	0xbefd4c66	-0.4947235
43	0xbdfc848b	-0.12329968
44	0x3c46cdef	0.012134059
45	0xbe0d36c9	-0.1379043
46	0xbdfa43cb	-0.12219962
47	0xbeaefd14	-0.34177458
48	0xbeb6b77a	-0.35686857
49	0x3e0414ad	0.12898512
50	0xbeb1fdc1	-0.3476391
51	0xbf0c3442	-0.5476724
52	0xbea06c31	-0.31332543
53	0xbed685ee	-0.41899055
54	0x3c4900b8	0.012268238
55	0xbf2038b3	-0.62586516
56	0xbe09b4f0	-0.13447928
57	0xbe29f629	-0.16597809
58	0xbceb914a	-0.028755803
59	0xbe75c8f6	-0.24002442
60	0xbe954233	-0.29152068
61	0x3e2abd10	0.16673684
62	0xbf4b9cc2	-0.7953607
63	0xbdd9ef7b	-0.106413804
64	0xbec4d0b4	-0.38440478
65	0xbeced36a	-0.4039567
66	0xbf3416e5	-0.70347434
67	0xbdcfdce3	-0.10149553
68	0xbe1a2344	-0.15052515
69	0xbf089aaf	-0.5336103
70	0xbf0fc893	-0.56165427
71	0xbdbe7fb0	-0.09301698
72	0xbe31040b	-0.17286699
73	0xbf1a6cf2	-0.6032249
74	0xbecaf97c	-0.39643466
75	0xbec242a5	-0.3794147
76	0xbec70544	-0.38871205
77	0xbecdf855	-0.40228525
78	0xbe4dbc3f	-0.20091341
79	0xbe46a5fc	-0.19399256
80	0xbc778d2d	-0.0151093425
81	0xbeaa1b58	-0.33223987
82	0x3c7c38b7	0.015394381
83	0xbe8af127	-0.2713711
84	0xbd88534c	-0.066565126
85	0xbecdcc69	-0.40195015
86	0xbf1cc3dc	-0.6123636
87	0xbeabf6e5	-0.33586803
88	0xbf102048	-0.5629926
89	0xbebf2073	-0.37329444
90	0xbec00eee	-0.3751139
91	0x3d8f4f03	0.06997492
92	0xbee8ccc6	-0.4546873
93	0xbf1d25d3	-0.6138584
94	0xbf106012	-0.5639659
95	0xbd9c66e1	-0.0763681
96	0xbe7da1aa	-0.24768701
97	0xbe32aa44	-0.17447764
98	0xbe4d4705	-0.20046623
99	0xbbda98b4	-0.0066710357
100	0xbdf75cad	-0.120782234
101	0xbd564250	-0.052309334
102	0xbda6982f	-0.081344955
103	0xbe211a5d	-0.15732713
104	0x3df2baac	0.11852011
105	0xbed5f21e	-0.41786283
106	0xbe71c11c	-0.23608822
107	0xbe471161	-0.19440223
108	0xbe5988ee	-0.21243641
109	0xbcd2fa4d	-0.025754118
110	0xbd85b229	-0.06528122
111	0xbdec1a8b	-0.115285
112	0xbed8b70e	-0.4232716
113	0xbedbe0e1	-0.42945006
114	0xbe8aa5a5	-0.27079502
115	0xbf2035aa	-0.62581885
116	0xbe1f252c	-0.15541524
117	0xbcb17b5e	-0.021665271
118	0xbeef94c3	-0.46793184
119	0xbed24448	-0.4106772
120	0xbe4cd453	-0.2000287
121	0xbe87fa6d	-0.26558247
122	0xbe4b2c32	-0.19841078
123	0xbe3c0a65	-0.1836334
124	0xbc5bf6d8	-0.013425551
125	0xbcec27c3	-0.028827554
126	0x3e01a0f8	0.12659061
127	0xbe5fe33f	-0.21864031
128	0xbecc72f6	-0.39931458
129	0xbdb5c12b	-0.088747345
130	0xbf0c08d6	-0.5470098
131	0xbecfe07e	-0.4060096
132	0x3dce9cc4	0.100884944
133	0xbed34441	-0.4126301
134	0xbebd42b1	-0.36964944
135	0xbeb79fad	-0.3586401
136	0xbeab1c80	-0.3342018
137	0xbeccbd41	-0.3998814
138	0xbed07328	-0.40712857
139	0xbeb3b39f	-0.35097978
140	0xbf274995	-0.6534665
141	0xbf05d4de	-0.52277935
142	0xbed36f57	-0.41295883
143	0xbf05450b	-0.52058476
144	0xbf2dca2b	-0.6788661
145	0xbece7793	-0.40325603
146	0xbeee8ea4	-0.465932
147	0xbdcd8ef8	-0.10037035
148	0xbed837f4	-0.4223019
149	0xbea7e806	-0.32794207
150	0xbccbbefe	-0.024871346
151	0xbe619f6e	-0.22033474
152	0xbef61950	-0.48066187
153	0xbe9d20f9	-0.3068922
154	0x3c8ee1a9	0.017441588
155	0xbe185c78	-0.14879024
156	0xbed90e5e	-0.42393774
157	0xbefaa48a	-0.48953658
158	0xbeb4d7fa	-0.35321027
159	0xbe306c15	-0.1722873
160	0xbf0baa36	-0.54556596
161	0xbee9adf4	-0.45640528
162	0xbf1b7ed5	-0.60740405
163	0xbedde6ba	-0.43340093
164	0xbf012496	-0.5044645
165	0xbc6fde75	-0.01464044
166	0x3d618a28	0.055063397
167	0xbf1b5c44	-0.6068766
168	0xbee55122	-0.44788462
169	0xbef2bad3	-0.4740816
170	0xbd80752b	-0.06272348
171	0xbe31d6b0	-0.17367053
172	0xbec0a293	-0.37624034
173	0xbeaae77a	-0.33379728
174	0xbed7fcdb	-0.421851
175	0xbe2a3c5a	-0.16624585
176	0xbe8be47f	-0.27322766
177	0xbef42b9f	-0.4768953
178	0x3e203df4	0.15648633
179	0xbe6eb118	-0.23309743
180	0xbe95399d	-0.29145518
181	0xbecbb37f	-0.39785382
182	0xbee1eaa2	-0.44124323
183	0xbea16ff9	-0.3153074
184	0xbe9dbe02	-0.30809027
185	0xbeb75b56	-0.3581187
186	0xbed4c23d	-0.41554442
187	0xbdb13b5e	-0.086539015
188	0xbef56d2f	-0.47934863
189	0x3d04874b	0.032355588
190	0xbef1cbfd	-0.47225943
191	0xbda81818	-0.082077205
192	0xbf02f6fc	-0.5115812
193	0xbe1699aa	-0.14707056
194	0xbb88e31d	-0.0041774646
195	0xbec576ab	-0.385671
196	0xbea46b96	-0.32113332
197	0xbd423d57	-0.04742178
198	0xbe92e285	-0.28688446
199	0xbebbd04f	-0.36682364
200	0xbd9a8741	-0.07545329
201	0xbe67c808	-0.226349
202	0xbefe9c74	-0.4972874
203	0xbe923bcd	-0.2856125
204	0xbddeb010	-0.10873425
205	0xbf0d1b04	-0.5511935
206	0xbefb2df7	-0.49058506
207	0x3d623fc4	0.055236593
208	0xbe7b85f2	-0.24562815
209	0xbeea9e0d	-0.45823708
210	0xbdf61e83	-0.120175384
211	0xbd96c69e	-0.07362102
212	0xbe7e32bd	-0.24824043
213	0xbd964ca0	-0.07338834
214	0xbe344a72	-0.17606524
215	0xbc8de52e	-0.017321195
216	0x3e3c54cf	0.18391727
217	0xbec1c2fc	-0.37844074
218	0xbf0e19ba	-0.55508006
219	0xbccb3aa5	-0.024808237
220	0xbe2c40c3	-0.1682158
221	0xbf0e0575	-0.55477077
222	0xbef1ce26	-0.4722759
223	0xbee2db5d	-0.44307986
224	0xbdb95b0c	-0.09050569
225	0xbebb229a	-0.36549836
226	0xbda4e621	-0.08051706
227	0xbef2549a	-0.4733017
228	0xbec74055	-0.3891627
229	0xbee28c98	-0.4424789
230	0xbda2e29d	-0.07953379
231	0xbee35c68	-0.44406438
232	0xbf042992	-0.5162593
233	0xbf2b0572	-0.66805184
234	0xbea9ed35	-0.33188787
235	0xbf597025	-0.84936744
236	0xbed8dad2	-0.42354447
237	0xbe60dfcd	-0.21960373
238	0xbcaa5bbb	-0.020795694
239	0xbea05111	-0.3131185
240	0xbe9694f8	-0.2941053
241	0xbec3f65e	-0.382739
242	0xbbf8110f	-0.007570393
243	0xbeb32cf8	-0.34995246
244	0xbd52afa0	-0.05143702
245	0xbec5962e	-0.3859114
246	0xbec00a28	-0.3750775
247	0xbe9e0aa4	-0.30867493
248	0x3e25562a	0.1614615
249	0xbdb40afa	-0.08791156
250	0x3e0fa934	0.1402939
251	0xbe4a62ce	-0.19764253
252	0xbec49d7f	-0.3840141
253	0xbee892d1	-0.45424512
254	0xbe5924f5	-0.21205504
255	0xbf07a485	-0.5298541

bn1.running_mean f4 [256]
0	0xc1046d42	-8.276674
1	0x408fbcc2	4.4917917
2	0x415978ed	13.592023
3	0x40c7e426	6.2466
4	0xc0ab8664	-5.360155
5	0xbfb975b2	-1.4489043
6	0xc02849d4	-2.629506
7	0xc09c6249	-4.8869977
8	0x41302235	11.008351
9	0xc133b76a	-11.232279
10	0xbf4c23ec	-0.7974231
11	0x410fbf1d	8.9841585
12	0x40b66b0d	5.7005677
13	0x404324c3	3.0491188
14	0x412acba0	10.674713
15	0x40ed0215	7.406504
16	0xc11bbf51	-9.734208
17	0x4141770d	12.091565
18	0x40888bcc	4.267065
19	0xbf8cb539	-1.0992805
20	0x41376041	11.4609995
21	0xbf668239	-0.90042454
22	0x3ff9e94b	1.952432
23	0x3e9432c3	0.28944978
24	0x413a92aa	11.660807
25	0xc08da28a	-4.426091
26	0x40d5e325	6.6839776
27	0xbf806fa6	-1.0034072
28	0x40145a22	2.3180013
29	0xc08ce50b	-4.4029593
30	0x40bd33c2	5.912568
31	0xc0381f1e	-2.8768992
32	0xc051483c	-3.2700338
33	0x40d8060f	6.7507396
34	0xbfb25b3b	-1.3934091
35	0xc0bcc749	-5.899327
36	0xc0ddcba8	-6.9311104
37	0x40470167	3.1094606
38	0xc11f8c10	-9.971695
39	0xc0d98032	-6.796899
40	0xc0d4b56b	-6.6471457
41	0x40e54510	7.1646805
42	0xc11eaf78	-9.917839
43	0x3c680ff1	0.014163957
44	0x40cead64	6.458666
45	0x40d636ef	6.6942058
46	0x407526be	3.8304896
47	0xc07fff72	-3.9999661
48	0x3f7d0ee0	0.9885082
49	0x4162672b	14.1501875
50	0x4166891c	14.408474
51	0xc15f7735	-13.966603
52	0x40d66b10	6.700569
53	0x3ef127d4	0.471007
54	0x41661795	14.380757
55	0xc02aba59	-2.6676238
56	0x4187a0d5	16.953531
57	0x413e59af	11.896895
58	0x413bdc16	11.741232
59	0x403d6aa9	2.959635
60	0x4117d19a	9.488672
61	0x41106e2e	9.026899
62	0xbf4eeb23	-0.8082754
63	0x3fa1d47b	1.2642969
64	0xc156c722	-13.423616
65	0xbf0ac80b	-0.5421149
66	0x4114605c	9.273525
67	0x410e6b7b	8.90124
68	0x40d7e4c4	6.7466755
69	0x3f2b03d2	0.66802704
70	0x40a8bf4c	5.2733517
71	0xc0a690d2	-5.2051783
72	0xbe24b856	-0.16085944
73	0xc0755320	-3.8331985
74	0xc0de601e	-6.949233
75	0xc0a0c92c	-5.024557
76	0x3f486acd	0.78287965
77	0xbff7a633	-1.9347595
78	0xbff607af	-1.9221095
79	0x3ff780d5	1.9336191
80	0xbe0cd8fb	-0.13754646
81	0xc01c0680	-2.4378967
82	0xc0af9f64	-5.488207
83	0xc0300a1b	-2.7506168
84	0xc0aca658	-5.3953056
85	0x411b2d49	9.698556
86	0xc05eb4d4	-3.4797869
87	0x40bf273e	5.9735403
88	0x3fbef264	1.4917722
89	0x40dbb11f	6.865371
90	0xc1040d6b	-8.253276
91	0x4106d4fb	8.426997
92	0xbf2e0590	-0.6797724
93	0xbfd2fecb	-1.6484007
94	0xbf6f0388	-0.93364763
95	0x3f525e39	0.8217502
96	0x41353b3d	11.326962
97	0x40db9f34	6.863184
98	0xc0710092	-3.7656598
99	0x415a8719	13.657983
100	0xbfe2e43a	-1.7725899
101	0x3f1fea91	0.62467295
102	0x41614407	14.079108
103	0x40789980	3.884369
104	0x4121be1e	10.108915
105	0xc0216869	-2.5219977
106	0xbe2224c9	-0.15834345
107	0x410e2235	8.883351
108	0xc189090e	-17.129421
109	0xbcd60b4e	-0.026128437
110	0x4126082f	10.376998
111	0xc1468ecb	-12.409862
112	0x3ea68d82	0.32529837
113	0xc0a161c7	-5.0431857
114	0xc021d0f8	-2.5283794
115	0x40ce3c2b	6.4448447
116	0x414e7d04	12.905521
117	0x404c1526	3.1887908
118	0xc0d2bb7f	-6.5853877
119	0x4104a7c8	8.290962
120	0x4099763b	4.7956824
121	0x411d9a8d	9.850232
122	0x408212ef	4.064811
123	0x40ca81af	6.3283305
124	0x3e2bb65a	0.1676878
125	0x3cfa0c6d	0.030523503
126	0x40c74c5b	6.2280707
127	0x415df23e	13.871641
128	0x40702fb7	3.7529123
129	0x401c135d	2.4386818
130	0x3fa6a2b3	1.3018402
131	0xbfa028b8	-1.2512426
132	0x41878651	16.940584
133	0x40a42073	5.128961
134	0xbf89e011	-1.0771505
135	0x4002d54f	2.0442693
136	0xbea33dea	-0.31883174
137	0xbeed8924	-0.46393692
138	0xc0c67bba	-6.2026033
139	0xc0fb883b	-7.8603797
140	0xbfeef68c	-1.866899
141	0x402a3458	2.6594448
142	0x3f50911c	0.8147142
143	0x3ff87de2	1.9413416
144	0xc03bcced	-2.9343827
145	0xc002d195	-2.0440419
146	0xc0ef8391	-7.4848104
147	0xc0871b94	-4.2221165
148	0x40c62274	6.1917057
149	0x40a6bdf5	5.210688
150	0x3f1eb83e	0.6199988
151	0x41a09830	20.07431
152	0xc104ae4e	-8.292555
153	0xc0666021	-3.5996172
154	0x41303c74	11.014759
155	0x409e1e48	4.9411964
156	0xc0efe8ed	-7.4971833
157	0x3fe7def8	1.811492
158	0x4008f081	2.1396792
159	0xbe7f8cd9	-0.24956073
160	0xc05f06d2	-3.4847913
161	0xc0e0c4df	-7.024032
162	0x3e2f0487	0.17091571
163	0x40e48897	7.1416736
164	0xc1036e00	-8.214355
165	0x3e513692	0.20430973
166	0x40710b60	3.7663193
167	0x40a33286	5.0999174
168	0x3fb5667c	1.4171901
169	0xc0d67958	-6.7023125
170	0xc0842009	-4.1289105
171	0x4098b906	4.772586
172	0x3ef2e7fe	0.4744262
173	0x4107b572	8.481798
174	0x40e31f11	7.0975423
175	0x4009894d	2.1490052
176	0x40bebb5e	5.960372
177	0xbf55ab51	-0.83464533
178	0x411c9cd9	9.788293
179	0x41685a4c	14.522045
180	0xc10589af	-8.346114
181	0x40e93386	7.2875395
182	0x405b1e14	3.4237108
183	0x3d61749b	0.055042844
184	0x4102d023	8.175815
185	0xc14077b7	-12.029227
186	0x407a5931	3.9116938
187	0xc1917c5e	-18.185726
188	0x40a4af53	5.146402
189	0xc02cf49c	-2.7024298
190	0x40256fe5	2.5849545
191	0x3fcc0add	1.5940815
192	0xc00166d5	-2.0219014
193	0x3e51b1fd	0.20478053
194	0xbfe745ff	-1.8068236
195	0x402df7dd	2.7182534
196	0x3fe2c06d	1.7714974
197	0x41109ba8	9.038002
198	0x407f4172	3.9883695
199	0xc1586274	-13.524036
200	0x40a9f2b0	5.310875
201	0x4053c85c	3.309104
202	0x40f3b4ac	7.6158047
203	0x4132ac16	11.167013
204	0x40be07c4	5.938448
205	0x410ad287	8.676398
206	0x40b0407f	5.507873
207	0x40395952	2.8960767
208	0x4117fcc1	9.4992075
209	0x406200c8	3.5312977
210	0x416a92a1	14.660798
211	0x3fdd6ff0	1.7299786
212	0xc04605ba	-3.0940995
213	0x4093e99c	4.622267
214	0x3f815d07	1.0106515
215	0xbf3b064b	-0.7305648
216	0x3ed62751	0.4182687
217	0xc0e2d443	-7.088411
218	0xbf36469e	-0.71201503
219	0xc1098fea	-8.597635
220	0xbece0fa8	-0.4024632
221	0x40ca2b6c	6.3178005
222	0xc0d7a2fa	-6.7386446
223	0xc0b1db51	-5.558022
224	0x4182a77f	16.331785
225	0xbff425e7	-1.9074067
226	0x3eda853c	0.42679775
227	0xc0df6ae7	-6.9817996
228	0x41161237	9.379447
229	0x406d8c42	3.7116857
230	0x40d92865	6.786181
231	0x4118ddcb	9.554149
232	0x401b84c7	2.429979
233	0x403a2e5b	2.9090793
234	0x40297480	2.6477356
235	0xc09240fc	-4.5704327
236	0x4002de34	2.0448122
237	0x410be941	8.744447
238	0x3d19f05c	0.03758274
239	0x3feaf4db	1.8355974
240	0xc14b23d5	-12.696248
241	0xc0e0e36a	-7.0277605
242	0x3e0b13fe	0.13581845
243	0xc1966c15	-18.802774
244	0x40661e4d	3.5955994
245	0xc12fb38d	-10.981336
246	0xc0aa7b61	-5.327561
247	0x4122e497	10.180808
248	0x4152e2cb	13.180369
249	0x40cbe7a6	6.3720274
250	0xc15d9437	-13.848685
251	0xc127c386	-10.485235
252	0x405142b8	3.2696972
253	0x401f3057	2.4873254
254	0xbeb6fbf5	-0.35739103
255	0x413e8658	11.907799

bn1.running_var f4 [256]
0	0x4295d8e5	74.92362
1	0x4271dc70	60.46527
2	0x41f453cc	30.540916
3	0x4256bf2e	53.6867
4	0x4291bc1b	72.86739
5	0x42b1b10d	88.8458
6	0x432df2f5	173.94905
7	0x42abff20	85.99829
8	0x4219a77b	38.413555
9	0x42b6f213	91.4728
10	0x42e828ff	116.08007
11	0x42b25558	89.16669
12	0x433585f3	181.52324
13	0x4243cef0	48.952087
14	0x43537696	211.46323
15	0x4381f24c	259.89294
16	0x420e7f35	35.624226
17	0x422874f7	42.114223
18	0x4247e396	49.97225
19	0x421a35cb	38.552532
20	0x4242a67a	48.662575
21	0x42859012	66.78139
22	0x4322e3a6	162.88925
23	0x403136ac	2.768962
24	0x42ec997e	118.29979
25	0x430f9e2b	143.61784
26	0x42903985	72.11234
27	0x4351225e	209.13425
28	0x434b9172	203.56815
29	0x432107f1	161.03102
30	0x4232fffa	44.749977
31	0x432d2a1d	173.1645
32	0x42f0f239	120.47309
33	0x4216b8cf	37.680477
34	0x43001999	128.09999
35	0x429ec0ef	79.37682
36	0x42567fa7	53.62466
37	0x43142022	148.12552
38	0x425e95c7	55.646267
39	0x43a818e8	336.19458
40	0x4286c996	67.39372
41	0x42b75013	91.656395
42	0x42f95fe3	124.68728
43	0x425745e7	53.818264
44	0x432d9d8a	173.61539
45	0x42a746ca	83.63826
46	0x4148cb3e	12.54962
47	0x42ed3ef4	118.622955
48	0x428d68cc	70.70468
49	0x43071164	135.06793
50	0x429ca5e4	78.324005
51	0x434124bb	193.14348
52	0x432bbb65	171.73201
53	0x423c36cf	47.053524
54	0x4231ea0c	44.47856
55	0x43a6148d	332.16055
56	0x42cf0193	103.503075
57	0x433edf20	190.87158
58	0x425fcd24	55.950333
59	0x43b0b895	353.44205
60	0x4316076f	150.02904
61	0x424b2358	50.784515
62	0x41d3890c	26.441917
63	0x436857a7	232.34239
64	0x428694df	67.290764
65	0x435da902	221.66019
66	0x4288a0d7	68.31414
67	0x43438199	195.50624
68	0x42a10672	80.51259
69	0x430809a4	136.03766
70	0x42bd8a46	94.770065
71	0x435c4c85	220.2989
72	0x42106f3d	36.10863
73	0x42a89575	84.29191
74	0x42d0ccd0	104.400024
75	0x435c8f86	220.56064
76	0x4233469d	44.81896
77	0x427507ea	61.25773
78	0x42be4aeb	95.146324
79	0x431c3972	156.2244
80	0x406b01d3	3.6719863
81	0x41fa2be5	31.271433
82	0x4320b74b	160.71599
83	0x4266b905	57.680683
84	0x425166af	52.350277
85	0x430153c0	129.32715
86	0x42c57726	98.73271
87	0x43018ef4	129.55841
88	0x427d4d95	63.325764
89	0x42ce8a7a	103.27046
90	0x430d4198	141.25623
91	0x4336bf76	182.7479
92	0x41c1949e	24.197567
93	0x4287b564	67.85428
94	0x42cca84b	102.3287
95	0x40b0c962	5.524583
96	0x434a0170	202.00562
97	0x42a05afe	80.17772
98	0x42c57e59	98.74677
99	0x42ac8a6f	86.27038
100	0x4394c9c5	297.57632
101	0x4111b254	9.106037
102	0x43671aaf	231.10423
103	0x42b49dbb	90.30807
104	0x41476ee6	12.464575
105	0x423bfc41	46.99634
106	0x41e2db12	28.356968
107	0x42b7a748	91.82672
108	0x4276e432	61.722847
109	0x41819e05	16.202158
110	0x426d5d71	59.34125
111	0x43458489	197.51772
112	0x430c0dad	140.05342
113	0x41d2d60a	26.354511
114	0x433193c1	177.57716
115	0x424bd05a	50.95347
116	0x42556d84	53.35695
117	0x435e34e2	222.20657
118	0x4104395b	8.264003
119	0x4314f081	148.93947
120	0x433f16da	191.08926
121	0x42a910fe	84.53319
122	0x427903c8	62.253693
123	0x4339cfaa	185.81119
124	0x3faddab2	1.3582366
125	0x40c48728	6.1414986
126	0x42aaa672	85.32509
127	0x432feb5d	175.91939
128	0x41d6e3ca	26.861225
129	0x4327cfea	167.81216
130	0x42febffc	127.37497
131	0x42257471	41.363712
132	0x429f03c9	79.50739
133	0x429b0b33	77.52187
134	0x439f9186	319.1369
135	0x4317f0a1	151.93996
136	0x42c6e781	99.452156
137	0x42ffb466	127.85234
138	0x422efc06	43.746117
139	0x432071eb	160.44499
140	0x42f2dea0	121.434814
141	0x42edd5c1	118.91749
142	0x42b40814	90.01578
143	0x42ca9cf5	101.30656
144	0x42683db0	58.06024
145	0x42f2e96f	121.455925
146	0x423f55da	47.83384
147	0x4380ff27	257.99338
148	0x4289cd3f	68.90087
149	0x43102124	144.12946
150	0x4079798f	3.8980443
151	0x42c9fa5e	100.989
152	0x42184180	38.063965
153	0x42821103	65.033226
154	0x42140323	37.003063
155	0x415124e9	13.071511
156	0x427340f2	60.813423
157	0x429ccbc5	78.39799
158	0x435db13f	221.69237
159	0x412c2ce6	10.760962
160	0x42bf6083	95.6885
161	0x42ee522a	119.16048
162	0x4296e830	75.45349
163	0x42bd2123	94.56472
164	0x428cab93	70.335106
165	0x403bf6d5	2.9369404
166	0x43176243	151.38383
167	0x436446fc	228.27728
168	0x41fcd2c7	31.602919
169	0x42944543	74.13528
170	0x42327d38	44.622284
171	0x42f72703	123.576195
172	0x423cbe27	47.185696
173	0x427f4430	63.81659
174	0x432bcd76	171.80258
175	0x429d02c3	78.505394
176	0x426241c8	56.56424
177	0x42f727b0	123.577515
178	0x4271c465	60.44179
179	0x4254ead3	53.22932
180	0x42ac4c64	86.1492
181	0x42f58f0b	122.77938
182	0x426226e3	56.537975
183	0x42f80969	124.01838
184	0x42beee4e	95.46544
185	0x42470955	49.759113
186	0x42ab0b6a	85.52229
187	0x42616d5d	56.3568
188	0x42b8ad9e	92.339096
189	0x439844b0	304.53662
190	0x4300c0b0	128.75269
191	0x418f4272	17.907444
192	0x43623b84	226.23248
193	0x418032a9	16.024736
194	0x42ff5a7e	127.67674
195	0x42abf299	85.97382
196	0x43192adb	153.1674
197	0x4268da14	58.212967
198	0x40e015f1	7.0026784
199	0x42e2dc8e	113.43077
200	0x41e6b696	28.839153
201	0x423301c7	44.751736
202	0x42266c03	41.60548
203	0x43a13374	322.40198
204	0x42a5146a	82.53987
205	0x43162bb3	150.1707
206	0x42f591cc	122.78476
207	0x41f6a567	30.830763
208	0x43062255	134.13411
209	0x4283a9cc	65.831635
210	0x43109a55	144.60286
211	0x41527f67	13.156104
212	0x436b41b9	235.25673
213	0x422f1086	43.766136
214	0x418a34ea	17.275837
215	0x3fa63697	1.298541
216	0x4179078a	15.564341
217	0x41fd9e51	31.702303
218	0x430fdf67	143.87267
219	0x423293bd	44.644276
220	0x43e97f03	466.99228
221	0x4302c147	130.75499
222	0x42a03a04	80.11331
223	0x42badb58	93.428406
224	0x427ee777	63.72604
225	0x435cdd5b	220.86467
226	0x42936327	73.69366
227	0x43250b2f	165.04369
228	0x42ff0f42	127.5298
229	0x43174414	151.26593
230	0x4225451b	41.317486
231	0x42e50d40	114.52588
232	0x42bdbeab	94.8724
233	0x428316d2	65.54457
234	0x4343d445	195.82918
235	0x4275c60f	61.443417
236	0x43780c17	248.04723
237	0x429fcb3b	79.896935
238	0x414db5a8	12.85685
239	0x422a5fb6	42.593468
240	0x42d09456	104.28972
241	0x42cb8494	101.75894
242	0x3f55401c	0.8330095
243	0x42dd2cc2	110.58742
244	0x41f4ad39	30.584581
245	0x42974f31	75.65467
246	0x42c281c4	97.25345
247	0x42ebc689	117.887764
248	0x430e53a3	142.3267
249	0x422a2f71	42.54633
250	0x42727d74	60.622513
251	0x42d00bc7	104.023
252	0x4292839c	73.25705
253	0x4391dd74	291.7301
254	0x42211cbb	40.278057
255	0x43335193	179.31865

fc2.weight f4 [128, 256]
0	0x3ece75c9	0.40324238
1	0xbe2000e1	-0.15625335
2	0xbb9889b7	-0.0046550888
3	0x3e11ee7c	0.14251131
4	0x3ed9531a	0.42446214
5	0xbd9025e4	-0.07038477
6	0x3cc14662	0.023593131
7	0x3c948c4c	0.018133305
8	0x3ed17aac	0.40913904
9	0x3e22d928	0.15903151
10	0x3cc25d7e	0.023726221
11	0x3d510527	0.051030304
12	0xbdcecdb6	-0.1009783
13	0x3da7f5aa	0.082011536
14	0x3f16f49b	0.5896699
15	0x3f1ea780	0.61974335
16	0xbe7dd7b4	-0.24789315
17	0x3e691b2d	0.22764273
18	0x3e76cda6	0.24101886
19	0xbd43e57c	-0.047826275
20	0x3dd0c8e7	0.10194569
21	0xbee60e34	-0.4493271
22	0xbda10dd5	-0.078639664
23	0xbd8554f3	-0.065103434
24	0xbf7d1666	-0.988623
25	0x3c3cfa06	0.01153422
26	0xbf1f4721	-0.6221791
27	0x3ec6efab	0.38854727
28	0x3e5fbb83	0.21848874
29	0xbd51bb45	-0.051203985
30	0xbee938bc	-0.45551097
31	0xbe630734	-0.22170717
32	0xbe3fc245	-0.18726452
33	0x3e71ced2	0.23614052
34	0x3e14aa1b	0.14518015
35	0x3e0f04f4	0.13966733
36	0x3d9d5921	0.076830156
37	0xbedbca48	-0.42927766
38	0x3f06f582	0.52718365
39	0x3ce7e456	0.028307121
40	0xbe6fed95	-0.23430474
41	0x3e274afc	0.16337198
42	0x3e0da6ed	0.13833208
43	0xbe919f62	-0.28441912
44	0xbe301904	-0.17197043
45	0x3eed8aca	0.4639495
46	0x3ea90174	0.3300892
47	0x3c8c67fd	0.01713943
48	0x3da17bb8	0.078849256
49	0x3f2cb27a	0.67459834
50	0x3e6a2f6a	0.2286965
51	0xbe05bca4	-0.13060242
52	0x3ed2792f	0.4110808
53	0x3e25d027	0.16192685
54	0x3eef1f94	0.4670378
55	0xbe17c936	-0.1482285
56	0x3ba09fb2	0.0049018497
57	0x3e86c2c6	0.26320475
58	0x3dc180bb	0.094483815
59	0x3e1f180b	0.15536515
60	0x3d6a559e	0.057210557
61	0x3daf1f79	0.08550925
62	0xbebea1d8	-0.37232852
63	0xbf0177fb	-0.505737
64	0xbdcc33ef	-0.09970843
65	0xbe7f16f8	-0.24911106
66	0xbd334db7	-0.043775287
67	0x3f1916d1	0.5980044
68	0x3d56d9d2	0.052453823
69	0x3d90de1b	0.07073613
70	0x3e278596	0.16359553
71	0x3d71d890	0.05904442
72	0xbd717342	-0.05894781
73	0xbf9ca718	-1.2238493
74	0x3eae74b4	0.34073412
75	0xbe5f9ecb	-0.21837918
76	0x3e8b06c9	0.27153614
77	0x3e272ff6	0.1632689
78	0x3e8d1292	0.2755323
79	0x3d58dcd3	0.05294497
80	0x3d95c305	0.07312588
81	0xbdb2d710	-0.08732426
82	0x3f2f9219	0.685823
83	0x3f0163ed	0.505431
84	0x3d69749d	0.056995977
85	0x3e7e0d18	0.24809682
86	0xbe619366	-0.22028884
87	0x3ebeecd6	0.37290066
88	0xbec1d9ca	-0.37861472
89	0xbe7d17e7	-0.2471615
90	0xbea740f0	-0.3266673
91	0x3d045d46	0.032315515
92	0x3d344a87	0.044016387
93	0xbec65b9d	-0.3874177
94	0x3cd7cd25	0.026342938
95	0x3e481656	0.1953977
96	0xbe65202f	-0.22375558
97	0x3e8e8acb	0.27840266
98	0x3e9b70e9	0.3035958
99	0x3e8ab630	0.27092123
100	0xbe2dd9a9	-0.16977562
101	0xbd9e3fe7	-0.07727032
102	0x3e87bdf4	0.2651211
103	0xbcc550ea	-0.024086434
104	0x3ccdb583	0.025110966
105	0xbf65a375	-0.8970254
106	0x3de9fc70	0.11425102
107	0x3d414e13	0.047193598
108	0x3ec7b68d	0.39006463
109	0xbc4c5de4	-0.012473557
110	0xbe950497	-0.29105064
111	0xbccfab83	-0.025350338
112	0x3ec889c1	0.39167598
113	0x3dc2e958	0.09517163
114	0xbe46487a	-0.19363585
115	0xbf4506ee	-0.769637
116	0x3e4f03ac	0.20216244
117	0xbde42dbe	-0.11141537
118	0x3e145c15	0.14488252
119	0xbe6d92b3	-0.23200493
120	0x3f4c9eb2	0.7992965
121	0x3e6e203b	0.23254482
122	0x3f1ea5fb	0.61972016
123	0x3da4ee9a	0.08053322
124	0x3d42bce0	0.047543406
125	0x3c20a173	0.0098041175
126	0x3dbabb0f	0.0911771
127	0x3d8d0769	0.06886179
128	0x3ec80693	0.39067516
129	0xbdafa5f0	-0.08576572
130	0xbeb53e9b	-0.35399327
131	0xbf01d31d	-0.5071276
132	0x3eb56ce4	0.3543464
133	0xbe3665d8	-0.17812288
134	0x3db32a4c	0.08748302
135	0x3e65581b	0.22396891
136	0x3ec58826	0.38580436
137	0x3e174fb5	0.147765
138	0x3e35158d	0.17684002
139	0xbc8e5e18	-0.017378852
140	0xbe676fa9	-0.22601189
141	0x3e0bc48b	0.13649194
142	0xbd27e4c6	-0.04098966
143	0x3eaf8035	0.34277502
144	0xbc450ae5	-0.012026523
145	0x3e41527b	0.1887912
146	0xbbbfe177	-0.005855735
147	0x3cbf4954	0.023350395
148	0x3f21bd23	0.63179225
149	0x3e87f870	0.2655673
150	0x3cc5f59c	0.024164967
151	0x3ded2a51	0.11580337
152	0x3e44c184	0.19214445
153	0xbf27f6b8	-0.6561084
154	0xbe407ecf	-0.18798374
155	0xbda028a2	-0.0782025
156	0xbb7f5122	-0.003895827
157	0xbdc2e058	-0.095154464
158	0x3dfc8350	0.12329733
159	0x3df793d7	0.12088745
160	0x3e0bc005	0.13647468
161	0xbe9836c0	-0.2972927
162	0x3ed99d71	0.4250293
163	0x3db3d4fb	0.08780857
164	0xbe02a06e	-0.12756512
165	0xbd33acad	-0.04386585
166	0x3d718619	0.058965776
167	0x3dbcb9ce	0.09215127
168	0xbe429adc	-0.19004387
169	0xbf2b8d01	-0.6701203
170	0xbd0294e9	-0.031880293
171	0x3e762d91	0.2404082
172	0x3dbcd5ae	0.09220444
173	0x3db04bd1	0.08608211
174	0xbe380445	-0.17970379
175	0xbf0f6c5b	-0.5602471
176	0x3e790400	0.24317932
177	0xbe0473ab	-0.12934749
178	0xbe2159ec	-0.15756959
179	0x3effe136	0.4997651
180	0xbea95481	-0.33072284
181	0xbc950432	-0.018190477
182	0xbf07b8ac	-0.5301616
183	0x3e4e65a9	0.20155968
184	0x3e62a72d	0.22134085
185	0x3c462043	0.012092653
186	0xbd99bcd5	-0.0750672
187	0xbe997b3a	-0.29976827
188	0x3ecad9f5	0.39619413
189	0x3f0375e7	0.5135178
190	0x3e7cd110	0.24689126
191	0x3e92758d	0.2860531
192	0xbe2300d6	-0.15918288
193	0xbbf11a74	-0.00735789
194	0xbd75dc6d	-0.060024668
195	0x3c6866c3	0.014184657
196	0xbf03015b	-0.51173943
197	0xbcc42601	-0.023943903
198	0x3e4b820f	0.19873832
199	0x3e217af9	0.15769567
200	0x3d4db4b0	0.050221145
201	0xbe7feb4f	-0.24992107
202	0x3e749f2c	0.23888844
203	0xbdbce5b8	-0.09223503
204	0x3e3c289c	0.18374866
205	0xbdc9b686	-0.09849267
206	0xbd74d1f6	-0.059770547
207	0xbe8e2445	-0.27762046
208	0xbe3f64d7	-0.18690811
209	0x3eec43c2	0.46145445
210	0x3eab5da9	0.33469895
211	0xbd46a17e	-0.048493855
212	0x3e8efa14	0.2792517
213	0x3ebc7f46	0.36815852
214	0xbd132c3a	-0.03593085
215	0xbc404c0b	-0.01173688
216	0xbe8ac14f	-0.27100608
217	0xbe964004	-0.29345715
218	0xbee6db80	-0.4508934
219	0xbdcaa3e2	-0.098945394
220	0x3d97c1f7	0.07410043
221	0xbedbe634	-0.4294907
222	0xbe47e7e8	-0.19522059
223	0x3c60c591	0.0137189785
224	0x3e4d79e7	0.20066033
225	0xbd01378a	-0.031547107
226	0x3f1e1cb0	0.61762524
227	0x3e4cc7b2	0.19998053
228	0x3e65cf2c	0.22442311
229	0xbe261518	-0.16218984
230	0x3da2ed2b	0.079553925
231	0x3e6c3bc4	0.23069674
232	0xbe0b2d2b	-0.13591449
233	0x3f0e0fe6	0.5549301
234	0xbe501877	-0.20321833
235	0xbedb618b	-0.42847857
236	0x3e49ea1b	0.1971821
237	0xbd46ac12	-0.048503943
238	0x3d32f77d	0.043693054
239	0x3e4df582	0.20113185
240	0x3e766e09	0.24065413
241	0x3ec5f190	0.3866086
242	0xbda95959	-0.08268995
243	0xbdcac9c2	-0.099017635
244	0xbefc8b48	-0.49325013
245	0xbea78d8b	-0.32725176
246	0xbf2e7288	-0.6814351
247	0xbd527a75	-0.051386315
248	0x3dec493b	0.11537405
249	0xbe195462	-0.14973596
250	0xbacd0481	-0.0015641601
251	0xbdc8ee37	-0.09811061
252	0x3e778106	0.24170312
253	0x3b75e858	0.003752252
254	0x3d55a852	0.052162476
255	0x3eb0853f	0.3447666

fc2.bias f4 [128]
0	0x3e408733	0.18801574
1	0xbcf4f7e0	-0.029903352
2	0xbdcb94de	-0.099405035
3	0x3e916ebd	0.284048
4	0x3c3c2c34	0.011485148
5	0xbed1d0dd	-0.40979663
6	0xbdd23d8b	-0.10265645
7	0xbe5dab95	-0.21647485
8	0xbebfcb7a	-0.37459928
9	0xbdde3f33	-0.10851898
10	0x3da44264	0.080204755
11	0xbd9f01f3	-0.07764044
12	0xbdc8fc1f	-0.09813713
13	0x3d745b34	0.05965729
14	0xbd9b9a9f	-0.07597851
15	0xbe48c0c9	-0.19604792
16	0xbd1dcdf9	-0.03852651
17	0xbe3b50d1	-0.18292548
18	0x3dc20e50	0.09475386
19	0xbe0d3415	-0.13789399
20	0xbe85d155	-0.2613627
21	0xbf038fca	-0.5139128
22	0x3c8d4b1a	0.017247725
23	0x3cb01bf4	0.021497704
24	0xbd890950	-0.06691229
25	0xbe6e2fc7	-0.23260413
26	0xbe73492d	-0.23758383
27	0xbdbb0b99	-0.091330715
28	0xbe25506a	-0.16143957
29	0xbe75c479	-0.2400073
30	0x3e12f45e	0.14351031
31	0xbe954414	-0.29153502
32	0xbef4cc7b	-0.47812256
33	0xbd96da3d	-0.073658444
34	0x3e04bff5	0.12963851
35	0xbe23622e	-0.15955421
36	0xbe09d21f	-0.13459061
37	0xbe7b1a9a	-0.24521866
38	0x3d522dd4	0.051313236
39	0xbd865ad2	-0.06560291
40	0xbdd05883	-0.10173132
41	0xbbe1d979	-0.00689238
42	0xbe4f007b	-0.20215027
43	0xbeb0c8b5	-0.34528127
44	0x3e51ba6c	0.2048127
45	0xbdb1a1f5	-0.08673469
46	0x3e4c7f0d	0.19970341
47	0x3e27c127	0.16382276
48	0xbe9085cb	-0.28227076
49	0xbe84289e	-0.25812238
50	0x3e477be3	0.19480853
51	0x3e9eaf51	0.3099313
52	0x3e337d14	0.17528182
53	0xbee47a56	-0.44624585
54	0xbdd73c5c	-0.105095595
55	0xbee2147c	-0.44156253
56	0xbe2694e1	-0.1626773
57	0xbd87ad39	-0.066248365
58	0xbe4f4f83	-0.20245175
59	0xbe33228e	-0.1749365
60	0xbe639158	-0.22223413
61	0xbdbe2cf2	-0.092859164
62	0x3d8849c4	0.06654695
63	0xbdaa7c34	-0.08324471
64	0xbc74c17c	-0.014938708
65	0xbeec7fb3	-0.46191177
66	0xbdb16cc7	-0.08663326
67	0x3d660ff4	0.056167558
68	0xbdafc578	-0.08582586
69	0x3e12c8d4	0.14334422
70	0xbf0f009a	-0.5586029
71	0xbe14f03e	-0.1454477
72	0x3e060b76	0.1309031
73	0xbef48989	-0.4776118
74	0xbd515e1d	-0.051115144
75	0xbe68a13b	-0.22717755
76	0xbe4fa214	-0.20276672
77	0xbe14694f	-0.14493297
78	0xbe55d151	-0.20880629
79	0xbdd0b9c6	-0.101916835
80	0xbe24bec4	-0.16088396
81	0xbc98af71	-0.018638344
82	0xbd9cbeab	-0.076535545
83	0xbe0a3b84	-0.13499266
84	0xbd985294	-0.074376255
85	0xbf1cb68e	-0.61216056
86	0xbe66b834	-0.22531205
87	0xbe8c0a39	-0.2735155
88	0xbec6d233	-0.38832244
89	0xbe4184df	-0.18898343
90	0x3dfc698b	0.12324818
91	0xbe848233	-0.25880584
92	0x3de3a8c9	0.111161776
93	0xbe73082b	-0.23733585
94	0xbda5925e	-0.08084558
95	0xbc1836f6	-0.009290447
96	0xbe972aa0	-0.29524708
97	0xbe1d58ac	-0.15365857
98	0xbe160d58	-0.14653528
99	0xbe88be9e	-0.2670793
100	0x3db1c87c	0.086808175
101	0xbe64d3da	-0.2234644
102	0xbe4c8ba0	-0.19975138
103	0xbe75a40c	-0.2398836
104	0xbd176c96	-0.03696879
105	0xbe0c22a7	-0.13685094
106	0xbd8c1383	-0.06839659
107	0xbd76929d	-0.060198415
108	0xbe2d4876	-0.16922173
109	0xbd9b88ca	-0.0759445
110	0xbeb7570d	-0.35808602
111	0xbd698fa8	-0.057021767
112	0xbda2038a	-0.07910831
113	0x3cb42b23	0.021993225
114	0x3d208658	0.03919062
115	0xbe4b606d	-0.19861002
116	0x3d039271	0.03212208
117	0x3da68ed8	0.08132714
118	0xbe50ae0d	-0.20378895
119	0xbeb2c93d	-0.34919158
120	0xbe903a87	-0.28169653
121	0xbebccda8	-0.36875653
122	0xbda25e3e	-0.079281315
123	0xbd41bc66	-0.04729881
124	0x3dcfc365	0.101446904
125	0xbf0e3c86	-0.555611
126	0xbe447ca0	-0.19188166
127	0x3e26803d	0.16259857
