p3_collab-compet/ddpg_critic_agent1.pth (torch_old, 532687 bytes, 9 tensors)

fcs1.weight f4 [400, 24]
0	0xbe298137	-0.16553198
1	0xc01d6984	-2.4595652
2	0x3d01d803	0.031700145
3	0x3e8e75c4	0.27824223
4	0xbe563882	-0.20919994
5	0xc01073c1	-2.257065
6	0xbc5ae38f	-0.013359918
7	0x3e986e26	0.29771537
8	0x3e8ea141	0.27857402
9	0xbfda7e1e	-1.7069738
10	0x3d6362d0	0.055514157
11	0x3ea590d4	0.32337058
12	0x3d75a4f2	0.059971757
13	0xc008a33e	-2.1349635
14	0x3d3dfa08	0.046381027
15	0x3e8207ac	0.25396478
16	0x3f834493	1.0255302
17	0xbf8d21a9	-1.1025897
18	0xbd026aae	-0.03184002
19	0xbd9494a7	-0.07254916
20	0xbe77f39c	-0.24214023
21	0xbf042d37	-0.5163149
22	0xbd35f5b4	-0.044423774
23	0xbdc9ad8d	-0.09847555
24	0xbe0a391c	-0.13498348
25	0x3f1c51db	0.610624
26	0xbd3dd763	-0.046347987
27	0xbdbe6b7a	-0.09297843
28	0xbd3d10fa	-0.04615877
29	0xbf9965ee	-1.1984231
30	0x3b5a5d3e	0.0033319737
31	0xbe03e462	-0.1288009
32	0xbf072da7	-0.52804035
33	0x3f86cc6c	1.0531135
34	0xbd228a2d	-0.039682556
35	0x3f879070	1.0590954
36	0xbe9e68d2	-0.30939347
37	0xbf9b513e	-1.2134168
38	0x3cbe64bc	0.023241393
39	0x3f88fc4a	1.0701993
40	0xbd5e95fa	-0.054342248
41	0x3fabd838	1.342536
42	0x3da19769	0.07890207
43	0xbf8952ee	-1.0728433
44	0x3e86154c	0.26188123
45	0x3e94fd12	0.29099327
46	0x3d9b5555	0.07584635
47	0xbf8b4146	-1.0879295
48	0xbf547819	-0.82995754
49	0xbf3f7db9	-0.7480121
50	0xbd10943e	-0.035297625
51	0xbeb5b41b	-0.35488972
52	0x3ea30287	0.31837866
53	0xbf3abfd7	-0.72948974
54	0xbd67698e	-0.05649715
55	0xbe98a7fc	-0.29815662
56	0xbf372103	-0.71534747
57	0xbedf2511	-0.43582967
58	0xbdaafc0e	-0.08348857
59	0x3cbfafc0	0.023399234
60	0x3cdaf492	0.026727948
61	0xc0156162	-2.3340688
62	0xbd19d945	-0.03756072
63	0x3d755e9c	0.05990468
64	0xbee0b5a5	-0.43888584
65	0xbea3fe47	-0.32029936
66	0x3cdcc471	0.02694914
67	0x3c1f7835	0.009733249
68	0x3ed25406	0.4107973
69	0xbfb11dec	-1.3837256
70	0x3bcbb741	0.006216914
71	0x3c66010f	0.014038338
72	0xbf7aba90	-0.9794092
73	0x3f9bac04	1.216187
74	0x3ec09205	0.37611404
75	0xbe84cbe3	-0.25936803
76	0xbe83159d	-0.25602427
77	0x3f8f2dde	1.1185873
78	0x3ea1129d	0.31459513
79	0xbea0769d	-0.31340495
80	0xbfb52112	-1.4150717
81	0x3fc3424a	1.5254605
82	0xbdced602	-0.100994125
83	0x3f0885f7	0.53329414
84	0x3c23ca6a	0.00999699
85	0x3d3ba79a	0.045814134
86	0xbd70011f	-0.05859482
87	0x3f06c189	0.5263906
88	0xbf06d666	-0.52670896
89	0x3fa23f5e	1.2675588
90	0x3d8091d2	0.06277813
91	0xbf25b271	-0.64725405
92	0x3e6784c0	0.22609234
93	0xbeb989e1	-0.36238006
94	0x3d92556a	0.07145198
95	0xbf1ec911	-0.62025553
96	0x3da3f623	0.08005931
97	0xbf55df16	-0.8354353
98	0x3dc3abc2	0.095542446
99	0x3e807136	0.25086373
100	0xbd451956	-0.048119865
101	0x3fb1787d	1.3864895
102	0x3e219915	0.15781052
103	0x3e54c8e1	0.20779754
104	0xbee9acbf	-0.45639607
105	0xbf557144	-0.83375955
106	0x3d09c8aa	0.033638634
107	0xbb8baf4f	-0.004262842
108	0x3e11a5a1	0.14223339
109	0xc02842ae	-2.6290698
110	0xbc835db8	-0.0160359
111	0x3ca6cdca	0.0203618
112	0xbe8b866b	-0.2725099
113	0xbf244eb9	-0.6418262
114	0xbe2b9823	-0.16757254
115	0x3f1be633	0.6089813
116	0x3d1357e6	0.0359725
117	0xc01b5a5b	-2.4273899
118	0xbe10b117	-0.14130054
119	0x3f1378b9	0.57606083
120	0xbd45d9ed	-0.048303533
121	0x3e6b7fa4	0.2299791
122	0x3cff2165	0.031143853
123	0xbdd6c0ed	-0.104860164
124	0x401ec1a4	2.480569
125	0x3e26c2aa	0.16285196
126	0xbd153fe5	-0.036437888
127	0xbd8e514e	-0.069491014
128	0x3cc66189	0.02421643
129	0x3ce5fcb6	0.028074604
130	0xbcbdbe28	-0.023161963
131	0xbd13a8c5	-0.036049623
132	0x412fd7c6	10.990179
133	0xbe10a026	-0.14123592
134	0x3ce79e36	0.028273683
135	0xbca7209f	-0.020401297
136	0xbac23bcb	-0.0014818845
137	0xbe688846	-0.22708234
138	0x3c859282	0.016305212
139	0xbdb231cc	-0.08700904
140	0x40130a25	2.2974942
141	0x3ddd1fdb	0.107970916
142	0xbc6954ae	-0.014241381
143	0xbdbbf3be	-0.091773495
144	0xbe0aa31a	-0.13538781
145	0x3da9af30	0.082853675
146	0x3d4146c6	0.047186635
147	0xbc9b1f02	-0.018935684
148	0xbec5a50f	-0.38602492
149	0xc0041394	-2.063695
150	0xbd37737e	-0.044787876
151	0xbcab8ea2	-0.020942036
152	0x3f460e42	0.77365506
153	0x3e504d8c	0.20342082
154	0xbc522842	-0.012826981
155	0x3e62c229	0.22144379
156	0x3bbcb74a	0.0057591544
157	0xbf88d459	-1.0689803
158	0xbc76b88a	-0.015058646
159	0x3e729975	0.23691352
160	0x3fcb4315	1.5879847
161	0x3e8a485b	0.27008328
162	0x3d39298a	0.04520563
163	0xbe32ede8	-0.17473567
164	0xbd82adb6	-0.06380789
165	0xbff76b01	-1.932953
166	0x3d5414b1	0.051777545
167	0xbe278674	-0.16359884
168	0xbe70ddbb	-0.23522083
169	0xbed4ae37	-0.41539165
170	0xbd1980eb	-0.03747646
171	0x3d8483b3	0.06470432
172	0x3f2c9105	0.6740878
173	0xbe0a3045	-0.13494976
174	0x3d3423a3	0.0439793
175	0x3d388604	0.045049682
176	0xbd62acba	-0.055340506
177	0x3dd18cdf	0.10231947
178	0xbc94abba	-0.018148292
179	0x3d0e4b22	0.03473962
180	0x3ec0affc	0.37634265
181	0x3e743a1e	0.23850295
182	0xbbad3fee	-0.005287162
183	0x3d0b049c	0.033939943
184	0x3cabf6b6	0.020991664
185	0x3e9dc6af	0.30815646
186	0xbcfe31e5	-0.031029651
187	0x3d311349	0.043231282
188	0xc01327b5	-2.2992985
189	0x3fd231ba	1.6421425
190	0xbbad87b3	-0.0052957176
191	0xbb3421e1	-0.0027486014
192	0xbe0634a9	-0.13106026
193	0x3f124867	0.5714173
194	0xbd0007ec	-0.031257555
195	0x3ef39fa8	0.47582746
196	0x3e621b08	0.22080624
197	0x3fa22f38	1.267066
198	0xbc574fec	-0.013141613
199	0x3ef0edab	0.47056326
200	0x3dab2c44	0.083580524
201	0x3f535ba3	0.825617
202	0x3cab192b	0.020886024
203	0xbde2ce9a	-0.11074562
204	0xbd687e74	-0.05676122
205	0x3f915443	1.135384
206	0xbad97876	-0.0016591686
207	0xbe3f4eb0	-0.1868236
208	0xbe2e10d7	-0.16998611
209	0x3ef0ab8b	0.47005877
210	0x3adf299e	0.0017025953
211	0xbf9347f2	-1.1506331
212	0xbee250b9	-0.44202211
213	0x40132ae6	2.2994933
214	0x3d14b3d2	0.036304303
215	0xbf934ca0	-1.1507759
216	0x3f8d3d8c	1.1034408
217	0x3fbbcc4c	1.4671721
218	0xbeb667fe	-0.35626215
219	0xbd828093	-0.0637218
220	0xbea15ac7	-0.3151457
221	0x3ed104ff	0.40824124
222	0xbec13d7c	-0.3774222
223	0xbd8513e6	-0.06497936
224	0x3f845857	1.0339459
225	0x3fa10e5e	1.258251
226	0xbdd0d3fd	-0.101966836
227	0xbed95d8b	-0.4245418
228	0xbead35dd	-0.33830157
229	0xbd880a71	-0.066426165
230	0xbdc3987f	-0.09550571
231	0xbeda8d37	-0.42685863
232	0x3fa35526	1.276036
233	0x3f139a33	0.57657164
234	0x3e1d8753	0.15383653
235	0xbf52eb81	-0.823906
236	0xbe966c43	-0.29379472
237	0x3eb477da	0.3524769
238	0x3e1243df	0.14283703
239	0xbf54d4fd	-0.83137494
240	0xbec1d735	-0.37859502
241	0xbf3ae0d7	-0.7299933
242	0xbcc9d957	-0.024639769
243	0xbce7ce97	-0.028296752
244	0xbeb96f70	-0.36217833
245	0xbf0db824	-0.553591
246	0x3cd31dc8	0.025771037
247	0x3d12c27a	0.03583
248	0x3daa7d61	0.083246954
249	0xbe7a0dd8	-0.24419343
250	0xbd08969e	-0.033346765
251	0xbe17c5e7	-0.14821588
252	0xbe29c41f	-0.1657872
253	0xbe617a5d	-0.22019334
254	0x3cd7ea18	0.026356742
255	0xbd7671c5	-0.060167093

fcs1.bias f4 [400]
0	0x3d701626	0.058614872
1	0x3d0a7efb	0.033812504
2	0x3df999f4	0.12187567
3	0x3d2b1deb	0.04177658
4	0xbe278dee	-0.16362736
5	0xbc53c891	-0.012926237
6	0x3db0de03	0.086360954
7	0x3b06971f	0.0020536853
8	0xbc23b7b5	-0.00999253
9	0xbe25c2bc	-0.16187567
10	0x3dcf38fd	0.101182915
11	0x3e4c4323	0.19947486
12	0xbe4085a3	-0.18800978
13	0x3d9e0640	0.07716036
14	0x3cb74359	0.022370981
15	0xbe0f24cb	-0.13978879
16	0x3e34f1c4	0.17670351
17	0xbe0c5482	-0.13704112
18	0x3cc24277	0.023713334
19	0x3d3ddeb3	0.04635496
20	0x3cf65c1d	0.03007322
21	0x3e28ac5e	0.16472003
22	0xbca924e2	-0.02064747
23	0xbde7e733	-0.113233946
24	0x3d87c420	0.06629205
25	0xbdc9890e	-0.09840594
26	0xbda3f11f	-0.080049746
27	0xbbb39515	-0.0054804184
28	0xbe277b5c	-0.16355652
29	0x3cf1497a	0.029453982
30	0xbe4ed88b	-0.20199792
31	0x3e49cd9f	0.19707344
32	0x3cbc21d3	0.022965347
33	0x3e426762	0.1898475
34	0xbe162290	-0.14661622
35	0xbe04fe3a	-0.12987605
36	0x3e153bd0	0.14573598
37	0xbe4920f5	-0.19641478
38	0x3da2dfba	0.07952829
39	0xbe347b65	-0.17625196
40	0x3deadb90	0.114676595
41	0xbe19827e	-0.14991185
42	0x3e4aac78	0.19792354
43	0x3e3cfa16	0.18454775
44	0xbd16fa7b	-0.03685997
45	0xbd892198	-0.066958606
46	0x3e07e0f7	0.13269411
47	0x3dd142a3	0.10217788
48	0x3e1b0577	0.15138803
49	0x3e1883c2	0.14894012
50	0x3e196c29	0.14982666
51	0x3e3982d3	0.18116312
52	0xbd15f043	-0.036606085
53	0xbe198808	-0.14993298
54	0x3dab797f	0.08372783
55	0x3dd33fea	0.10314925
56	0xbdf6aae7	-0.12044316
57	0xbdc61b4c	-0.09673175
58	0x3d9a5732	0.075361624
59	0xbd1ab990	-0.037774622
60	0x3d9939d7	0.07481735
61	0xbe47ccad	-0.19511671
62	0xbdfd55ef	-0.12369906
63	0x3d42fc6a	0.047604002
64	0x3d8e2014	0.06939712
65	0xbd26c473	-0.040714692
66	0x3d505a20	0.0508672
67	0x3da08495	0.07837788
68	0xbdf9ff9b	-0.12206956
69	0x3e1ed870	0.15512252
70	0x3dace24e	0.08441602
71	0x3e35804e	0.17724726
72	0xbbf69a93	-0.007525751
73	0x3e008ed1	0.1255448
74	0xbda22d9b	-0.07918855
75	0xbda55dd1	-0.08074535
76	0xbe2ec217	-0.17066227
77	0x3e120d2c	0.14262837
78	0x3d6efd54	0.05834706
79	0x3e48c182	0.19605067
80	0x3e48f326	0.19624004
81	0xbd89920e	-0.06717311
82	0x3d691b04	0.05691053
83	0x3e2ad4f0	0.16682792
84	0xbe04ca97	-0.12967907
85	0x3e2802fc	0.16407388
86	0x3c0a0ea2	0.00842634
87	0xbe4c254b	-0.19936101
88	0xbe40047c	-0.1875171
89	0x3d8c7892	0.068589345
90	0xbdc86207	-0.09784322
91	0x3de16a5a	0.11006613
92	0x3e1c286f	0.15249799
93	0x3d882546	0.06647734
94	0xbca1e224	-0.019761153
95	0x3cd300ba	0.025757182
96	0x3d9220c9	0.071351595
97	0x3e195677	0.1497439
98	0x3db8f5f7	0.09031289
99	0xbe39f91e	-0.18161437
100	0x3de7865e	0.113049254
101	0xbcb0cb38	-0.021581277
102	0x3c87f096	0.016594213
103	0xbdffed91	-0.12496484
104	0x3e30ece0	0.1727786
105	0x3c531f6f	0.012885912
106	0x3d5d273c	0.053992495
107	0x3e4d2ea3	0.20037322
108	0xbe2e4686	-0.1701909
109	0x3e14e0d4	0.1453889
110	0x3d729026	0.059219502
111	0xbe4194c4	-0.18904406
112	0xbe0e4975	-0.13895209
113	0x3c9a030d	0.018800283
114	0xbdd7c97a	-0.105364755
115	0xbe46bfc4	-0.1940909
116	0xbce78753	-0.02826277
117	0x3d6a87e3	0.057258498
118	0xbe0017fc	-0.1250915
119	0xbdffa154	-0.12481943
120	0x3db2e86d	0.08735738
121	0xbd1b4180	-0.037904263
122	0xbe3130f1	-0.17303826
123	0xbe3b4e08	-0.18291485
124	0xbdde3633	-0.108501814
125	0xbe33ab2f	-0.1754577
126	0x3ded37ea	0.115829304
127	0x3d905b19	0.070486255
128	0xbda74e00	-0.08169174
129	0xbde57b52	-0.11205162
130	0x3dfb32cb	0.12265547
131	0x3d51bf29	0.051207695
132	0xbe1f4d4d	-0.15556832
133	0x3d514d5d	0.05109917
134	0x3decdf13	0.115659855
135	0x3c72e95d	0.014826146
136	0x3da6c4f9	0.08143038
137	0xbc96441d	-0.018343026
138	0x3c3f73e8	0.011685349
139	0xbdc88c6b	-0.097924076
140	0x3d5dd094	0.054153994
141	0xbe1c23ab	-0.15247981
142	0xbdbd2e6a	-0.092373684
143	0xbdcf899d	-0.101336695
144	0xbddcab4b	-0.10774859
145	0x3e319548	0.17342103
146	0xbe306623	-0.17226462
147	0x3d0681bd	0.03283857
148	0x3d891d4c	0.06695041
149	0xbd884e71	-0.066555865
150	0x3e107cb3	0.14110069
151	0x3ccbf182	0.024895433
152	0xbd9d3e6e	-0.07677923
153	0xbe503451	-0.20332457
154	0xbe157341	-0.14594747
155	0xbc550cf6	-0.013003578
156	0x3e3ecd26	0.18632945
157	0x3dd10e82	0.10207845
158	0x3d838c87	0.06423288
159	0xbd817e1b	-0.06322881
160	0xbd4e4d75	-0.050366838
161	0x3d5d280a	0.053993262
162	0xbe2efef0	-0.17089438
163	0x3d2116e4	0.03932847
164	0x3bf25bb9	0.007396188
165	0x3d533e4a	0.051573075
166	0xbd92dd8e	-0.071711645
167	0xbe4a4d83	-0.19756131
168	0x3d9d0f31	0.07668913
169	0x3d021491	0.031757895
170	0xbe133f62	-0.14379647
171	0x3d8ce358	0.068793
172	0x3e06ef93	0.13177328
173	0xbd1f5298	-0.038897127
174	0xbe484a8c	-0.19559687
175	0xbdc16cbf	-0.0944457
176	0x3b192533	0.002336812
177	0x3cd366e9	0.025805907
178	0xbe236e8a	-0.15960136
179	0xbe238071	-0.15966965
180	0xbb946138	-0.004528191
181	0xbd60aebf	-0.05485415
182	0xbe375b29	-0.17905869
183	0xbe052fdb	-0.13006537
184	0x3e0cb944	0.13742548
185	0x3e1670f5	0.14691527
186	0xbdc437d3	-0.0958096
187	0xbe189a01	-0.14902498
188	0xbe2a8478	-0.16652095
189	0xbd7df840	-0.062004328
190	0x3dd60133	0.104494475
191	0xbd6f59f1	-0.058435384
192	0x3df51326	0.11966543
193	0x3ca0ce38	0.019629583
194	0xbdfbd609	-0.12296683
195	0x3dcb8772	0.099379435
196	0xbe1278de	-0.1430392
197	0xbe394855	-0.18093999
198	0xbdafe407	-0.08588415
199	0xbb9c688a	-0.004773204
200	0x3bdade5e	0.0066793403
201	0xbc2e71ed	-0.010647279
202	0x3e129033	0.1431282
203	0x3e0728bb	0.13199131
204	0x3db89e70	0.090145946
205	0xbe24d0c2	-0.1609526
206	0x3e330cf0	0.17485404
207	0xbd81505f	-0.06314158
208	0x3e4f03de	0.20216319
209	0x3e305374	0.17219335
210	0x3ddd33e4	0.10800913
211	0xbe0cb6f5	-0.13741668
212	0x3df78189	0.12085254
213	0x3dcc8a40	0.099873066
214	0xbe1b4ceb	-0.1516606
215	0x3d08c2c3	0.033388864
216	0x3ab5337d	0.0013824549
217	0x3c17f679	0.009275072
218	0xbe19cbc2	-0.15019134
219	0x3e1b15f4	0.15145093
220	0xbe0c6eab	-0.13714091
221	0x3df7a6ad	0.12092338
222	0xbc791137	-0.015201858
223	0xbcfe3b43	-0.031034118
224	0x3de9e9dc	0.11421558
225	0xbd33231d	-0.04373466
226	0xbd052577	-0.032506432
227	0x3c3842f3	0.011246431
228	0x3d80fa3a	0.06297727
229	0xbe045aae	-0.12925217
230	0xbe1b4135	-0.15161593
231	0xbe2e87d1	-0.17043997
232	0xbd8a6c4d	-0.06758938
233	0x3e21cbd8	0.15800416
234	0x3e1145e3	0.14186816
235	0x3deb7f9f	0.11498951
236	0x3dae5339	0.08511967
237	0xbe43ba82	-0.19114116
238	0x3e21b81c	0.15792888
239	0x3dcd00e6	0.10009937
240	0x3e49df95	0.19714196
241	0xba8a679f	-0.0010559446
242	0x3d4ff2bf	0.05076861
243	0x3d51d340	0.051226854
244	0x3df64f86	0.12026887
245	0x3e1221c4	0.14270693
246	0x3e279c8c	0.16368312
247	0x3e4295f6	0.19002518
248	0xbd2e6f1d	-0.042586435
249	0xbe2527b6	-0.1612843
250	0xbe071c58	-0.13194406
251	0xbe383f8d	-0.17992993
252	0xbe3bc626	-0.18337306
253	0x3e20a3de	0.1568751
254	0x3dc0125f	0.09378504
255	0xbda54a4d	-0.080708124

bn1.weight f4 [400]
0	0x3e072640	0.13198185
1	0x3e9f7e0b	0.3115085
2	0x3ee542a0	0.44777393
3	0x3e62bae3	0.22141604
4	0x3e95d110	0.29261065
5	0x3fa846e9	1.314664
6	0x3ebcbb95	0.36861864
7	0x3f1783ce	0.59185493
8	0x3ee28aa8	0.4424641
9	0x3ebf1642	0.3732167
10	0x3eb7b504	0.3588029
11	0x3ecb4b34	0.39705813
12	0x3ea59624	0.3234111
13	0x3f078336	0.52934587
14	0x3edb7ac4	0.428671
15	0x3f5bc928	0.85853815
16	0x3f17e100	0.593277
17	0x3f317701	0.6932221
18	0x3eb4f210	0.3534093
19	0x3ec623ff	0.38699338
20	0x3f1befc7	0.60912746
21	0x3f0a67ad	0.54064447
22	0x3ecd00a1	0.40039542
23	0x3f0e440d	0.5557259
24	0x3ee56836	0.4480607
25	0xbc582d74	-0.013194431
26	0x3f6f182c	0.9339626
27	0x3ea8af69	0.32946327
28	0x3f00e0c1	0.5034295
29	0x3e478553	0.19484453
30	0x3e88f192	0.26746804
31	0x3e13afcf	0.14422534
32	0x3f0df18f	0.55446714
33	0x3ecc76b8	0.39934325
34	0x3f3aba69	0.7294069
35	0x3eb49496	0.35269612
36	0x3ef21448	0.47281098
37	0x3f02ced8	0.5109687
38	0x3e5472c6	0.20746908
39	0x3f0d1bd0	0.55120564
40	0x3f0acfd0	0.54223347
41	0x3ed4d14d	0.41565934
42	0x3ed70225	0.41993824
43	0x3ef1cf75	0.4722859
44	0x3eab71fd	0.33485404
45	0x3e1d600d	0.15368672
46	0x3f68dd65	0.9096282
47	0x3eb623d2	0.35574204
48	0x3e332f1a	0.17498437
49	0x3d2e324a	0.042528428
50	0x3eb3afa6	0.35094947
51	0x3e98ff64	0.29882348
52	0x3f285ab0	0.6576338
53	0x3f0593be	0.5217856
54	0x3eee3c84	0.46530545
55	0x3e970564	0.294963
56	0x3ef40fda	0.47668344
57	0xbaa5e750	-0.0012657437
58	0x3eb541c1	0.3540173
59	0x3fb08ba6	1.3792617
60	0x3f224f9f	0.6340274
61	0x3e8b185f	0.2716703
62	0x3ed0b9b4	0.4076668
63	0x3ebe91cd	0.37220612
64	0x3e931cc7	0.28732893
65	0x3ed63a82	0.41841513
66	0x3b911cc4	0.004428478
67	0x3ed32cd5	0.41245142
68	0x3ec28f5c	0.38
69	0x3f1081fe	0.5644835
70	0x3efe14e1	0.49625304
71	0x3ede6378	0.43435264
72	0x3eccbc44	0.39987385
73	0x3f098b3e	0.5372809
74	0x3eb1e176	0.34742326
75	0x3ee0189f	0.43768784
76	0x3da14fe2	0.078765646
77	0x3e96d670	0.29460478
78	0x3e8c509b	0.27405247
79	0x3cc5f566	0.024164867
80	0x3e9de19f	0.30836198
81	0x3ec42189	0.38306835
82	0x3f05a2f7	0.5220179
83	0x3e5fb2a6	0.21845493
84	0x3e773199	0.24140014
85	0x3ec48ab4	0.38387072
86	0x3ebfa3a6	0.3742954
87	0x3967a5bc	0.00022091618
88	0x3f463d8e	0.77437675
89	0x3efaa10d	0.48950997
90	0x3f13ae84	0.57688165
91	0x3ebcd5ef	0.36881968
92	0x3ec8f5d4	0.39250052
93	0x3ebaa7a8	0.36456037
94	0x3e9e9004	0.3096925
95	0x3ea62c52	0.3245569
96	0x3ee4c705	0.4468309
97	0x3ebf2820	0.373353
98	0x3eafb4f4	0.34317744
99	0x3ed5884d	0.41705552
100	0x3efc242a	0.4924634
101	0x3ea5bce1	0.32370666
102	0x3ee11950	0.43964624
103	0x3ec36d04	0.3816911
104	0x3e90821e	0.28224272
105	0x3e2d3a46	0.16916761
106	0x3ed28ed5	0.41124597
107	0x3e8dd45f	0.2770109
108	0x3e949db1	0.2902656
109	0x3e36a427	0.17836057
110	0x3efd5cbe	0.4948482
111	0x3e7af2aa	0.24506631
112	0x3ea53292	0.32265145
113	0x3f3255a3	0.6966192
114	0x3ec2e5c3	0.3806592
115	0x3e96586f	0.29364344
116	0x3eeafbbe	0.4589519
117	0x3ec5fe49	0.38670567
118	0x3eae84c8	0.3408568
119	0x3ed22df3	0.4105068
120	0x3eb50a5c	0.35359466
121	0x3e6ec757	0.2331823
122	0x3f17202e	0.5903348
123	0x3ea058f8	0.31317878
124	0x3ee00081	0.43750384
125	0x3e585e39	0.21129693
126	0x3f35bb34	0.70988774
127	0x3ead5653	0.33854923
128	0x3ed5dcc6	0.4177
129	0x3c468bd0	0.012118295
130	0x3de03dbf	0.10949277
131	0x3e46caa2	0.19413236
132	0x3f0b9bdf	0.54534715
133	0x3f0e8fe1	0.5568829
134	0x3ee2a1c1	0.44264033
135	0x3d68b094	0.056809023
136	0x3f528da7	0.82247394
137	0x3eb35dc1	0.35032466
138	0x3eeda32c	0.46413553
139	0x3ebe6758	0.3718822
140	0x3eeaa772	0.45830876
141	0x3e9b0fbc	0.30285442
142	0x3ebe5d5c	0.37180603
143	0x3e9e93db	0.3097218
144	0x3e7e55ca	0.24837413
145	0x3ea0127e	0.31264108
146	0x3ee6e3ec	0.45095766
147	0x3f08773a	0.53306925
148	0x3edac0bf	0.4272518
149	0x3e7c9da4	0.2466951
150	0x3ea12af3	0.3147808
151	0x3ea0179e	0.31268018
152	0x3f0be0cb	0.5463988
153	0x3ef1db96	0.47237843
154	0x3eade284	0.3396188
155	0x3e8380ef	0.25684306
156	0x3f56d4fd	0.83918744
157	0x3e5f69f2	0.21817759
158	0x3e9e1180	0.30872726
159	0x3e5908ca	0.21194759
160	0x3ec6861b	0.3877419
161	0x3ea54449	0.3227866
162	0x3e6e815e	0.23291537
163	0x3e7ef245	0.24897106
164	0x3f17dba1	0.593195
165	0x3e9223ac	0.2854284
166	0x3e11649a	0.14198533
167	0xba5b6851	-0.00083697314
168	0x3eb42849	0.35186985
169	0x3ed4723e	0.4149341
170	0x3ef17b29	0.47164276
171	0x3f0acb80	0.54216766
172	0x3f69ef7a	0.9138104
173	0x3e9024fc	0.28153217
174	0x3f09aa4b	0.5377547
175	0x3ef58f3a	0.47960836
176	0x3eb0deeb	0.34545073
177	0x3eb46da0	0.35239887
178	0x3f10d6c8	0.5657773
179	0x3ec18da3	0.37803373
180	0x3f0c4224	0.5478842
181	0x3ee07de1	0.43846038
182	0x3e9f5a9b	0.31123814
183	0x3eb751c6	0.35804576
184	0x3f0ae694	0.54258084
185	0x3e953676	0.29143113
186	0x3e8f649e	0.28006452
187	0x3ebdd58c	0.37076986
188	0x3dbc3052	0.09188904
189	0x39cf5e5f	0.0003955243
190	0x3ec00bb1	0.3750892
191	0x3ebcd2c4	0.3687955
192	0x3e98eff1	0.2987056
193	0x3f5de5b9	0.86678654
194	0x3f0ce432	0.550357
195	0x3e84fcc6	0.259741
196	0x3ea594f1	0.32340196
197	0x3dac707e	0.08419894
198	0x3ec39267	0.38197634
199	0x3f1de23f	0.6167335
200	0x3de92aea	0.11385138
201	0x3b9c12de	0.0047629913
202	0x3e6aa51d	0.22914548
203	0x3fa8c208	1.3184214
204	0x3f04bc33	0.5184967
205	0x3f0d1b46	0.5511974
206	0x3e9d394b	0.30707774
207	0x3edde73f	0.4334049
208	0x3e1a8fe5	0.15093954
209	0x3eb4c570	0.35306883
210	0x3ec4456d	0.38334218
211	0x3b48a888	0.003061803
212	0x3e840c08	0.2579043
213	0x3f050319	0.5195785
214	0x3ec6b20f	0.38807723
215	0x3e4c746b	0.19966285
216	0x3e4109e0	0.18851423
217	0x3eb07532	0.34464413
218	0xbb5c5acc	-0.0033623455
219	0x3f6293fe	0.8850707
220	0x3eae83d4	0.34084952
221	0x3ebb7ed6	0.36620206
222	0x3e8780d8	0.26465487
223	0x3f4f3c09	0.8095098
224	0x3c9c6f5c	0.019096069
225	0x3f10f496	0.5662321
226	0x3eb43fb1	0.35204843
227	0x3eb87d30	0.3603301
228	0x3f566af5	0.83756953
229	0x3e651720	0.22372103
230	0x3efa5bea	0.4889825
231	0x3f157ab4	0.58390355
232	0x3f42060a	0.75790465
233	0x3e58dc6e	0.21177837
234	0x3ed8a300	0.4231186
235	0x3e8211fd	0.2540435
236	0x3f20542b	0.6262843
237	0x3e86e21c	0.26344383
238	0x3e941fd9	0.28930548
239	0x3f440d6c	0.7658298
240	0x3f550501	0.8321076
241	0x3ecd0ba4	0.40047944
242	0x3ed449f2	0.41462666
243	0x3ea835cb	0.3285354
244	0x3f98f596	1.1949947
245	0x3b26ff70	0.0025481842
246	0x3e756d58	0.23967493
247	0x3f3a4fe7	0.7277817
248	0x3d640475	0.055668313
249	0x3f1553bd	0.583309
250	0x3f254bc3	0.6456873
251	0x3eb86ce0	0.36020565
252	0x3f128b5b	0.5724389
253	0x3e99c25a	0.3003109
254	0x3eed8024	0.46386826
255	0x3f020024	0.50781465

bn1.bias f4 [400]
0	0xbc94202f	-0.018081753
1	0xbec7f02f	-0.39050433
2	0xbe61ee36	-0.22063527
3	0xbe8b4766	-0.2720291
4	0xbf22ae42	-0.63547146
5	0x3e6a6aa1	0.22892238
6	0xbe9f722d	-0.31141797
7	0xbf170c59	-0.59003216
8	0xbeb3110b	-0.3497394
9	0xbf087459	-0.5330253
10	0xbdac7f32	-0.08422698
11	0xbeee8cdb	-0.4659184
12	0xbef44559	-0.47709158
13	0xbf488f86	-0.78344
14	0xbf1cf000	-0.6130371
15	0xbed826c8	-0.42217088
16	0xbeb821b9	-0.35963228
17	0xbf1f812e	-0.6230649
18	0xbf0e23e1	-0.55523497
19	0xbf02c008	-0.51074266
20	0xbf14c6ab	-0.58115643
21	0xbf07f814	-0.5311291
22	0xbee5f860	-0.44916058
23	0xbf014c18	-0.50506735
24	0xbf582102	-0.84425366
25	0xbda31524	-0.07963017
26	0xbf2875c1	-0.6580468
27	0xbeaf1774	-0.3419758
28	0xbf0a7216	-0.5408033
29	0xbdd39af9	-0.10332293
30	0xbe4b9b82	-0.1988354
31	0xbd874216	-0.06604402
32	0xbedee576	-0.4353444
33	0xbf242aaa	-0.641276
34	0xbf0c794d	-0.5487259
35	0xbec422b1	-0.38307717
36	0xbf0a56ef	-0.540389
37	0xbf432eb4	-0.7624314
38	0xbec40da9	-0.38291672
39	0xbee4825b	-0.44630703
40	0xbe6b0e38	-0.22954643
41	0xbf01d631	-0.50717455
42	0xbed7046d	-0.41995564
43	0xbf01c98b	-0.50698155
44	0xbef84ecc	-0.48497617
45	0xbe0ce3a8	-0.13758719
46	0xbf808e64	-1.0043454
47	0xbe8e846e	-0.2783541
48	0xbe92fbe9	-0.28707817
49	0xbe1d5497	-0.153643
50	0xbeb737f8	-0.35784888
51	0xbd69686a	-0.056984343
52	0xbf2d9fab	-0.6782176
53	0xbf4593d4	-0.7717869
54	0xbe248bd6	-0.16068968
55	0xbe874df6	-0.26426667
56	0xbf213536	-0.6297182
57	0xbc87dfc7	-0.016586198
58	0xbf101be6	-0.5629257
59	0xbea824d9	-0.32840613
60	0xbf49f573	-0.7889015
61	0xbe7779f9	-0.24167623
62	0xbf1144ed	-0.567458
63	0xbf2fb577	-0.6863627
64	0xbe7b57f2	-0.24545267
65	0xbf182ee9	-0.5944658
66	0xbd05d129	-0.032670174
67	0xbee23e8b	-0.44188341
68	0xbf11b2e0	-0.56913567
69	0xbf2987ff	-0.6622314
70	0xbf387839	-0.72058445
71	0xbf130b93	-0.57439536
72	0xbf1e5d99	-0.6186157
73	0xbf440042	-0.76562893
74	0x3d684b15	0.05671223
75	0xbf059c1e	-0.5219134
76	0xbe6f024f	-0.23340724
77	0xbebbee3b	-0.36705193
78	0xbe71e4bb	-0.2362241
79	0xbdc3ee02	-0.09566881
80	0xbed24062	-0.41064745
81	0xbf1bb233	-0.60818785
82	0xbf51f7c7	-0.82018703
83	0xbc82efa2	-0.015983406
84	0xbe24a884	-0.16079909
85	0xbef3dddc	-0.47630203
86	0xbf46c274	-0.7764046
87	0xbc8de054	-0.017318882
88	0xbf38f08f	-0.72242063
89	0xbf176b50	-0.5914812
90	0xbec31163	-0.38099203
91	0xbf026a94	-0.50943875
92	0xbefa4800	-0.48883057
93	0xbf00b12a	-0.5027033
94	0xbe5bc0f2	-0.21460322
95	0xbe548e65	-0.20757444
96	0xbf00d5de	-0.50326335
97	0xbe684fb6	-0.22686657
98	0xbf049f80	-0.5180588
99	0xbf1bd213	-0.6086742
100	0xbeb64137	-0.3559663
101	0xbe88fc50	-0.26755
102	0xbde6f8fa	-0.11277957
103	0xbec3352a	-0.38126498
104	0xbd952373	-0.07282152
105	0xbf07c0bc	-0.53028464
106	0xbf2c237f	-0.6724166
107	0xbecefb0f	-0.40425918
108	0xbee79921	-0.45234016
109	0xbcbc7133	-0.023003196
110	0xbed52275	-0.4162785
111	0xbe8a3910	-0.2699666
112	0xbed3cdd8	-0.41367984
113	0xbf18c615	-0.5967725
114	0xbec5c53f	-0.3862705
115	0xbea49620	-0.32145786
116	0xbf075aae	-0.5287274
117	0xbf0740fe	-0.52833545
118	0xbf08f7a8	-0.53502893
119	0xbed82beb	-0.42221007
120	0xbe760528	-0.24025404
121	0xbe864921	-0.26227668
122	0xbf312270	-0.6919317
123	0xbf17d3b1	-0.5930739
124	0xbec28cf9	-0.3799818
125	0xbdc9aff2	-0.09848012
126	0xbf17daf0	-0.5931845
127	0xbf26a2c3	-0.65092105
128	0xbe48ec7d	-0.19621463
129	0xbd470538	-0.04858896
130	0xba60947b	-0.0008567047
131	0xbe5e8af8	-0.217327
132	0xbf0c4663	-0.547949
133	0xbf4791b3	-0.77956694
134	0xbee0c43b	-0.43899712
135	0xbe3daac3	-0.18522172
136	0xbea4d5bf	-0.32194325
137	0xbeeacd14	-0.45859587
138	0x3ea2f23f	0.31825444
139	0xbeb6fada	-0.3573826
140	0xbf06408e	-0.5244225
141	0xbe593642	-0.21212104
142	0xbf26ba18	-0.65127707
143	0xbecd9c88	-0.40158486
144	0xbe8c66e4	-0.2742225
145	0xbe9eb73c	-0.30999172
146	0xbec9c4d7	-0.3940799
147	0xbf53757a	-0.8260113
148	0xbeea794e	-0.45795673
149	0xbe5d8a97	-0.21634899
150	0xbdb9aa5f	-0.09065699
151	0xbd22ac1e	-0.039714925
152	0xbf4167e2	-0.7554914
153	0xbed9316c	-0.42420518
154	0xbf265333	-0.649707
155	0xbec5f464	-0.38663018
156	0xbf398f34	-0.72484136
157	0xbee3b3c5	-0.4447309
158	0xbe761fd2	-0.24035576
159	0xbd635f6c	-0.055510923
160	0xbf042d39	-0.51631504
161	0xbe19214a	-0.14954105
162	0xbe564266	-0.20923766
163	0xbe149078	-0.14508235
164	0xbee58d29	-0.4483426
165	0xbecb8f11	-0.39757589
166	0xbdce38a2	-0.100693956
167	0xbc57123e	-0.013126908
168	0xbeeb20af	-0.45923373
169	0x3dcedfb2	0.1010126
170	0xbf19c7bc	-0.60070395
171	0xbf32e873	-0.6988594
172	0xbf22f761	-0.6365872
173	0xbeab3076	-0.3343541
174	0xbf093ae7	-0.536055
175	0xbef9934a	-0.48745185
176	0xbe560252	-0.20899323
177	0xbf23d2af	-0.6399335
178	0xbf583c06	-0.8446659
179	0xbeadcc55	-0.33944955
180	0xbf6eac6c	-0.93231845
181	0xbf6e712c	-0.93141437
182	0xbef2b85c	-0.4740628
183	0xbf1f7259	-0.62283856
184	0xbf487f45	-0.783192
185	0xbe78e21a	-0.24305001
186	0xbe954dc0	-0.2916088
187	0xbed4c4fb	-0.41556534
188	0xbecf7b98	-0.40523982
189	0xbb50aff5	-0.003184316
190	0xbf0def44	-0.55443215
191	0xbefa3dc4	-0.48875248
192	0xbead626b	-0.3386415
193	0xbea77ff0	-0.32714796
194	0xbefb7e3a	-0.4911974
195	0xbedb9eb5	-0.4289452
196	0xbe9b4729	-0.30327728
197	0xbe847b90	-0.2587552
198	0xbe6dfab1	-0.23240162
199	0xbf19e1b8	-0.60110044
200	0xbcbac474	-0.022798754
201	0xbd07a7c9	-0.033118997
202	0xbef8767c	-0.48527896
203	0xbeb4afbc	-0.35290325
204	0xbf250ea2	-0.6447545
205	0xbf3c4308	-0.7353978
206	0xbe513620	-0.20430803
207	0xbec5ca2e	-0.38630813
208	0xbd9b98f5	-0.075975336
209	0xbebfc25b	-0.3745297
210	0xbe1c5957	-0.15268455
211	0xbca39ae0	-0.019971311
212	0xbe43abb2	-0.19108465
213	0xbf3c473f	-0.7354621
214	0xbf07519a	-0.5285889
215	0xbda6c318	-0.0814268
216	0xbdaa902c	-0.0832828
217	0xbf2c1eee	-0.67234695
218	0xbcc6eca5	-0.024282763
219	0x3e1e550c	0.1546213
220	0xbe92bbce	-0.2865891
221	0xbec46f88	-0.38366342
222	0xbe5ef3bd	-0.21772666
223	0x3efa5f1f	0.48900697
224	0xbd96dcf9	-0.07366366
225	0xbf428bad	-0.7599438
226	0xbf14e792	-0.5816585
227	0xbd6daf8f	-0.058028754
228	0xbf3ea419	-0.74469143
229	0xbe81d30d	-0.2535633
230	0xbf28cebe	-0.65940464
231	0xbf5f64d6	-0.8726324
232	0xbf0bd839	-0.54626805
233	0xbe909f9a	-0.28246766
234	0xbf3734dd	-0.7156504
235	0xbef8abbf	-0.48568532
236	0xbed30b6c	-0.41219652
237	0xbe593b41	-0.2121401
238	0xbecc273d	-0.39873686
239	0xbf15e6b9	-0.5855518
240	0xbf29f6e1	-0.6639233
241	0xbef0494c	-0.4693092
242	0xbf14aa53	-0.58072394
243	0xbef1f657	-0.47258255
244	0xc00bcfa3	-2.1845481
245	0xbd9b5f7e	-0.07586573
246	0xbdc930ea	-0.09823783
247	0xbe28fc29	-0.16502441
248	0xbe33382d	-0.17501898
249	0xbee81db7	-0.4533517
250	0xbef65a23	-0.48115644
251	0xbd976e89	-0.0739413
252	0xbf1533b6	-0.5828203
253	0xbe05b652	-0.13057831
254	0xbea538ed	-0.32269993
255	0xbf203f51	-0.62596613

bn1.running_mean f4 [400]
0	0xc1b1f767	-22.245802
1	0xc054ca83	-3.3248603
2	0x400a8900	2.1646118
3	0x41cab5a1	25.338686
4	0xc0c300f5	-6.093867
5	0xbda2d8b6	-0.079514906
6	0xc20f66ca	-35.85038
7	0x4100f40e	8.059584
8	0x4186580f	16.792997
9	0xc1e8a62b	-29.081137
10	0x40f9be78	7.8045006
11	0x41a073c9	20.056536
12	0xc1803da7	-16.030104
13	0x419ddfcd	19.734278
14	0xc126eb75	-10.432485
15	0xbf015495	-0.50519687
16	0x3ed519b4	0.41621172
17	0xc0104546	-2.254228
18	0x413a60f1	11.648667
19	0xc02cd196	-2.700292
20	0x408de12a	4.433736
21	0x40fb520a	7.8537645
22	0x417ceda0	15.808014
23	0xc0da8840	-6.829132
24	0xc20d7c06	-35.371117
25	0xbfca44e0	-1.5802269
26	0x4107cd1d	8.4875765
27	0x416e945b	14.91122
28	0x420bc810	34.945374
29	0x40a8ece3	5.278917
30	0x3fd46970	1.6594677
31	0xbf4e1fc4	-0.8051722
32	0x41d26684	26.300056
33	0xc1c3d612	-24.479527
34	0x3ea60809	0.32428005
35	0x41719efb	15.101314
36	0x413e2ab2	11.885424
37	0xc1bab1eb	-23.336874
38	0xc1bf70dd	-23.930109
39	0x41d4896a	26.567097
40	0x40defaf9	6.9681363
41	0x41d290b3	26.320654
42	0x41d75183	26.9148
43	0xc12acc7b	-10.674922
44	0x40eaae1d	7.333754
45	0xc00ac0e9	-2.1680243
46	0x3fcb4783	1.5881199
47	0x41e6cda0	28.850403
48	0x3fa4d619	1.2877837
49	0x40c1e52e	6.059226
50	0x4220ffb8	40.249725
51	0x41aebfbb	21.843618
52	0x417bac92	15.729631
53	0xbf95510d	-1.166536
54	0x41ae285b	21.769705
55	0x421ab341	38.675053
56	0x40625c2c	3.5368757
57	0xbe696ab3	-0.22794609
58	0xc1dfcbd2	-27.974522
59	0x3f808460	1.0040398
60	0x410d57d4	8.833942
61	0xc13b54f6	-11.708242
62	0xc0e8ed1c	-7.278944
63	0xc07e70a8	-3.975626
64	0xc19f8c8e	-19.94363
65	0x41b8c44b	23.095846
66	0xbf700174	-0.9375222
67	0x416d51ac	14.832439
68	0x41ac683c	21.550896
69	0xc016de8b	-2.357333
70	0xc0fb49a7	-7.852741
71	0xc095ce02	-4.6813974
72	0x40cc9360	6.39299
73	0x419cceef	19.601042
74	0x401708df	2.3599164
75	0x3f8c2a69	1.0950443
76	0x40a13e96	5.03889
77	0x40fbb4f2	7.865838
78	0x41f354b3	30.416357
79	0x3eabf607	0.3358614
80	0xc0ec053a	-7.375638
81	0x418eed96	17.866009
82	0xc121eff3	-10.121081
83	0x41a9097f	21.129637
84	0x414b6962	12.713228
85	0xc187e96c	-16.988976
86	0xc0d8d8b0	-6.776451
87	0xbda752e1	-0.08170105
88	0x4129790b	10.5920515
89	0x419cfcb4	19.62339
90	0x414ce3d6	12.805624
91	0x40e71f95	7.222605
92	0xc0e4e093	-7.152414
93	0xc1a3717d	-20.430414
94	0x41c1a67c	24.206291
95	0x4112d5e5	9.17722
96	0xc17a8192	-15.656633
97	0x3f818133	1.0117553
98	0xc19088e0	-18.066833
99	0x40eac295	7.3362527
100	0x41953dcb	18.655172
101	0x414b4590	12.704483
102	0x41bb9b01	23.450686
103	0x41ccc8cd	25.598047
104	0x41d51dee	26.639614
105	0x418ac83c	17.34777
106	0x41285d92	10.522844
107	0xc0747b89	-3.82004
108	0xbfaaadea	-1.3334324
109	0x400e7dcd	2.2264283
110	0x4179d39f	15.614165
111	0xc17fe3ab	-15.993083
112	0xc1cc3b37	-25.528913
113	0x40e89376	7.2680006
114	0x41d0868e	26.0657
115	0x420f7ff8	35.87497
116	0x40931268	4.595997
117	0xc1c14bc2	-24.161991
118	0x417d6468	15.837013
119	0xc09e75f4	-4.9518986
120	0xc0f31ea4	-7.5974903
121	0xc1b24eab	-22.288412
122	0x4147b4ee	12.481672
123	0xc18c4097	-17.531538
124	0xc030e989	-2.7642539
125	0x41a2d74b	20.355124
126	0x41199f42	9.601381
127	0xc16d8cda	-14.846888
128	0x4133b35d	11.23129
129	0xc0a734b6	-5.2251844
130	0x41a0bd86	20.09254
131	0xc182b88f	-16.340117
132	0x41321e83	11.132449
133	0xc18b5fde	-17.42181
134	0x3f806a1a	1.003238
135	0x41ab0b69	21.380571
136	0x40aaacaf	5.3335795
137	0xc18145f4	-16.159157
138	0x40eb6f18	7.3573112
139	0x41f81418	31.009811
140	0x41f34bb1	30.411959
141	0x40bfa830	5.9892807
142	0x417a0a01	15.627442
143	0x41bf5d03	23.920416
144	0xc0c05943	-6.010896
145	0x41e3ed32	28.490818
146	0x419a2bc9	19.27138
147	0x419aae58	19.335129
148	0x412d721b	10.840358
149	0x41a50f92	20.632603
150	0x41191617	9.567893
151	0x3fe93a67	1.8220948
152	0xc146ab10	-12.416763
153	0x41c40602	24.502934
154	0xc1834613	-16.409216
155	0xc1a54f1b	-20.663626
156	0x403cad93	2.9480941
157	0xc20a4c83	-34.57472
158	0x411f5dd6	9.960409
159	0x41891bb7	17.138533
160	0xc0f71954	-7.721842
161	0x41338418	11.219749
162	0xc125bb2e	-10.358198
163	0x41bc9930	23.574799
164	0xc0db7107	-6.8575473
165	0xc1e27b1f	-28.310118
166	0x41e674a7	28.80696
167	0xbe65ced1	-0.22442175
168	0x40f59e34	7.675562
169	0x418e7e88	17.811783
170	0xbf88550e	-1.0650957
171	0x3cf00502	0.029299263
172	0x40579a23	3.3687828
173	0x400fd614	2.2474413
174	0xc1a4346c	-20.525597
175	0x41ae8a14	21.817421
176	0x4241a3a8	48.40982
177	0x3f85b087	1.0444497
178	0x410ea702	8.915773
179	0xc1aa785e	-21.308773
180	0xc1a4c34e	-20.595364
181	0xc1a77f08	-20.937027
182	0xc0c04d4c	-6.0094357
183	0xc0946120	-4.636856
184	0x3f1e20dd	0.61768895
185	0xc1009e7a	-8.038691
186	0x41b07676	22.057842
187	0xc1de11e8	-27.758743
188	0x4119ea56	9.619711
189	0xbf1f3596	-0.6219114
190	0xbf8b14d7	-1.0865735
191	0x4102cdb4	8.1752205
192	0xc1d43ef9	-26.530748
193	0x401bec37	2.4362924
194	0x4189c851	17.22281
195	0xc1ad0da8	-21.631668
196	0x421e8e6c	39.639084
197	0xc11ed194	-9.926167
198	0x3e4a3e93	0.19750433
199	0x4162a6b8	14.165703
200	0x408c3dee	4.38256
201	0xc0cfa1df	-6.4885097
202	0x40d5c644	6.6804523
203	0x3eeb1a06	0.45918292
204	0x4080f0ff	4.0294185
205	0x40ae23aa	5.4418535
206	0x41cb13ed	25.38473
207	0x411867e1	9.525361
208	0x419d1368	19.634476
209	0xc1f5d3f4	-30.728493
210	0xc00ef439	-2.2336562
211	0xbef9c25f	-0.48781106
212	0xbfd26fc5	-1.6440359
213	0x41541c42	13.256899
214	0xc19fd926	-19.98103
215	0x416201c4	14.125431
216	0xc0ab2764	-5.3485584
217	0xc1a73c4b	-20.90444
218	0x3fcd3477	1.6031636
219	0x3da841cd	0.082156755
220	0x416988ef	14.595931
221	0x4112c822	9.173861
222	0x41aff277	21.993391
223	0x41757ec8	15.343452
224	0x3fda8228	1.707097
225	0xc165aa2f	-14.354049
226	0x3fcb52ca	1.588464
227	0xc0d67db1	-6.702843
228	0x3e85f91f	0.26166627
229	0xc13ea984	-11.916386
230	0x40d078e5	6.5147576
231	0x410d476f	8.82994
232	0x417a223d	15.633359
233	0x4197f17f	18.992918
234	0x40e786aa	7.2351885
235	0xbf9d93ec	-1.2310767
236	0xc0f8747b	-7.764219
237	0x409e11c7	4.93967
238	0xc1777bdb	-15.467738
239	0x40879e21	4.238053
240	0xc0e09eb1	-7.0193715
241	0x40ab8794	5.3603
242	0xc146e171	-12.430039
243	0xc016de3b	-2.3573139
244	0x40201b6b	2.5016735
245	0xbe9d4eb3	-0.30724105
246	0xc0bbacba	-5.864835
247	0x3fe39b20	1.7781715
248	0x412574a8	10.340981
249	0x400dd50f	2.216129
250	0x3ea41c4e	0.32052845
251	0x3e87d8b6	0.26532525
252	0xc0eb1ee2	-7.34752
253	0x413d52e2	11.832735
254	0x418b908a	17.445576
255	0x419ab823	19.33991

bn1.running_var f4 [400]
0	0x42f7e4e6	123.94707
1	0x42bead60	95.33862
2	0x4343851d	195.51997
3	0x4363dba2	227.85794
4	0x42de470d	111.13877
5	0x45dd8bc2	7089.4697
6	0x43026aa7	130.41661
7	0x427c0e3a	63.013893
8	0x42f1329a	120.59883
9	0x43a13bd6	322.46747
10	0x41b92090	23.1409
11	0x439ce596	313.79364
12	0x43730080	243.00195
13	0x438c5f16	280.74286
14	0x42b3a925	89.83036
15	0x415fb9f7	13.982902
16	0x41e98ef4	29.194801
17	0x43041128	132.06702
18	0x429d2f89	78.59284
19	0x43af5283	350.64462
20	0x43764b52	246.29422
21	0x4275ee6e	61.48284
22	0x42a34ac1	81.646
23	0x42cd5163	102.65896
24	0x4356afe7	214.68712
25	0x41781fe9	15.507791
26	0x423d1b00	47.276367
27	0x43bf4cfb	382.6014
28	0x43a25614	324.6725
29	0x42c02c6a	96.08675
30	0x42c8a89c	100.329315
31	0x43ecc0a0	473.50488
32	0x43543211	212.19557
33	0x43f71d40	494.22852
34	0x41d336f7	26.401838
35	0x43e34d72	454.60504
36	0x42bbe559	93.947945
37	0x4401b7b6	518.8705
38	0x435333c4	211.20221
39	0x42c67c84	99.243195
40	0x434f8fd4	207.56183
41	0x43327a43	178.47758
42	0x4418c26a	611.0377
43	0x440da61b	566.5954
44	0x431a7627	154.46153
45	0x43cd135b	410.1512
46	0x420cc04d	35.187794
47	0x43bc5b70	376.71436
48	0x439e0cd5	316.10025
49	0x43601fd5	224.12434
50	0x44259643	662.34784
51	0x439687f4	301.06213
52	0x4398e071	305.75345
53	0x44219c8c	646.44604
54	0x428fa430	71.82068
55	0x4373e3a8	243.88928
56	0x4195fde5	18.748972
57	0x401b22a8	2.4239902
58	0x42f68ad0	123.27112
59	0x4157df4a	13.492014
60	0x42946d3b	74.21334
61	0x438536b3	266.42734
62	0x43e32f5d	454.37003
63	0x444f969c	830.3533
64	0x43315497	177.33043
65	0x440d8a2b	566.1589
66	0x412756a9	10.458657
67	0x42b6cb74	91.39737
68	0x435aa346	218.63779
69	0x432c8d24	172.55133
70	0x42ff1b5a	127.55342
71	0x439d5190	314.6372
72	0x43a5838a	331.02765
73	0x4311f4a9	145.9557
74	0x42073750	33.804016
75	0x427d4170	63.313904
76	0x4297c0e3	75.87673
77	0x4406ec5c	539.6931
78	0x43017f2d	129.49678
79	0x40c9bacd	6.304053
80	0x4399e349	307.77567
81	0x44130c80	588.1953
82	0x43c83418	400.40698
83	0x4349b918	201.72302
84	0x431fa61e	159.6489
85	0x4339a2ae	185.63547
86	0x435e35d6	222.2103
87	0x4088088e	4.2510443
88	0x433c4090	188.2522
89	0x4304edf2	132.92947
90	0x425a523e	54.580315
91	0x42bd9e61	94.80933
92	0x42e1fd36	112.99455
93	0x43d8eda9	433.85672
94	0x42faca60	125.39526
95	0x436c0188	236.00598
96	0x43193ec2	153.24515
97	0x4390a6cc	289.3031
98	0x4316e8e0	150.90967
99	0x43966bac	300.8412
100	0x42bba206	93.81645
101	0x430dbfdd	141.74947
102	0x4269d6b9	58.45969
103	0x4305c6be	133.77634
104	0x435b0f82	219.06058
105	0x43e562a8	458.77075
106	0x4368e2ad	232.88545
107	0x43e0f9f7	449.95285
108	0x439a30d6	308.38153
109	0x4378184d	248.09492
110	0x42f72bee	123.5858
111	0x43474345	199.26277
112	0x4372d483	242.83012
113	0x42ca2932	101.08046
114	0x4483ba07	1053.8134
115	0x441f0e71	636.22565
116	0x451c5afd	2501.6868
117	0x435066e3	208.4019
118	0x4386af73	269.3707
119	0x432c71f6	172.44516
120	0x431300a0	147.00244
121	0x4374cf9d	244.81099
122	0x434b564d	203.33711
123	0x437c376b	252.21648
124	0x440b6df7	557.7182
125	0x438ee088	285.75415
126	0x430fe084	143.87701
127	0x438e6e6b	284.86264
128	0x428d49aa	70.643875
129	0x4320d103	160.81645
130	0x43955c92	298.7232
131	0x44035d85	525.46124
132	0x430aac2a	138.67252
133	0x439d6a88	314.83228
134	0x41b82eed	23.022913
135	0x4371f3f4	241.95294
136	0x42c325b9	97.57368
137	0x43c44db7	392.60715
138	0x4332bbb1	178.73317
139	0x435faaed	223.66768
140	0x4390e609	289.79715
141	0x4463def5	911.4837
142	0x44394e15	741.22003
143	0x4386f822	269.93854
144	0x4404f4b0	531.82324
145	0x4395b820	299.43848
146	0x4344746e	196.4548
147	0x439e94ab	317.16147
148	0x41b63050	22.77359
149	0x4363d9e5	227.85115
150	0x4295b7dd	74.85911
151	0x412921e3	10.570773
152	0x42a45182	82.159195
153	0x4373e4f9	243.89442
154	0x4316ba2d	150.72725
155	0x43e9f5fe	467.9218
156	0x42e18498	112.75897
157	0x439d6ad1	314.8345
158	0x43904ef8	288.61694
159	0x43565dc4	214.36627
160	0x43d02280	416.26953
161	0x42f44015	122.12516
162	0x43564dbc	214.30365
163	0x434e9c5d	206.6108
164	0x439b6200	310.76562
165	0x438ae5e7	277.7961
166	0x43c141d5	386.5143
167	0x4046b7eb	3.1049755
168	0x432adda0	170.86572
169	0x429eb0db	79.34542
170	0x43cecd6d	413.6049
171	0x41d2d958	26.356125
172	0x4113bbde	9.233366
173	0x4349d3b0	201.8269
174	0x4302c761	130.77882
175	0x43082aa4	136.16656
176	0x438702cb	270.02182
177	0x42f400ca	122.00154
178	0x416eaaac	14.916668
179	0x4419d697	615.35297
180	0x4388e021	273.751
181	0x43e60cd8	460.10034
182	0x4370952a	240.58267
183	0x434938ad	201.22139
184	0x424d6972	51.352974
185	0x4390ca49	289.58035
186	0x42bc9b2b	94.30306
187	0x43b490f0	361.13232
188	0x4411b10c	582.76636
189	0x40469ba0	3.1032486
190	0x43f4290c	488.32068
191	0x438f263e	286.29877
192	0x42aed2ca	87.4117
193	0x419246d4	18.284584
194	0x42aae4c8	85.44684
195	0x43b5d0c3	363.63095
196	0x43fbfcda	503.9754
197	0x436d90d5	237.56575
198	0x41599ec1	13.601258
199	0x42c93e96	100.62224
200	0x4408cd7f	547.2109
201	0x4271200e	60.281303
202	0x4414f4d4	595.82544
203	0x41260a32	10.377489
204	0x4418f076	611.7572
205	0x43778719	247.52773
206	0x43925e4b	292.73666
207	0x428dd240	70.910645
208	0x4412148a	584.3209
209	0x43d1f3bb	419.90414
210	0x4379eb96	249.92026
211	0x402ff0db	2.7490757
212	0x4407811e	542.01746
213	0x42c5e9e4	98.95682
214	0x43003e06	128.24228
215	0x43ac21a3	344.2628
216	0x43f6bfa9	493.49734
217	0x434068c8	192.4093
218	0x41c8d245	25.10267
219	0x410bbc18	8.733421
220	0x43e5fcaa	459.97394
221	0x4227a400	41.910156
222	0x43d3a266	423.26874
223	0x4223f001	40.98438
224	0x4012eda6	2.295755
225	0x4294c3b3	74.382225
226	0x43380499	184.01796
227	0x431c4916	156.28549
228	0x418f74df	17.932066
229	0x43f79491	495.16068
230	0x433fe049	191.87611
231	0x43f9d92c	499.69666
232	0x423c29af	47.040707
233	0x42d0b03a	104.34419
234	0x441a59e1	617.40436
235	0x43b0e3ec	353.78064
236	0x4290f31d	72.47483
237	0x433966f2	185.40213
238	0x438a57c0	276.68555
239	0x43660ad7	230.04234
240	0x42c14c88	96.649475
241	0x42d70dd3	107.527
242	0x433c1aa6	188.1041
243	0x43c334b6	390.4118
244	0x4137781f	11.466826
245	0x40244c25	2.5671475
246	0x42c31e18	97.55878
247	0x4137f5d9	11.497521
248	0x440d4167	565.0219
249	0x41422622	12.13431
250	0x421c3e5c	39.060898
251	0x42e181e3	112.753685
252	0x4313897b	147.53703
253	0x42a676b3	83.231834
254	0x4294667e	74.20018
255	0x43887010	272.8755

fc2.weight f4 [300, 402]
0	0xbd048f46	-0.0323632
1	0x3c7f26ce	0.015573217
2	0x3c977b8e	0.018491533
3	0xbd73332a	-0.059374966
4	0xbce3eb4b	-0.027822157
5	0x3c8f5a6f	0.017499177
6	0xbc49679c	-0.012292769
7	0xbd2bdc13	-0.041957926
8	0xbcc2f4a5	-0.023798296
9	0xbd88b6ba	-0.06675477
10	0xbb0f1ef1	-0.002183851
11	0xbaacaa48	-0.0013173306
12	0x3c65f4c0	0.014035404
13	0xbbaa800d	-0.005203253
14	0x3bcac857	0.006188433
15	0x3b950a71	0.004548364
16	0xbd6b6f57	-0.05747923
17	0xbd83b0ae	-0.06430183
18	0xbd05928f	-0.032610472
19	0x3c2f16b2	0.010686563
20	0x3cae6061	0.021286191
21	0x3c48bb94	0.012251753
22	0x3d0529f7	0.032510724
23	0xbd79bcf2	-0.060971208
24	0xbad5130e	-0.0016256289
25	0x3d351aa7	0.04421487
26	0xbd4c54e1	-0.049885634
27	0x3ce68771	0.028140755
28	0xbd64ada8	-0.055829674
29	0xbd3b41f5	-0.0457172
30	0x3c4ca669	0.012490847
31	0xbc889d0d	-0.01667645
32	0x3b07972b	0.0020689468
33	0x3cc97899	0.024593638
34	0xbc503acd	-0.012709332
35	0x3ce7795e	0.028256115
36	0x3cdf68cb	0.027271649
37	0xbca0997e	-0.01960444
38	0xbcdc8df8	-0.026923165
39	0x3c893250	0.016747624
40	0xba836001	-0.0010023118
41	0x3d1cf538	0.038319796
42	0xbd643b81	-0.05572081
43	0x3d23c075	0.039978463
44	0xbd448407	-0.047977474
45	0xbac0caa5	-0.001470883
46	0xbd223f13	-0.039610934
47	0xbd75b5a1	-0.059987668
48	0xbcf93d23	-0.03042466
49	0xbcd8ab78	-0.02644895
50	0xbd85ffcd	-0.06542931
51	0x3b249e09	0.002511861
52	0xbcb4ede1	-0.022086086
53	0xbd55c3b8	-0.052188605
54	0xbc9cb193	-0.019127643
55	0x3c1a00e7	0.009399629
56	0xbd860f1e	-0.06545852
57	0x3d0e1090	0.034683764
58	0xbcbb046a	-0.022829253
59	0xbd658593	-0.05603559
60	0x3d26cfa2	0.040725358
61	0x3b736fb5	0.003714544
62	0xbd86e407	-0.065864615
63	0xbd96e84a	-0.073685244
64	0xbd4bcfe4	-0.049758807
65	0x3c9a9a3e	0.018872377
66	0x3d2f10a2	0.04274047
67	0xbd238453	-0.039921116
68	0xbc7b44d1	-0.015336231
69	0xbd432068	-0.047638327
70	0xbc5370ed	-0.012905342
71	0x3d1a6ff8	0.037704438
72	0x3d331ec9	0.04373053
73	0xbd1bfe0e	-0.038084082
74	0xbd5a0007	-0.053222682
75	0x3c9fbadc	0.019498281
76	0xbd237240	-0.03990388
77	0xbd8d3ec1	-0.06896735
78	0x3c6528bf	0.013986765
79	0xbd2ee36b	-0.04269735
80	0xbd11142f	-0.03541964
81	0x3cd3c958	0.025852844
82	0xbd26edb3	-0.04075403
83	0xbcb2d020	-0.021827757
84	0x3d0592ae	0.032610588
85	0x3ca61c6a	0.02027722
86	0x39fb9b20	0.00047990028
87	0xb9b04880	-0.00033623353
88	0x3d2e24bc	0.0425155
89	0x3c98f196	0.018669885
90	0x3d1c95ea	0.038228907
91	0xbbdd232f	-0.006748579
92	0x3b969864	0.004595803
93	0xbd069dfa	-0.032865502
94	0xbd01a397	-0.031650152
95	0x3cedb32d	0.029016102
96	0xbb06fc27	-0.0020597072
97	0xbd215cef	-0.03939527
98	0x3d2cd6c4	0.042197004
99	0x3c8b4edf	0.017005382
100	0x3b861669	0.004092027
101	0xbd36840e	-0.04455953
102	0xbb07743c	-0.0020668646
103	0xbca8a5c2	-0.020586852
104	0x3c22fc4e	0.009947849
105	0xbd38db30	-0.04513091
106	0xbd587f40	-0.05285573
107	0x3d230c39	0.03980658
108	0x3c4c538e	0.012471093
109	0xbcec23fd	-0.028825754
110	0xbba0b984	-0.0049049277
111	0x3c2904a4	0.010316048
112	0xbcb4dd82	-0.02207828
113	0x3d24623a	0.04013274
114	0xbd3f0b8b	-0.046641868
115	0xbcdadab0	-0.026715606
116	0x3d012696	0.03153094
117	0xbd2d0052	-0.042236634
118	0xbc2f6463	-0.010705086
119	0xbd84782b	-0.06468233
120	0xbd46c46b	-0.048527163
121	0xbd22e2e1	-0.03976715
122	0x3c946b57	0.01811759
123	0x3d035cd1	0.03207094
124	0x3cd39b33	0.02583084
125	0xbd7fb1b0	-0.062425315
126	0x3c905f60	0.017623603
127	0x3cffb4e0	0.031214178
128	0x3c797151	0.015224771
129	0xbd61c5d7	-0.055120315
130	0x3c8e6f80	0.017387152
131	0xbc2af537	-0.01043444
132	0x3b36041d	0.0027773448
133	0xbc89303d	-0.016746635
134	0x3a87a5ae	0.0010349059
135	0xbbb8a10e	-0.0056344336
136	0xbd477c72	-0.048702665
137	0xbd283285	-0.041063804
138	0xbd9ba6a5	-0.07600144
139	0xbd6336eb	-0.055472296
140	0x3c0c3629	0.008557835
141	0xbc458a25	-0.012056862
142	0xbcc5dae5	-0.024152229
143	0xbc5c9cbf	-0.013465106
144	0xbcaf6ad5	-0.021413246
145	0xbd886378	-0.06659597
146	0xbd8118c5	-0.063035525
147	0xbbab7357	-0.0052322554
148	0x3cb3deed	0.021956885
149	0xbd55e7ef	-0.052223142
150	0xbbc436f6	-0.005987997
151	0xbb3d40c3	-0.0028877712
152	0x3d02d67b	0.031942826
153	0xbd8548c0	-0.065080166
154	0xbb52d961	-0.0032173025
155	0xbd621b8f	-0.055202063
156	0xbc52832f	-0.012848659
157	0xbc5b8a4a	-0.01339967
158	0xbc3c6a10	-0.011499897
159	0xbb72b6b8	-0.0037035178
160	0x3c440122	0.011963161
161	0xbc88927b	-0.01667141
162	0xbd11615b	-0.035493236
163	0xbcd8d383	-0.026468044
164	0xbc0148a0	-0.00789085
165	0xbc829368	-0.01593943
166	0xbd7795ec	-0.06044571
167	0x3a8187d9	0.0009882405
168	0xbd69584a	-0.056968965
169	0xbd3deb62	-0.046367057
170	0xbb2d54ff	-0.0026448367
171	0x3d19aa3c	0.037515864
172	0x3ac3bebb	0.0014934161
173	0x3c671389	0.014103779
174	0xbc066562	-0.0082028825
175	0xbd3534ae	-0.044239692
176	0xbb7e7320	-0.0038825944
177	0xbd3d0482	-0.046146877
178	0x3cb5c89a	0.02219038
179	0xbc30940c	-0.010777485
180	0x3d02dab9	0.03194687
181	0xbd8c1a88	-0.06840998
182	0x3d30fdab	0.043210667
183	0x3d05614f	0.032563504
184	0x3b29dc02	0.0025918488
185	0xbbbfb7d7	-0.005850773
186	0xbc973284	-0.018456705
187	0x3d0c351e	0.034230344
188	0x3c9a9684	0.0188706
189	0x3d3f1fdb	0.04666124
190	0xbc90980c	-0.017650627
191	0xbc9d1463	-0.01917476
192	0x3bc7a158	0.0060922317
193	0xbccc633d	-0.024949664
194	0x3c2e45af	0.010636731
195	0xbcaded57	-0.021231337
196	0x3b91f384	0.004454078
197	0xbd9bafcf	-0.07601892
198	0xbd05cb6c	-0.0326647
199	0xbd8046ce	-0.06263505
200	0xbcb17b32	-0.02166519
201	0xbcf1b247	-0.029503955
202	0xbc565eb2	-0.013084101
203	0xbd025ea6	-0.031828545
204	0x3b3e04c8	0.002899455
205	0xbb1d8cd5	-0.0024040241
206	0xbbed3095	-0.0072384574
207	0xba3e9c93	-0.0007271256
208	0x3cc61d63	0.024183935
209	0xbd809f66	-0.06280403
210	0x3c468006	0.012115484
211	0x3d0b8308	0.034060508
212	0xbc646f19	-0.013942503
213	0xbc808cc2	-0.015692119
214	0xbc20e604	-0.009820465
215	0xbd55aff2	-0.052169748
216	0xbd0d9adf	-0.034571525
217	0xbc81d351	-0.015847834
218	0xb958351d	-0.00020619151
219	0xbd7609d5	-0.06006797
220	0xbd14a215	-0.036287386
221	0xbd746f71	-0.05967659
222	0x3bc87310	0.006117232
223	0xba9dd257	-0.0012040836
224	0xbd031849	-0.032005582
225	0xbb3e9b19	-0.0029084145
226	0x3d0b5fc0	0.03402686
227	0xbd1be6af	-0.038061794
228	0xbbf05ec2	-0.0073355148
229	0x3c47d75e	0.012197344
230	0xbd9e51cb	-0.077304445
231	0x3bfc5d36	0.0077015413
232	0xbca07943	-0.019589072
233	0x3c30b8d0	0.01078625
234	0xbd6093a1	-0.05482829
235	0xbd938650	-0.072033525
236	0xbcd2f4c8	-0.025751486
237	0xbd3d8b49	-0.04627541
238	0xbc77ce61	-0.015124888
239	0xbd481f8e	-0.048858218
240	0xbc0019e1	-0.00781867
241	0x3ca1c0b2	0.019745205
242	0x3d408907	0.04700568
243	0x3b65feca	0.0035094493
244	0x3c4feec1	0.012691201
245	0x3cd2babd	0.02572381
246	0xbd145538	-0.036214083
247	0x3b6d7642	0.0036233817
248	0xbb980f90	-0.004640527
249	0xbb81c21b	-0.0039599068
250	0x3cf137a8	0.029445484
251	0xbd2c6ee3	-0.042097937
252	0x3bd4bd73	0.0064923107
253	0xbd0e5784	-0.03475143
254	0xbd8aa4d8	-0.06769723
255	0xbd37f8aa	-0.04491488
