p3_collab-compet/ddpg_actor_agent0.pth (torch_old, 163785 bytes, 10 tensors)

fc1.weight f4 [256, 24]
1.2102623 0.1590393 0.014245959 0.4335818 0.2778256 -0.72534573 -0.0022222474 0.40316612
1.0998871 0.2741869 0.5098612 -0.17404474 -0.18477364 -0.8289217 0.5241053 -0.12860356
0.8473771 0.01717301 0.2272549 -0.000766328 -0.5250254 -0.61218876 0.2203353 -0.03463933
1.004322 -0.19349566 -0.046339683 0.054519 -1.0731181 0.2759061 -0.033676263 0.027655102
0.77611816 -0.32796872 -0.16412851 0.016708694 0.36751968 0.078620985 -0.16062897 -0.03592181
1.1550375 -0.24030028 -0.025728043 -0.09529223 2.2760289 -0.22443123 -0.06518173 -0.1874109
-0.0863273 1.5076206 0.73549026 0.062815286 -0.7030304 0.51321155 0.66853887 -0.030712565
-0.13834438 1.0793569 0.052746467 -0.6918622 -0.22753197 1.3218787 0.03970746 -0.717554
-0.1618512 0.9922179 -0.2636916 -0.42949253 0.05177109 1.4655873 -0.21147059 -0.43605494
0.39531708 0.89144677 0.3855264 0.066433616 0.038092423 1.5309031 0.28806344 0.07379075
-0.22418183 0.8184973 0.12404235 -1.604388 0.1304975 1.1747862 0.2273319 -1.6754088
-0.68638086 0.7966359 -0.29788285 0.39294603 0.21191598 0.9718748 -0.23734105 0.35111997
0.24235626 0.16305952 -0.057286948 -0.09062236 -0.8907044 -1.0113443 0.023958817 -0.13067907
0.11641074 -0.03333851 -0.3557611 0.07988534 -1.0788108 -0.14005631 -0.38899386 0.110188015
-0.13881767 0.401329 -0.24760802 -0.04065149 -1.4626634 -0.47498047 -0.26899666 -0.086175196
-0.23792566 -1.0602015 -0.5201307 0.70960385 0.055848572 -0.5495506 -0.5658197 0.66212255
-0.83424616 -0.9688077 0.18782815 0.8823869 0.12721287 0.16457501 0.1358065 0.8418069
-1.0570873 -0.72167516 -0.16392477 0.71968246 0.25471145 0.32006848 -0.24283293 0.78472245
0.64823467 -1.1898574 -0.0048072236 -0.36022177 0.26613402 -0.62466204 -0.037468575 -0.26168895
0.48730972 -1.2694921 0.027079847 0.27808702 0.13408285 -0.99879235 0.13003899 0.24183187
0.67414874 -1.3729203 0.6201508 -0.5924725 -0.06382195 -1.0758681 0.6400125 -0.6475725
-0.1837171 -0.08367174 -0.57481563 -0.36814752 0.85385174 0.16770026 -0.5754983 -0.40990338
-0.36709446 0.20404488 -0.31161776 0.41908684 0.583195 -0.50639445 -0.35273758 0.42791012
-0.53436047 0.6065463 0.10397974 0.31274846 0.2850698 -1.4658345 0.0605793 0.388804
-0.36703983 -1.351154 -0.0948111 0.014834873 -0.34469363 2.4677308 -0.07953021 -0.01459937
-0.37737575 -0.96183604 0.05169038 0.065492496 0.005177755 1.4328272 0.003827996 0.053775303
-0.31908536 -0.80081093 -0.088132866 1.0414706 0.533851 0.5729693 -0.033288002 1.0718813
-0.7669571 0.1904096 0.049256716 -0.6723148 -0.4398341 0.485834 -0.029312309 -0.6714749
-0.69061905 0.15240987 0.07046947 -0.4594936 -0.61426055 1.2925469 0.093604825 -0.38783172
-0.3636348 -0.09813291 0.14801873 -0.020450795 -0.81397873 2.0442297 0.11598975 0.00092592515
0.6732393 -0.36495218 -0.15588692 -0.7627932 1.0039846 1.2301756 -0.2070408 -0.8076887
0.31298274 -0.26523298 0.22218066 -0.5598699 0.5110177 -0.31631997 0.16926506 -0.57990587
00000000: e0e9 9a3f 33db 223e e267 693c 6ffe dd3e
00000010: 283f 8e3e 42b0 39bf 20a3 11bb ca6b ce3e
00000020: 1ac9 8c3f 3a62 8c3e 4386 023f c938 32be
00000030: 4d35 3dbe 3634 54bf c42b 063f a7b0 03be
00000040: b5ed 583f 6aae 8c3c 82b5 683e 67e3 48ba
00000050: 1168 06bf 67b8 1cbf 949f 613e f8e1 0dbd
00000060: a08d 803f ba23 46be aece 3dbd 514f 5f3d
00000070: ef5b 89bf 9043 8d3e 1ff0 09bd f48c e23c
00000080: aeaf 463f 84eb a7be 4e11 28be ace0 883c
00000090: 8a2b bc3e 0a04 a13d ec7b 24be bf22 13bd
000000a0: 45d8 933f 4711 76be 9ec3 d2bc 9328 c3bd
000000b0: 75aa 1140 4dd1 65be 007e 85bd a5e8 3fbe
000000c0: 5ecc b0bd b6f9 c03f 1749 3c3f 4da5 803d
000000d0: cdf9 33bf d561 033f 5d25 2b3f eb98 fbbc
000000e0: 26aa 0dbe 5e28 8a3f ae0c 583d e21d 31bf
000000f0: 24fe 68be 5233 a93f 4aa4 223d 9eb1 37bf
00000100: 52bc 25be fe01 7e3f 9602 87be 72e6 dbbe
00000110: ec0d 543d 5d98 bb3f bf8b 58be 9842 dfbe
00000120: 0067 ca3e db35 643f b763 c53e 590e 883d
00000130: cd06 1c3d a2f4 c33f 0d7d 933e 9b1f 973d
00000140: ec8f 65be 0a89 513f ea09 fe3d 965c cdbf
00000150: 23a1 053e 655f 963f b2c9 683e cc73 d6bf
00000160: a8b6 2fbf 55f0 4b3f 1a84 98be 3930 c93e
00000170: 8100 593e c9cc 783f 8809 73be ffc5 b33e
00000180: 3d2c 783e 13f9 263e b8a5 6abd 3798 b9bd
00000190: 3405 64bf bb73 81bf 4845 c43c bcd0 05be
000001a0: c168 ee3d f68d 08bd 5226 b6be ed9a a33d
000001b0: 7916 8abf ec6a 0fbe 342a c7be 41aa e13d
000001c0: 3826 0ebe ff7a cd3e f58c 7dbe 2d82 26bd
000001d0: 8e38 bbbf a430 f3be eeb9 89be 9f7c b0bd
000001e0: c9a2 73be afb4 87bf 4927 05bf 99a8 353f
000001f0: 79c1 643d 59af 0cbf 8fd9 10bf dd80 293f
00000200: 2891 55bf c803 78bf 0656 403e 1ce4 613f
00000210: 1744 023e 5a86 283e dc10 0b3e a880 573f
00000220: a34e 87bf b4bf 38bf e5db 27be 1c3d 383f
00000230: 8a69 823e 04e0 a33e 32a9 78be 92e3 483f
00000240: b5f2 253f 3f4d 98bf ea85 9dbb fd6e b8be
00000250: b842 883e dae9 1fbf a678 19bd 18fc 85be
00000260: a980 f93e b87e a2bf 8ed6 dd3c 6c61 8e3e
00000270: 044d 093e dbb0 7fbf f128 053e c6a2 773e
00000280: 0395 2c3f dabb afbf 34c2 1e3f 47ac 17bf
00000290: 15b5 82bd 0cb6 89bf dcd7 233f 50c7 25bf
000002a0: 5620 3cbe 175c abbd 1e27 13bf d57d bcbe
000002b0: 0796 5a3f 9eb9 2b3e db53 13bf dbde d1be
000002c0: cef3 bbbe 24f1 503e 5d8c 9fbe 8d92 d63e
000002d0: 444c 153f 11a3 01bf 059a b4be 0917 db3e
000002e0: d9cb 08bf 9e46 1b3f 54f3 d43d 9120 a03e
000002f0: abf4 913e 77a0 bbbf 0022 783d 5111 c73e
00000300: a5ec bbbe 9df2 acbf 522c c2bd f80d 733c
00000310: af7b b0be 4def 1d40 bce0 a2bd 3232 6fbc
00000320: 6537 c1be e33a 76bf 4bb9 533d ee20 863d
00000330: 28aa a93b e266 b73f 1edf 7a3b 7e43 5c3d
00000340: 285f a3be f201 4dbf 017f b4bd e94e 853f
00000350: 76aa 083f 1eae 123f 0059 08bd 6833 893f
00000360: 4d57 44bf bcfa 423e 69c1 493d d31c 2cbf
00000370: ef31 e1be 3cbf f83e 5e20 f0bc c7e5 2bbf
00000380: 69cc 30bf 5511 1c3e 4c52 903d bf42 ebbe
00000390: 2e40 1dbf 2d72 a53f e3b3 bf3d e191 c6be
000003a0: 572e babe e8f9 c8bd 3992 173e 6d88 a7bc
000003b0: e960 50bf a9d4 0240 098c ed3d c9b9 723a
000003c0: 6959 2c3f 03db babe d2a0 1fbe 6a46 43bf
000003d0: 9182 803f 6576 9d3f 8102 54be b0c4 4ebf
000003e0: 463f a03e 9ecc 87be 5483 633e a253 0fbf
000003f0: 0ed2 023f b1f4 a1be d253 2d3e b674 14bf

fc1.bias f4 [256]
0.10469973 -0.14532444 0.14143163 -0.13626763 0.18271798 0.13885382 0.073131755 -0.19959512
-0.08182917 0.095457256 -0.1861957 0.09755292 -0.08221386 -0.14921698 -0.0022249438 0.03128087
0.1542584 -0.12991397 -0.16590752 -0.068876676 0.038805787 -0.090924524 -0.077730894 -0.071294956
0.08763144 0.026960293 0.17879957 0.12945943 -0.17681153 0.05275603 -0.17871308 -0.1872459
-0.07094075 0.20332636 0.018343367 -0.14680135 -0.18396215 0.15353103 0.1581729 -0.11326232
0.14203483 0.075394884 -0.10500493 0.062418997 0.007772198 -0.052576035 -0.052190065 0.15094987
0.08811697 0.08901997 0.059395824 0.13944119 -0.052245732 -0.0027952467 0.16877495 0.122421436
0.05067248 -0.103957735 -0.052453052 0.03210754 -0.12613994 0.09245606 -0.12683743 -0.1448856
0.073361576 -0.10093988 -0.20406888 0.12798274 -0.083303355 -0.077410296 -0.095007405 -0.116735555
-0.13712037 -0.08921958 -0.14928618 -0.017702436 0.06502767 -0.12702852 -0.19595268 0.07140327
-0.1127701 0.055879727 -0.015704157 0.04481122 -0.0023155676 -0.064142235 -0.15835227 0.14028613
0.09661656 0.021145152 0.17412354 0.18741512 -0.1642036 0.10251817 0.18749088 -0.011363658
-0.1932789 -0.074268654 0.018813414 -0.043144725 0.09799602 0.0794833 -0.19406775 0.027579011
0.0324622 0.13033116 0.026156053 0.11113055 0.04188148 -0.13570158 -0.15837519 -0.069620006
0.00080664456 -0.11912586 -0.18081222 0.17485337 0.022901261 0.07877683 -0.10360368 0.033769693
-0.016135056 0.10725368 -0.07439553 0.18176691 0.01060083 0.00854142 0.14320533 -0.006644669
0.05948446 -0.014171195 0.15763302 -0.19830658 0.1968121 -0.12018609 0.1994915 0.06909006
-0.12970552 -0.17443079 0.056062985 0.08289202 -0.13953578 0.13004898 -0.09326594 0.16135731
0.033330955 -0.17525609 0.03287963 -0.05402933 0.054019384 -0.07682117 0.17883211 -0.11639812
0.16771427 -0.20235543 0.14781202 -0.14119825 0.03793878 -0.05203613 -0.20317367 0.16050148
0.04837522 0.11351281 -0.09763097 -0.06315621 -0.09405905 -0.18840958 0.04453956 0.07429444
-0.024772132 -0.1327355 0.024348402 0.08767876 0.019347854 -0.20251806 0.100026004 0.14846799
-0.06654801 -0.044468526 0.0045134686 0.04155356 0.18108687 0.14567915 0.09111151 -0.13451503
0.12238571 0.09948502 0.19085291 -0.07897913 0.072016284 0.13468899 0.09561417 -0.020426417
-0.058687165 -0.037911505 0.11377631 -0.06448242 -0.20284823 -0.03286792 -0.18750647 -0.16005823
0.17616223 -0.12844005 0.118407704 -0.122778535 -0.20047444 0.0046147997 0.10510359 0.009532522
0.11730225 -0.008416616 -0.14539868 0.1247374 0.03501539 -0.11286393 -0.021016048 0.07205239
-0.043142006 -0.009179277 0.05151403 0.065343596 0.117385685 -0.05167271 0.060741995 0.047957283
-0.07835675 0.031393662 0.0071234386 -0.15016274 -0.18394369 0.1780036 -0.09328806 0.14952533
0.040998884 0.11565124 -0.02776668 -0.043126453 -0.07555704 -0.19411048 -0.0007196218 0.1719819
0.041061573 -0.068113364 -0.12924638 -0.047967687 -0.08467742 0.1248829 0.09222998 0.052764695
0.029888725 0.007269792 -0.10752662 -0.024717377 0.13034911 -0.026327284 0.07032978 -0.028336272
00000000: d06c d63d eecf 14be 74d3 103e be89 0bbe
00000010: 6c1a 3b3e b22f 0e3e 1ac6 953d aa62 4cbe
00000020: 0d96 a7bd 187f c33d 16aa 3ebe d3c9 c73d
00000030: bd5f a8bd 56cc 18be 5dd0 11bb 5f20 003d
00000040: eaf5 1d3e 2b08 05be a9e3 29be 370f 8dbd
00000050: d1f2 1e3d a336 babd 6031 9fbd 1703 92bd
00000060: 1d78 b33d d5db dc3c 3c17 373e 0391 043e
00000070: 150e 35be b516 583d 9000 37be 64bd 3fbe
00000080: 6249 91bd c934 503e d444 963c 1853 16be
00000090: 9360 3cbe 3d37 1d3e 14f8 213e 13f6 e7bd
000000a0: 9471 113e a268 9a3d d30c d7bd 10ab 7f3d
000000b0: ecad fe3b f859 57bd 40c5 55bd 9a92 1a3e
000000c0: ac76 b43d 1a50 b63d 0949 733d acc9 0e3e
000000d0: 9fff 55bd 7530 37bb 57d3 2c3e 17b8 fa3d
000000e0: f28d 4f3d cbe7 d4bd 03d9 56bd 3283 033d
000000f0: d42a 01be 9a59 bd3d ace1 01be e45c 14be
00000100: 983e 963d 91b9 cebd 6ff7 50be e80d 033e
00000110: f39a aabd 4a89 9ebd 3e93 c2bd 0d13 efbd
00000120: 4869 0cbe c1b8 b6bd 7ade 18be b304 91bc
00000130: 3a2d 853d c413 02be d2a7 48be e13b 923d
00000140: 03f4 e6bd 24e2 643d 01a6 80bc f88b 373d
00000150: c7c0 17bb 015d 83bd 1927 22be 2ba7 0f3e
00000160: e7de c53d 9938 ad3c 714d 323e c0e9 3f3e
00000170: fd24 28be 0cf5 d13d 9cfd 3f3e a32e 3abc
00000180: e7ea 45be 2a1a 98bd 971e 9a3c 86b8 30bd
00000190: 23b2 c83d 24c8 a23d b2b9 46be 61ed e13c
000001a0: 15f7 043d 8875 053e 3845 d63c 6a98 e33d
000001b0: ea8b 2b3d 5bf5 0abe 1b2d 22be ef94 8ebd
000001c0: 0075 533a 42f8 f3bd d726 39be c30c 333e
000001d0: 6d9b bb3c bf55 a13d 2b2e d4bd 1752 0a3d
000001e0: aa2d 84bc d1a7 db3d af5c 98bd 1b21 3a3e
000001f0: 1baf 2d3c 50f1 0b3c 6ba4 123e 86bb d9bb
00000200: faa5 733d 4d2e 68bc 8d6a 213e e110 4bbe
00000210: 1c89 493e 2024 f6bd 8047 4c3e 177f 8d3d
00000220: 86d1 04be fc9d 32be 4da2 653d 4bc3 a93d
00000230: 78e2 0ebe 8f2b 053e 3702 bfbd da3a 253e
00000240: 0a86 083d 5576 33be caac 063d dc4d 5dbd
00000250: 6e43 5d3d 6b54 9dbd c41f 373e 2362 eebd
00000260: 4abd 2b3e 4336 4fbe 095c 173e 4696 10be
00000270: b265 1b3d d623 55bd c20c 50be 805a 243e
00000280: 1825 463d 6779 e83d bff2 c7bd 0b58 81bd
00000290: 08a2 c0bd 71ee 40be 1d6f 363d af27 983d
000002a0: edee cabc d1eb 07be 4d76 c73c ec90 b33d
000002b0: 647f 9e3c e560 4fbe 6fda cc3d fe07 183e
000002c0: 534a 88bd a124 36bd b8e5 933b 1134 2a3d
000002d0: d66e 393e ea2c 153e ac98 ba3d 4fbe 09be
000002e0: 5ca5 fa3d cdbe cb3d f26e 433e cfbf a1bd
000002f0: 467d 933d e9eb 093e 5dd1 c33d 4d55 a7bc
00000300: f461 70bd 1849 1bbd 8e03 e93d 5c0f 84bd
00000310: 72b7 4fbe 83a0 06bd b201 40be 4ee6 23be
00000320: df63 343e ca85 03be bd7f f23d 5073 fbbd
00000330: 2c49 4dbe bf37 973b 8d40 d73d 4c2e 1c3c
00000340: 293c f03d d9e5 09bc 64e3 14be 5276 ff3d
00000350: 4c6c 0f3d 3425 e7bd d929 acbc 3490 933d
00000360: acb5 30bd ae64 16bc 6000 533d ddd2 853d
00000370: e867 f03d c3a6 53bd 99cc 783d db6e 443d
00000380: 8179 a0bd a496 003d bc6b e93b 43c4 19be
00000390: bc5b 3cbe 9346 363e cf0d bfbd 2b1d 193e
000003a0: 72ee 273d 8fda ec3d f376 e3bc 5da5 30bd
000003b0: a6bd 9abd e6c4 46be 00a5 3cba 061c 303e
000003c0: 2e30 283d 057f 8bbd 2a59 04be c479 44bd
000003d0: 5b6b adbd 9bc2 ff3d 12e3 bc3d cb1f 583d
000003e0: 33d9 f43c 6f37 ee3b eb36 dcbd 197c cabc
000003f0: 3d7a 053e 51ac d7bc 0f09 903d 7821 e8bc

bn1.weight f4 [256]
0.7254623 1.4857409 1.1318539 0.62768304 0.6344114 0.7163606 0.47187603 0.54770875
0.9978144 0.67799026 0.6630863 1.0774747 1.011457 0.79271525 0.70161027 0.57671887
0.93683845 0.6508703 1.0338181 0.92497694 1.2498809 1.1232876 0.013533957 1.1136001
0.7279045 0.81530404 0.77896583 0.51386315 0.70656276 0.5966699 0.5816206 1.3478103
0.47519046 0.6109864 0.8232847 0.7663227 1.0608791 1.8181348 0.6140258 0.9917761
0.76936144 0.57848525 0.75593984 0.68453985 0.8403302 0.78006655 0.44453686 0.61114556
1.1711868 0.9004251 1.2069358 0.7553446 0.617772 0.8932382 0.7991115 0.9711668
0.36538592 0.9418928 0.88322645 0.7961264 0.6979366 0.54052174 0.69278973 0.54075366
0.6402743 0.68071324 0.58478373 0.78502685 0.66356015 0.6399626 1.1570249 0.9667518
0.8856118 0.48671478 0.555545 0.77343 0.66593474 1.0544213 1.4248809 2.3569958
-0.0030105233 0.861512 0.5820765 0.70069927 1.2020284 1.2292628 0.368911 0.83500564
0.80168337 0.71416175 0.7845819 0.68638873 1.0696912 0.5324451 0.63946575 0.66176677
0.670486 0.66773176 1.3925672 0.7665106 0.75906765 0.48123854 0.851514 0.76931024
0.22677466 0.01227806 0.5909743 0.24277182 0.8801059 -0.5407686 0.78120285 0.6991339
0.61937994 1.0114175 0.012276686 1.127479 0.66335034 0.6739731 0.91023713 0.64926636
0.473671 1.9053714 0.5118522 1.0088507 0.0060312734 0.004682968 0.045535672 0.6428519
0.9901031 0.8250944 0.7197583 1.3316491 0.49900132 0.84930867 0.3515102 0.6775265
1.2689782 1.2191564 0.8693902 0.7763044 0.9295645 0.79269326 0.7495592 0.5518745
0.93167335 0.6381193 2.2773497 0.61181927 0.6556879 0.67988354 0.004085988 0.7235776
0.61308616 0.66954017 0.37586695 1.8443873 0.28425333 0.62751985 0.68881613 0.99783415
1.0299574 0.59266865 0.677363 0.51864755 0.5297506 0.00242182 0.6190545 0.8036808
0.6617564 0.9174056 1.1112628 1.2336518 0.7079989 0.7059494 0.68057877 1.0328951
0.9428596 0.6579466 1.4470228 0.7425203 0.560915 0.99032974 0.5374347 0.83624256
0.9822759 0.8317861 0.55313444 0.5133762 0.74738234 0.47334304 0.6175216 0.78892297
1.0035594 1.3076284 0.51108646 0.6720173 0.81919765 0.5710341 0.6330092 0.8228633
0.75168353 0.59103435 0.8060584 0.52294046 0.7300672 0.87180644 0.7969429 0.6187508
0.79288155 0.5664193 -0.0089369435 0.44071227 0.7224946 0.8880777 0.6253055 -0.002774669
1.1456214 0.69373953 0.82005125 0.6645817 0.5135272 1.4713699 0.47044203 1.2287183
0.5722261 0.6470322 1.1300312 0.8026137 2.4553025 1.3665286 0.7930777 1.2389433
0.72532916 0.5871809 0.6223654 0.84101635 0.92054826 0.71005934 -0.003465122 1.246196
0.41809535 0.6425804 -0.00047449337 0.9115644 0.80515397 0.62669593 0.85560685 0.88126606
0.7910018 0.66624814 0.018291732 0.7906167 0.7087751 0.8986098 0.7683963 0.5933524
00000000: e6b7 393f c22c be3f 97e0 903f d6af 203f
00000010: c968 223f 6963 373f bc99 f13e a436 0c3f
00000020: c470 7f3f c590 2d3f 06c0 293f b1ea 893f
00000030: 6c77 813f 63ef 4a3f bb9c 333f d9a3 133f
00000040: a5d4 6f3f 709f 263f 2754 843f 4acb 6c3f
00000050: 19fc 9f3f e3c7 8f3f 88bd 5d3c 738a 8e3f
00000060: f357 3a3f c4b7 503f 4e6a 473f 898c 033f
00000070: 4ce1 343f 5cbf 183f 16e5 143f 0c85 ac3f
00000080: 2a4c f33e 9b69 1c3f c9c2 523f b92d 443f
00000090: e3ca 873f a4b8 e83f cb30 1d3f 0ae5 7d3f
000000a0: dff4 443f 9c17 143f 4685 413f 013e 2f3f
000000b0: e11f 573f 71b2 473f 569a e33e 0974 1c3f
000000c0: 73e9 953f 4282 663f df7c 9a3f 445e 413f
000000d0: 4e26 1e3f 42ab 643f 9292 4c3f 639e 783f
000000e0: dd13 bb3e e31f 713f 211b 623f f1ce 4b3f
000000f0: f9ab 323f a25f 0a3f ab5a 313f d56e 0a3f
00000100: 04e9 233f 3943 2e3f 63b4 153f 85f7 483f
00000110: 14df 293f 97d4 233f 6419 943f 0c7d 773f
00000120: 74b7 623f ae32 f93e 3238 0e3f 82ff 453f
00000130: b37a 2a3f 47f7 863f 7f62 b63f 05d9 1640
00000140: 334c 45bb 0d8c 5c3f f702 153f 0761 333f
00000150: 11dc 993f 7c58 9d3f e7e1 bc3e eec2 553f
00000160: 1f3b 4d3f 4ed3 363f 5cda 483f 2cb7 2f3f
00000170: a4eb 883f 524e 083f 07b4 233f 8c69 293f
00000180: f8a4 2b3f 78f0 2a3f a43f b23f 0a3a 443f
00000190: 4252 423f e664 f63e d2fc 593f 84f1 443f
000001a0: 9e37 683e eb29 493c 174a 173f 2d99 783e
000001b0: 9f4e 613f d06f 0abf e9fc 473f 70fa 323f
000001c0: af8f 1e3f 2176 813f 2724 493c 3b51 903f
000001d0: 54d1 293f 8089 2c3f 4d05 693f 5236 263f
000001e0: 0185 f23e 36e3 f33f bf08 033f 0522 813f
000001f0: fda1 c53b 9573 993b 9d83 3a3d f191 243f
00000200: 6677 7d3f 6339 533f 1442 383f 7a73 aa3f
00000210: 1a7d ff3e 4b6c 593f 25f9 b33e 6072 2d3f
00000220: e16d a23f 510d 9c3f 5b90 5e3f e3bb 463f
00000230: f0f7 6d3f f2ed 4a3f 1de3 3f3f a647 0d3f
00000240: 2582 6e3f c95b 233f 19c0 1140 30a0 1c3f
00000250: 2adb 273f d90c 2e3f c0e3 853b 623c 393f
00000260: 37f3 1c3f fc66 2b3f a271 c03e e214 ec3f
00000270: a789 913e 24a5 203f 4156 303f 0f72 7f3f
00000280: a5d5 833f 22b9 173f a967 2d3f 16c6 043f
00000290: bc9d 073f 66b7 1e3b 5b7a 1e3f 06be 4d3f
000002a0: de68 293f 18db 6a3f dc3d 8e3f 4de8 9d3f
000002b0: 6a3f 353f 1ab9 343f 693a 2e3f e835 843f
000002c0: 3f5f 713f 306f 283f 0b38 b93f cf15 3e3f
000002d0: 2098 0f3f 4086 7d3f 5295 093f fe13 563f
000002e0: 6f76 7b3f efef 543f 389a 0d3f 9f6c 033f
000002f0: 7354 3f3f 055a f23e e515 1e3f dbf6 493f
00000300: a274 803f 5e60 a73f 90d6 023f 5309 2c3f
00000310: f0b6 513f 4a2f 123f e40c 223f 2ba7 523f
00000320: 556e 403f 074e 173f d859 4e3f 6ddf 053f
00000330: afe5 3a3f b52e 5f3f 7304 4c3f 7466 1e3f
00000340: 49fa 4a3f db00 113f 426c 12bc 0aa5 e13e
00000350: 68f5 383f 0f59 633f 0514 203f 39d7 35bb
00000360: b9a3 923f ea98 313f e1ee 513f 0722 2a3f
00000370: 8576 033f d955 bc3f c7dd f03e a446 9d3f
00000380: 697d 123f e7a3 253f dda4 903f 1778 4d3f
00000390: ad23 1d40 69ea ae3f 2407 4b3f b295 9e3f
000003a0: 2caf 393f 7d51 163f 5753 1f3f d94c 573f
000003b0: 0da9 6b3f 73c6 353f 1a17 63bb 5a83 9f3f
000003c0: 9810 d63e 2680 243f 6cc5 f8b9 495c 693f
000003d0: 921e 4e3f 256f 203f 0d09 5b3f a79a 613f
000003e0: 187f 4a3f 3d8f 2a3f 8bd8 953c db65 4a3f
000003f0: 4972 353f 4b0b 663f 9fb5 443f f1e5 173f

bn1.bias f4 [256]
-0.7335499 -0.03806432 -0.92325455 -0.67465615 -0.7489982 -0.7330012 -0.22532466 -0.6068203
-0.11037096 -0.582593 -0.52922755 -0.55391055 -0.30446902 -1.325893 -0.65516555 -0.78487474
-0.81659865 -0.77029675 -0.25269482 -0.55586445 -0.014940763 -0.9507997 -0.09471748 -0.8112651
-0.17625606 -0.069475606 -0.2950607 -0.6910748 -1.1191442 -0.35550728 -0.48753348 0.006726598
-0.40843016 -0.4759695 -0.1454007 -0.7225823 -0.8974806 0.15996638 -0.65086824 -0.8460391
-0.44990903 -0.006835306 -0.84759504 -0.31208426 -0.77465826 0.063847505 -0.51272005 -0.99193096
-0.8461032 -0.9917507 -0.98128957 -0.42436907 -0.50968194 -0.032770425 -0.40623447 -0.43437114
-0.44005418 -0.4498331 -1.012249 -0.6091603 -0.8328949 -1.005319 -0.56160104 -0.48543352
-0.3470439 -0.9058991 -0.5981517 -0.78923136 -0.31100664 -0.4419507 -0.9847288 -0.69800746
-0.54507315 -0.5970219 -0.7112808 -0.8299099 -0.77798694 -0.65469414 -0.69921947 -0.576669
-0.015514558 -0.80275947 -0.38117146 -0.95854884 -0.60679 -1.2546481 -0.47572404 -0.71812797
-0.4606219 -0.5809418 -0.5412724 -0.9971407 -1.0593348 -0.7521186 -0.8888809 -0.41203108
-0.66003305 -0.6914316 -0.9855786 -0.42486382 -0.41044506 -0.7293215 0.0033678047 -0.91148424
0.16357237 -0.06224815 -0.037026264 -0.77505255 -0.9374293 -0.42829388 -1.1068475 -0.3470868
-0.9974294 -1.0536736 -0.06744118 -0.5315456 -0.76118565 -0.9547032 -0.77140164 -0.7126856
-0.7740441 0.3777174 -0.15257786 -0.4137524 -0.037905034 -0.026628908 -0.10605507 -0.7980689
-0.9646059 -0.6157143 -0.91348773 -0.37461287 -0.8026814 -0.7279725 0.14219663 -0.70602494
-0.5578411 -1.0801084 -0.8059864 -0.50489694 -0.14248285 -0.7837944 -0.5989688 -0.47407112
-0.48898113 -0.27154234 0.052693214 -0.96814483 -0.541841 -0.72150946 -0.024640406 -0.679946
-1.2587756 -0.7566774 0.79581136 0.33125463 -0.32265422 -0.90956175 -0.5310327 -0.8262123
-1.0315168 -0.56322145 -0.25558627 -0.2762886 -0.62257063 -0.059105884 -0.45356393 -0.45477065
-0.48235232 -0.4775996 -0.22340566 -0.6332467 -0.90472895 -0.6745846 -0.90803164 -0.6278648
-0.36940786 -0.18567984 -0.19404015 -0.9310219 -0.67397666 0.19299322 -0.6381571 -0.6431457
-0.55071145 -0.9899355 -0.44556138 0.05690799 -0.27452904 -0.79132175 -0.87102354 -0.7893148
-0.7033284 0.14587983 -0.35843304 -0.82349354 -0.48940054 -0.6355274 -0.8193689 -0.96534175
-0.5354227 -0.6949287 -0.094794996 -0.5670924 -0.6266842 -0.84846604 -0.695089 -1.0193219
-0.5254995 -0.36582872 -0.09572157 -0.39052796 -0.37508956 -1.0281479 -0.67319643 -0.018220285
0.030842392 -0.8050283 -0.7474827 -0.87485176 -0.59950036 -0.8059523 -0.409332 0.06090781
-0.36091 -0.40305606 -0.08949269 -0.7023233 -0.7089419 -0.04329782 -0.76402557 -0.68724006
-0.8835083 -1.0284277 0.2765515 -0.36245632 -0.59308285 -0.54688144 -0.01712385 -1.6153903
-0.24217053 -0.49104568 -0.0077311387 -1.0726808 -0.5700275 -0.6459284 -0.42099974 -0.40720475
-0.7190599 -0.6414618 -0.083718605 -0.7802573 -0.93853885 -0.49568456 -0.42931077 -0.5003094
00000000: edc9 3bbf 55e9 1bbd 695a 6cbf 44b6 2cbf
00000010: 59be 3fbf f7a5 3bbf 82bb 66be 9358 1bbf
00000020: 2b0a e2bd d124 15bf 757b 07bf 15cd 0dbf
00000030: 5de3 9bbe ddb6 a9bf eeb8 27bf 8ded 48bf
00000040: 9c0c 51bf 2b32 45bf 3761 81be 224d 0ebf
00000050: 1aca 74bc 9c67 73bf 3dfb c1bd 12af 4fbf
00000060: 787c 34be 3a49 8ebd 3212 97be 47ea 30bf
00000070: 1e40 8fbf 0d05 b6be fd9d f9be cb6a dc3b
00000080: c21d d1be 46b2 f3be ece3 14be 27fb 38bf
00000090: 4ac1 65bf 3ace 233e 4d9f 26bf 0596 58bf
000000a0: 7a5a e6be b4fa dfbb fdfb 58bf 82c9 9fbe
000000b0: 0150 46bf 7bc2 823d 9f41 03bf 30ef 7dbf
000000c0: 389a 58bf 60e3 7dbf cb35 7bbf e746 d9be
000000d0: 847a 02bf 483a 06bd f7fd cfbe e565 debe
000000e0: c84e e1be 8650 e6be 6091 81bf eef1 1bbf
000000f0: 9a38 55bf 4bae 80bf 16c5 0fbf be8a f8be
00000100: bdaf b1be 01e9 67bf 7820 19bf 110b 4abf
00000110: 433c 9fbe 5d47 e2be 3017 7cbf 9eb0 32bf
00000120: ea89 0bbf 6dd6 18bf 8016 36bf fa74 54bf
00000130: 272a 47bf 099a 27bf 0c00 33bf 94a0 13bf
00000140: c630 7ebc a581 4dbf e828 c3be 7563 75bf
00000150: 9756 1bbf 4f98 a0bf 1a92 f3be 3cd7 37bf
00000160: a2d6 ebbe 9ab8 14bf d490 0abf 9d44 7fbf
00000170: 4898 87bf d88a 40bf b38d 63bf bdf5 d2be
00000180: edf7 28bf a901 31bf e14e 7cbf c087 d9be
00000190: db25 d2be d0b4 3abf 63b6 5c3b 0857 69bf
000001a0: 847f 273e ebf7 7ebd daa8 17bd d869 46bf
000001b0: 5efb 6fbf 5649 dbbe 2ead 8dbf 5cb5 b1be
000001c0: 8857 7fbf c7de 86bf 9a1e 8abd 5f13 08bf
000001d0: 10dd 42bf 6e67 74bf 947a 45bf 9072 36bf
000001e0: c127 46bf 2d64 c13e 5f3d 1cbe 5bd7 d3be
000001f0: 4f42 1bbd de24 dabc 6733 d9bd 3e4e 4cbf
00000200: 6af0 76bf 749f 1dbf 55da 69bf 42cd bfbe
00000210: 877c 4dbf 685c 3abf fe9b 113e 0dbe 34bf
00000220: adce 0ebf fe40 8abf 2055 4ebf ed40 01bf
00000230: 06e7 11be c0a6 48bf 0556 19bf 73b9 f2be
00000240: bc5b fabe 9907 8bbe d7d4 573d 57d8 77bf
00000250: 17b6 0abf d8b4 38bf adda c9bc f110 2ebf
00000260: 8f1f a1bf 9cb5 41bf 4bba 4b3f 359a a93e
00000270: ef32 a5be 0ad9 68bf c2f1 07bf a682 53bf
00000280: be08 84bf 482f 10bf 34dc 82be b375 8dbe
00000290: ca60 1fbf 0319 72bd 8839 e8be b3d7 e8be
000002a0: e2f6 f6be ef87 f4be 74c4 64be 751c 22bf
000002b0: 519c 67bf 94b1 2cbf c374 68bf bfbb 20bf
000002c0: 0723 bdbe db22 3ebe 76b2 46be 7457 6ebf
000002d0: bc89 2cbf 04a0 453e 445e 23bf 32a5 24bf
000002e0: 6dfb 0cbf 6a6c 7dbf 9f20 e4be 5a18 693d
000002f0: 128f 8cbe 1094 4abf 66fb 5ebf 8910 4abf
00000300: 540d 34bf 8661 153e 8984 b7be 79d0 52bf
00000310: b592 fabe ecb1 22bf 29c2 51bf a320 77bf
00000320: 7611 09bf d9e6 31bf e123 c2bd f82c 11bf
00000330: 606e 20bf 1235 59bf 5af1 31bf 2479 82bf
00000340: 2387 06bf e74d bbbe ac09 c4bd 48f3 c7be
00000350: bd0b c0be 5a9a 83bf 9a56 2cbf b542 95bc
00000360: 2fa9 fc3c 5616 4ebf 075b 3fbf 49f6 5fbf
00000370: db78 19bf e452 4ebf f793 d1be 787a 793d
00000380: 32c9 b8be 5d5d cebe f247 b7bd 76cb 33bf
00000390: 377d 35bf 0e59 31bd 2e97 43bf f7ee 2fbf
000003a0: 9a2d 62bf 85a3 83bf 2998 8d3e e093 b9be
000003b0: 47d4 17bf 6c00 0cbf 5147 8cbc 1cc5 cebf
000003c0: 8dfb 77be 576a fbbe 7e55 fdbb 9b4d 89bf
000003d0: 52ed 11bf 905b 25bf 478d d7be 247d d0be
000003e0: 4f14 38bf d736 24bf a974 abbd f1be 47bf
000003f0: 1544 70bf 5eca fdbe 9fce dbbe 4714 00bf

bn1.running_mean f4 [256]
-27.60063 -23.43574 15.620791 16.425549 -11.234372 14.359337 -16.178425 -4.119533
24.97432 28.870214 -14.163952 35.900097 -11.564147 -19.701641 24.057419 25.24928
7.683293 1.279171 -15.002431 -3.2699485 5.703198 -29.387514 0.60530376 10.528576
-26.123226 16.91086 11.263311 8.702012 -6.753163 1.7896802 12.884357 3.206105
-18.412418 4.804502 19.448074 -2.3093896 15.849672 5.060638 -0.079512246 12.071866
26.17366 -7.4102716 -4.008356 19.49456 6.7118597 22.832745 -16.089054 -10.018848
13.082021 24.336582 -0.9181898 33.44065 11.4308 11.965717 17.498175 4.3888807
26.865395 6.3011017 -2.874352 -0.92976373 -8.6560135 11.568834 23.6936 -7.4887433
16.232176 -3.293367 -24.40475 17.821768 11.71555 20.557524 -5.79842 15.652151
16.392902 17.870432 1.0748442 -12.276856 0.20579126 21.337263 -4.605858 -0.34925544
-0.15018857 -23.93317 17.883192 -2.8597834 9.24699 13.834882 -5.095752 -19.581493
9.0620575 6.7675486 3.2993176 11.507987 9.242146 2.3020198 11.036453 10.541852
8.910522 19.933046 7.8567643 -0.07257313 22.85678 -17.841742 4.844196 0.060079806
-13.16317 -0.8218929 -1.2178978 15.176274 -10.700687 -11.869434 -31.750393 11.1226845
-21.423355 17.403326 0.17828405 -1.885379 -14.005656 4.811515 -15.467632 27.307205
6.8891068 -2.549308 -4.5268736 -23.451553 0.55723256 0.15269819 15.115592 13.007293
15.84085 22.000942 9.112704 1.5383958 5.985425 4.540044 9.019816 0.9312752
0.6164247 0.41883755 7.205994 3.792891 11.479114 11.55109 17.077496 12.110179
5.052926 -15.584784 5.923079 -1.7371078 -14.014335 30.23414 0.8029005 -24.154905
4.297767 -6.792626 -24.629747 8.046893 12.425433 27.460861 -6.0366597 -9.893966
3.262324 5.4015913 -18.856623 23.990843 16.040525 0.005405715 25.049717 -13.223754
25.001583 0.93510854 -20.626524 1.6946645 15.968772 26.874443 21.400028 -17.43953
15.699048 10.690689 8.932272 -24.974598 10.629646 9.647007 -1.7705116 24.117977
-23.627258 -19.561577 5.25454 -25.149958 -0.47568443 -9.272406 19.07008 19.1268
18.034264 11.361211 -9.645806 18.816729 20.790848 -9.427603 8.632389 -34.350494
-16.708788 8.897366 4.5413785 -2.744179 32.470154 13.621867 12.498405 22.401884
13.264717 20.866423 1.7115289 -26.048075 -2.4545238 -15.665661 22.421787 -0.7960907
-38.618595 11.474493 -15.210101 -5.2882376 -10.187314 6.4003177 -31.233536 -4.395823
9.289461 -0.31052172 6.04537 -5.1871724 2.8567822 3.2703493 1.9274049 4.371522
16.508142 4.596519 29.2865 13.547123 -14.967802 9.0981245 0.15158428 -4.4586825
-10.409232 2.8955793 0.24757119 -14.283119 20.210663 35.64395 8.344216 8.810148
29.87343 -4.9058967 0.14562888 23.102377 -7.210426 25.737314 11.342764 16.260193
00000000: 17ce dcc1 657c bbc1 c3ee 7941 8667 8341
00000010: fdbf 33c1 d8bf 6541 6a6d 81c1 37d3 83c0
00000020: 68cb c741 33f6 e641 8c9f 62c1 b399 0f42
00000030: bf06 39c1 f69c 9dc1 9875 c041 87fe c941
00000040: 89dd f540 e0bb a33f f509 70c1 d646 51c0
00000050: 9980 b640 a119 ebc1 30f5 1a3f 0c75 2841
00000060: 5efc d0c1 7149 8741 8636 3441 713b 0b41
00000070: e919 d8c0 3e14 e53f 5426 4e41 d330 4d40
00000080: a24c 93c1 7bbe 9940 a895 9b41 0acd 13c0
00000090: 4298 7d41 bff0 a140 51d7 a2bd 5d26 4141
000000a0: a863 d141 f220 edc0 7444 80c0 dcf4 9b41
000000b0: 8ec7 d640 76a9 b641 62b6 80c1 344d 20c1
000000c0: f54f 5141 52b1 c241 7d0e 6bbf 3ac3 0542
000000d0: 8fe4 3641 9473 3f41 43fc 8b41 b671 8c40
000000e0: 54ec d641 a0a2 c940 62f5 37c0 ff04 6ebf
000000f0: 087f 0ac1 f219 3941 7e8c bd41 c9a3 efc0
00000100: 7fdb 8141 86c6 52c0 ee3c c3c1 fb92 8e41
00000110: e572 3b41 cf75 a441 a88c b9c0 366f 7a41
00000120: aa24 8341 a5f6 8e41 7f94 893f 016e 44c1
00000130: f2ba 523e b7b2 aa41 3063 93c0 9cd1 b2be
00000140: 08cb 19be 2277 bfc1 c710 8f41 b106 37c0
00000150: acf3 1341 ad5b 5d41 6610 a3c0 e6a6 9cc1
00000160: 30fe 1041 c28f d840 0528 5340 b720 3841
00000170: d4df 1341 4b54 1340 5095 3041 6dab 2841
00000180: 8091 0e41 e176 9f41 9d6a fb40 39a1 94bd
00000190: afda b641 e3bb 8ec1 a703 9b40 3e16 763d
000001a0: 589c 52c1 9367 52bf 13e4 9bbf 05d2 7241
000001b0: 0436 2bc1 34e9 3dc1 ce00 fec1 84f6 3141
000001c0: 0863 abc1 033a 8b41 1890 363e 1954 f1bf
000001d0: 2b17 60c1 eef7 9940 6c7b 77c1 2875 da41
000001e0: 9073 dc40 dd27 23c0 26dc 90c0 c89c bbc1
000001f0: cba6 0e3f ea5c 1c3e 77d9 7141 df1d 5041
00000200: 1f74 7d41 ee01 b041 a3cd 1141 27ea c43f
00000210: 9a88 bf40 0a48 9140 2b51 1041 0d68 6e3f
00000220: 02ce 1d3f e071 d63e 8197 e640 babe 7240
00000230: 73aa 3741 44d1 3841 b69e 8841 4bc3 4141
00000240: 92b1 a140 465b 79c1 dd89 bd40 8c59 debf
00000250: b73a 60c1 85df f141 e38a 4d3f 3f3d c1c1
00000260: 4f87 8940 315d d9c0 b909 c5c1 13c0 0041
00000270: 93ce 4641 d8af db41 512c c1c0 af4d 1ec1
00000280: ebc9 5040 d6d9 ac40 5dda 96c1 3fed bf41
00000290: ff52 8041 6d22 b13b d265 c841 7f94 53c1
000002a0: 3e03 c841 4663 6f3f 1f03 a5c1 c4ea d83f
000002b0: 1780 7f41 dcfe d641 4233 ab41 2884 8bc1
000002c0: 4d2f 7b41 100d 2b41 96ea 0e41 facb c7c1
000002d0: 0813 2a41 245a 1a41 20a0 e2bf 9ef1 c041
000002e0: a004 bdc1 1c7e 9cc1 3125 a840 1d33 c9c1
000002f0: e98c f3be c65b 14c1 868f 9841 b003 9941
00000300: 2c46 9041 85c7 3541 3955 1ac1 a988 9641
00000310: a853 a641 76d7 16c1 441e 0a41 e866 09c2
00000320: 99ab 85c1 9c5b 0e41 f952 9140 a1a0 2fc0
00000330: 70e1 0142 2bf3 5941 78f9 4741 0f37 b341
00000340: 483c 5441 6fee a641 6113 db3f 7562 d0c1
00000350: eb16 1dc0 8ca6 7ac1 d25f b341 9acc 4bbf
00000360: 7179 1ac2 8697 3741 935c 73c1 3e39 a9c0
00000370: 3dff 22c1 67cf cc40 48de f9c1 95aa 8cc0
00000380: a2a1 1441 b4fc 9ebe ac73 c140 51fd a5c0
00000390: 85d5 3640 674d 5140 34b5 f63f 82e3 8b40
000003a0: ad10 8441 af16 9340 c14a ea41 04c1 5841
000003b0: 1e7c 6fc1 eb91 1141 e938 1b3e 87ad 8ec0
000003c0: 378c 26c1 2c51 3940 4d83 7d3e a887 64c1
000003d0: 70af a141 6893 0e42 e981 0541 5ef6 0c41
000003e0: c9fc ee41 1bfd 9cc0 bd1f 153e abd1 b841
000003f0: cfbb e6c0 05e6 cd41 f67b 3541 e014 8241

bn1.running_var f4 [256]
820.7289 253.86548 856.5296 437.50024 705.36395 966.67004 814.0288 921.64136
210.70793 230.97897 376.96832 402.96762 726.00574 256.92654 223.69684 722.1412
285.81888 480.73764 375.23083 369.68405 199.7893 186.56395 24.629152 347.1781
508.823 126.410904 312.0388 325.02103 231.00658 261.52438 1333.303 14.463166
348.22427 693.3476 427.79553 275.9282 383.2339 23.002876 269.60635 448.88626
257.10834 189.95276 319.0157 114.55813 251.15569 343.82925 240.47177 255.72707
145.49063 158.32005 619.1401 310.66888 450.86597 210.58116 339.05093 125.36988
582.6297 161.92365 995.9894 186.66147 505.58383 332.1067 367.99722 877.1446
372.07513 406.66638 212.64917 475.299 506.10315 953.87213 411.58588 270.4641
628.2636 234.39359 262.5116 495.24835 740.2698 348.9873 129.22502 879.9353
3.9181943 247.15298 291.36673 290.92493 235.62169 130.30954 324.76685 277.21475
694.973 687.90985 896.1424 368.1502 500.01514 342.9281 451.42163 154.07318
451.04907 342.45328 316.30838 109.66763 87.74137 235.39787 80.958786 568.56976
956.7437 71.41935 248.30003 182.79301 612.94366 527.1674 131.6569 435.0738
263.23532 270.69528 9.356229 315.19318 111.624565 654.8135 148.89049 190.26999
265.6577 16.157936 684.98035 260.6547 5.8141284 3.4565475 214.858 285.14847
144.76358 366.4178 704.6305 17.787489 456.9255 366.2915 497.9723 324.74835
248.60374 306.03854 41.977222 470.4666 89.77682 321.9544 195.56232 613.99036
847.73145 159.07414 586.4582 230.27786 752.37585 204.8571 2.9254322 238.3659
141.00957 251.43286 286.64908 33.915474 514.01874 235.14717 1521.8499 206.31015
188.69864 423.36328 418.8691 458.16983 705.83984 80.212524 156.84511 211.44478
431.32306 164.9802 274.19302 78.555046 222.43929 246.01662 394.90048 248.33968
55.555164 899.4437 206.53775 478.46844 156.7507 29.17051 789.10126 414.83237
85.310455 339.04532 117.64605 331.6215 283.89557 123.11098 299.3537 578.2233
271.24597 100.6493 259.45325 393.49997 1078.0828 76.543945 622.95294 192.88545
174.54962 190.91321 412.80612 770.2328 262.92117 265.04715 26.84691 198.36272
175.19955 444.1897 15.964016 252.71034 438.8888 148.97458 1137.2719 0.7413366
228.30293 332.9571 101.22637 741.2441 393.47964 38.045345 278.48657 24.353216
847.537 1245.8785 46.195362 527.92883 380.10968 1502.1194 453.85913 114.48719
262.91 305.2407 166.55736 323.07056 362.00858 90.39064 10.780901 518.73035
337.63763 334.62314 0.76904464 283.66696 203.37433 237.9389 206.06754 185.20361
335.35275 514.26086 60.377907 498.4659 861.4981 117.05091 149.0527 848.9896
00000000: a62e 4d44 90dd 7d43 e521 5644 08c0 da43
00000010: 4b57 3044 e2aa 7144 d881 4b44 0c69 6644
00000020: 3bb5 5243 9efa 6643 f27b bc43 db7b c943
00000030: 5e80 3544 9976 8043 64b2 5f43 0989 3444
00000040: d1e8 8e43 6b5e f043 8c9d bb43 8fd7 b843
00000050: 10ca 4743 5f90 3a43 8108 c541 cc96 ad43
00000060: 5869 fe43 62d2 fc42 f704 9c43 b182 a243
00000070: af01 6743 1fc3 8243 b2a9 a644 2169 6741
00000080: b51c ae43 3f56 2d44 d4e5 d543 cff6 8943
00000090: f09d bf43 e405 b841 9dcd 8643 7171 e043
000000a0: de8d 8043 e8f3 3d43 0282 9f43 c31d e542
000000b0: db27 7b43 25ea ab43 c678 7043 21ba 7f43
000000c0: 9a7d 1143 ef51 1e43 f7c8 1a44 9e55 9b43
000000d0: d86e e143 c794 5243 8586 a943 61bd fa42
000000e0: 4da8 1144 74ec 2143 52ff 7844 56a9 3a43
000000f0: bbca fc43 a80d a643 a5ff b743 4149 5b44
00000100: 9e09 ba43 4c55 cb43 30a6 5443 46a6 ed43
00000110: 340d fd43 d177 6e44 feca cd43 683b 8743
00000120: df10 1d44 c264 6a43 7c41 8343 ca9f f743
00000130: 4411 3944 607e ae43 9b39 0143 dcfb 5b44
00000140: b2c3 7a40 2a27 7743 f1ae 9143 6476 9143
00000150: 279f 6b43 3e4f 0243 2862 a243 7d9b 8a43
00000160: 46be 2d44 3bfa 2b44 1d09 6044 3a13 b843
00000170: f001 fa43 cc76 ab43 f8b5 e143 bc12 1a43
00000180: 4886 e143 053a ab43 7927 9e43 d455 db42
00000190: 957b af42 db65 6b43 e6ea a142 7724 0e44
000001a0: 992f 6f44 b5d6 8e42 cf4c 7843 03cb 3643
000001b0: 653c 1944 b7ca 0344 2ba8 0343 7289 d943
000001c0: 1f9e 8343 ff58 8743 1db3 1541 ba98 9d43
000001d0: c73f df42 10b4 2344 f7e3 1443 1e45 3e43
000001e0: 30d4 8443 7443 8141 be3e 2b44 cd53 8243
000001f0: 570d ba40 1338 5d40 a6db 5643 0193 8e43
00000200: 7ac3 1043 7a35 b743 5a28 3044 c74c 8e41
00000210: 7776 e443 5025 b743 74fc f843 ca5f a243
00000220: 8f9a 7843 ef04 9943 ade8 2742 ba3b eb43
00000230: bb8d b342 2afa a043 f48f 4343 627f 1944
00000240: d0ee 5344 fb12 1f43 539d 1244 2247 6643
00000250: 0e18 3c44 6bdb 4c43 483a 3b40 ac5d 6e43
00000260: 7302 0d43 d06e 7b43 1553 8f43 72a9 0742
00000270: 3381 0044 ad25 6b43 323b be44 664f 4e43
00000280: dab2 3c43 80ae d343 3f6f d143 bd15 e543
00000290: c075 3044 d06c a042 59d8 1c43 dd71 5343
000002a0: 5aa9 d743 eefa 2443 b518 8943 2f1c 9d42
000002b0: 7570 5e43 4104 7643 4373 c543 f556 7843
000002c0: 7d38 5e42 66dc 6044 aa89 4e43 f63b ef43
000002d0: 2ec0 1c43 345d e941 7b46 4544 8b6a cf43
000002e0: f49e aa42 cd85 a943 c74a eb42 8dcf a543
000002f0: a2f2 8d43 d238 f642 46ad 9543 4b8e 1044
00000300: 7c9f 8743 714c c942 04ba 8143 ffbf c443
00000310: a6c2 8644 8016 9942 fdbc 1b44 ade2 4043
00000320: b48c 2e43 c8e9 3e43 2f67 ce43 e68e 4044
00000330: e975 8343 0986 8443 79c6 d641 db5c 4643
00000340: 1633 2f43 4818 de43 9c6c 7f41 d9b5 7c43
00000350: c471 db43 7ef9 1443 b328 8e44 3cc8 3d3f
00000360: 8d4d 6443 827a a643 e773 ca42 9f4f 3944
00000370: 65bd c443 6f2e 1842 483e 8b43 63d3 c241
00000380: 5ee2 5344 1dbc 9b44 0dc8 3842 72fb 0344
00000390: 0a0e be43 d2c3 bb44 f8ed e243 71f9 e442
000003a0: 7b74 8343 cf9e 9843 af8e 2643 0889 a143
000003b0: 1901 b543 02c8 b442 927e 2c41 beae 0144
000003c0: 9ed1 a843 c34f a743 1ce0 443f 5fd5 8d43
000003d0: d45f 4b43 5cf0 6d43 4a11 4e43 2034 3943
000003e0: 27ad a743 b290 0044 fa82 7142 a33b f943
000003f0: e15f 5744 111a ea42 7e0d 1543 563f 5444

fc2.weight f4 [128, 256]
0.02678492 -0.027100978 -0.0674 0.088129915 -0.10495855 -0.023738552 0.028248841 0.0035997436
0.07660805 -0.063211806 0.005113223 -0.025252135 -0.1518871 -0.020772334 0.00747852 0.055143766
-0.09695772 -0.03926883 -0.013036853 -0.039840758 0.035007108 -0.13391815 0.040578697 -0.05754393
0.090404235 -0.014031827 0.02260463 -0.07720983 -0.026610214 0.07186241 -0.07728391 -0.031195229
-0.105892904 -0.19062132 -0.22635183 0.09202166 -0.05078476 -0.18906099 -0.039815344 0.009387382
-0.031323083 -0.008667872 -0.09156352 0.11033826 0.053388484 0.0119065 -0.20470497 0.01076329
0.04899833 -0.045944225 0.0715999 0.023226952 -0.06185714 -0.116348386 0.03489058 -0.047505163
-0.0870343 -0.11868633 -0.0645383 0.011289009 -0.058298815 0.10231822 -0.091770224 -0.08687481
-0.058371894 -0.04421088 0.049514603 -0.06514424 -0.0593059 -0.059754606 -0.038430788 -0.024597978
-0.13098752 -0.021042949 0.02796997 0.025265275 -0.030629493 0.018497998 0.068357065 0.049135666
0.072710514 -0.041079324 0.007278502 0.036352627 0.073338084 -0.100158826 -0.17735359 -0.025103902
-0.074972756 -0.14361995 -0.08899604 -0.12315441 -0.061375335 0.07830794 0.016169798 -0.083351366
-0.13126138 0.009242698 -0.06977433 0.0007287196 0.055838894 -0.073763855 0.013660046 0.16295095
-0.16889507 0.016629325 0.10624155 -0.042377155 -0.10774279 0.040632576 -0.036077708 0.0804467
-0.036752246 -0.075919084 0.01085751 0.07051903 -0.06109446 0.01042677 -0.12930791 -0.038272742
-0.13798296 -0.008973426 -0.11160504 -0.073583 0.047028847 0.011179732 0.0065464997 0.015651176
-0.057935216 0.07996305 -0.098796256 -0.22788458 0.035205334 0.036189668 -0.006230702 0.020320505
0.008014735 -0.13247123 0.006406902 -0.081464246 -0.109516256 0.030997936 0.055423908 0.065308064
-0.204978 -0.07094732 0.039794423 0.01375388 -0.07548568 -0.0050739977 0.024261385 0.08048111
-0.067820475 -0.19996049 -0.19968264 -0.13006191 -0.034202386 0.015508826 0.009907854 -0.095258124
0.07280914 0.0035048453 -0.0907926 -0.026285907 0.0433203 -0.03686399 -0.04471747 0.008867995
-0.05546127 0.07458204 -0.1611724 0.09387988 -0.080197915 -0.07457336 -0.08438528 -0.13757642
-0.11583394 -0.11559438 -0.061416887 -0.07409366 -0.18284793 -0.051614814 0.04137715 -0.057542812
-0.084597245 -0.029551163 -0.08533989 -0.050509293 -0.12488475 0.07571725 -0.058734108 -0.020226939
-0.086975425 -0.12237598 -0.13380845 -0.011775464 0.032219656 0.016363293 -0.10670411 0.030969232
-0.08340748 -0.0033943553 -0.051772397 -0.015776023 0.066442795 0.115027554 -0.10094271 -0.024753947
-0.15634765 -0.05798055 0.04122388 -0.11810253 0.03264775 -0.050871927 -0.08166772 -0.011679494
-0.17435753 -0.0926642 -0.00704641 0.080069736 0.0013986651 0.081609495 -0.045023583 -0.16607897
0.042747274 -0.036785286 -0.035514712 0.033700623 -0.090763524 -0.015558949 -0.03315054 -0.02766589
-0.15999582 -0.05637323 -0.10130943 0.020990629 -0.10718276 -0.0006641891 0.043923758 -0.12948938
-0.0685174 -0.083685994 -0.08268928 -0.12276919 -0.11089664 -0.03984793 -0.03276308 -0.08543976
-0.09214329 -0.06341016 0.03823956 -0.056066062 -0.08503207 -0.13123049 0.029486999 0.05818389
00000000: 0c6c db3c df02 debc 0309 8abd 757d b43d
00000010: 82f4 d6bd 5a77 c2bc 1d6a e73c ade9 6b3b
00000020: aee4 9c3d 3175 81bd d38c a73b 91dd cebc
00000030: 4b88 1bbe be2a aabc 5f0e f53b 6ede 613d
00000040: c591 c6bd 5ad8 20bd 8698 55bc 1030 23bd
00000050: 9d63 0f3d d721 09be d935 263d 2fb3 6bbd
00000060: db25 b93d c0e5 65bc 582d b93c 3020 9ebd
00000070: aafd d9bc 992c 933d 0747 9ebd 238d ffbc
00000080: 61de d8bd 3c32 43be c6c8 67be da75 bc3d
00000090: ae03 50bd 3499 41be 6a15 23bd 89cd 193c
000000a0: a24c 00bd b103 0ebc a885 bbbd 07f9 e13d
000000b0: e2ad 5a3d 7b13 433c 2e9e 51be 8358 303c
000000c0: 79b2 483d 0330 3cbd f8a2 923d 7346 be3c
000000d0: ea5d 7dbd 1048 eebd 6de9 0e3d c694 42bd
000000e0: 0a3f b2bd d211 f3bd a82c 84bd 89f5 383c
000000f0: bdca 6ebd 378c d13d 07f2 bbbd 6ceb b1bd
00000100: 5e17 6fbd 7816 35bd d3cf 4a3d 586a 85bd
00000110: beea 72bd 3fc1 74bd 9a69 1dbd b381 c9bc
00000120: 9821 06be 4362 acbc 4721 e53c 1ff9 ce3c
00000130: b4ea fabc 1d89 973c cafe 8b3d 7b42 493d
00000140: 40e9 943d cb42 28bd 8080 ee3b 7ee6 143d
00000150: 4732 963d 1220 cdbd 2e9c 35be b3a6 cdbc
00000160: 518b 99bd 1c11 13be 8e43 b6bd 6138 fcbd
00000170: b464 7bbd ea5f a03d 8676 843c 1fb4 aabd
00000180: 6269 06be af6e 173c d8e5 8ebd 8b07 3f3a
00000190: 53b7 643d 8111 97bd 63ce 5f3c 9ddc 263e
000001a0: d4f2 2cbe 393a 883c 2b95 d93d ab93 2dbd
000001b0: 40a8 dcbd 586e 263d 38c6 13bd 3dc1 a43d
000001c0: 8689 16bd 777b 9bbd b3e3 313c 486c 903d
000001d0: 2f3e 7abd 0bd5 2a3c 4b69 04be e1c3 1cbd
000001e0: 684b 0dbe 4705 13bc 2f91 e4bd afb2 96bd
000001f0: 52a1 403d 322b 373c 0584 d63b e536 803c
00000200: 7a4d 6dbd abc3 a33d b155 cabd 935a 69be
00000210: 7833 103d 9e3b 143d eb2a ccbb 3077 a63c
00000220: 3c50 033c 8aa6 07be fdf0 d13b bad6 a6bd
00000230: 0f4a e0bd 62ef fd3c 2e04 633d 3cc0 853d
00000240: c1e5 51be d44c 91bd 7aff 223d f457 613c
00000250: 3c98 9abd c743 a6bb d0bf c63c 48d3 a43d
00000260: 76e5 8abd 71c2 4cbe 9b79 4cbe f32e 05be
00000270: cd17 0cbd bb18 7e3c 8d54 223c b116 c3bd
00000280: f51c 953d 8cb1 653b 78f1 b9bd 8b55 d7bc
00000290: a070 313d b2fe 16bd aa29 37bd 114b 113c
000002a0: 5b2b 63bd 78be 983d 610a 25be 1844 c03d
000002b0: ce3e a4bd ebb9 98bd 31d2 acbd d5e0 0cbe
000002c0: 583a edbd bfbc ecbd 4690 7bbd 6bbe 97bd
000002d0: 7d3c 3bbe 0e6a 53bd 167b 293d 03b2 6bbd
000002e0: 5241 adbd 4815 f2bc aec6 aebd d5e2 4ebd
000002f0: 93c3 ffbd a511 9b3d 2d93 70bd f7b2 a5bc
00000300: 2c20 b2bd 42a0 fabd 1505 09be e0ed 40bc
00000310: c2f8 033d 500c 863c af87 dabd 30b3 fd3c
00000320: 8ad1 aabd d573 5ebb 4b0f 54bd b83c 81bc
00000330: 2913 883d 9193 eb3d 0dbb cebd cac8 cabc
00000340: 9919 20be 037d 6dbd 5fda 283d bddf f1bd
00000350: a6b9 053d 155f 50bd 6841 a7bd 595b 3fbc
00000360: c88a 32be bac6 bdbd 92e5 e6bb 9afb a33d
00000370: 6a53 b73a e122 a73d a66a 38bd 9b10 2abe
00000380: c417 2f3d 2bac 16bd e077 11bd aa09 0a3d
00000390: 3ae2 b9bd f6ea 7ebc dcc8 07bd 94a3 e2bc
000003a0: f2d5 23be 9ee7 66bd 527b cfbd 8af4 ab3c
000003b0: a382 dbbd fa1c 2eba 66e9 333d dd98 04be
000003c0: da52 8cbd 9063 abbd ff58 a9bd 6a6e fbbd
000003d0: c71d e3bd 9537 23bd 9432 06bd 0afb aebd
000003e0: 9fb5 bcbd 30dd 81bd 16a1 1c3d 87a5 65bd
000003f0: 4b25 aebd 4961 06be b88e f13c 3b52 6e3d

fc2.bias f4 [128]
-0.0066775237 -0.13274868 -0.007560257 0.6563249 -0.15639582 -0.0071285903 -0.8524304 -0.5035155
-0.25568035 -0.14038478 -0.4540947 -0.076011606 -0.07336621 -0.033894695 -0.5314225 -0.10682818
0.44607678 -0.1076476 -0.2644239 0.06917241 -0.5484668 -1.152709 -0.62362814 -0.11371953
-0.1778708 -1.1648829 -0.07373688 -0.30759406 -0.7755611 -0.04969649 -0.100348815 -0.79306525
-0.07396143 -0.10371088 -0.09741759 -0.16365486 -0.73715645 -0.49388516 -0.07294737 -0.26263237
-0.30419698 -0.29824987 -0.7138887 -0.08700633 -0.44494316 -0.060727853 -0.19354078 -0.03467801
-0.060177792 -0.048918873 -0.043061104 -0.044119716 -0.4679099 -0.2832477 -0.05110828 -0.36840904
-0.098893724 -0.05152569 0.0071567995 -0.14296797 -0.7997526 -0.2670482 0.0920679 0.6407932
-0.24466166 -0.1260644 -0.029969022 -0.9610133 -0.6699355 -0.039944835 -0.07006887 0.02786917
-0.083259396 0.19886792 0.10347996 -0.16691054 0.17963476 -0.11072311 -0.038672123 -0.913115
-0.539892 -0.0058045955 -0.4428782 -0.11896935 0.09827287 -0.22735138 -0.2601618 -0.08696671
-0.19201998 -0.8407978 0.26042682 -0.09303411 -0.117607035 -0.11552799 -0.5602848 -0.15873997
-0.96384823 0.094455875 -0.046281885 -0.42892584 -0.085126854 -0.90987045 -0.031664275 -0.071575545
-0.13710617 0.2656026 -0.061229505 -0.027167216 0.22066896 -0.20819373 -0.0755672 -0.107370116
-1.2691493 -0.3919265 -0.11250374 -0.087645516 -0.043071125 -0.09741501 -0.087253556 -0.43349758
-0.67083263 -0.14584674 -0.061474565 -0.07169429 -0.64664304 -0.073577024 -0.05195276 -0.29422033
00000000: 21cf dabb 45ef 07be 08bc f7bb e904 283f
00000010: 3a26 20be f396 e9bb e138 5abf 64e6 00bf
00000020: 89e8 82be 07c1 0fbe 1a7f e8be f9ab 9bbd
00000030: 0641 96bd 2ad5 0abd 4e0b 08bf bcc8 dabd
00000040: 2d64 e43e 5876 dcbd 9262 87be 44aa 8d3d
00000050: 5268 0cbf f88b 93bf 18a6 1fbf c9e5 e8bd
00000060: c323 36be e21a 95bf 5d03 97bd f87c 9dbe
00000070: 2c8b 46bf 8c8e 4bbd ae83 cdbd 5306 4bbf
00000080: 1779 97bd 5f66 d4bd e082 c7bd 2495 27be
00000090: 49b6 3cbf 84de fcbe 6e65 95bd c077 86be
000000a0: b5bf 9bbe 35b4 98be 69c1 36bf 6030 b2bd
000000b0: 97cf e3be c5bd 78bd 8e2f 46be 870a 0ebd
000000c0: fd7c 76bd 285f 48bd d760 30bd e0b6 34bd
000000d0: e391 efbe d805 91be ea56 51bd 1ca0 bcbe
000000e0: cb88 cabd 9a0c 53bd 9683 ea3b 3266 12be
000000f0: 96bc 4cbf 8bba 88be 188e bc3d 060b 243f
00000100: 9688 7abe 0717 01be 9881 f5bc f804 76bf
00000110: e580 2bbf 329d 23bd 4580 8fbd e34d e43c
00000120: e783 aabd 08a4 4b3e 4ded d33d 99ea 2abe
00000130: 2df2 373e ccc2 e2bd a966 1ebd e8c1 69bf
00000140: 5d36 0abf 7a34 bebb eec0 e2be 34a6 f3bd
00000150: 4943 c93d cdce 68be ed33 85be 9a1b b2bd
00000160: e3a0 44be 863e 57bf aa56 853e ab88 bebd
00000170: f5db f0bd f099 ecbd d36e 0fbf bb8c 22be
00000180: c2be 76bf 1572 c13d 1392 3dbd 2b9c dbbe
00000190: fd56 aebd 45ed 68bf 66b2 01bd 3396 92bd
000001a0: 8f65 0cbe 10fd 873e cacb 7abd c88d debc
000001b0: 0bf7 613e bd30 55be fac2 9abd dde4 dbbd
000001c0: 7c73 a2bf 97aa c8be 5c68 e6bd 7e7f b3bd
000001d0: 596b 30bd 8581 c7bd feb1 b2bd 65f3 ddbe
000001e0: b0bb 2bbf d958 15be c1cc 7bbd 75d4 92bd
000001f0: 668a 25bf 8daf 96bd 6bcc 54bd 0ca4 96be
