p3_collab-compet/ddpg_critic_agent1.pth (torch_old, 532687 bytes, 9 tensors)

fcs1.weight f4 [400, 24]
-0.23067246 0.009361444 0.047390144 0.23210022 0.30089822 0.12290736 0.002328457 0.25157326
-0.19143312 0.11027933 0.019536618 0.3701599 0.45948425 0.094397 0.010402992 0.30075368
-0.3774454 0.20814164 0.02249173 0.59325993 0.1657642 0.8158624 0.009907279 0.5673331
-0.27289492 -0.68170965 0.041252192 0.069062 0.37600097 -0.15096378 0.090930395 0.03324056
-0.44936472 -0.355518 -0.005848229 -0.027586099 0.2999696 0.03764402 0.057074916 -0.016485244
-0.16959964 -0.2561323 0.05587069 0.030919323 -0.9008983 0.58488744 0.05281458 0.015834183
0.18456735 -0.19790171 0.057473402 0.2622633 0.25517792 0.16852655 0.03627262 0.31899744
0.021338409 -0.27704257 0.008081408 -0.19241366 0.119303785 0.1268269 0.05401029 -0.1559073
-0.1155297 -0.2135426 0.28231612 0.40991017 -0.24156965 -0.49387997 0.26158288 0.41421583
-0.19726153 -0.25668725 0.04838318 0.42184913 -0.26383677 0.77670807 -0.013138759 0.36781
-0.15231414 -0.14426184 -0.09486881 0.11075193 -0.00062457763 0.11503777 -0.052468363 0.10384895
-0.08388648 -0.21768649 0.077032715 -0.33722532 0.5053721 0.45594501 0.08570744 -0.3102274
0.22334681 -0.2555606 -0.030550137 0.089368396 0.049998794 -0.20567642 0.031719007 0.046301957
0.17880605 -0.094637774 0.029174542 0.105040655 -0.28567332 -0.37884787 -0.020499853 0.12966555
0.2631899 -0.07273093 -0.03420905 -0.14714685 -1.2670671 -0.9386499 -0.007936213 -0.18006915
-0.02084895 0.1422156 0.028441943 0.04669732 0.7833377 0.109946035 -0.039139263 0.08206665
0.047101397 0.11912544 -0.030972864 0.021730687 2.6106842 0.040688567 0.020462535 0.037379403
0.053282265 0.02000133 0.015007219 -0.012355236 1.5290772 0.35762137 -0.015539416 -0.017119452
0.1408319 -0.71748644 -0.07485976 -0.020712145 0.24972652 0.36255398 -0.16683249 -0.022718478
0.16216895 -0.44435647 0.1477244 0.62431514 0.1628374 0.121065155 0.14549275 0.6397854
0.17187186 -0.5066737 0.11563695 0.28381798 0.18125463 0.079162806 0.122208856 0.29495522
-0.23584503 0.27873027 0.00081059965 -0.23663528 0.30865803 -0.22050512 0.082266875 -0.25628972
-0.34964567 0.2389329 -0.031183418 0.04597836 0.107452594 -0.5695436 -0.01832241 0.045178413
-0.28725484 0.32532042 -0.023584412 0.002181674 -0.06396874 -1.4983793 0.0021490774 -0.043798216
0.017366113 -0.029896267 0.042028833 0.04615094 0.020906042 0.027879277 0.060144518 0.04088449
0.036193907 -0.041743215 0.065918855 0.051280383 -0.020548282 0.047850158 0.043373656 -0.024797902
-0.0065306094 -0.032527655 -0.005722406 -0.02178559 -0.019855097 -0.0117435595 0.028880732 -0.021927986
0.20197415 0.2210383 0.052518316 0.407367 0.1357566 -0.6084267 0.031358097 0.40610945
-0.343574 0.166716 0.08330441 0.19919379 0.36480322 -0.2963498 0.08976538 0.1968771
-0.21047185 0.14785962 -0.07641308 -0.52206564 0.305933 -0.35979745 -0.08741486 -0.5295344
-0.17627388 -0.2067917 0.019522749 -0.16959414 0.030811507 0.8085775 0.069933094 -0.10546654
0.2073763 0.02732477 0.015821205 -0.39017144 -0.15474908 0.6337887 0.07552505 -0.3021215
00000000: 6735 6cbe be60 193c 2b1c 423d aeab 6d3e
00000010: 550f 9a3e dbb6 fb3d 0799 183b 36ce 803e
00000020: 0b07 44be 21da e13d 420b a03c 9985 bd3e
00000030: 8541 eb3e 3753 c13d 5071 2a3c 63fc 993e
00000040: 8640 c1be 1523 553e 9440 b83c e2df 173f
00000050: 17be 293e 5cdc 503f 2452 223c be3c 113f
00000060: e2b8 8bbe 8684 2ebf 0ff8 283d 6170 8d3d
00000070: 3383 c03e 4096 1abe b739 ba3d 4127 083d
00000080: 2213 e6be 7506 b6be 80a2 bfbb 3efc e1bc
00000090: 9e95 993e 9e30 1a3d 63c7 693d 100c 87bc
000000a0: 87ab 2dbe c623 83be aad8 643d 854a fd3c
000000b0: 45a1 66bf 2fbb 153f 1a54 583d b0b6 813c
000000c0: 39ff 3c3e bfa6 4abe 3b69 6b3d 6047 863e
000000d0: aea6 823e 3992 2c3e 9992 143d a253 a33e
000000e0: e3cd ae3c 86d8 8dbe e267 043c 1608 45be
000000f0: 8b55 f43d e9de 013e e539 5d3d 2aa6 1fbe
00000100: d69a ecbd e9aa 5abe bd8b 903e bfdf d13e
00000110: 095e 77be d6dd fcbe 31ee 853e 1914 d43e
00000120: edfe 49be 836c 83be 712d 463d 9cfc d73e
00000130: 9d15 87be 57d6 463f f343 57bc 9851 bc3e
00000140: 3df8 1bbe 60b9 13be 944a c2bd e8d1 e23d
00000150: b2ba 23ba ec98 eb3d 11e9 56bd c2ae d43d
00000160: adcc abbd 35e9 5ebe 54c3 9d3d cca8 acbe
00000170: 1160 013f a071 e93e 6287 af3d 20d6 9ebe
00000180: 07b5 643e d7d8 82be 4844 fabc c706 b73d
00000190: 89cb 4c3d d79c 52be caeb 013d 1fa7 3d3d
000001a0: ef18 373e 73d1 c1bd 73ff ee3c 8e1f d73d
000001b0: c643 92be 59f8 c1be 4fef a7bc 0cc7 043e
000001c0: d4c0 863e f4f3 94bd ca1e 0cbd aaad 16be
000001d0: 412f a2bf 5c4b 70bf e406 02bc 0c64 38be
000001e0: 6bcb aabc f7a0 113e 14ff e83c b045 3f3d
000001f0: d288 483f 632b e13d 7e50 20bd 8f12 a83d
00000200: 65ed 403d 0af8 f33d ceba fdbc 8e04 b23c
00000210: 7315 2740 0ea9 263d 0ca1 a73c 251b 193d
00000220: 813e 5a3d d4d9 a33c d7e0 753c 9e6d 4abc
00000230: cdb8 c33f 261a b73e 0999 7ebc 183e 8cbc
00000240: 3d36 103e 31ad 37bf 1350 99bd 84ac a9bc
00000250: 4fb8 7f3e ada0 b93e 23d6 2abe 1a1c babc
00000260: 9e0f 263e b182 e3be 1145 173e 1ed3 1f3f
00000270: d9be 263e 02f1 f73d 0dfc 143e fac8 233f
00000280: 2dff 2f3e 5eb5 01bf 11d3 ec3d 9750 913e
00000290: d09a 393e 1c20 a23d a348 fa3d 5f04 973e
000002a0: 5c81 71be bcb5 8e3e 6c7e 543a 8550 72be
000002b0: 6d08 9e3e 18cc 61be 897b a83d 6838 83be
000002c0: c204 b3be d3aa 743e 5e74 ffbc ce53 3c3d
000002d0: 1b10 dc3d 9ccd 11bf e118 96bc 000d 393d
000002e0: 1113 93be 6690 a63e 1934 c1bc 6afa 0e3b
000002f0: 0b02 83bd e5ca bfbf 89d7 0c3b c265 33bd
00000300: 6143 8e3c 04e9 f4bc 6d26 2c3d c508 3d3d
00000310: 2643 ab3c 1563 e43c 195a 763d 7f76 273d
00000320: 1040 143d effa 2abd 7700 873d 610b 523d
00000330: df54 a8bc 87fe 433d 93a8 313d f824 cbbc
00000340: b9fe d5bb b83b 05bd 0583 bbbb b277 b2bc
00000350: 28a7 a2bc 0f68 40bc 4997 ec3c 52a2 b3bc
00000360: 50d2 4e3e dd57 623e 721d 573d 6892 d03e
00000370: c703 0b3e dac1 1bbf 5971 003d 94ed cf3e
00000380: eee8 afbe 99b7 2a3e 819b aa3d 75f9 4b3e
00000390: 7dc7 ba3e 29bb 97be e9d6 b73d 279a 493e
000003a0: ef85 57be 8368 173e 767e 9cbd 18a6 05bf
000003b0: 40a3 9c3e 5f37 b8be 9006 b3bd 918f 07bf
000003c0: 2481 34be 34c1 53be 2cee 9f3c 16aa 2dbe
000003d0: 6a68 fc3c effe 4e3f 1539 8f3d d7fe d7bd
000003e0: 745a 543e 32d8 df3c 799b 813c 8dc4 c7be
000003f0: 8b76 1ebe fa3f 223f e1ac 9a3d abaf 9abe

fcs1.bias f4 [400]
0.058599386 0.03376171 0.12187064 0.04175814 -0.16381352 -0.012891289 0.0863794 0.0022059937
-0.010002777 -0.16186899 0.10126454 0.19947083 -0.18798411 0.0771447 0.022380285 -0.13947129
0.17673445 -0.13756356 0.023667976 0.04631095 0.03002603 0.16480826 -0.020556886 -0.11321605
0.06625488 -0.09839795 -0.079986796 -0.0055144965 -0.16347025 0.029687103 -0.20209482 0.19709478
0.022986023 0.18977132 -0.14672388 -0.12987897 0.14572649 -0.19640805 0.07949428 -0.17622146
0.11464436 -0.14999071 0.19789976 0.18448232 -0.036842804 -0.0669546 0.13265952 0.10213401
0.15134913 0.14894463 0.149815 0.18116793 -0.036622737 -0.14996892 0.08391707 0.10315506
-0.119865954 -0.09673175 0.07538174 -0.03796 0.07487615 -0.19511251 -0.123752564 0.047592636
0.06944722 -0.040710818 0.0508672 0.07833866 -0.12207323 0.1550626 0.084406 0.17720777
-0.007523592 0.12548524 -0.0793878 -0.08065138 -0.17066279 0.14265239 0.058277335 0.19603713
0.19624671 -0.06715153 0.05692302 0.16689965 -0.12966561 0.16406229 0.008424794 -0.19936101
-0.18758474 0.06860414 -0.0979732 0.11007809 0.15249367 0.06646847 -0.019742342 0.025768131
0.0713827 0.14978658 0.09028603 -0.18166351 0.112984724 -0.02159382 0.016424727 -0.12497067
0.17273113 0.012862867 0.053966288 0.20036979 -0.17022143 0.14539792 0.059109364 -0.18905121
-0.1389287 0.018761909 -0.105327666 -0.19410165 -0.02827833 0.05729142 -0.12507759 -0.12487021
0.087363385 -0.03791584 -0.17310642 -0.18282983 -0.108503625 -0.17545085 0.11604072 0.070502855
-0.081669345 -0.11208492 0.12266765 0.051221818 -0.15558262 0.051102933 0.11547355 0.01485061
0.08135686 -0.018327506 0.01172167 -0.09763432 0.054133136 -0.15245336 -0.09238051 -0.1013482
-0.10773121 0.17337354 -0.17224531 0.03286037 0.06674806 -0.06653651 0.1411221 0.024053728
-0.076740034 -0.20325248 -0.1459671 -0.013010375 0.18636665 0.10207346 0.0642499 -0.06321019
-0.050365787 0.054029953 -0.17088471 0.039327495 0.0074328114 0.051624056 -0.07173181 -0.19756131
0.07670798 0.031861454 -0.14381957 0.068112336 0.13230833 -0.03893035 -0.19561642 -0.09443622
0.0023286175 0.025988875 -0.15961754 -0.15963596 -0.0045017884 -0.05488802 -0.17906775 -0.1300681
0.137407 0.1469582 -0.0958652 -0.14901827 -0.16650054 -0.062004328 0.104493655 -0.058413737
0.119678214 0.018293798 -0.123145916 0.09945773 -0.1430177 -0.18086769 -0.08566864 -0.004826575
0.006594319 -0.010509288 0.14311443 0.13177721 0.09009392 -0.16094708 0.17484304 -0.063144326
0.20217802 0.17218286 0.107972525 -0.13741668 0.12091087 0.09988648 -0.1517032 0.03337427
0.0013840904 0.009332181 -0.15019134 0.15128225 -0.13714045 0.120925695 -0.01525395 -0.032625735
0.11421558 -0.043582547 -0.03250787 0.011228437 0.062698245 -0.12924795 -0.15165362 -0.17049254
-0.06760078 0.15800875 0.14186078 0.11499811 0.084710136 -0.19116442 0.15791887 0.10005853
0.19735302 -0.0010426448 0.05082029 0.05121551 0.12024872 0.14270693 0.16370465 0.18993264
-0.04262461 -0.16124623 -0.13199544 -0.1798959 -0.18331835 0.1569002 0.09347773 -0.080654085
00000000: e905 703d b849 0a3d 5097 f93d 950a 2b3d
00000010: bbbe 27be fc35 53bc afe7 b03d 6f92 103b
00000020: b0e2 23bc fcc0 25be c863 cf3d 1542 4c3e
00000030: e87e 40be 0afe 9d3d dc56 b73c 90d1 0ebe
00000040: e0f9 343e 76dd 0cbe 58e3 c13c 8db0 3d3d
00000050: 26f9 f53c 7fc3 283e ea66 a8bc d1dd e7bd
00000060: a3b0 873d dd84 c9bd 1ed0 a3bd f3b2 b4bb
00000070: bf64 27be 5e32 f33c f2f1 4ebe 37d3 493e
00000080: 2f4d bc3c 6a53 423e c93e 16be fefe 04be
00000090: 5339 153e 311f 49be e6cd a23d 6673 34be
000000a0: aaca ea3d 2a97 19be 3ca6 4a3e efe8 3c3e
000000b0: 7be8 16bd 7e1f 89bd e6d7 073e a32b d13d
000000c0: 44fb 1a3e f184 183e 1a69 193e 1684 393e
000000d0: b901 16bd 7491 19be b6dc ab3d f642 d33d
000000e0: 487c f5bd 4c1b c6bd be61 9a3d f27b 1bbd
000000f0: ab58 993d 93cb 47be fc71 fdbd 7ff0 423d
00000100: 583a 8e3d 63c0 26bd 205a 503d 0570 a03d
00000110: 8801 fabd bbc8 1e3e 0edd ac3d f475 353e
00000120: 7788 f6bb 347f 003e 1296 a2bd 8d2c a5bd
00000130: 3ac2 2ebe 7813 123e 37b4 6e3d f5bd 483e
00000140: e6f4 483e be86 89bd 1d28 693d bee7 2a3e
00000150: 10c7 04be f2ff 273e 2608 0a3c 4b25 4cbe
00000160: 3716 40be 5480 8c3d 2ca6 c8bd 9f70 e13d
00000170: 4d27 1c3e 9f20 883d b1ba a1bc b017 d33c
00000180: 1831 923d a761 193e e2e7 b83d 0006 3abe
00000190: 8964 e73d 86e5 b0bc 268d 863c 9ff0 ffbd
000001a0: 6ee0 303e c6be 523c c10b 5d3d bd2d 4d3e
000001b0: 874e 2ebe 31e3 143e a91c 723d a496 41be
000001c0: 5343 0ebe 93b2 993c 08b6 d7bd 95c2 46be
000001d0: f5a7 e7bc 68aa 6a3d 5714 00be f4bb ffbd
000001e0: 93eb b23d a44d 1bbd cf42 31be be37 3bbe
000001f0: 2637 debd 63a9 33be c2a6 ed3d cd63 903d
00000200: 4242 a7bd c78c e5bd 2d39 fb3d f8cd 513d
00000210: 0d51 1fbe 4f51 513d 667d ec3d f94f 733c
00000220: 6d9e a63d 9123 96bc 3f0c 403c 81f4 c7bd
00000230: b5ba 5d3d bc1c 1cbe fe31 bdbd a58f cfbd
00000240: 2ea2 dcbd d588 313e 1361 30be 9898 063d
00000250: 35b3 883d 4b44 88bd 5082 103e 530c c53c
00000260: e129 9dbd 6b21 50be 6678 15be 7829 55bc
00000270: e6d6 3e3e e40b d13d 7495 833d 5874 81bd
00000280: 5b4c 4ebd 834e 5d3d 67fc 2ebe de15 213d
00000290: f18e f33b bf73 533d 21e8 92bd 834d 4abe
000002a0: 1319 9d3d 2881 023d 7045 13be 7b7e 8b3d
000002b0: d67b 073e 6e75 1fbd ac4f 48be c767 c1bd
000002c0: b89b 183b 9fe6 d43c c872 23be 9c77 23be
000002d0: bd83 93bb 43d2 60bd 895d 37be 9230 05be
000002e0: 6cb4 0c3e 367c 163e f954 c4bd 3f98 18be
000002f0: 1e7f 2abe 40f8 7dbd c500 d63d 3e43 6fbd
00000300: da19 f53d e0dc 953c ed33 fcbd 7fb0 cb3d
00000310: 3b73 12be 6135 39be 0a73 afbd 3f28 9ebb
00000320: 2815 d83b 262f 2cbc 978c 123e 9bf0 063e
00000330: 2983 b83d 50cf 24be 0e0a 333e d051 81bd
00000340: c107 4f3e b450 303e b320 dd3d f5b6 0cbe
00000350: 1ea0 f73d 4891 cc3d 1558 1bbe 75b3 083d
00000360: 5e6a b53a 01e6 183c c2cb 19be bce9 1a3e
00000370: 8c6e 0cbe e4a7 f73d b4eb 79bc 90a2 05bd
00000380: dce9 e93d 9d83 32bd f926 05bd 7af7 373c
00000390: f067 803d 9359 04be 164b 1bbe 9995 2ebe
000003a0: 4772 8abd 0ccd 213e f443 113e 2184 eb3d
000003b0: 827c ad3d 9bc0 43be 7cb5 213e 7deb cc3d
000003c0: e916 4a3e 5ba9 88ba f028 503d 5bc7 513d
000003d0: f644 f63d c421 123e 31a2 273e b47d 423e
000003e0: 2597 2ebd bb1d 25be d029 07be a136 38be
000003f0: ceb7 3bbe 72aa 203e 4171 bf3d f82d a5bd

bn1.weight f4 [400]
0.315062 0.34111655 0.4511676 0.24790575 0.30705613 1.3942955 0.39047584 0.4829825
0.0022499557 0.27143347 0.543564 0.37931833 0.42872083 0.7092942 0.56992173 0.5427707
0.76064754 1.4416434 0.015741175 0.56582147 0.5077889 0.37927037 0.28136593 0.83910847
0.51832485 0.21040897 0.80250484 0.33515647 1.0222647 0.69736975 0.362013 0.25310677
0.31489205 0.69728225 0.88499224 0.29677662 0.46653003 0.25382516 0.30327702 0.8306868
0.5607308 0.4085156 0.71929055 0.5013014 0.426331 0.42913398 0.92813385 0.962735
0.35914373 0.78829217 0.43657154 0.54296845 0.6678383 0.6577491 0.98307216 0.45308638
0.3193343 -0.0002785022 0.22415528 1.172008 0.22613804 0.3706672 0.30950066 0.52172685
0.23039612 0.26809418 0.0009947848 0.37470835 0.30649805 0.29615083 0.34602574 0.3764333
0.2865488 1.0504098 0.34671226 0.23947775 0.22113362 0.3416861 0.31363356 0.28365365
0.22168995 0.3526198 0.46099508 0.7698699 0.31388202 0.41625518 0.341202 0.00036843403
0.09902402 0.37658986 0.28596586 0.4063113 0.8182802 0.25071263 0.27232286 -0.006247671
0.46336436 0.88233036 0.46211696 0.6435043 0.3996804 0.59222585 0.5341005 0.47736785
0.3997483 0.3118025 0.5216355 0.37932247 0.2688678 0.71133834 0.31851384 0.26719573
0.37713104 0.19434455 0.31089133 0.31551114 0.5941257 0.42289653 0.50185084 0.38203526
0.23335823 0.19167487 0.47543448 0.31721723 0.48924518 0.2560553 0.7656776 0.48145598
0.3190736 0.21294641 0.51481 0.28063098 0.4245078 0.5478509 0.32689524 0.53459495
1.209348 0.6256937 0.3971334 0.48953086 0.38277215 0.34747228 0.022601144 0.4903041
0.39728475 0.3565912 0.4989813 0.55388844 0.34408143 0.26702636 0.5141764 0.36639106
0.55314785 0.9143624 0.4312556 0.31820783 0.21312332 0.0055006235 0.35395628 0.39654654
0.28464207 1.0443621 0.48939568 0.31675494 0.260505 0.8993243 0.44436222 -0.00013482134
0.45634678 0.61539507 0.31033438 0.38780245 1.0301585 0.37416852 0.41088802 0.2437628
0.47123978 0.4058459 0.322723 0.41896117 0.2282841 0.727864 0.3862585 0.36774954
0.4620166 0.29014757 0.22390285 0.47934195 0.6282865 0.0004523012 0.4173617 0.25532824
0.4195345 0.2862874 0.6300944 0.6445763 0.494763 0.6638423 0.65984887 1.0426428
0.805132 0.5392615 0.30761188 0.46425855 0.6412034 0.6018089 0.44914216 0.486412
0.1648097 0.5789014 0.4313074 0.0015983202 0.22647332 0.19790448 0.321826 0.30283314
0.36026183 0.3039653 0.002364464 1.4139794 0.53733146 0.41511852 0.3975016 0.67329973
0.0081990585 0.15541464 0.30776966 0.462477 0.37502 0.6145662 0.5411955 0.49172276
0.7107482 0.4249322 0.49455905 0.29969907 0.4595275 0.617205 0.21974798 0.70526856
0.60629755 0.38249454 0.2593556 0.6331798 0.397737 -0.0062307674 0.27191135 0.2789697
0.556257 0.0006210335 0.2575862 0.6109297 0.56946456 0.3591028 0.5710957 0.52187127
00000000: ce4f a13e d4a6 ae3e 71ff e63e 01db 7d3e
00000010: 7636 9d3e 4678 b23f 73ec c73e 7b49 f73e
00000020: fe73 133b 54f9 8a3e 0327 0b3f 0336 c23e
00000030: 4c81 db3e 4e94 353f 64e6 113f 05f3 0a3f
00000040: ccb9 423f c587 b83f a3f3 803c add9 103f
00000050: 74fe 013f ba2f c23e 320f 903e d0cf 563f
00000060: f0b0 043f 7375 573e f570 4d3f a199 ab3e
00000070: 92d9 823f d386 323f c559 b93e 3697 813e
00000080: 8839 a13e 1781 323f da8e 623f 1bf3 973e
00000090: 06dd ee3e 5ff5 813e 2047 9b3e e4a7 543f
000000a0: 0e8c 0f3f f528 d13e 6d23 383f 4a55 003f
000000b0: 0f48 da3e 73b7 db3e 2e9a 6d3f cd75 763f
000000c0: b0e1 b73e 84cd 493f 4e86 df3e fbff 0a3f
000000d0: 73f7 2a3f 3f62 283f 9eaa 7b3f f0fa e73e
000000e0: c97f a33e ef03 92b9 f688 653e 5c04 963f
000000f0: bb90 673e 17c8 bd3e df76 9e3e e48f 053f
00000100: f6ec 6b3e a443 893e 7063 823a c6d9 bf3e
00000110: 50ed 9c3e 15a1 973e 492a b13e debb c03e
00000120: 86b6 923e d473 863f 4584 b13e a839 753e
00000130: da70 623e 7bf1 ae3e 9494 a03e 0d3b 913e
00000140: b102 633e 958a b43e 8c07 ec3e 3216 453f
00000150: 25b5 a03e 661f d53e 07b2 ae3e 612a c139
00000160: 1bcd ca3d 63d0 c03e 1e6a 923e 0908 d03e
00000170: d07a 513f 685d 803e e76d 8b3e 43b9 ccbb
00000180: 183e ed3e 67e0 613f 989a ec3e b3bc 243f
00000190: e9a2 cc3e 1d9c 173f cfba 083f 8f69 f43e
000001a0: cfab cc3e 94a4 9f3e e789 053f 8e36 c23e
000001b0: 0aa9 893e 451a 363f 3f14 a33e e1cd 883e
000001c0: 5217 c13e 4202 473e 262d 9f3e ad8a a13e
000001d0: 9f18 183f e585 d83e 4c79 003f 209a c33e
000001e0: 76f5 6e3e 6b46 443e 266c f33e 4c6a a23e
000001f0: 587e fa3e ae19 833e 7203 443f 6681 f63e
00000200: 9d5d a33e a00e 5a3e 97ca 033f ddae 8f3e
00000210: 1659 d93e f53f 0c3f d05e a73e 37db 083f
00000220: eacb 9a3f 762d 203f 1255 cb3e caa3 fa3e
00000230: b6fa c33e e3e7 b13e 0926 b93c 2409 fb3e
00000240: e868 cb3e 1f93 b63e 7a7a ff3e a2cb 0d3f
00000250: 712b b03e aeb7 883e 11a1 033f 9c97 bb3e
00000260: 199b 0d3f a713 6a3f 89cd dc3e 23ec a23e
00000270: 003d 5a3e 933e b43b c239 b53e 2608 cb3e
00000280: 9bbc 913e a8ad 853f 1292 fa3e b42d a23e
00000290: e960 853e 1e3a 663f 7283 e33e d45e 0db9
000002a0: 49a6 e93e 888a 1d3f 26e4 9e3e 0b8e c63e
000002b0: 3cdc 833f 0493 bf3e ea5f d23e f59c 793e
000002c0: 5746 f13e 09cb cf3e f33b a53e 1482 d63e
000002d0: 4fc3 693e 4c55 3a3f adc3 c53e ab49 bc3e
000002e0: 718d ec3e 398e 943e ca46 653e 4f6c f53e
000002f0: 62d7 203f d722 ed39 6fb0 d53e 62ba 823e
00000300: 3acd d63e 4394 923e de4d 213f f402 253f
00000310: 9351 fd3e 92f1 293f dbeb 283f 5275 853f
00000320: 211d 4e3f 0b0d 0a3f 4e7f 9d3e 4cb3 ed3e
00000330: e825 243f 2610 1a3f f6f5 e53e fe0a f93e
00000340: e0c3 283e e232 143f 53d4 dc3e ba7e d13a
00000350: 9fe8 673e 79a7 4a3e 61c6 a43e f20c 9b3e
00000360: 3d74 b83e 57a1 9b3e 20f5 1a3b 47fd b43f
00000370: 8e8e 093f 6a8a d43e 5485 cb3e 5f5d 2c3f
00000380: 5855 063c 0425 1f3e fc93 9d3e c9c9 ec3e
00000390: 9f02 c03e 3654 1d3f ca8b 0a3f 16c3 fb3e
000003a0: 98f3 353f b790 d93e d836 fd3e 2872 993e
000003b0: 3047 eb3e 2601 1e3f 9d05 613e 7b8c 343f
000003c0: 5136 1b3f 53d6 c33e 42ca 843e 1218 223f
000003d0: 2fa4 cb3e 772b ccbb f737 8b3e 1ed5 8e3e
000003e0: dc66 0e3f dacc 223a 57e2 833e e465 1c3f
000003f0: 6ec8 113f 52dc b73e 5433 123f 5b99 053f

bn1.bias f4 [400]
-0.51170915 -0.26537362 -0.3720575 0.13420884 -0.37271008 0.040522557 -0.32284907 -0.264099
-0.007906818 -0.22331789 -0.107591525 -0.25948396 -0.35041875 -0.4788974 -0.2991735 -0.53987414
0.052185576 0.54968727 -0.05405429 -0.32610035 -0.15098383 -0.5487233 -0.23212788 -0.21181624
-0.45690462 -0.29664272 -0.82290053 -0.24604014 -0.7558085 -0.266367 -0.13744175 -0.13514565
-0.3021205 -0.2848394 -0.47213006 -0.32486546 -0.3088661 -0.33385983 -0.30093017 -0.003177282
-0.24325264 -0.3248203 -0.25397274 0.079698496 -0.091507286 -0.41680878 -0.48549682 -0.026893767
-0.10064116 -0.11559516 -0.3378699 -0.32055774 0.07647348 -0.43036556 -0.2651238 -0.31707904
-0.25751746 -0.004356691 -0.2885126 -0.28526956 -0.38674125 0.07924246 -0.3787709 -0.35213017
-0.31157842 -0.14068466 -0.012329554 -0.3643991 -0.2568572 -0.05270461 -0.63528705 -0.27770954
0.0937881 -0.2366006 -0.5435241 -0.082337424 -0.28209502 -0.33879146 -0.29372314 -0.30371967
-0.2414231 -0.34389797 -0.28835097 -0.2769066 -0.36791584 -0.16952148 -0.13191536 -0.037902273
-0.01163964 -0.09223324 -0.3152006 -0.11593896 -0.665626 -0.17710759 -0.22537151 -0.038620006
-0.36550465 -0.25834906 -0.3265694 -0.3739138 -0.42490682 -0.15378973 -0.2323826 -0.27181992
-0.40219218 -0.43369967 -0.29561168 -0.26296824 -0.38377517 -0.29658842 -0.18155375 -0.35104698
-0.4657991 0.054813057 -0.296804 -0.32144767 -0.47798085 -0.09005571 -0.30650616 -0.42135888
-0.11533558 -0.16329052 -0.4416887 0.041542206 -0.38249543 -0.2843211 0.0184705 0.048052043
-0.2505482 -0.19851442 -0.39235127 -0.39007035 -0.19319813 -0.6134139 -0.3534284 -0.09618281
-0.3220521 -0.5089801 -0.4451316 -0.15324496 -0.26639146 -0.25179932 -0.10886008 -0.22143039
-0.4559052 -0.3469417 -0.3371871 -0.29156065 -0.26724225 -0.3774971 0.07568637 -0.43714815
-0.22369918 -0.13327894 -0.38328415 -0.29286397 -0.16168003 -0.037313372 -0.3040014 -0.42192155
-0.37228382 -0.04100898 -0.4028556 -0.45831534 -0.3685326 -0.21644853 -0.57650274 -0.0031035314
-0.316275 -0.32992935 -0.22149704 -0.45959112 -0.23049736 -0.37592858 -0.47237235 -0.22096743
-0.2923776 -0.3036934 -0.14235502 -0.348233 -0.26810896 -0.3240418 -0.37762764 -0.338566
-0.39004076 -0.23243691 -0.31051698 -0.21891558 -0.21566023 -0.003191528 -0.4220434 -0.3648763
-0.4068164 -0.23543963 -0.5110028 -0.31076702 -0.15275444 -0.46054474 -0.5253468 -0.6474782
-0.23733835 -0.082972355 -0.28609085 -0.027694486 -0.6333814 -0.28932503 -0.3187164 -0.19024687
-0.06434595 -0.21266027 -0.3142773 -0.019471368 -0.23340242 -0.280336 -0.21387462 -0.22348215
-0.33406585 -0.10549553 -0.007100532 -0.037739072 -0.28054014 -0.14871855 -0.31421068 -0.058288325
-0.030274756 -0.24175431 -0.2551839 -0.3111039 -0.14278884 -0.30111974 -0.5297271 -0.4517976
0.03437952 -0.44012642 -0.37753284 -0.38582018 -0.19933903 -0.30983016 -0.24059428 -0.030720957
-0.6256361 -0.25228745 -0.3228165 -0.01936597 -0.06713046 -0.062359832 -0.2959979 -0.37215552
0.12615563 -0.011511913 -0.27060825 0.035759766 -0.32112312 -0.39069548 -0.35321042 -0.34464923
00000000: 5fff 02bf 0ddf 87be 527e bebe 0b6e 093e
00000010: dbd3 bebe fbfa 253d 794c a5be fc37 87be
00000020: 998b 01bc 72ad 64be f258 dcbd 15db 84be
00000030: 166a b3be 0a32 f5be 452d 99be 3135 0abf
00000040: 8bc0 553d 4eb8 0c3f 0868 5dbd a0f6 a6be
00000050: 819b 1abe 2179 0cbf eeb2 6dbe 5be6 58be
00000060: 67ef e9be 8ee1 97be 9ca9 52bf f2f1 7bbe
00000070: aa7c 41bf 4161 88be 88bd 0cbe 9f63 0abe
00000080: 8aaf 9abe 78d6 91be 08bb f1be c454 a6be
00000090: b323 9ebe adef aabe 8513 9abe f239 50bb
000000a0: 3817 79be d94e a6be b708 82be f738 a33d
000000b0: 2c68 bbbd f667 d5be 0a93 f8be 5150 dcbc
000000c0: f41c cebd 28bd ecbd 49fd acbe 2520 a4be
000000d0: 219e 9c3d e058 dcbe 4fbe 87be 2f58 a2be
000000e0: 54d9 83be 93c2 8ebb ecb7 93be da0e 92be
000000f0: f302 c6be df49 a23d 42ee c1be 684a b4be
00000100: 3587 9fbe a40f 10be e601 4abc 8592 babe
00000110: c982 83be cae0 57bd 2ca2 22bf f22f 8ebe
00000120: fa13 c03d 6d47 72be 6524 0bbf 86a0 a8bd
00000130: c26e 90be 1376 adbe e162 96be 2581 9bbe
00000140: 9e37 77be 6513 b0be bda2 93be b4c6 8dbe
00000150: 775f bcbe 0a97 2dbe d214 07be 6a3f 1bbd
00000160: 30b4 3ebc c8e4 bcbd f961 a1be 6871 edbd
00000170: 7766 2abf b15b 35be cac7 66be 0330 1ebd
00000180: 6d23 bbbe 5446 84be 1b34 a7be a171 bfbe
00000190: 638d d9be 0e7b 1dbe b4f5 6dbe fb2b 8bbe
000001a0: 22ec cdbe e20d debe 6a5a 97be c6a3 86be
000001b0: 2e7e c4be 70da 97be 3ae9 39be 6ebc b3be
000001c0: 387d eebe a883 603d b2f6 97be ca94 a4be
000001d0: e8b9 f4be 216f b8bd 60ee 9cbe 5abc d7be
000001e0: 1035 ecbd a135 27be 0525 e2be 2928 2a3d
000001f0: 71d6 c3be 8992 91be 724f 973c 38d2 443d
00000200: db47 80be 5d47 4bbe 44e2 c8be 4db7 c7be
00000210: bbd5 45be b108 1dbf 91f4 b4be 7efb c4bd
00000220: 03e4 a4be 854c 02bf 4ae8 e3be 3fec 1cbe
00000230: 7664 88be d7eb 80be 09f2 debd a6be 62be
00000240: 686c e9be 58a2 b1be caa3 acbe 7047 95be
00000250: fad3 88be 4d47 c1be 7501 9b3d e2d1 dfbe
00000260: 6611 65be 467a 08be d23d c4be 44f2 95be
00000270: 738f 25be e8d5 18bd 12a6 9bbe 1a06 d8be
00000280: fc9b bebe 08f9 27bd 1743 cebe 4fa8 eabe
00000290: 4eb0 bcbe afa4 5dbe af95 13bf 9e64 4bbb
000002a0: ccee a1be 80ec a8be 1fd0 62be 874f ebbe
000002b0: 8007 6cbe b679 c0be cada f1be 4945 62be
000002c0: 84b2 95be b47d 9bbe 84c5 11be 994b b2be
000002d0: 9445 89be cfe8 a5be 6958 c1be 8658 adbe
000002e0: 6cb3 c7be f103 6ebe 15fc 9ebe 682b 60be
000002f0: 09d6 5cbe f428 51bb 1316 d8be 11d1 babe
00000300: 3d4a d0be 1617 71be 14d1 02bf db1c 9fbe
00000310: a96b 1cbe 85cc ebbe 217d 06bf 22c1 25bf
00000320: d308 73be 69ed a9bd 807a 92be 8cdf e2bc
00000330: 4925 22bf 6922 94be cc2e a3be 13d0 42be
00000340: cfc7 83bd 9dc3 59be f4e8 a0be 6b82 9fbc
00000350: 0b01 6fbe 3388 8fbe f301 5bbe 81d8 64be
00000360: ae0a abbe 0a0e d8bd 94ab e8bb 4994 1abd
00000370: f5a2 8fbe ad49 18be 39e0 a0be bdbf 6ebd
00000380: c402 f8bc 718e 77be 77a7 82be 0349 9fbe
00000390: 3d37 12be 5e2c 9abe 329c 07bf 0452 e7be
000003a0: 8ad1 0c3d 4058 e1be fc4b c1be 398a c5be
000003b0: 881f 4cbe 0fa2 9ebe 595e 76be 84aa fbbc
000003c0: b029 20bf d22b 81be 3448 a5be 62a5 9ebc
000003d0: b27b 89bd 066d 7fbd 098d 97be 2b8b bebe
000003e0: f12e 013e 769c 3cbc 2a8d 8abe d578 123d
000003f0: 406a a4be 3d09 c8be ffd7 b4be dd75 b0be

bn1.running_mean f4 [400]
8.398987 10.223652 1.6814991 7.452215 -8.082481 -0.711979 0.35641685 0.16542181
0.52843195 -0.9673361 0.72633183 14.57074 3.706843 2.0100024 4.4543753 -10.590263
3.4462607 1.8325775 0.046515018 0.76135504 -1.413244 2.8278713 5.0468383 4.693833
-2.5107772 0.6890522 2.0414295 -5.2357736 -0.34695524 -4.1177287 -12.113058 0.593554
-0.5124116 5.2018795 -0.5614849 -8.032331 6.6223955 -1.1171831 -5.8611193 0.8625365
8.607265 -7.8877726 -1.2412403 3.2248702 12.093237 -8.360986 -1.1243426 6.3531637
10.084835 -2.1010652 -5.3340893 6.892828 2.7641714 -7.421479 -0.7356386 3.6319783
1.9232656 -0.6334126 6.624746 -2.9276729 -4.682621 3.1863406 -0.9999929 8.084259
-2.9629664 -0.46964473 -0.6369373 5.3539186 8.943296 -1.1513917 -3.3056338 12.692453
8.756393 6.2797294 -6.8005304 -4.6889143 5.571787 -5.858538 8.918854 3.2277443
-0.32590395 -2.97578 3.6296642 8.506053 -0.6597893 4.696701 7.031369 0.07686077
7.8612657 -1.7441801 1.2011908 4.163429 -16.516436 -14.652882 -7.6605086 -0.18335694
1.3127662 1.0842465 0.1814004 -1.3771276 14.296133 7.0712547 7.108108 4.1052732
2.4764206 0.889501 8.257063 4.6073837 1.4933052 0.3874523 9.3712225 -2.112552
0.1715518 4.3108 -1.3267522 6.3127384 -0.54999965 -5.249703 7.4540324 6.165048
1.1096015 7.8772144 0.2556353 6.5332446 8.13678 17.67524 4.6519585 4.8882217
11.6086035 1.0197201 3.6298409 -8.525013 2.728021 5.1760426 2.6020377 -6.5609894
5.4082856 2.1091852 -2.5921307 6.2930617 1.9535873 -3.7526252 -0.99447966 12.548836
-8.748388 -4.8353677 2.098499 2.6219256 7.3496995 2.2146397 -3.0902143 -0.38293839
-4.9773955 6.4770465 3.3864143 2.0329444 5.037869 -0.24451694 8.074199 9.476982
12.737955 0.6340311 -10.703068 -0.6824901 -0.5504661 -3.7599094 -2.49739 -0.055589613
0.009387626 2.461309 13.209545 12.8979435 1.4691491 -4.121924 -2.8526714 1.523683
11.3493805 1.1331887 -1.4543797 -2.4570854 -7.9087253 -13.122782 2.9467578 0.9864638
12.811613 12.643303 -4.7055125 -12.705595 2.418743 -0.76007104 6.840146 -10.362615
1.7937874 1.2444202 4.5476646 -0.17278886 7.874692 15.64542 1.8923298 1.502786
9.132344 4.6209903 -0.5960734 -3.502041 -9.788362 -5.8683047 -3.2240689 1.6049459
-1.2556949 -0.75494844 3.2206185 -0.13927089 -11.773414 12.217015 8.171769 9.893375
4.121933 0.17415088 0.26576716 -1.2358291 -3.6804886 -5.380481 -3.4931931 4.5076904
0.5670644 10.51283 10.097937 0.37518585 -13.495656 0.58222944 3.3535445 13.107796
3.7294774 0.14865588 10.4576845 -3.48776 14.039367 -5.2913237 -2.4561093 3.0674942
10.966954 4.4935207 -9.462216 -4.9629073 0.09821386 -0.9519024 -4.7839413 1.1916236
9.69529 -1.0567789 5.7954803 -7.099588 -0.00048109452 -12.634845 -12.2492075 -2.7104044
00000000: 4062 0641 1494 2341 5d3b d73f 8c78 ee40
00000010: d851 01c1 4144 36bf 457c b63e 5664 293e
00000020: 5147 073f 57a3 77bf e2f0 393f c021 6941
00000030: ea3c 6d40 e1a3 0040 3e8a 8e40 b871 29c1
00000040: 898f 5c40 e691 ea3f 8886 3e3d 2ae8 423f
00000050: 2ee5 b4bf d8fb 3440 b37f a140 e133 9640
00000060: 93b0 20c0 ba65 303f c8a6 0240 758b a7c0
00000070: 1ea4 b1be 6fc4 83c0 16cf 41c1 28f3 173f
00000080: 682d 03bf cc75 a640 79bd 0fbf 6e84 00c1
00000090: aaea d340 dbff 8ebf 4a8e bbc0 31cf 5c3f
000000a0: 5cb7 0941 a268 fcc0 f6e0 9ebf 4664 4e40
000000b0: e67d 4141 99c6 05c1 75ea 8fbf 1e4d cb40
000000c0: 7c5b 2141 da77 06c0 dcb0 aac0 0c92 dc40
000000d0: 2fe8 3040 c27c edc0 d052 3cbf 5572 6840
000000e0: 912d f63f 5427 22bf ebfd d340 fe5e 3bc0
000000f0: 08d8 95c0 01ed 4b40 89ff 7fbf 2059 0141
00000100: 3ea1 3dc0 4675 f0be 530e 23bf 4d53 ab40
00000110: be17 0f41 ce60 93bf 818f 53c0 4a14 4b41
00000120: 301a 0c41 8bf3 c840 f29d d9c0 960b 96c0
00000130: 144c b240 2579 bbc0 a0b3 0e41 5d93 4e40
00000140: e2dc a6be 2e73 3ec0 6b4c 6840 cb18 0841
00000150: f4e7 28bf 604b 9640 fa00 e140 2e69 9d3d
00000160: 7d8f fb40 4b41 dfbf 9fc0 993f cf3a 8540
00000170: a921 84c1 3472 6ac1 e322 f5c0 ecc1 3bbe
00000180: b908 a83f 97c8 8a3f 07c1 393e b845 b0bf
00000190: f6bc 6441 b847 e240 9f75 e340 665e 8340
000001a0: ad7d 1e40 56b6 633f ee1c 0441 b06f 9340
000001b0: a024 bf3f 2660 c63e 87f0 1541 0d34 07c0
000001c0: 46ab 2f3e 13f2 8940 04d3 a9bf f401 ca40
000001d0: c7cc 0cbf 91fd a7c0 6f87 ee40 1348 c540
000001e0: 6c07 8e3f 2412 fc40 a1e2 823e 5710 d140
000001f0: 4030 0241 e466 8d41 d8dc 9440 506c 9c40
00000200: d7bc 3941 3086 823f 504f 6840 7466 08c1
00000210: e597 2e40 24a2 a540 c987 2640 a0f3 d1c0
00000220: ad10 ad40 e4fc 0640 78e5 25c0 c360 c940
00000230: 260f fa3f 032b 70c0 3896 7ebf 08c8 4841
00000240: 66f9 0bc1 55bb 9ac0 cf4d 0640 a1cd 2740
00000250: bd30 eb40 a8bc 0d40 12c6 45c0 8010 c4be
00000260: d346 9fc0 f743 cf40 03bb 5840 c31b 0240
00000270: 3936 a140 a662 7abe eb2f 0141 b8a1 1741
00000280: aace 4b41 dd4f 223f c43f 2bc1 acb7 2ebf
00000290: 59eb 0cbf 5ba2 70c0 3dd5 1fc0 efb1 63bd
000002a0: 8fce 193c 1686 1d40 4c5a 5341 fa5d 4e41
000002b0: 140d bc3f cde6 83c0 2b92 36c0 0b08 c33f
000002c0: 1097 3541 540c 913f 1d29 babf e340 1dc0
000002d0: 4714 fdc0 eaf6 51c1 ae97 3c40 e488 7c3f
000002e0: 5efc 4c41 f84a 4a41 8f93 96c0 1e4a 4bc1
000002f0: afcc 1a40 0494 42bf 7ae2 da40 45cd 25c1
00000300: d39a e53f 2949 9f3f 7886 9140 90ef 30be
00000310: 7afd fb40 a453 7a41 dd37 f23f 4b5b c03f
00000320: 151e 1241 27df 9340 4498 18bf 7121 60c0
00000330: 219d 1cc1 27c9 bbc0 2557 4ec0 de6e cd3f
00000340: 9cba a0bf 4d44 41bf 9d1e 4e40 079d 0ebe
00000350: e75f 3cc1 e578 4341 91bf 0241 444b 1e41
00000360: e0e6 8340 9c54 323e a212 883e a62f 9ebf
00000370: 208d 6bc0 e62c acc0 7a90 5fc0 003f 9040
00000380: 222b 113f 8d34 2841 2691 2141 5c18 c03e
00000390: 35ee 57c1 fd0c 153f 79a0 5640 88b9 5141
000003a0: c2af 6e40 3f39 183e ad52 2741 7637 5fc0
000003b0: 3fa1 6041 8652 a9c0 e530 1dc0 d351 4440
000003c0: a578 2f41 ecca 8f40 3d65 17c1 23d0 9ec0
000003d0: 5924 c93d e0af 73bf 0c16 99c0 1f87 983f
000003e0: e81f 1b41 8844 87bf 9374 b940 d32f e3c0
000003f0: 6a3b fcb9 5328 4ac1 c1fc 43c1 4477 2dc0

bn1.running_var f4 [400]
44.65247 19.736307 131.09225 33.55598 83.79379 801.17065 104.24338 27.392565
9.552947 45.772137 30.769888 124.99724 120.189926 48.76292 69.05983 29.091425
42.889885 7.6935625 5.2971473 31.07152 40.213253 14.863789 32.34631 14.516641
235.7757 14.996434 37.93514 117.88287 14.489332 35.272804 51.010784 130.79892
39.849594 30.222486 26.938494 104.45662 78.55731 92.978745 111.98227 12.441179
47.890377 164.30101 94.42488 11.823372 35.639206 179.33398 24.453411 65.23789
39.88307 83.302864 46.229626 52.53249 22.988451 45.138195 12.804237 117.43401
69.23371 2.148681 103.873985 217.45854 40.263374 71.96118 43.912426 123.92707
148.03864 53.353725 6.0935483 42.3418 23.558912 56.022675 36.70245 110.761406
38.026817 18.353132 38.623486 85.350784 66.09789 59.331577 35.947857 72.42526
104.35681 145.57379 71.204704 36.361977 70.68617 60.067535 151.67249 5.372248
49.963783 76.54125 52.060673 42.88336 36.107056 43.198563 89.72604 6.030247
66.39248 4.5630407 90.78996 41.57959 50.802258 45.011723 16.368444 40.769196
36.483353 90.049164 13.141844 63.35984 52.51282 11.817286 14.748387 101.59018
76.834274 43.776352 125.24254 129.86612 32.710022 86.476 55.973602 55.28906
140.93007 79.41863 55.62579 19.528847 44.784336 112.79236 31.321543 60.499737
95.62014 55.203934 14.19663 90.71202 51.357975 56.88227 79.14723 74.99862
375.67166 41.668118 38.25626 27.045118 53.101643 160.33897 8.727625 47.289955
142.29205 72.93599 90.408066 92.72805 27.434118 144.38036 24.929955 124.67472
55.79949 24.230177 75.95198 79.01802 178.28313 2.5741444 32.24923 114.28068
49.36645 3.408437 35.330696 46.10503 46.869152 51.7427 123.42477 3.77902
107.88523 57.245472 69.64484 57.824425 5.4226575 94.44288 71.147964 92.16132
119.76139 13.871696 85.27069 69.70918 84.2653 58.316887 19.31257 41.92577
103.7642 124.100044 89.832115 37.27863 10.7465515 9.029363 41.744423 50.795296
49.253548 62.797985 27.609812 17.463531 22.835514 55.75951 5.0241613 8.281461
32.593735 40.93636 36.392437 39.28505 43.242683 150.71262 33.141636 123.55851
193.99722 71.76845 52.043674 3.2393503 34.012245 91.7327 58.975964 172.67899
90.88064 16.536142 5.300567 534.1683 54.195087 63.12241 62.237465 7.976373
5.792219 68.61318 101.61881 22.161726 64.73299 35.349392 31.071985 132.59874
30.303093 91.397 59.592148 57.64755 41.667667 48.958992 107.486916 245.08292
69.83664 130.58057 58.991673 164.2098 40.128803 5.583748 83.90281 110.263565
160.90443 3.9864411 93.55097 54.808178 25.146173 49.634224 49.501335 123.41745
00000000: 219c 3242 f5e3 9d41 9e17 0343 5339 0642
00000010: 6c96 a742 ec4a 4844 9c7c d042 f923 db41
00000020: dfd8 1841 ab16 3742 bb28 f641 96fe f942
00000030: 3e61 f042 3b0d 4342 a21e 8a42 3dbb e841
00000040: 3e8f 2b42 aa31 f640 3b82 a940 7992 f841
00000050: 5fda 2042 14d2 6d41 9f62 0142 2944 6841
00000060: 94c6 6b43 65f1 6f41 95bd 1742 08c4 eb42
00000070: 4ed4 6741 5a17 0d42 0b0b 4c42 86cc 0243
00000080: fc65 1f42 a7c7 f141 0982 d741 cae9 d042
00000090: 581d 9d42 1ef5 b942 ecf6 df42 120f 4741
000000a0: bf8f 3f42 0f4d 2443 8ad9 bc42 882c 3d41
000000b0: 8c8e 0e42 8055 3343 96a0 c341 cd79 8242
000000c0: 4488 1f42 119b a642 23eb 3842 4521 5242
000000d0: 59e8 b741 838d 3442 28de 4c41 37de ea42
000000e0: a977 8a42 fd83 0940 7bbf cf42 6375 5943
000000f0: b20d 2142 20ec 8f42 53a6 2f42 a9da f742
00000100: e409 1443 376a 5542 59fe c240 015e 2942
00000110: a778 bc41 3817 6042 4fcf 1242 d785 dd42
00000120: 761b 1842 37d3 9241 737e 1a42 9ab3 aa42
00000130: 1f32 8442 8953 6d42 9bca 0f42 bcd9 9042
00000140: b0b6 d042 e492 1143 cf68 8e42 aa72 1142
00000150: 525f 8d42 2845 7042 28ac 1743 75e9 ab40
00000160: eada 4742 1f15 9942 213e 5042 9088 2b42
00000170: a06d 1042 54cb 2c42 bc73 b342 c9f7 c040
00000180: f3c8 8442 6e04 9240 7694 b542 8051 2642
00000190: 8335 4b42 010c 3442 93f2 8241 a813 2342
000001a0: f4ee 1142 2c19 b442 fe44 5241 7a70 7d42
000001b0: 210d 5242 9a13 3d41 65f9 6b41 2c2e cb42
000001c0: 26ab 9942 fc1a 2f42 2e7c fa42 badd 0143
000001d0: 10d7 0242 b6f3 ac42 f8e4 5f42 ff27 5d42
000001e0: 19ee 0c43 57d6 9e42 cf80 5e42 143b 9c41
000001f0: 2923 3342 b095 e142 8592 fa41 bbff 7142
00000200: 833d bf42 d4d0 5c42 6525 6341 8e6c b542
00000210: 916e 4d42 7287 6342 624b 9e42 4bff 9542
00000220: f9d5 bb43 27ac 2642 6906 1942 675c d841
00000230: 1568 5442 c756 2043 5aa4 0b41 ea28 3d42
00000240: c44a 0e43 3adf 9142 eed0 b442 c374 b942
00000250: 1379 db41 5f61 1043 8c70 c741 7559 f942
00000260: ae32 5f42 67d7 c141 6ae7 9742 3a09 9e42
00000270: 7b48 3243 c8be 2440 36ff 0042 b58f e442
00000280: 3f77 4542 d523 5a40 a252 0d42 8d6b 3842
00000290: 037a 3b42 86f8 4e42 7bd9 f642 77db 7140
000002a0: 3dc5 d742 5dfb 6442 284a 8b42 364c 6742
000002b0: 6986 ad40 c1e2 bc42 c24b 8e42 9952 b842
000002c0: d585 ef42 78f2 5d41 988a aa42 1a6b 8b42
000002d0: d587 a842 7e44 6942 2580 9a41 fdb3 2742
000002e0: 4587 cf42 3933 f842 0baa b342 511d 1542
000002f0: e0f1 2b41 4578 1041 4afa 2642 622e 4b42
00000300: a203 4542 2331 7b42 e5e0 dc41 50b5 8b41
00000310: 22af b641 bd09 5f42 eec5 a040 dd80 0441
00000320: fc5f 0242 d5be 2342 db91 1142 e423 1d42
00000330: 82f8 2c42 6eb6 1643 0991 0442 f51d f742
00000340: 4aff 4143 7289 8f42 b92c 5042 8451 4f40
00000350: 8a0c 0842 2477 b742 63e7 6b42 d2ad 2c43
00000360: e3c2 b542 054a 8441 3f9e a940 c58a 0544
00000370: c5c7 5842 597d 7c42 2af3 7842 733e ff40
00000380: dc59 b940 f339 8942 d53c cb42 374b b141
00000390: 4a77 8142 c765 0d42 6d93 f841 4799 0443
000003a0: bc6c f241 44cb b642 5c5e 6e42 1797 6642
000003b0: b1ab 2642 02d6 4342 4df9 d642 3a15 7543
000003c0: 5cac 8b42 a094 0243 79f7 6b42 b535 2443
000003d0: e583 2042 10ae b240 3dce a742 f286 dc42
000003e0: 89e7 2043 da21 7f40 191a bb42 933b 5b42
000003f0: 5d2b c941 7289 4642 5e01 4642 bcd5 f642

fc2.weight f4 [300, 402]
-0.031662755 0.015467259 0.036761336 -0.05621419 -0.036879234 0.013255352 -0.0017671607 -0.07531755
-0.0234483 -0.06572862 -0.015068946 -0.024801586 0.014035404 -0.03746505 0.006188433 -0.029528897
-0.06005246 -0.05126271 -0.03365302 0.02678462 0.0013449611 0.013028838 0.007978767 -0.060771093
0.0033101758 0.04421487 -0.05081558 0.0016434535 -0.05032827 -0.039071485 -0.010329671 -0.04873546
0.0020689468 -0.0010979563 -0.012780367 0.03958111 0.043204702 -0.019297585 -0.05332002 -0.01913201
-0.007410435 0.04323999 -0.06366691 0.03966272 -0.04689313 -0.02602015 -0.038612198 -0.056356676
-0.04795496 -0.029577559 -0.072273485 0.027173406 -0.030590901 -0.053486157 0.004308469 0.009189577
-0.06392827 0.034683764 -0.022829253 -0.061437923 0.025683498 0.020967633 -0.06985083 -0.090206824
-0.048768904 0.011157122 0.03719917 -0.058151774 -0.039224286 -0.04760163 -0.012963168 0.015604534
0.01667012 -0.04060678 -0.05379073 0.021776395 -0.056071434 -0.104448125 0.016783945 -0.042942736
-0.035534643 -0.001330227 -0.040481433 -0.031841442 0.0022545124 0.005370667 -0.0093806535 -0.00033623353
0.04248761 0.018669885 0.01500948 -0.0148355905 0.004595803 -0.054276347 -0.011088843 0.033445075
-0.014597359 -0.05944086 0.02069797 0.0048080096 0.003101038 -0.06679569 0.0036104592 -0.050763424
0.013389208 -0.07219353 -0.07524689 0.040374916 0.011125852 -0.06863119 -0.030679056 -0.014902787
-0.022346245 0.04013274 -0.046641868 -0.022731617 0.03864974 -0.042236634 -0.03578686 -0.056252033
-0.07536216 -0.03976715 0.027449142 0.015748976 0.006323967 -0.059124522 0.01726161 0.0066707907
0.015224771 -0.05132011 0.031934503 -0.0057540713 0.019615727 -0.043683335 -0.010654455 -0.0056344336
-0.05276091 -0.038107593 -0.09307959 -0.036358897 -0.008470208 -0.0074999738 -0.02362192 -0.010775626
-0.04776999 -0.065374434 -0.05186562 -0.003687671 0.02545623 -0.0671102 -0.017848589 -0.015276967
0.031942826 -0.08233576 -0.028385883 -0.051625974 -0.017783508 -0.01339967 -0.038965255 0.013023378
0.0050196825 -0.05863186 -0.04357779 -0.02337979 -0.007857047 -0.01593943 -0.0608027 0.0009882405
-0.056080945 -0.020577291 -0.020589955 0.037431903 0.032897692 -0.00763963 -0.03485747 -0.015116157
-0.00029539387 -0.046293985 -0.001801502 -0.010525076 0.004469752 -0.06999218 0.03144876 0.0034072604
-0.007821986 -0.022035163 -0.041196126 0.0067575863 -0.01515854 0.04666124 -0.014891265 -0.046189483
0.007423724 -0.014759117 0.00845565 -0.01940938 -0.0067006433 -0.061625224 -0.03459016 -0.07734404
-0.018489415 -0.014100862 -0.033085234 -0.049674276 -0.013360688 -0.0024040241 -0.019041298 -0.022272117
0.011899441 -0.06242946 0.0007779493 0.034060508 -0.029632347 -0.03144272 -0.009820465 -0.03575598
-0.030569814 -0.03741882 -0.00020619151 -0.063252516 -0.0541015 -0.07967261 0.018108495 0.019618211
-0.032005582 0.004139386 0.03414818 -0.046239022 -0.032968566 -0.020012395 -0.07397152 0.008262528
-0.034767043 0.029813072 -0.08588456 -0.08853325 -0.04677361 -0.04627541 -0.015124888 -0.050101228
-0.007820608 0.020540327 0.04700568 0.003880874 0.028633531 0.02572381 -0.051770505 -0.023173584
-0.017205447 -0.004011183 0.03990395 -0.06533206 0.00013698953 -0.025393175 -0.07041702 -0.050274875
00000000: ceb0 01bd 636a 7d3c 0e93 163d da40 66bd
00000010: ae0e 17bd fa2c 593c 13a0 e7ba 1640 9abd
00000020: a616 c0bc ba9c 86bd bee3 76bc b22c cbbc
00000030: c0f4 653c f474 19bd 57c8 ca3b 96e6 f1bc
00000040: 91f9 75bd d9f8 51bd c0d7 09bd 6b6b db3c
00000050: 6849 b03a e876 553c 60b9 023c 1ceb 78bd
00000060: 89ef 583b a71a 353d ff23 50bd 2669 d73a
00000070: 0425 4ebd 6c09 20bd c83d 29bc d59e 47bd
00000080: 2b97 073b 4de9 8fba bf64 51bc cd1f 223d
00000090: 6af7 303d f815 9ebc 1866 5abd bcba 9cbc
000000a0: 3cd3 f2bb 6a1c 313d cc63 82bd 6075 223d
000000b0: 0313 40bd 3628 d5bc d327 1ebd 42d6 66bd
000000c0: 6c6c 44bd a34c f2bc 1f04 94bd c39a de3c
000000d0: c599 fabc 4d14 5bbd 0f2e 8d3b e18f 163c
000000e0: d3ec 82bd 9010 0e3d 6a04 bbbc 55a6 7bbd
000000f0: 3366 d23c 50c4 ab3c f40d 8fbd 5bbe b8bd
00000100: e7c1 47bd 5dcc 363c 285e 183d 8e30 6ebd
00000110: a5a9 20bd edf9 42bd 7863 54bc 29aa 7f3c
00000120: c78f 883c 4c53 26bd ab53 5cbd 6964 b23c
00000130: 29ab 65bd e6e8 d5bd 7c7e 893c b9e4 2fbd
00000140: c68c 11bd 035b aeba dccf 25bd 2c6c 02bd
00000150: 71c0 133b 6cfc af3b 50b1 19bc 8048 b0b9
00000160: 7d07 2e3d 96f1 983c 52ea 753c fa10 73bc
00000170: 6498 963b e050 5ebd fbad 35bc b4fd 083d
00000180: c329 6fbc 4278 73bd ca8e a93c 828c 9d3b
00000190: c93a 4b3b 2ecc 88bd 749d 6c3b 4fed 4fbd
000001a0: 695e 5b3c 34da 93bd 0b1b 9abd 2b60 253d
000001b0: 3549 363c 828e 8cbd a552 fbbc d22a 74bc
000001c0: 790f b7bc 3a62 243d 8b0b 3fbd a837 babc
000001d0: 314f 1e3d 5200 2dbd 3e95 12bd 8868 66bd
000001e0: 7a57 9abd e1e2 22bd 06dd e03c ff03 813c
000001f0: 4839 cf3b 8e2c 72bd 3868 8d3c a696 da3b
00000200: 5171 793c 0935 52bd c1cd 023d a68c bcbb
00000210: 29b1 a03c 4ced 32bd 0690 2ebc 0ea1 b8bb
00000220: d31b 58bd b516 1cbd 83a0 bebd 11ed 14bd
00000230: a1c6 0abc 57c2 f5bb c282 c1bc 408c 30bc
00000240: 77aa 43bd 08e3 85bd 0b71 54bd daac 71bb
00000250: 9589 d03c 1371 89bd 3437 92bc 3e4c 7abc
00000260: 7bd6 023d a79f a8bd 8389 e8bc c275 53bd
00000270: b8ae 91bc 4a8a 5bbc 089a 1fbd 0260 553c
00000280: 267c a43b f627 70bd a07e 32bd f986 bfbc
00000290: d8ba 00bc 6893 82bc 410c 79bd d987 813a
000002a0: 22b5 65bd b591 a8bc 44ac a8bc 3252 193d
000002b0: bbbf 063d dd55 fabb b5c6 0ebd c2a9 77bc
000002c0: 18df 9ab9 c39e 3dbd 6020 ecba 5e71 2cbc
000002d0: ff76 923b 0f58 8fbd 6ad0 003d 584c 5f3b
000002e0: ca27 00bc 1683 b4bc 45bd 28bd be6e dd3b
000002f0: 865b 78bc db1f 3f3d 7efa 73bc 2f31 3dbd
00000300: b642 f33b 39d0 71bc 9189 0a3c 6c00 9fbc
00000310: 1291 dbbb bb6a 7cbd 69ae 0dbd 8d66 9ebd
00000320: 1d77 97bc 4d07 67bc 6284 07bd 4177 4bbd
00000330: cae6 5abc d58c 1dbb 7ffc 9bbc 0474 b6bc
00000340: dff5 423c 09b6 7fbd 4bef 4b3a 0883 0b3d
00000350: 89bf f2bc 15ca 00bd 04e6 20bc dd74 12bd
00000360: 8c6d fabc 7a44 19bd 1d35 58b9 898a 81bd
00000370: 8999 5dbd 652b a3bd 4458 943c 5fb6 a03c
00000380: 4918 03bd b0a3 873b f6de 0b3d 2165 3dbd
00000390: 0c0a 07bd 09f1 a3bc 617e 97bd 8e5f 073c
000003a0: e367 0ebd 8b3a f43c 3fe4 afbd ec50 b5bd
000003b0: af95 3fbd 498b 3dbd 61ce 77bc f236 4dbd
000003c0: 0222 00bc 3044 a83c 0789 403d 4356 7e3b
000003d0: de90 ea3c bdba d23c 4f0d 54bd 87d6 bdbc
000003e0: 70f2 8cbc 3e70 83bb 5372 233d d1cc 85bd
000003f0: d9a4 0f39 5905 d0bc cc36 90bd 07ed 4dbd

fc2.bias f4 [300]
-0.0023232794 -0.025676614 -0.018228844 -0.035904974 0.008472336 -0.034839693 -0.14449054 0.29509556
-0.047843374 -0.03367158 0.025653547 -0.10439871 0.0048410436 -0.030044759 -0.023931736 0.016217398
-0.061030455 -0.053763274 -0.052337725 0.00666023 0.029693251 -0.087591276 0.024625601 -0.0545668
-0.07584854 -0.023103064 -0.022920746 -0.049487695 -0.044767484 -0.07630463 -0.06349172 -0.099705935
-0.08862105 -0.05778206 -0.00481829 -0.060012117 -0.025210377 -0.047886338 -0.09498333 0.004547174
-0.050580446 -0.01074239 0.03303763 -0.07018102 -0.08764093 -0.06487313 -0.002948516 -0.041693274
-0.035376254 -0.017575948 -0.016434802 -0.014416798 0.013750955 -0.064568244 -0.058027882 -0.016741952
0.047994673 -0.014889246 0.004004968 -0.0077838157 -0.108856544 0.07406052 -0.046528526 -0.056289934
-0.043675642 -0.00206051 -0.06663567 -0.055003382 -0.04389796 -0.07951586 0.008312901 0.022029806
-0.028983979 -0.090610445 -0.0229902 -0.063481376 -0.029929899 -0.027426738 -0.018069826 -0.091353334
-0.060913306 -0.11671013 -0.07727015 -0.043172516 -0.04600153 -0.06695685 -0.11447686 -0.04962489
-0.06540297 -0.06597218 0.17328672 -0.011495423 -0.08758216 -0.03019405 -0.02755392 -0.051136214
-0.08774289 -0.055243548 -0.063518636 -0.044488907 -0.08063177 -0.01415883 -0.013720369 -0.060536876
-0.23032913 -0.039204285 -0.13204758 0.008098755 -0.058541454 -0.29671404 0.53076565 -0.07352935
-0.033041794 -0.06663696 -0.031868726 -0.11023778 -0.034808435 -0.072458506 -0.0863113 -0.053740613
-0.07739922 -0.024290025 -0.09039473 -0.031484075 -0.013991364 0.020529151 -0.0042056087 0.032269828
-0.08989798 -0.25897223 -0.037840962 -0.08077611 -0.020029966 0.011849279 -0.06640842 -0.070937574
-0.06594562 -0.027359609 -0.036085404 -0.06180516 -0.098279275 -0.02143888 -0.10022678 -0.04407093
-0.03832575 -0.17333296 -0.049048435 -0.016955052 -0.38340685 -0.074504025 0.25033936 -0.0694691
-0.0145718455 -0.04670742 -0.07652646 -0.019445244 -0.024982868 -0.078877226 -0.01251577 0.26815313
-0.07754398 0.05238293 -0.008655373 -0.05846022 0.0066503617 -0.07904209 0.017063368 -0.06118088
0.02158618 -0.086217865 -0.070515536 -0.05185218 -0.05723548 -0.02669146 -0.12492048 -0.017987888
-0.047956694 -0.096966565 -0.18307126 0.06909832 0.0016459764 -0.080784924 -0.05030627 -0.093789205
-0.043214507 -0.010486263 -0.0557539 0.23904175 -0.089731365 -0.046313394 -0.007308329 -0.02156894
0.0036429304 0.0061158375 -0.018690677 -0.06069572 -0.05165965 -0.08896008 -0.088868774 -0.013317507
-0.03980956 -0.44038767 -0.032917645 0.16467707 -0.08497806 -0.20615965 -0.046353243 -0.023980793
-0.038342454 -0.058675896 -0.040755797 -0.057936795 0.14822781 -0.07378148 -0.00077713944 0.032287855
-0.06602923 -0.033819452 -0.029120803 -0.093553066 -0.023825938 -0.046604898 -0.04844552 -0.0280955
0.081064105 -0.027066601 -0.11578818 -0.050160144 0.010416009 -0.14175889 -0.0021075932 -0.023499992
-0.023168257 0.10501623 -0.04782084 -0.04112674 -0.031426877 -0.12732224 -0.04156175 -0.05080281
-0.049643915 -0.042674467 0.13911565 -0.07503439 0.010738059 -0.042532284 0.026899261 -0.012033084
-0.027687006 -0.07983628 -0.0069748173 -0.020551408 -0.062768094 -0.08770352 -0.13347238 -0.05083133
00000000: 2942 18bb c357 d2bc a854 95bc 1811 13bd
00000010: 8ecf 0a3c 11b4 0ebd 54f5 13be c416 973e
00000020: 6af7 43bd 36eb 09bd 6327 d23c fece d5bd
00000030: 9ea1 9e3b 6d20 f6bc 7d0c c4bc 59da 843c
00000040: 12fb 79bd e136 5cbd 1560 56bd 0f3e da3b
00000050: 433f f33c 0e63 b3bd a1bb c93c 7081 5fbd
00000060: 7b56 9bbd a342 bdbc 4ac4 bbbc 9cb3 4abd
00000070: 1c5e 37bd 9a45 9cbd f207 82bd a032 ccbd
00000080: f47e b5bd e2ac 6cbd bfe2 9dbb 44cf 75bd
00000090: fe85 cebc 7724 44bd 9f86 c2bd 7600 953b
000000a0: 712d 4fbd d900 30bc 7752 073d 11bb 8fbd
000000b0: 177d b3bd 34dc 84bd e43b 41bb 91c6 2abd
000000c0: b1e6 10bd 6ffb 8fbc 47a2 86bc 6f34 6cbc
000000d0: b04b 613c 5b3c 84bd a5ae 6dbd 6b26 89bc
000000e0: 1096 443d 06f2 73bc 1b3c 833b 610f ffbb
000000f0: 2ef0 debd 0bad 973d b294 3ebd 4690 66bd
00000100: 3be5 32bd 9f09 07bb 4878 88bd 3a4b 61bd
00000110: 59ce 33bd 36d9 a2bd d532 083c da77 b43c
00000120: cf6f edbc f891 b9bd f255 bcbc 8602 82bd
00000130: 8c2f f5bc 0aae e0bc 2c07 94bc 7517 bbbd
00000140: 3b80 79bd b805 efbd d03f 9ebd aad5 30bd
00000150: 1a6c 3cbd ac20 89bd d872 eabd 7843 4bbd
00000160: fef1 85bd 6c1c 87bd 1372 313e 4c57 3cbc
00000170: 475e b3bd 8359 f7bc c2b8 e1bc 3574 51bd
00000180: 8bb2 b3bd 0f47 62bd 0f16 82bd 003a 36bd
00000190: 4522 a5bd 70fa 67bc 66cb 60bc 84f5 77bd
000001a0: 66db 6bbe ac94 20bd 7b37 07be a4b0 043c
000001b0: 2ac9 6fbd e7ea 97be 42e0 073f 8e96 96bd
000001c0: d556 07bd f578 88bd c888 02bd 58c4 e1bd
000001d0: 4a93 0ebd 2065 94bd fbc3 b0bd 1e1f 5cbd
000001e0: 7b83 9ebd e0fb c6bc df20 b9bd 72f5 00bd
000001f0: 093c 65bc c02c a83c 34cf 89bb 5e2d 043d
00000200: 6f1c b8bd 0298 84be 20ff 1abd f26d a5bd
00000210: e215 a4bc 7a23 423c 2301 88bd b847 91bd
00000220: 7f0e 87bd 4221 e0bc 4ace 13bd 6827 7dbd
00000230: a546 c9bd 97a0 afbc b343 cdbd b883 34bd
00000240: 76fb 1cbd 327e 31be 03e7 48bd 52e5 8abc
00000250: e74d c4be 9195 98bd 7b2c 803e d145 8ebd
00000260: c0be 6ebc 4850 3fbd e8b9 9cbd a24b 9fbc
00000270: dfa8 ccbc 628a a1bd f20e 4dbc 5e4b 893e
00000280: 61cf 9ebd 7c8f 563d 44cf 0dbc fc73 6fbd
00000290: 47eb d93b d2e0 a1bd 7ac8 8b3c cd98 7abd
000002a0: 80d5 b03c fe92 b0bd 736a 90bd f462 54bd
000002b0: c06f 6abd 0ca8 dabc 4fd6 ffbd 565b 93bc
000002c0: 3d6e 44bd 6896 c6bd 0877 3bbe 6c83 8d3d
000002d0: cebd d73a 9172 a5bd f30d 4ebd 8e14 c0bd
000002e0: b201 31bd 93ce 2bbc 345e 64bd 5cc7 743e
000002f0: 14c5 b7bd 1db3 3dbd b57a efbb 58b1 b0bc
00000300: 3bbe 6e3b 5d67 c83b 311d 99bc 139c 78bd
00000310: 1299 53bd b430 b6bd d500 b6bd ac31 5abc
00000320: 590f 23bd 7e7a e1be a7d4 06bd 1ba1 283e
00000330: fa08 aebd 841b 53be e6dc 3dbd 5e73 c4bc
00000340: fa0c 1dbd 2356 70bd 8def 26bd 224f 6dbd
00000350: 08c9 173e bf1a 97bd f2b8 4bba 4540 043d
00000360: 553a 87bd 4486 0abd c08e eebc c098 bfbd
00000370: 9d2e c3bc c7e4 3ebd cf6e 46bd 8928 e6bc
00000380: f004 a63d c7ba ddbc 5a22 edbd b974 4dbd
00000390: e9a7 2a3c 3e29 11be 8c1f 0abb 0e83 c0bc
000003a0: 5bcb bdbc c012 d73d c9df 43bd 8374 28bd
000003b0: 78b9 00bd c360 02be a73c 2abd 9b16 50bd
000003c0: 6b57 4bbd 6ccb 2ebd 5574 0e3e a1ab 99bd
000003d0: afee 2f3c 5536 2ebd d75b dc3c 6a26 45bc
000003e0: dccf e2bc 3481 a3bd 028d e4bb 6d5b a8bc
000003f0: 8f8c 80bd e79d b3bd fcac 08be 8334 50bd
