p3_collab-compet/ddpg_critic_agent0.pth (torch_old, 532687 bytes, 9 tensors)

fcs1.weight f4 [400, 24]
-0.47738305 0.6552816 0.044857476 0.0056162765 0.07967378 -0.8454353 -0.00020449808 0.02509034
-0.39928538 0.497447 -0.0047595925 -0.041389108 0.16104965 -1.0423199 -0.013893386 -0.11079666
-0.46913183 0.39092568 -0.022073882 -0.038794722 -0.035684638 -0.68557966 -0.034657765 -0.06472159
0.33023986 -0.6791807 -0.06779694 -0.16847843 -0.20190492 -0.8791622 -0.018119032 -0.20429897
0.21276361 -0.55324763 -0.044344347 0.41469434 -0.06319644 -0.49194133 0.018578727 0.4257954
0.24843846 -0.09478146 0.084165186 0.5526675 -0.016533127 -0.16652465 0.08110857 0.53758335
-0.16823916 -0.4498741 -0.14332855 -0.04849287 0.0034306443 -0.5728232 -0.16452894 0.008241129
0.07588172 -0.4600964 0.16026509 0.027580328 -0.026650276 -0.5623303 0.20619392 0.06408605
-0.16557442 -0.34943545 0.03471162 0.36645898 -0.050614104 -0.7677155 0.013978942 0.3707643
-0.37053975 0.08700386 -0.033943236 0.22865826 -0.63147056 0.430714 -0.09546548 0.17462194
-0.1149283 0.17457055 0.020976486 0.18230549 -0.17573288 -0.027575985 0.0633777 0.17540193
0.0854441 0.1895681 0.076281026 -0.094860345 0.35977498 -0.2439975 0.08495581 -0.06786352
0.014034447 -0.8384895 0.05619322 -0.38024828 0.09382602 0.39344797 0.118462056 -0.42331436
-0.10512505 -0.83979625 -0.046044618 -0.3212779 -0.0062375916 0.22464345 -0.09571892 -0.29665384
-0.08359709 -0.9805533 0.119361356 -0.26135373 -0.15994667 -0.024474302 0.14563443 -0.29427522
-0.3037084 -0.28095472 0.020024516 -0.06219828 0.25791842 0.113057464 -0.047556978 -0.026828444
-0.15588675 -0.15652424 -0.051838886 0.19235078 -0.048177518 0.21561645 -0.0004035637 0.2079997
-0.06020779 -0.16385435 -0.002077171 0.3345048 2.2011342 -0.28765124 -0.032624014 0.32974043
-0.1911939 -0.46921027 0.030928103 0.100196406 -0.19741853 0.33187088 -0.061045215 0.098189816
0.114283934 -0.5131769 0.019387541 -0.03776908 -0.081620745 1.1759441 0.017155971 -0.022298953
0.03261308 -0.68225473 0.034242842 0.18382844 0.34159604 1.7763352 0.040814597 0.19496605
-0.44017366 -0.26356187 -0.07952642 0.16763593 0.3289074 0.46612272 0.0019295204 0.14798148
-0.17218369 -0.10638859 -0.004462187 0.19361663 -0.00096189784 0.002569898 0.008398963 0.19281673
0.032961313 -0.05831866 0.0072463015 0.44887277 -0.4911476 -0.76870376 0.03298 0.4028946
0.03900988 -0.022464149 0.044281222 0.039038133 0.01868562 0.044230584 0.062396865 0.033771735
0.046075728 -0.036185436 0.035421398 0.037618034 -0.027366156 0.06224497 0.012876191 -0.038460188
-0.01176306 -0.022458892 -0.025581712 -0.0066380724 -0.029673235 -0.0005968672 0.009021501 -0.0067804693
0.04763295 -0.00837892 0.00674571 0.058424722 0.055690136 0.584748 -0.014414296 0.05716717
-0.06883979 0.075633615 -0.0058452217 -0.02349068 -0.09377706 0.69303447 0.000615373 -0.025807219
0.06785059 0.045470096 0.012816107 -0.029084446 -0.15669923 -1.5554898 0.001814594 -0.036553774
-0.15815909 0.044988368 -0.026468512 -0.010788999 -0.34445217 0.26923856 0.02394168 0.05333796
-0.11461264 -0.008779282 -0.021492481 0.00074345036 0.4030283 -0.64420307 0.038210925 0.08879441
00000000: 8d6b f4be 89c0 273f 79bc 373d be08 b83b
00000010: 022c a33d 736e 58bf 896e 56b9 428a cd3c
00000020: 226f ccbe 60b1 fe3e 5bf6 9bbb a087 29bd
00000030: 33ea 243e bd6a 85bf 16a1 63bc 5ce9 e2bd
00000040: 0c32 f0be 6927 c83e 49d4 b4bc 37e7 1ebd
00000050: 0e2a 12bd 2682 2fbf 4df5 0dbd c18c 84bd
00000060: 3315 a93e c9de 2dbf 1fd9 8abd 9c85 2cbe
00000070: 2ac0 4ebe c610 61bf 5d6e 94bc c033 51be
00000080: b4de 593e a3a1 0dbf 6ba2 35bd d152 d43e
00000090: 236d 81bd bcdf fbbe 6a32 983c db01 da3e
000000a0: a766 7e3e c81c c2bd cc5e ac3d 9e7b 0d3f
000000b0: 7b70 87bc 7085 2abe 401c a63d 109f 093f
000000c0: e346 2cbe e655 e6be b8c4 12be 76a0 46bd
000000d0: a9d4 603b 8ba4 12bf 467a 28be cd05 073c
000000e0: e067 9b3d c191 ebbe 881c 243e 24f0 e13c
000000f0: ae51 dabc e1f4 0fbf 8024 533e 8c3f 833d
00000100: 578c 29be 34e9 b2be c62d 0e3d 83a0 bb3e
00000110: bc50 4fbd 0189 44bf ef07 653c d1d4 bd3e
00000120: 63b7 bdbe 142f b23d 1008 0bbd 6425 6a3e
00000130: 0ea8 21bf 8c86 dc3e 6883 c3bd 18d0 323e
00000140: 875f ebbd 9fc2 323e e1d6 ab3c 4aae 3a3e
00000150: 52f3 33be 08e7 e1bc 2bcc 813d 909c 333e
00000160: 51fd ae3d 241e 423e 3a39 9c3d 2446 c2bd
00000170: 6d34 b83e 7bda 79be 50fd ad3d 07fc 8abd
00000180: bdf0 653c 3fa7 56bf dd2a 663d e7af c2be
00000190: db27 c03d 0372 c93e 3c9c f23d a9bc d8be
000001a0: cd4b d7bd e3fc 56bf 4899 3cbd 897e a4be
000001b0: b664 ccbb ef08 663e 4808 c4bd 03e3 97be
000001c0: f334 abbd 8b05 7bbf ba73 f43d 28d0 85be
000001d0: 0fc9 23be 557e c8bc 3121 153e 3eab 96be
000001e0: ab7f 9bbe 4cd9 8fbe 740a a43c a0c3 7ebd
000001f0: e20d 843e ac8a e73d 1bcb 42bd 53c7 dbbc
00000200: c7a0 1fbe e447 20be 0355 54bd 9af7 443e
00000210: ca55 45bd 8fca 5c3e 6795 d3b9 e0fd 543e
00000220: 729c 76bd 6fc9 27be 2621 08bb 3744 ab3e
00000230: 62df 0c40 0647 93be c2a0 05bd bdd3 a83e
00000240: 55c8 43be 543c f0be ef5c fd3c c633 cd3d
00000250: 1528 4abe fbea a93e 8c0a 7abd be17 c93d
00000260: b20d ea3d 905f 03bf 9fd2 9e3c c0b3 1abd
00000270: c728 a7bd 5685 963f ae8a 8c3c 4bac b6bc
00000280: 4b95 053d 3fa8 2ebf 3942 0c3d 863d 3c3e
00000290: ade5 ae3e f45e e33f 352d 273d 2ea5 473e
000002a0: 715e e1be 95f1 86be bfde a2bd c1a8 2b3e
000002b0: 8d66 a83e a3a7 ee3e f6e7 fc3a 7588 173e
000002c0: ec50 30be 43e2 d9bd 8a37 92bb 7043 463e
000002d0: df27 7cba bc6b 283b ce9b 093c c071 453e
000002e0: 7102 073d 8cdf 6ebd 6272 ed3b a7d2 e53e
000002f0: b377 fbbe c5c9 44bf 0916 073d 3348 ce3e
00000300: d3c8 1f3d bc06 b8bc 3a60 353d 73e6 1f3d
00000310: 9612 993c 212b 353d db93 7f3d 3b54 0a3d
00000320: e7b9 3c3d 2e37 14bd 0716 113d 5e15 1a3d
00000330: fd2e e0bc 95f4 7e3d a9f6 523c 6e88 1dbd
00000340: dab9 40bc b6fb b7bc bd90 d1bc 3084 d9bb
00000350: 4915 f3bc 1477 1cba ebce 133c b32e debb
00000360: c51a 433d bd47 09bc 1e0b dd3b c34e 6f3d
00000370: 571b 643d 0cb2 153f f029 6cbc 1f28 6a3d
00000380: e0fb 8cbd cce5 9a3d 4689 bfbb 876f c0bc
00000390: 300e c0bd b56a 313f fc50 213a a969 d3bc
000003a0: 40f5 8a3d da3e 3a3d a6fa 513c 8142 eebc
000003b0: c375 20be 4a1a c7bf acd7 ed3a 69b9 15bd
000003c0: 75f4 21be b945 383d 7ed4 d8bc 57c4 30bc
000003d0: 095c b0be a3d9 893e 5821 c43c e878 5a3d
000003e0: 08ba eabd fad6 0fbc 0011 b0bc 1ce4 423a
000003f0: ba59 ce3e 7eea 24bf 0f83 1c3d d8d9 b53d

fcs1.bias f4 [400]
0.05861613 0.03380301 0.12186905 0.04178505 -0.16381933 -0.012890349 0.08636023 0.0022175515
-0.010002777 -0.16184637 0.1012991 0.19948004 -0.18799092 0.07715291 0.022368042 -0.13947749
0.17677908 -0.13708813 0.023667976 0.04636683 0.030039549 0.16480324 -0.020560985 -0.11332266
0.06625338 -0.09840594 -0.079974905 -0.0055087553 -0.16348255 0.02985194 -0.20207731 0.19710343
0.02299581 0.18982562 -0.14663775 -0.12987748 0.14571556 -0.19641088 0.0794899 -0.17621687
0.11469361 -0.14998193 0.19793123 0.18455523 -0.03690176 -0.06695231 0.13267383 0.10217499
0.1513495 0.14909023 0.14981712 0.18115562 -0.03660684 -0.14994125 0.08378196 0.10314409
-0.11991083 -0.09673175 0.0753729 -0.037997592 0.074879676 -0.19509797 -0.1237447 0.04759256
0.06944701 -0.04071374 0.0508672 0.07834146 -0.1221037 0.15506496 0.08439742 0.17719847
-0.007506571 0.12557805 -0.079385884 -0.080662884 -0.17066187 0.14265001 0.058282007 0.1960381
0.19624928 -0.0671487 0.056896765 0.16688742 -0.12965378 0.16409 0.008422495 -0.19936101
-0.18763517 0.06860804 -0.09796504 0.110048406 0.15259291 0.06647084 -0.019745674 0.025770595
0.07138049 0.1497939 0.09029923 -0.18165462 0.11299166 -0.021597564 0.016460905 -0.12496502
0.17274494 0.012876803 0.053979818 0.2003957 -0.17022501 0.14539292 0.0591097 -0.18908918
-0.13893205 0.018734638 -0.1053414 -0.19409166 -0.028279198 0.05728537 -0.12507288 -0.124860995
0.08737063 -0.03791371 -0.17300256 -0.18289769 -0.108497314 -0.17545186 0.11604672 0.07049914
-0.08166391 -0.11208186 0.12265409 0.051217463 -0.15559866 0.051095754 0.1154825 0.014858822
0.0814484 -0.018323364 0.011740119 -0.097667806 0.05413553 -0.15245228 -0.092382595 -0.10138761
-0.10773244 0.1733767 -0.17224619 0.03285296 0.0667342 -0.06654078 0.14115956 0.024060491
-0.076754846 -0.20334828 -0.14596812 -0.013014812 0.18637235 0.10206281 0.064250395 -0.06322204
-0.050368905 0.053813837 -0.17086233 0.03932861 0.007420329 0.051613037 -0.071712054 -0.19756131
0.07670622 0.031880308 -0.14380585 0.068116434 0.13232158 -0.038930736 -0.19562958 -0.094432786
0.002350662 0.025834104 -0.15959875 -0.15962818 -0.0045483653 -0.054864638 -0.17909843 -0.13005652
0.13740611 0.14695004 -0.09586501 -0.14907905 -0.1664967 -0.062004328 0.10450711 -0.05840622
0.119698845 0.01829858 -0.12310602 0.09936538 -0.14302908 -0.18092734 -0.085708 -0.004713659
0.0066275797 -0.010606562 0.14313889 0.13178185 0.09013616 -0.16094096 0.17483772 -0.063142166
0.2021752 0.17220606 0.10797036 -0.13741668 0.12091095 0.09989153 -0.15169343 0.03338155
0.0013970223 0.009284994 -0.15019134 0.15130518 -0.13714673 0.12092666 -0.015245176 -0.03256935
0.11421558 -0.043583557 -0.03251178 0.011224963 0.0627035 -0.12926291 -0.15161417 -0.17048198
-0.06759013 0.15801014 0.14188176 0.1150015 0.08471329 -0.19113725 0.1579266 0.10004603
0.19735816 -0.0010502584 0.050830316 0.05122948 0.12024427 0.14270693 0.16371179 0.19029602
-0.042623933 -0.16125461 -0.13200176 -0.17989492 -0.18328793 0.15689091 0.093466535 -0.08066112
00000000: 7817 703d 0675 0a3d 7b96 f93d cd26 2b3d
00000010: 41c0 27be 0b32 53bc a2dd b03d 5754 113b
00000020: b0e2 23bc 0ebb 25be e775 cf3d 7f44 4c3e
00000030: b180 40be 5802 9e3d 2f3d b73c 30d3 0ebe
00000040: 9305 353e d560 0cbe 58e3 c13c 25eb 3d3d
00000050: 8015 f63c 2ec2 283e 836f a8bc b615 e8bd
00000060: daaf 873d 0e89 c9bd e2c9 a3bd ca82 b4bb
00000070: f867 27be 0e8c f43c 5bed 4ebe 7bd5 493e
00000080: b561 bc3c a661 423e 3528 16be 9afe 04be
00000090: 7636 153e ef1f 49be 9acb a23d 3272 34be
000000a0: 7ce4 ea3d dd94 19be 7cae 4a3e 0cfc 3c3e
000000b0: 4d26 17bd 4b1e 89bd a6db 073e 1f41 d13d
000000c0: 5dfb 1a3e 1cab 183e a969 193e dc80 393e
000000d0: 0ef1 15bd 338a 19be e095 ab3d 353d d33d
000000e0: cf93 f5bd 4c1b c6bd 1b5d 9a3d 5da3 1bbd
000000f0: 845a 993d c3c7 47be dc6d fdbd 6bf0 423d
00000100: 3c3a 8e3d 73c3 26bd 205a 503d 7d71 a03d
00000110: 8111 fabd 59c9 1e3e 8ed8 ac3d 8473 353e
00000120: aef9 f5bb 8897 003e 1195 a2bd 9532 a5bd
00000130: fcc1 2ebe d812 123e 1db9 6e3d 36be 483e
00000140: 92f5 483e 4285 89bd 950c 693d 89e4 2a3e
00000150: f6c3 04be 3507 283e 81fe 093c 4b25 4cbe
00000160: 6f23 40be 5f82 8c3d e5a1 c8bd 0f61 e13d
00000170: 5141 1c3e dd21 883d aec1 a1bc db1c d33c
00000180: ef2f 923d 9263 193e cdee b83d ab03 3abe
00000190: 2c68 e73d 60ed b0bc 05d9 863c a9ed ffbd
000001a0: 0de4 303e 3af9 523c f119 5d3d 8834 4d3e
000001b0: 774f 2ebe e2e1 143e 031d 723d 98a0 41be
000001c0: 3444 0ebe 6279 993c 3bbd d7bd f7bf 46be
000001d0: c7a9 e7bc 10a4 6a3d 1b13 00be 1fb7 ffbd
000001e0: 5fef b23d 684b 1bbd 9527 31be 8849 3bbe
000001f0: d733 debd a7a9 33be e7a9 ed3d da61 903d
00000200: 683f a7bd 2d8b e5bd 1132 fb3d 67c9 513d
00000210: 4155 1fbe c849 513d 1782 ec3d 6b72 733c
00000220: 6bce a63d e11a 96bc a159 403c 0f06 c8bd
00000230: 38bd 5d3d 731c 1cbe 1633 bdbd 4fa4 cfbd
00000240: d3a2 dcbd a989 313e 4e61 30be d390 063d
00000250: f1ab 883d 8846 88bd 228c 103e 821a c53c
00000260: a531 9dbd 883a 50be ab78 15be 143c 55bc
00000270: 65d8 3e3e 4e06 d13d b695 833d 8f7a 81bd
00000280: a04f 4ebd e66b 5c3d 89f6 2ebe 0917 213d
00000290: 3b26 f33b 3168 533d c5dd 92bd 834d 4abe
000002a0: 2718 9d3d ed94 023d d741 13be a180 8b3d
000002b0: 4f7f 073e d675 1fbd 1f53 48be fa65 c1bd
000002c0: 900d 1a3b 0ba2 d33c db6d 23be 9275 23be
000002d0: 740a 95bb beb9 60bd 9465 37be 892d 05be
000002e0: 30b4 0c3e 127a 163e e054 c4bd 2ea8 18be
000002f0: 1c7e 2abe 40f8 7dbd d307 d63d 5c3b 6fbd
00000300: ab24 f53d e7e6 953c 021f fcbd 1480 cb3d
00000310: 3776 12be 0445 39be ad87 afbd 0a75 9abb
00000320: 2b2c d93b 25c7 2dbc 0093 123e d2f1 063e
00000330: 4f99 b83d b5cd 24be a908 333e ae50 81bd
00000340: 0407 4f3e c956 303e 901f dd3d f5b6 0cbe
00000350: 29a0 f73d ee93 cc3d 8655 1bbe 18bb 083d
00000360: 4a1c b73a 1620 183c c2cb 19be bfef 1a3e
00000370: 3170 0cbe 66a8 f73d e7c6 79bc 7067 05bd
00000380: dce9 e93d ac84 32bd 122b 05bd e8e8 373c
00000390: b16a 803d 7f5d 04be bf40 1bbe d492 2ebe
000003a0: b26c 8abd 69cd 213e 7449 113e e885 eb3d
000003b0: 297e ad3d 7cb9 43be 83b7 213e efe4 cc3d
000003c0: 4218 4a3e d3a8 89ba 7333 503d 01d6 513d
000003d0: a142 f63d c421 123e 10a4 273e f6dc 423e
000003e0: 6f96 2ebd ee1f 25be 782b 07be 6036 38be
000003f0: d5af 3bbe 03a8 203e 626b bf3d a831 a5bd

bn1.weight f4 [400]
0.31944495 0.27271193 0.48810387 0.26509407 0.18738592 0.83619744 0.72897905 0.22966538
0.007944121 0.34690166 0.8527271 0.5040541 0.5809677 0.4882201 0.34298453 0.41303098
0.32738945 0.31312245 0.029706221 0.31912798 0.52399 0.44784036 0.3587982 0.5177248
0.604502 0.009363347 0.4855825 0.40915602 0.8226528 0.8089258 0.88767904 0.29567856
0.2570586 0.5633846 0.44147006 0.28509638 0.33793163 0.21639733 0.381337 0.16744141
0.23676646 0.37980992 0.94548935 0.19169629 0.43104038 0.32926545 0.40008563 0.49216843
0.2938575 1.0584506 0.28725722 0.23397388 0.27892426 0.52222234 1.3173459 0.50924724
0.28931445 0.0011358999 0.20715581 0.9163024 0.00045811568 0.3244054 0.27071685 0.38421366
0.053173557 0.17353216 -0.0020962711 0.27634308 0.4849638 0.109899916 0.29042387 0.8293234
0.23652573 0.56755996 0.5837567 0.31532702 0.27138197 0.3206287 0.23663665 0.33065543
0.42936417 0.32463872 0.43324366 0.9436702 0.33028045 0.7970115 0.30319867 0.0017451923
0.28576928 0.42875254 0.33492872 0.4031765 0.5676172 0.21118484 0.30533063 0.2034844
0.3009342 0.81757915 0.53617585 0.6300166 0.41562188 0.24594234 0.5413994 0.5498231
0.3706351 0.23665343 0.32093197 0.26808426 0.21888718 0.7376594 0.3200273 0.36908183
0.34074658 0.3965619 0.4544041 0.32475302 0.60706276 0.51464534 0.5255681 0.44409618
0.29244086 0.0006177473 0.9753395 0.21958825 0.21558502 0.2360328 1.0141023 0.29758006
0.5473897 0.34290984 0.42630935 0.22021301 0.26464814 0.46112153 0.26803243 0.793942
0.98478144 0.30085084 0.40947947 0.22347157 0.7123006 0.3373295 0.2598046 0.3171864
0.58405983 0.22346322 0.3039095 0.35219923 0.48267078 0.29145196 0.375482 0.38359275
0.46295935 0.7095726 0.44865108 0.41441235 0.60581744 0.24769714 0.32424986 0.4087874
0.0056066075 0.43011135 0.38727468 0.4139478 0.33280745 0.65375966 0.76926506 0.00031952537
0.3280036 0.40505534 0.009144172 0.11590898 0.853909 0.22039689 0.9718198 0.5119566
0.43006968 0.636439 0.35464123 0.60563505 0.5294273 0.7840469 0.38477284 0.26491487
0.33299634 0.0170969 0.2604837 0.84085196 0.5617102 0.0011020539 0.30418497 0.40703422
0.59427345 0.34063575 0.6671282 0.44737068 0.63922834 0.2678581 0.31241858 0.67110133
0.58227205 0.62005633 0.38174593 0.4521002 0.8404841 0.6009721 0.33988857 0.44529295
0.31611627 1.0883638 0.4690975 0.007754587 0.34598604 0.2631303 0.2603417 0.20965293
0.5414939 0.3148685 -0.0018080145 0.8438905 0.20896234 0.36874074 0.32531425 0.36925504
0.009115231 0.0046331016 0.7321853 0.39797196 0.31194443 0.36202735 0.65670824 0.31002697
0.4325949 0.45424184 0.42718846 0.32299155 0.45367837 0.2742256 0.32257745 0.41260767
0.7415096 0.2857129 0.3562153 0.22668621 0.43442267 0.014581419 0.32549492 1.3753793
0.4540554 0.2685855 0.18747959 0.71754766 0.25625172 0.40934604 0.25783753 0.5042995
00000000: 4a8e a33e e6a0 8b3e c0e8 f93e 69ba 873e
00000010: 18e2 3f3e 0911 563f 5f9e 3a3f 672d 6b3e
00000020: 0f28 023c 189d b13e 534c 5a3f b109 013f
00000030: 4dba 143f fcf7 f93e ab9b af3e cc78 d33e
00000040: 979f a73e 9651 a03e 765a f33c be64 a33e
00000050: 3524 063f 554b e53e 66b4 b73e 9d89 043f
00000060: a5c0 1a3f b968 193c 459e f83e e67c d13e
00000070: 6099 523f c315 4f3f ef3e 633f 2e63 973e
00000080: 2f9d 833e f939 103f 5d08 e23e 27f8 913e
00000090: 6005 ad3e 4397 5d3e 9a3e c33e c375 2b3e
000000a0: e872 723e 7276 c23e 970b 723f 084c 443e
000000b0: 53b1 dc3e 7b95 a83e 06d8 cc3e 80fd fb3e
000000c0: 7e74 963e 4f7b 873f 6113 933e d996 6f3e
000000d0: 29cf 8e3e 5db0 053f ca9e a83f 075e 023f
000000e0: 0621 943e 7ae2 943a a720 543e cb92 6a3f
000000f0: 3f2f f039 7718 a63e 669b 8a3e a7b7 c43e
00000100: 84cc 593d 6ab2 313e 9861 09bb d77c 8d3e
00000110: 2d4d f83e 3513 e13d 70b2 943e 8a4e 543f
00000120: cd33 723e 9c4b 113f 1471 153f 8b72 a13e
00000130: 94f2 8a3e 7229 a43e e150 723e ab4b a93e
00000140: 9fd5 db3e 0c37 a63e 1dd2 dd3e 5f94 713f
00000150: 851a a93e f208 4c3f db3c 9b3e f0be e43a
00000160: 5a50 923e 7485 db3e c77b ab3e 266d ce3e
00000170: 5c4f 113f d740 583e 4c54 9c3e 375e 503e
00000180: 0c14 9a3e de4c 513f d242 093f c548 213f
00000190: 64cc d43e 4fd8 7b3e 2799 0a3f 35c1 0c3f
000001a0: e2c3 bd3e 4755 723e 3251 a43e 5742 893e
000001b0: f623 603e 3fd7 3c3f 9eda a33e 4bf8 bc3e
000001c0: 5676 ae3e 290a cb3e a7a7 e83e 0746 a63e
000001d0: 7768 1b3f ccbf 033f a28b 063f 9360 e33e
000001e0: cfba 953e 52f0 213a d9af 793f bedb 603e
000001f0: 52c2 5c3e 95b2 713e 1bce 813f 6a5c 983e
00000200: bb21 0c3f e191 af3e 3845 da3e 857f 613e
00000210: f67f 873e 1f18 ec3e 8c3b 893e c83f 4b3f
00000220: a31a 7c3f 1f09 9a3e 4ba7 d13e bbd5 643e
00000230: 5559 363f 74b6 ac3e 1c05 853e 4166 a23e
00000240: f284 153f 8bd3 643e 079a 9b3e 7553 b43e
00000250: a020 f73e 3139 953e 2d3f c03e 4566 c43e
00000260: 0209 ed3e 8da6 353f 98b5 e53e db2d d43e
00000270: da16 1b3f 52a4 7d3e 1404 a63e 954c d13e
00000280: a2b7 b73b 8e37 dc3e de48 c63e f7f0 d33e
00000290: bd65 aa3e cb5c 273f 8eee 443f f885 a739
000002a0: 16f0 a73e 6a63 cf3e 70d1 153c b061 ed3d
000002b0: c899 5a3f b9af 613e 2fc9 783f 960f 033f
000002c0: 1832 dc3e abed 223f 8993 b53e e60a 1b3f
000002d0: 8c88 073f 4cb7 483f f200 c53e eca2 873e
000002e0: 7f7e aa3e cc0e 8c3c 1f5e 853e 1342 573f
000002f0: 3dcc 0f3f cb72 903a 22be 9b3e ca66 d03e
00000300: 4e22 183f cf67 ae3e eac8 2a3f c50d e53e
00000310: 78a4 233f b224 893e 54f5 9f3e 4ccd 2b3f
00000320: c80f 153f 03bc 1e3f 3474 c33e ad79 e73e
00000330: f729 573f 4fd9 193f e005 ae3e 70fd e33e
00000340: fed9 a13e 814f 8b3f 8c2d f03e 311a fe3b
00000350: 1525 b13e 04b9 863e 824b 853e 42af 563e
00000360: 589f 0a3f 7236 a13e e6fa ecba 3509 583f
00000370: 39fa 553e 96cb bc3e 978f a63e ff0e bd3e
00000380: 0d58 153c 46d1 973b 7f70 3b3f fbc2 cb3e
00000390: 2eb7 9f3e a65b b93e 081e 283f dbbb 9e3e
000003a0: 147d dd3e 6392 e83e 72b8 da3e 265f a53e
000003b0: 8848 e83e 4c67 8c3e df28 a53e 5041 d33e
000003c0: 93d3 3d3f f648 923e da61 b63e 6e20 683e
000003d0: a66c de3e e7e6 6e3c 45a7 a63e 6e0c b03f
000003e0: f379 e83e 0a84 893e a6fa 3f3e 34b1 373f
000003f0: 6d33 833e ce95 d13e 4803 843e c619 013f

bn1.bias f4 [400]
-0.28166494 -0.3445427 -0.36245915 -0.21203321 -0.26159596 -0.058105838 0.09159394 -0.27145308
-0.029596068 -0.082438245 -0.35570493 -0.30681223 -0.31276736 0.03491996 -0.15782432 0.07205279
-0.09467013 -0.23178732 -0.09938843 -0.11676672 -0.36582723 -0.010292468 -0.15402737 -0.599036
-0.24890813 -0.031920947 -0.17100886 -0.52758604 -0.35352814 0.22684453 0.04262533 -0.43060344
-0.1605616 -0.3874427 -0.43345082 -0.288659 -0.2529799 -0.34715736 -0.36502632 -0.13370252
-0.26952395 -0.33545294 -0.46642867 -0.18560503 0.12620288 -0.13596381 -0.33394107 -0.3645442
-0.3653661 0.086116016 -0.2437041 -0.2552739 0.12608834 -0.36409238 -0.082028404 -0.07346678
-0.31494963 -0.006381867 -0.1554349 -0.018035788 -0.009577685 -0.15869537 -0.38394448 -0.5069314
-0.1599925 -0.19861592 -0.035559844 -0.37619627 -0.05823159 -0.10014658 -0.47042376 -0.2315656
-0.1870185 -0.39539674 -0.3808345 -0.34517154 -0.25711858 -0.49907696 -0.16016698 -0.38974833
0.066936165 -0.22462116 -0.18160646 -0.3233992 -0.38106212 -0.024872337 -0.23735735 -0.006678084
0.3860483 -0.25648052 -0.4711511 -0.059024163 -0.3743281 -0.23641133 -0.17918918 -0.108381204
-0.14019457 -0.17306934 -0.37294075 -0.2815917 -0.11457657 -0.3386118 -0.20142205 -0.33790883
-0.47891644 -0.34536818 -0.22493258 -0.29726493 -0.18030633 -0.34916854 -0.30018637 0.1299611
-0.16492169 -0.32066548 -0.3892197 -0.25875214 -0.42796704 -0.32991514 -0.23374705 -0.31647465
-0.50251204 -0.0066674957 -0.21499266 -0.28095642 -0.027282633 -0.36180675 -0.3402971 -0.27031156
-0.37181494 -0.25744113 -0.3028463 -0.22455098 -0.2736422 0.004258763 -0.32537553 -0.22789632
-0.31163648 -0.2440805 -0.58343935 -0.09018988 -0.43597153 -0.19755732 -0.27226478 -0.30852425
0.022453092 -0.15220863 -0.14618748 -0.6102126 0.13940722 -0.3879955 -0.43039 -0.5108602
-0.24168392 0.12653491 -0.26057398 -0.10428214 -0.6553448 -0.26728615 -0.26603162 -0.47534266
-0.10409185 -0.42156842 -0.46273977 -0.43783003 -0.35823783 -0.71317625 -0.0831622 -0.010894022
-0.42795062 -0.12752964 -0.039914392 -0.13195638 -0.28504226 -0.11519059 -0.33258125 -0.4624867
-0.22260897 -0.18429968 -0.43425727 -0.4042328 -0.47086725 -0.5754388 -0.062701225 -0.32058248
-0.062319733 -0.06295677 -0.17674594 0.12203254 -0.33642694 -0.0042832536 -0.4143992 -0.32566476
-0.31236523 -0.39902878 0.06515354 -0.12099524 -0.17525932 -0.38517016 -0.42567036 -0.4645463
-0.31424057 -0.006901848 -0.31470406 -0.37370828 -0.41256845 -0.4000772 -0.46743503 -0.51480407
-0.32270452 -0.12070748 -0.45389947 -0.02801925 -0.27799305 -0.2534661 -0.26429465 -0.082416765
-0.30038187 -0.038071107 -0.012338621 -0.025688343 -0.2530366 -0.58702576 -0.358663 -0.3401675
-0.047325812 -0.020428972 -0.26683894 -0.46703577 -0.13086717 -0.26868445 0.04675341 -0.44702858
-0.399763 -0.13578829 -0.43383834 -0.20049885 -0.5388366 -0.31378454 -0.2618837 -0.03190083
-0.11754519 -0.27429447 -0.28315237 -0.44944945 -0.22696705 -0.05413744 -0.37316856 -0.040719323
-0.42147073 -0.20511606 -0.15007873 -0.15282343 -0.16960652 -0.41592273 -0.088622235 -0.1282841
00000000: 6336 90be e767 b0be 3f94 b9be 3c1f 59be
00000010: e8ef 85be 6300 6ebd 9b95 bb3d e6fb 8abe
00000020: 7473 f2bc 62d5 a8bd f51e b6be 7e16 9dbe
00000030: 0b23 a0be 3b08 0f3d b39c 21be 6a90 933d
00000040: 6ae2 c1bd a859 6dbe 298c cbbd 6423 efbd
00000050: b54d bbbe bda1 28bc 5ab9 1dbe 6c5a 19bf
00000060: c6e1 7ebe 8abf 02bd f21c 2fbe e10f 07bf
00000070: a401 b5be ef49 683e e697 2e3d 0e78 dcbe
00000080: 436a 24be e45e c6be 44ed ddbe 1dcb 93be
00000090: 9586 81be 9cbe b1be bbe4 babe 50e9 08be
000000a0: 0bff 89be 7dc0 abbe bdcf eebe 3f0f 3ebe
000000b0: 543b 013e 193a 0bbe 53fa aabe 8aa5 babe
000000c0: 4411 bbbe 985d b03d 918d 79be 43b3 82be
000000d0: 4d1d 013e 516a babe 82fe a7bd c075 96bd
000000e0: 1441 a1be fb1e d1bb 542a 1fbe cabf 93bc
000000f0: b9eb 1cbc 0a81 22be 5f94 c4be 42c6 01bf
00000100: 13d5 23be f961 4bbe 33a7 11bd cc9c c0be
00000110: 3f84 6ebd a619 cdbd 62db f0be 881f 6dbe
00000120: c781 3fbe 7171 cabe bdfc c2be 53ba b0be
00000130: 0ca5 83be 0487 ffbe d002 24be 188d c7be
00000140: d415 893d 1703 66be 0bf7 39be 9494 a5be
00000150: 931a c3be 12c1 cbbc ce0d 73be d4d3 dabb
00000160: 1fa8 c53e 6a51 83be b83a f1be 52c3 71bd
00000170: efa7 bfbe d015 72be 5e7d 37be f7f6 ddbd
00000180: 2a8f 0fbe 1739 31be 17f2 bebe ca2c 90be
00000190: 1fa7 eabd 875e adbe 9541 4ebe 6302 adbe
000001a0: 8934 f5be 19d4 b0be ba54 66be 1c33 98be
000001b0: 39a2 38be 38c6 b2be 07b2 99be 8614 053e
000001c0: 3be1 28be 442e a4be ce47 c7be 297b 84be
000001d0: 7f1e dbbe a3ea a8be 635b 6fbe f708 a2be
000001e0: a1a4 00bf 027b dabb 0927 5cbe 85d9 8fbe
000001f0: d47f dfbc bc3e b9be 6c3b aebe 4766 8abe
00000200: 875e bebe 53cf 83be ac0e 9bbe b1f0 65be
00000210: d51a 8cbe 188d 8b3b 9f97 a6be a75d 69be
00000220: d18e 9fbe 3df0 79be 485c 15bf 79b5 b8bd
00000230: a937 dfbe 774c 4abe 4a66 8bbe e4f6 9dbe
00000240: 8cef b73c 94dc 1bbe 2cb2 15be e536 1cbf
00000250: c4c0 0e3e 59a7 c6be 145c dcbe bcc7 02bf
00000260: fd7b 77be 5e92 013e f469 85be e091 d5bd
00000270: adc4 27bf bbd9 88be 4c35 88be 1d60 f3be
00000280: 1c2e d5bd d1d7 d7be 3aec ecbe 422b e0be
00000290: f36a b7be b892 36bf f250 aabd d77c 32bc
000002a0: 581c dbbe 2197 02be 467d 23bd 931f 07be
000002b0: 0ff1 91be 0be9 ebbd 1748 aabe 0fcb ecbe
000002c0: 9bf3 63be 0eb9 3cbe f856 debe 9af7 cebe
000002d0: 8315 f1be f54f 13bf 8069 80bd 6323 a4be
000002e0: fa42 7fbd 7bef 80bd e3fc 34be 32ec f93d
000002f0: 2740 acbe 895a 8cbb 222c d4be 88bd a6be
00000300: 56ee 9fbe 804d ccbe 386f 853d 5acc f7bd
00000310: 2e77 33be 0635 c5be 77f1 d9be 03d9 edbe
00000320: 24e4 a0be e628 e2bb e420 a1be b156 bfbe
00000330: 2c3c d3be ebd6 ccbe a553 efbe 33ca 03bf
00000340: 8739 a5be 7c35 f7bd 8365 e8be a088 e5bc
00000350: 1b55 8ebe 4fc6 81be a151 87be 1fca a8bd
00000360: a7cb 99be 73f0 1bbd ed27 4abc 5c70 d2bc
00000370: 038e 81be 5247 16bf ada2 b7be 6f2a aebe
00000380: b6d8 41bd a95a a7bc 1d9f 88be 501f efbe
00000390: 0b02 06be 0291 89be 8180 3f3d eee0 e4be
000003a0: bcad ccbe 160c 0bbe 0f20 debe 924f 4dbe
000003b0: 32f1 09bf 5ea8 a0be 9f15 86be 72aa 02bd
000003c0: 88bb f0bd 5370 8cbe 59f9 90be 3d1e e6be
000003d0: 0d6a 68be 38bf 5dbd f30f bfbe 4ec9 26bd
000003e0: 03cb d7be f209 52be 3dae 19be bf7d 1cbe
000003f0: 55ad 2dbe d3f3 d4be 937f b5bd e85c 03be

bn1.running_mean f4 [400]
2.234458 -7.4664497 -0.27218735 3.5236456 6.725487 4.7234592 10.477551 4.161011
0.41013724 -1.2621326 4.8849 -6.089556 0.91346514 0.9537658 -8.289263 8.917179
2.7725985 8.410019 0.6755226 3.6793175 -1.5580376 -0.24845748 3.8587801 2.9968176
1.8856483 0.0015125539 8.945828 15.136977 12.912831 0.12536167 0.1383471 -2.290957
4.195233 -3.168748 -6.489106 3.163639 13.156457 -15.507963 4.3160396 8.113143
-2.414522 -3.1338205 -1.124644 -9.593007 5.953624 7.0161 -12.869816 7.24055
-10.61833 6.710647 -0.119731896 -0.73409396 6.789058 -6.572071 -0.8150401 6.2113576
-5.655351 -0.66736126 -3.4470236 4.4388337 -0.081964925 2.9222658 -0.98975587 -2.5314684
1.4589121 -10.073697 -1.6967142 -6.3021054 4.4646196 8.787021 -10.190763 1.794652
2.976391 3.813366 -2.2135088 -0.37287962 9.184151 -2.3735032 -7.1797476 7.3950424
1.1560558 3.7955282 7.248926 4.0058546 3.568687 5.373567 3.157885 0.36507416
6.5854287 13.862984 -0.5485605 5.6253605 -5.172537 -9.745966 4.2196927 -8.169342
7.323379 -7.8930254 -3.871751 0.6865556 3.237483 7.5454216 -4.4328437 -1.6752373
-7.1855707 -12.188515 -4.6749153 7.410295 -1.6424078 -0.88988304 4.1526146 -5.1695137
-4.236735 8.287462 0.40312704 3.696499 -2.2035074 3.2490265 3.613755 -0.9273048
-2.0618632 -1.0883787 2.39108 8.438774 -0.5937443 11.479341 2.1843972 -9.717656
7.5982 5.4196157 4.458994 2.8272405 6.8913126 9.39482 6.0534844 -13.868491
-2.2362325 -1.4782345 -7.5828114 6.376941 1.4622167 -2.4097576 -11.510772 -1.8221943
-10.276009 6.7902794 -9.267008 4.5045724 -5.201282 -0.5192032 -5.764632 -11.266881
-12.590477 3.7240717 5.4003863 -6.6351314 7.4018188 -3.0529451 -2.36852 -3.9169357
1.3179214 -2.3601434 3.7304528 -1.1789695 -1.8994532 -1.5259696 -3.2192936 0.07610591
-7.2417946 8.897819 0.5094484 9.743506 5.9856424 -2.7033908 1.7439929 1.5882124
3.393308 0.9686439 -6.8603253 -8.312395 3.90795 -12.580834 6.146135 7.853864
-9.899219 -3.993056 11.219263 2.1858516 -2.0210893 -1.098391 1.7397716 8.365856
-9.154295 5.481856 2.938744 4.5725927 7.563474 -12.101954 6.1523457 -2.9850113
14.420983 0.236825 12.779403 3.5503201 5.8953424 -0.24243404 5.9547424 -2.6378484
8.537153 1.4004972 8.595612 -0.02311741 -4.303543 5.5294075 3.26932 -0.36287528
8.071727 -10.471469 0.5692396 0.10921005 10.863572 -9.480678 -5.5359044 0.026131378
-0.26563218 -0.25500023 -2.3295212 -6.851223 -4.436832 -0.6011356 7.730951 1.4697491
-14.449994 -4.661734 1.6595911 -9.709478 2.724194 1.4485391 -19.859524 -14.332351
-4.04788 1.1154509 -3.1187177 9.992471 -3.2038486 0.51393276 9.354496 0.4946663
3.3834014 -1.8841578 -10.541455 -5.620552 -0.47298852 8.788886 -2.3241553 -17.624155
00000000: 5c01 0f40 28ed eec0 245c 8bbe 6983 6140
00000010: 3137 d740 9426 9740 0da4 2741 0127 8540
00000020: 82fd d13e 908d a1bf 1a51 9c40 a5dd c2c0
00000030: dad8 693f ff29 743f d2a0 04c1 c4ac 0e41
00000040: 4172 3140 708f 0641 0def 2c3f f079 6b40
00000050: c76d c7bf a36b 7ebe 41f6 7640 dccb 3f40
00000060: ec5c f13f e340 c63a 1d22 0f41 0f31 7241
00000070: f59a 4e41 cf5e 003e ddaa 0d3e 0a9f 12c0
00000080: 593f 8640 c4cc 4ac0 c2a6 cfc0 1079 4a40
00000090: d980 5241 9e20 78c1 ff1c 8a40 6fcf 0141
000000a0: 8787 1ac0 8490 48c0 56f4 8fbf f57c 19c1
000000b0: 1684 be40 e483 e040 c4ea 4dc1 96b2 e740
000000c0: aee4 29c1 9fbd d640 ff35 f5bd 95ed 3bbf
000000d0: f73f d940 684e d2c0 78a6 50bf 71c3 c640
000000e0: a3f8 b4c0 30d8 2abf 099c 5cc0 ed0a 8e40
000000f0: 3add a7bd 6706 3b40 a460 7dbf 9403 22c0
00000100: a2bd ba3f dd2d 21c1 ee2d d9bf d9aa c9c0
00000110: 2ade 8e40 a397 0c41 5e0d 23c1 28b7 e53f
00000120: 317d 3e40 300e 7440 21aa 0dc0 14ea bebe
00000130: 48f2 1241 7ae7 17c0 7ec0 e5c0 30a4 ec40
00000140: a3f9 933f efe9 7240 34f7 e740 f62f 8040
00000150: 5e65 6440 43f4 ab40 ca1a 4a40 00eb ba3e
00000160: d5bb d240 c8ce 5d41 766e 0cbf f402 b440
00000170: 6c85 a5c0 7aef 1bc1 b907 8740 a0b5 02c1
00000180: 1f59 ea40 aa93 fcc0 c5ca 77c0 1cc2 2f3f
00000190: ec32 4f40 1874 f140 dbd9 8dc0 2d6e d6bf
000001a0: 32f0 e5c0 2804 43c1 e898 95c0 2321 ed40
000001b0: 6b3a d2bf 60cf 63bf 38e2 8440 a86c a5c0
000001c0: 5593 87c0 7299 0441 ab66 ce3e 7193 6c40
000001d0: 4406 0dc0 0df0 4f40 c347 6740 d963 6dbf
000001e0: 91f5 03c0 fe4f 8bbf 7407 1940 3805 0741
000001f0: a0ff 17bf 61ab 3741 2acd 0b40 857b 1bc1
00000200: 7424 f340 7e6d ad40 14b0 8e40 82f1 3440
00000210: a285 dc40 2f51 1641 25b6 c140 57e5 5dc1
00000220: 6f1e 0fc0 ca36 bdbf 64a6 f2c0 e70f cc40
00000230: eb29 bb3f 7839 1ac0 1f2c 38c1 aa3d e9bf
00000240: 886a 24c1 f849 d940 aa45 14c1 7525 9040
00000250: e770 a6c0 80ea 04bf de77 b8c0 2545 34c1
00000260: 9872 49c1 3157 6e40 f7cf ac40 ff52 d4c0
00000270: b3db ec40 7463 43c0 d595 17c0 13af 7ac0
00000280: a6b1 a83f 970c 17c0 bdbf 6e40 79e8 96bf
00000290: 4821 f3bf f952 c3bf e808 4ec0 6add 9b3d
000002a0: c8bc e7c0 775d 0e41 366b 023f 67e5 1b41
000002b0: 628a bf40 5b04 2dc0 293b df3f 8b4a cb3f
000002c0: f52b 5940 0cf9 773f c987 dbc0 92ff 04c1
000002d0: da1b 7a40 194b 49c1 23ad c440 db52 fb40
000002e0: 3363 1ec1 3b8e 7fc0 1a82 3341 fee4 0b40
000002f0: 8759 01c0 1498 8cbf d6b0 de3f 8cda 0541
00000300: fe77 12c1 5d6b af40 6214 3c40 ae52 9240
00000310: fb07 f240 9ba1 41c1 04e0 c440 6d0a 3fc0
00000320: 59bc 6641 4182 723e 6f78 4c41 7238 6340
00000330: a5a6 bc40 a140 78be 408d be40 82d2 28c0
00000340: 2e98 0841 7e43 b33f a087 0941 b960 bdbc
00000350: a0b6 89c0 e8f0 b040 8a3c 5140 caca b9be
00000360: cb25 0141 238b 27c1 b0b9 113f 85a9 df3d
00000370: 31d1 2d41 dbb0 17c1 2126 b1c0 7911 d63c
00000380: f100 88be 648f 82be e016 15c0 383d dbc0
00000390: 87fa 8dc0 06e4 19bf f363 f740 bd20 bc3f
000003a0: 2d33 67c1 ed2c 95c0 7b6d d43f 065a 1bc1
000003b0: 3259 2e40 bb69 b93f 4ee0 9ec1 4f51 65c1
000003c0: 3c88 81c0 18c7 8e3f 1299 47c0 29e1 1f41
000003d0: db0b 4dc0 1991 033f 04ac 1541 e744 fd3e
000003e0: a689 5840 152c f1bf cda9 28c1 90db b3c0
000003f0: 8d2b f2be 479f 0c41 f6be 14c0 45fe 8cc1

bn1.running_var f4 [400]
25.111464 51.10581 94.30959 40.042046 69.15114 167.85399 38.531666 29.14214
6.9180436 4.0181937 22.846828 135.22289 172.72491 100.480774 56.138046 21.479092
67.849335 33.603397 16.189978 60.70999 32.469078 3.8250277 35.742756 26.99791
292.78384 8.262154 143.79869 59.416645 40.800488 2.8491197 281.47592 30.800951
47.928875 56.527237 117.18338 172.67844 58.310955 79.187744 97.69234 151.07944
89.3981 118.560585 49.990925 32.468708 15.109221 290.22083 40.678474 63.470104
52.23027 15.241206 289.8122 234.20619 62.527412 149.91121 303.27344 67.88678
36.285507 0.9141863 30.141876 17.755396 3.3207233 94.65476 171.62912 41.799904
46.881783 54.932785 10.11568 49.784767 18.524202 94.32284 80.03947 44.664642
138.55211 37.40675 33.79104 93.521835 87.58038 284.26523 25.129656 35.370216
101.35154 33.24577 18.541964 128.89838 70.295 45.94478 54.609028 3.9280303
33.414413 253.35976 188.30443 9.85512 16.427794 61.387615 18.596746 77.75589
30.29772 37.069935 33.79384 6.236268 66.08867 39.63731 49.969383 5.111962
53.444267 50.976955 77.06409 35.33312 113.615364 106.28351 43.90342 20.070774
120.6683 21.861792 11.52936 38.550972 19.865828 59.660378 59.543068 44.058743
66.96273 6.311574 13.644745 318.17633 95.65906 57.674667 11.767595 28.642143
39.40759 172.75851 57.421257 40.845303 66.065765 54.166737 35.737625 89.06976
26.802193 122.85098 33.152317 57.922493 71.87372 193.02713 78.38733 75.269066
40.023933 60.704754 69.64975 110.88177 63.98494 178.67801 38.395123 61.48039
75.09753 10.6398115 93.32138 64.04527 56.662773 9.04597 51.83917 72.683334
31.185137 94.31423 120.77581 58.66041 17.849802 75.68737 45.742226 2.9514043
142.34706 122.20542 3.989431 151.44022 45.998756 54.73382 18.57274 78.127625
58.42758 3.5756922 76.55358 26.811756 25.707603 31.01881 7.1212745 42.24988
102.653076 75.25556 27.076536 15.67651 3.8245955 3.9823742 111.0054 45.70241
47.804245 43.792564 38.73025 41.37434 62.667297 23.939493 64.43873 72.54349
100.67735 2.465861 59.867176 83.2221 16.165873 23.310516 19.878935 34.979954
132.24136 157.77742 200.81688 6.031326 35.141254 38.374126 23.04673 64.13298
118.96206 40.374413 5.169823 7.969607 106.318184 86.438255 181.97314 75.452965
3.5976975 1.238924 17.290895 29.924797 215.731 83.34904 46.0092 104.30765
45.406395 53.11829 21.653862 57.44579 89.59957 77.38847 68.235985 110.28579
45.519733 239.18901 41.983658 26.266016 65.360374 10.075063 176.0655 1.898921
93.01071 49.99616 124.45138 80.51359 61.25771 86.839714 224.02762 95.07077
00000000: 47e4 c841 596c 4c42 839e bc42 0e2b 2042
00000010: 624d 8a42 9fda 2743 6d20 1a42 1a23 e941
00000020: 9d60 dd40 0b95 8040 4ec6 b641 0f39 0743
00000030: 94b9 2c43 28f6 c842 5c8d 6042 2ed5 ab41
00000040: dcb2 8742 e169 0642 1385 8141 08d7 7242
00000050: 56e0 0142 41cd 7440 95f8 0e42 b8fb d741
00000060: 5564 9243 c831 0441 77cc 0f43 a5aa 6d42
00000070: b333 2342 fa57 3640 ebbc 8c43 5968 f641
00000080: 2bb7 3f42 e41b 6242 e45d ea42 aead 2c43
00000090: 6b3e 6942 2060 9e42 7a62 c342 5614 1743
000000a0: d4cb b242 051f ed42 b5f6 4742 f5df 0142
000000b0: 5fbf 7141 441c 9143 c2b6 2242 63e1 7d42
000000c0: cceb 5042 fbdb 7341 f6e7 9043 c934 6a43
000000d0: 121c 7a42 45e9 1543 00a3 9743 08c6 8742
000000e0: 5c24 1142 1d08 6a3f 9022 f141 0d0b 8e41
000000f0: bb86 5440 3d4f bd42 0ea1 2b43 1a33 2742
00000100: f286 3b42 2cbb 5b42 d3d9 2141 9a23 4742
00000110: 9131 9441 4ba5 bc42 3514 a042 98a8 3242
00000120: 578d 0a43 83a0 1542 062a 0742 2e0b bb42
00000130: 2829 af42 f321 8e43 8909 c941 1a7b 0d42
00000140: fdb3 ca42 abfb 0442 f155 9441 fce5 0043
00000150: 0a97 8c42 74c7 3742 a56f 5a42 d964 7b40
00000160: 5ca8 0542 195c 7d43 ef4d 3c43 92ae 1d41
00000170: 1f6c 8341 eb8c 7542 23c6 9441 0483 9b42
00000180: bb61 f241 9d47 1442 e42c 0742 828f c740
00000190: 662d 8442 9b8c 1e42 a6e0 4742 3195 a340
000001a0: eec6 5542 67e8 4b42 d020 9a42 1d55 0d42
000001b0: 113b e342 2891 d442 1a9d 2f42 f290 a041
000001c0: 2b56 f142 f3e4 ae41 4278 3841 3234 1a42
000001d0: 37ed 9e41 3aa4 6e42 1a2c 6e42 273c 3042
000001e0: ebec 8542 6af8 c940 e050 5a41 9216 9f43
000001f0: 7051 bf42 dcb2 6642 1248 3c41 1c23 e541
00000200: 5fa1 1d42 2ec2 2c43 5eaf 6542 9761 2342
00000210: ac21 8442 bdaa 5842 54f3 0e42 b823 b242
00000220: e46a d641 b4b3 f542 f99b 0442 a2b0 6742
00000230: 58bf 8f42 f206 4143 50c6 9c42 c389 9642
00000240: 8218 2042 abd1 7242 ac4c 8b42 77c3 dd42
00000250: 94f0 7f42 92ad 3243 9b94 1942 ebeb 7542
00000260: ef31 9642 ab3c 2a41 8ca4 ba42 2e17 8042
00000270: aea6 6242 4bbc 1041 4f5b 4f42 de5d 9142
00000280: 297b f941 e3a0 bc42 378d f142 43a4 6a42
00000290: 65cc 8e41 ef5f 9742 0af8 3642 cfe3 3c40
000002a0: d958 0e43 2d69 f442 d652 7f40 b270 1743
000002b0: bafe 3742 6fef 5a42 f994 9441 5841 9c42
000002c0: d8b5 6942 24d8 6440 6f1b 9942 7a7e d641
000002d0: 2ca9 cd41 8626 f841 7be1 e340 e1ff 2842
000002e0: 604e cd42 d982 9642 bf9c d841 fcd2 7a41
000002f0: 2cc6 7440 38df 7e40 c402 de42 45cf 3642
00000300: 8c37 3f42 962b 2f42 c7eb 1a42 537f 2542
00000310: 50ab 7a42 1584 bf41 a1e0 8042 4416 9142
00000320: ce5a c942 abd0 1d40 fd77 6f42 b771 a642
00000330: b553 8141 f07b ba41 0f08 9f41 79eb 0b42
00000340: ca3d 0443 05c7 1d43 1fd1 4843 9f00 c140
00000350: a590 0c42 1b7f 1942 b45f b841 1644 8042
00000360: 93ec ed42 667f 2142 316f a540 0507 ff40
00000370: e9a2 d442 63e0 ac42 20f9 3543 ebe7 9642
00000380: ad40 6640 1095 9e3f c153 8a41 fc65 ef41
00000390: 23bb 5743 b5b2 a642 6c09 3842 849d d042
000003a0: 26a0 3542 2179 5442 1c3b ad41 7dc8 6542
000003b0: fb32 b342 e6c6 9a42 d378 8842 5392 dc42
000003c0: 3514 3642 6330 6f43 44ef 2742 cd20 d241
000003d0: 83b8 8242 7533 2141 c510 3043 d80f f33f
000003e0: 7c05 ba42 11fc 4742 1be7 f842 f506 a142
000003f0: e507 7542 efad ad42 1207 6043 3c24 be42

fc2.weight f4 [300, 402]
0.017926313 -0.02316109 -0.02400542 -0.61741066 0.11455431 0.0065679816 -0.4729817 -0.5162068
-0.022869863 -0.10999495 -0.027445532 -0.47514117 -0.294215 -0.28618038 0.005037956 0.02710418
-0.5894493 -0.03388554 -0.03265114 0.3881307 0.016862174 -1.1305583 0.094336964 -0.15665385
-0.16384299 0.044741884 -0.20983331 -0.04456591 -0.09682779 -0.07228945 0.019303462 -0.19284745
-0.09779893 -0.0009070435 -0.113713965 -0.16123918 -0.10650889 0.050229106 -0.09560664 -0.009672127
0.13224202 -0.32556933 -0.1214408 -0.12578756 -0.3645486 0.06274752 0.013247226 -0.12580673
0.10701717 -0.5098488 -0.5194508 0.006593539 -0.23450767 -0.06837876 -0.15609923 -0.5422069
0.15532792 0.03472415 -0.16449995 -0.41324598 0.041157074 -0.2624072 -0.1263622 -0.09887948
-0.06561275 -0.3393737 0.043171372 -0.039674964 -0.10641915 -0.024156816 -0.13699107 -0.5068114
-0.25284842 0.12618522 -0.24971859 -0.30671677 -0.18983425 -0.22613637 -0.16386026 -0.244831
-0.2427529 0.09068986 -0.33051044 -0.06651384 -0.042953316 -0.065865174 -0.034612235 0.00021114167
-0.33568656 -0.15907948 0.22848038 -0.17191717 -0.32409707 0.19256714 -0.10903596 0.069701985
-0.82168245 0.13896751 -0.020004528 -0.9579712 -0.00075151364 -0.02117238 -0.079093665 -0.20498711
-0.15279903 -0.15847313 -0.085444 0.38485625 -0.024910863 -0.06820079 -0.25438872 -0.06756379
0.2902567 -0.5738327 -0.21571852 0.21272972 -0.092673294 -0.057049423 0.29224747 -0.06669696
-0.05818797 -0.039474417 0.041873258 -0.2722484 -0.060541395 -0.08901957 -0.44574034 -0.5091837
0.020158352 0.16169438 -0.0047288346 -0.49735335 0.011657148 -0.3933451 -0.12741563 -0.11941758
-0.0820461 -0.150415 -0.026952766 0.14095058 -0.2687787 -0.042681042 -0.050411295 -0.06833618
0.5522544 -0.07567989 -0.05992575 -0.103901766 0.016365647 0.008670667 0.14246184 0.099294074
-0.25845262 -0.091565296 -0.43561953 -0.25613886 -0.08621066 -0.009235812 -0.28772312 0.02445233
0.0043375744 0.24975222 -0.105845325 0.13195297 0.03027736 0.0048895194 -0.13028699 0.0012173089
0.2273311 0.040546097 -0.0027234796 -0.38685864 -0.17439665 -0.07654051 -0.055918843 -0.60330653
0.09019796 -0.020166045 -0.111345716 -0.09804963 -0.013147152 -0.3278175 0.051565245 -0.20321785
0.023714881 0.07269146 -0.020268423 0.07518776 0.07909236 0.046665292 0.39607707 -0.07275349
-0.3641709 -0.11444567 -0.0076292017 -0.08495927 0.025997847 -0.34118342 -0.7408209 -0.10658052
-0.69131804 -0.06402843 0.008225416 -0.09705842 0.16218281 -0.014597077 -0.025051111 -0.19583118
-0.06181673 -0.12277204 -0.12591648 0.034257706 -0.12780362 -0.20176698 -0.21296926 -0.18593769
-0.043672517 -0.33448023 0.0011702349 -0.403936 0.260188 -0.21711153 0.1120377 -0.07104003
-0.03182381 0.0039070267 -0.38714147 -0.078944504 -0.20956127 -0.063742496 -0.23950838 -0.017623419
-0.5243637 -0.0607829 -0.3597958 -0.10037054 -0.15846787 -0.0826402 -0.16410767 -0.03292551
-0.01457126 -0.0006245559 -0.38458917 -0.0621308 -0.3239259 0.02576181 -0.3385885 0.081698194
-0.609414 -0.31335652 0.05570748 -0.49743435 0.036389653 -0.043134004 -0.14122333 -0.041482624
00000000: 34da 923c 54bc bdbc 04a7 c4bc a00e 1ebf
00000010: 739b ea3d 3938 d73b a82a f2be 2126 04bf
00000020: 9459 bbbc 0845 e1bd 74d5 e0bc b445 f3be
00000030: 59a3 96be 3c86 92be 7015 a53b 9609 de3c
00000040: 26e6 16bf 90cb 0abd 34bd 05bd 11b9 c63e
00000050: 8b22 8a3c 22b6 90bf bd33 c13d de69 20be
00000060: 75c6 27be 4443 373d 8bde 56be be8a 36bd
00000070: a64d c6bd 7e0c 94bd 4b22 9e3c cd79 45be
00000080: ce4a c8bd a9c6 6dba dee2 e8bd e21b 25be
00000090: 5521 dabd 09bd 4d3d 6acd c3bd d777 1ebc
000000a0: 746a 073e 06b1 a6be f4b5 f8bd 74ce 00be
000000b0: 1da6 babe c681 803d e50a 593c 7bd3 00be
000000c0: d12b db3d 7385 02bf bafa 04bf 9d0e d83b
000000d0: c722 70be 2a0a 8cbd 7ad8 1fbe 12ce 0abf
000000e0: 480e 1f3e e93a 0e3d ad72 28be fa94 d3be
000000f0: 5294 283d 3d5a 86be 1865 01be 5381 cabd
00000100: fa5f 86bd 64c2 adbe 77d4 303d 3782 22bd
00000110: 49f2 d9bd 84e4 c5bc 6347 0cbe 64be 01bf
00000120: 5975 81be b336 013e 3bb6 7fbe fb09 9dbe
00000130: e963 42be 4b90 67be fcca 27be fab4 7abe
00000140: 3794 78be 9bbb b93d aa38 a9be 6838 88bd
00000150: d1ef 2fbd 52e4 86bd 8fc5 0dbd e965 5d39
00000160: 1cdf abbe bbe5 22be c3f6 693e 0e0b 30be
00000170: 0df0 a5be 5230 453e 3f4e dfbd eabf 8e3d
00000180: c859 52bf 804d 0e3e 89e0 a3bc 9a3d 75bf
00000190: 3a01 45ba b371 adbc dcfb a1bd 24e8 51be
000001a0: 5977 1cbe c846 22be 44fd aebd e10b c53e
000001b0: de11 ccbc dbac 8bbd 3d3f 82be e25e 8abd
000001c0: 879c 943e b3e6 12bf 51e5 5cbe d2d5 593e
000001d0: 7fcb bdbd a8ac 69bd 76a1 953e 6a98 88bd
000001e0: 8256 6ebd edaf 21bd 4b83 2b3d 2464 8bbe
000001f0: 41fa 77bd e44f b6bd 1438 e4be dd59 02bf
00000200: 2123 a53c 3693 253e 57f4 9abb 19a5 febe
00000210: 9ffd 3e3c 8764 c9be 3e79 02be 3491 f4bd
00000220: c907 a8bd 6406 1abe 0ccc dcbc 5955 103e
00000230: 5d9d 89be 51d2 2ebd 137c 4ebd d7f3 8bbd
00000240: 8b60 0d3f 0ffe 9abd b474 75bd 73ca d4bd
00000250: 4011 863c 6a0f 0e3c 84e1 113e b15a cb3d
00000260: e753 84be 9686 bbbd 8609 dfbe a224 83be
00000270: 378f b0bd ce51 17bc 7250 93be 4150 c83c
00000280: 3622 8e3b 0cbf 7f3e 6fc5 d8bd ae1e 073e
00000290: 3a08 f83c 4338 a03b f469 05be 1c8e 9f3a
000002a0: 7cc9 683e aa13 263d 687c 32bb 5612 c6be
000002b0: 0995 32be 45c1 9cbd 280b 65bd 4c72 1abf
000002c0: b5b9 b83d 4333 a5bc 3909 e4bd 3fce c8bd
000002d0: 2767 57bc b2d7 a7be 1436 533d 5718 50be
000002e0: b645 c23c 43df 943d f709 a6bc 0afc 993d
000002f0: 2dfb a13d 1b24 3f3d 9dca ca3e c8ff 94bd
00000300: 9c74 babe 7e62 eabd 62fe f9bb 20ff adbd
00000310: 70f9 d43c 98af aebe 70a6 3dbf e346 dabd
00000320: 38fa 30bf 5621 83bd e5c3 063c 91c6 c6bd
00000330: 4013 263e 9428 6fbc fd37 cdbc f887 48be
00000340: 8a33 7dbd e86f fbbd 40f0 00be cf51 0c3d
00000350: f4de 02be 019c 4ebe 9d14 5abe 7366 3ebe
00000360: f4e1 32bd fe40 abbe 9162 993a b3d0 cebe
00000370: 5d37 853e 7c52 5ebe 0674 e53d 6f7d 91bd
00000380: af59 02bd 8406 803b 6837 c6be a8ad a1bd
00000390: 3b97 56be 6d8b 82bd af41 75be fd5e 90bc
000003a0: b33c 06bf 7df7 78bd 2837 b8be 128f cdbd
000003b0: 6745 22be 443f a9bd d70b 28be e6dc 06bd
000003c0: 4bbc 6ebc 3db9 23ba dfe8 c4be de7c 7ebd
000003d0: 9ed9 a5be 6e0a d33c 795b adbe 6251 a73d
000003e0: 8e02 1cbf 4470 a0be 872d 643d b7af febe
000003f0: 510d 153d 48ad 30bd d99c 10be afe9 29bd

fc2.bias f4 [300]
-0.052943166 -0.00456254 -0.0072817053 -0.051549196 -0.012182158 -0.2278752 0.02462117 0.3887593
-0.003096549 -0.07239227 -0.00752106 -0.066447236 -0.01535833 -0.019205295 -0.0070598656 -0.03631824
-0.05364779 -0.08633475 -0.057608668 -0.018389253 -0.011435752 -0.06996256 -0.101021424 -0.07645917
-0.08412304 -0.024120914 0.0039090575 -0.024567662 0.06891395 -0.060459007 -0.07959286 -0.0753681
-0.09619706 -0.044786572 0.0052909357 -0.06410955 -0.005912792 -0.026972242 -0.064688206 -0.0023368055
-0.063893765 -0.09341378 -0.0462449 -0.0753716 -0.07865353 -0.09324813 -0.014358198 -0.046549994
-0.056970403 0.0016769854 -0.01722961 -0.017078536 -0.028114462 -0.03859266 -0.04924487 0.21480396
0.022469463 -0.046896193 -0.015900932 -0.00845891 -0.006985089 -0.010635778 0.07374999 -0.029836334
-0.026796753 -0.048067335 -0.13986546 -0.04703943 -0.029152684 -0.18813922 -0.02186106 0.079689175
-0.021969799 -0.08701586 -0.107332006 -0.06433702 0.0065398193 0.115096405 -0.03244827 -0.04307292
-0.03586538 -0.07100284 -0.061881322 -0.030827282 -0.086584195 -0.044058017 -0.07529398 -0.025644213
-0.024338463 -0.12122533 -0.034189932 -0.016713059 -0.06770614 -0.059151005 -0.016655408 -0.032138113
-0.10341751 -0.018470587 0.25943282 -0.016276969 -0.11098269 -0.026477162 -0.002045107 -0.03697195
-0.057930157 -0.02531464 -0.052073613 -0.025805637 -0.06330674 -0.05172882 -0.106326155 -0.06629421
-0.051811468 0.0931038 -0.08128537 -0.09563 -0.020269599 -0.060117867 -0.10641644 -0.051870197
0.0068446365 0.3803706 -0.031035965 -0.040086314 -0.00041332326 0.0018595126 0.012772126 -0.01888112
-0.06745121 0.48345503 -0.046527166 -0.08533353 -0.02778623 -0.0037599148 -0.09169975 -0.09337486
-0.0379386 -0.047221575 -0.017249944 -0.065411724 -0.085611016 -0.0076220487 -0.050973304 -0.023503797
-0.01608707 -0.05055554 -0.07807696 0.1587312 -0.039806556 -0.08660715 -0.032835368 -0.07458883
0.015382831 -0.048086073 -0.08104453 -0.02512431 -0.015602558 -0.07668352 -0.06190498 -0.0001611269
-0.21904598 0.00509647 -0.029341958 -0.028595053 -0.08885621 -0.05228732 0.01705288 -0.0064694528
-0.010401583 -0.04442237 -0.0675845 -0.06311211 -0.041810483 -0.10065795 -0.18728815 -0.009470253
0.24099763 0.10870273 -0.2634242 -0.041262742 0.03659325 -0.047780577 -0.083910555 -0.08931166
-0.046199843 -0.1930894 0.0066511156 -0.009107504 -0.04611408 -0.055579968 -0.028937044 -0.017188638
-0.013070885 -0.058978345 0.052699454 -0.04150212 -0.08300671 -0.09201453 -0.20289679 0.07409618
0.017529901 -0.07358933 -0.034498118 0.01267944 -0.09786635 -0.025097724 -0.030428635 0.05531117
-0.10820728 -0.02611664 -0.030379923 -0.07738877 -0.0077231023 -0.04596803 -0.025969362 -0.092648946
-0.048861075 -0.04110279 -0.035732873 -0.066276364 -0.006537585 -0.052306738 0.13128367 -0.03244505
-0.023741411 0.17774065 -0.041207477 -0.025563868 -0.0012579571 -0.039141156 0.21208966 -0.028541
-0.042222474 -0.0026858067 -0.06218826 0.08508192 0.021235282 -0.07391384 -0.10341093 -0.057924364
0.15441518 0.013478978 -0.014337883 -0.08687412 0.08454368 -0.019323511 -0.04275691 0.0019028734
-0.033924647 -0.07092911 -0.0015764752 0.004943783 -0.07231455 -0.078881346 -0.04905727 -0.046977337
00000000: efda 58bd 5c81 95bb 5f9b eebb 4025 53bd
00000010: ad97 47bc 1e58 69be 56b2 c93c 750b c73e
00000020: 79ef 4abb 6642 94bd 3973 f6bb 7d15 88bd
00000030: 81a1 7bbc 6c54 9dbc 7256 e7bb 6fc2 14bd
00000040: c9bd 5bbd 46d0 b0bd 11f7 6bbd 0fa5 96bc
00000050: 055d 3bbc 8848 8fbd 52e4 cebd a096 9cbd
00000060: b348 acbd 3999 c5bc 8d17 803b 1f42 c9bc
00000070: c222 8d3d dda3 77bd 9501 a3bd 975a 9abd
00000080: f702 c5bd 2072 37bd 965f ad3b de4b 83bd
00000090: 18c0 c1bb e4f4 dcbc 407b 84bd 1725 19bb
000000a0: bcda 82bd b94f bfbd 4b6b 3dbd 6d5c 9abd
000000b0: 1a15 a1bd e0f8 bebd a63e 6bbc 35ab 3ebd
000000c0: cc59 69bd 4bce db3a 1c25 8dbc 49e8 8bbc
000000d0: 4d50 e6bc 5613 1ebd fdb4 49bd 92f5 5b3e
000000e0: e111 b83c 3916 40bd ac42 82bc 3d97 0abc
000000f0: 2ce3 e4bb b041 2ebc 3c0a 973d 546b f4bc
00000100: dd84 dbbc 41e2 44bd e438 0fbe 6bac 40bd
00000110: 9cd1 eebc 91a7 40be f715 b3bc 1434 a33d
00000120: 02fa b3bc 5f35 b2bd e2d0 dbbd 21c3 83bd
00000130: fb4b d63b aab7 eb3d 7ae8 04bd 3b6d 30bd
00000140: 94e7 12bd f069 91bd 4577 7dbd 7f89 fcbc
00000150: 0e53 b1bd 2e76 34bd bb33 9abd d013 d2bc
00000160: 7561 c7bc fc44 f8bd be0a 0cbd d3e9 88bc
00000170: 84a9 8abd 5348 72bd ec70 88bc 41a3 03bd
00000180: 8fcc d3bd a14f 97bc 61d4 843e 4757 85bc
00000190: e44a e3bd a2e6 d8bc 3407 06bb e66f 17bd
000001a0: 2c48 6dbd a660 cfbc 244b 55bd 5866 d3bc
000001b0: f7a6 81bd 99e1 53bd 87c1 d9bd 42c5 87bd
000001c0: 4338 54bd 35ad be3d f278 a6bd a9d9 c3bd
000001d0: 6e0c a6bc 273e 76bd ddf0 d9bd d875 54bd
000001e0: f948 e03b efbf c23e 233f febc 8c31 24bd
000001f0: 4fb3 d8b9 e4ba f33a 2e42 513c 94ac 9abc
00000200: dc23 8abd 6b87 f73e 4593 3ebd 59c3 aebd
00000210: f39f e3bc e768 76bb 14cd bbbd 523b bfbd
00000220: 8165 1bbd 696b 41bd c14f 8dbc 95f6 85bd
00000230: d454 afbd 61c2 f9bb 62c9 50bd 098b c0bc
00000240: 08c9 83bc 5313 4fbd d0e6 9fbd 6f8a 223e
00000250: 330c 23bd 175f b1bd 617e 06bd 07c2 98bd
00000260: 4508 7c3c e7f5 44bd adfa a5bd 7fd1 cdbc
00000270: dfa1 7fbc 400c 9dbd 1490 7dbd 2cf4 28b9
00000280: 974d 60be 4a00 a73b 8c5e f0bc 2c40 eabc
00000290: 3ffa b5bd 3b2b 56bd 7bb2 8b3c b4fd d3bb
000002a0: 676b 2abc 3bf4 35bd be69 8abd ec40 81bd
000002b0: 7841 2bbd c125 cebd 77c8 3fbe 1f29 1bbc
000002c0: 15c8 763e 899f de3d 89df 86be 1f03 29bd
000002d0: cee2 153d 91b5 43bd 4cd9 abbd 08e9 b6bd
000002e0: 0c3c 3dbd 3ab9 45be 9af1 d93b a437 15bc
000002f0: 1ee2 3cbd d2a7 63bd 610d edbc 30cf 8cbc
00000300: 4427 56bc 4793 71bd 62db 573d 21fe 29bd
00000310: 6cff a9bd 1d72 bcbd 2dc4 4fbe bdbf 973d
00000320: de9a 8f3c 01b6 96bd e64d 0dbd 6dbd 4f3c
00000330: 276e c8bd be99 cdbc 7945 f9bc f78d 623d
00000340: c79b ddbd 90f2 d5bc 51df f8bc 017e 9ebd
00000350: 1412 fdbb f948 3cbd b3bd d4bc bbbe bdbd
00000360: 8d22 48bd 665b 28bd a25c 12bd e7bb 87bd
00000370: 3d39 d6bb 973f 56bd 3a6f 063e 1ae5 04bd
00000380: 597d c2bc a501 363e 2cc9 28bd 516b d1bc
00000390: 09e2 a4ba 7a52 20bd 082e 593e d1ce e9bc
000003a0: 79f1 2cbd 5c04 30bb 1eb9 7ebd 6e3f ae3d
000003b0: 9df5 ad3c 2460 97bd 1cc9 d3bd 1942 6dbd
000003c0: 031f 1e3e eed6 5c3c 71e9 6abc 0feb b1bd
000003d0: 3d25 ad3d 574c 9ebc df21 2fbd d669 f93a
000003e0: 92f4 0abd 4843 91bd bba1 ceba 75ff a13b
000003f0: a719 94bd 8b8c a1bd 47f0 48bd 4f6b 40bd
