p3_collab-compet/ddpg_actor_agent1.pth (torch_old, 163785 bytes, 10 tensors)

fc1.weight f4 [256, 24]
0	0x3e9d4849	0.30719212
1	0x3f19b07b	0.6003491
2	0x3d4d0222	0.050050862
3	0x3f2b53aa	0.66924536
4	0x3f5358b6	0.8255724
5	0x3fc897ee	1.5671365
6	0x3d098bac	0.033580467
7	0x3f238a7a	0.63883173
8	0x3eca0673	0.39458045
9	0x3f34a3f0	0.7056265
10	0x3eda13f2	0.42593342
11	0x3f78a984	0.9713366
12	0x3d62df98	0.055389017
13	0x3f4494c3	0.7678949
14	0x3ee15f70	0.44018126
15	0x3f8225c1	1.0167772
16	0x3ef98d1a	0.48740464
17	0x3f32e590	0.69881535
18	0xbdd378a4	-0.10325745
19	0xbf999b39	-1.2000495
20	0xbefaf189	-0.49012402
21	0x3e8a2fe1	0.26989654
22	0xbde1a466	-0.11017685
23	0xbf9df111	-1.2339193
24	0xbd907b29	-0.07054741
25	0xbd085f4d	-0.03329401
26	0xbc6a6b76	-0.014307847
27	0x3d658baf	0.056041416
28	0x3c981da6	0.018568825
29	0x3d4d9b11	0.05019671
30	0xbad796a1	-0.0016448089
31	0x3cef0866	0.02917881
32	0x3c133516	0.008984825
33	0xbd57bebc	-0.052672133
34	0x3d7ad281	0.06123591
35	0x3d2122a1	0.039339665
36	0x3deb6400	0.11493683
37	0xbc82b983	-0.0159576
38	0x3d849419	0.0647356
39	0xbc59bdc7	-0.013289875
40	0xbb061f23	-0.0020465336
41	0x3c5e5b16	0.013571521
42	0x3d86d67e	0.0658388
43	0x3d35a0fc	0.04434298
44	0xbc4e77dd	-0.01260182
45	0x3d272207	0.040803935
46	0x3cd825d0	0.026385218
47	0xbd43b138	-0.04777643
48	0xbf29697f	-0.661766
49	0x3f07c692	0.5303737
50	0x3df874c2	0.12131645
51	0x3eb27275	0.3485295
52	0x3f399f5f	0.72508806
53	0xbfd438bc	-1.6579814
54	0x3d5eabb2	0.05436296
55	0x3e8290dc	0.25501144
56	0xbedbc91b	-0.4292687
57	0x3f53a1e0	0.82668877
58	0x3dfc4da1	0.12319494
59	0x3eaa67e0	0.33282375
60	0x3f17c6e3	0.5928785
61	0xc003a970	-2.0572166
62	0x3de1995f	0.11015581
63	0x3e9d3fda	0.30712777
64	0xbf0ebb0e	-0.5575417
65	0x3f838fdf	1.0278281
66	0xbd9c7924	-0.07640293
67	0x3f2e5f5a	0.68114245
68	0xbe406b67	-0.1879097
69	0xbed6e24c	-0.41969526
70	0xbcc61a1d	-0.024182374
71	0x3f2cb134	0.6745789
72	0x3e2e41a0	0.17017221
73	0xbf3342b5	-0.7002366
74	0x3eb3c9f1	0.35115007
75	0xbe5c53ed	-0.2151639
76	0xbe3391e1	-0.17536117
77	0x3f3c8b65	0.736502
78	0x3e81e367	0.25368807
79	0xbe54cb41	-0.2078066
80	0x3ee6fe96	0.4511611
81	0xbeb78851	-0.3584619
82	0xbdd6dad1	-0.10490955
83	0x3de009cc	0.109393686
84	0x3f1d60c6	0.6147579
85	0x3f7c9eb4	0.9867966
86	0xbad4c254	-0.0016232231
87	0x3d1d2f67	0.038375285
88	0x3ee0be6b	0.43895277
89	0xbe3c6d0d	-0.18400975
90	0xbed3dc11	-0.41378835
91	0x3ea35f99	0.31908873
92	0x3f9734f9	1.1813041
93	0x3fd6208a	1.672868
94	0xbeb4dd1f	-0.35324952
95	0x3e8df5b5	0.27726522
96	0xbeeab6ad	-0.45842496
97	0x3fa50f2d	1.2895256
98	0x3e227f29	0.1586882
99	0x3f8cd0d1	1.1001226
100	0xbd69e8d5	-0.05710681
101	0xbfaba3db	-1.340938
102	0x3e75b0e2	0.23993257
103	0x3f87b049	1.0600673
104	0xbef34ad8	-0.4751804
105	0x3fe459cb	1.7839903
106	0x3d110fb5	0.03541537
107	0x3ef3ff12	0.4765554
108	0x3e45558e	0.19270918
109	0xbf8ca3cb	-1.0987486
110	0x3b0edb71	0.0021798278
111	0x3f01c12a	0.5068537
112	0xbeb0b304	-0.34511578
113	0x3ffe72dc	1.9878802
114	0x3d2646ee	0.040594988
115	0xbf9672d2	-1.175379
116	0x3f0f9348	0.5608411
117	0x3c31fab6	0.010862997
118	0x3c9d5f09	0.019210355
119	0xbf9c466c	-1.2208991
120	0xbf884599	-1.064624
121	0xbc766b07	-0.015040166
122	0xbd8b02be	-0.067876324
123	0x3ea7c311	0.3276601
124	0xbf27be90	-0.6552515
125	0xbe000a94	-0.12504035
126	0xbde89326	-0.11356191
127	0x3e8f73d9	0.28018072
128	0xbfde3b3e	-1.7361829
129	0x3e88de18	0.26731944
130	0xbebbd78f	-0.36687896
131	0x3da545fb	0.08069988
132	0xbd337658	-0.043814033
133	0xbf83f9db	-1.0310625
134	0xbed679af	-0.41889712
135	0x3d245258	0.04011759
136	0xbfca3fd5	-1.580073
137	0x3e6430d2	0.22284248
138	0x3deef7a0	0.116683245
139	0xbcabbe1a	-0.02096467
140	0x3ec1c04a	0.37842017
141	0xbf98bc62	-1.193249
142	0x3d1abb8e	0.037776522
143	0x3d348469	0.04407159
144	0x3ff09579	1.8795615
145	0xbf63d4a6	-0.8899635
146	0xbc2c5bad	-0.010519904
147	0x3ecbff30	0.3984313
148	0xbf188b38	-0.5958743
149	0x3f508519	0.8145309
150	0xbd30df1b	-0.04318152
151	0x3efe727f	0.4969673
152	0x3fd10076	1.6328266
153	0xbf658884	-0.8966143
154	0xbe2631f6	-0.16229996
155	0x3ea1068b	0.31450304
156	0x3d91e767	0.071242146
157	0x3efc00d2	0.49219376
158	0xbd730f99	-0.059341047
159	0x3e8e7602	0.27824408
160	0x3fc4ee58	1.5385237
161	0xbf645a17	-0.89199966
162	0x3e03aeec	0.12859696
163	0xbe379951	-0.1792958
164	0x3ebbd8cc	0.3668884
165	0xbeddbd73	-0.433086
166	0x3e180522	0.14845708
167	0xbe700699	-0.23440017
168	0xbe83edd6	-0.25767392
169	0x3f4f885b	0.81067437
170	0x3cd66387	0.026170505
171	0x3e1789bb	0.14798634
172	0xbe09f1d2	-0.13471153
173	0x3e3ae500	0.18251419
174	0x3cd0cb52	0.025487576
175	0x3dd98cf4	0.10622588
176	0xbed05351	-0.40688565
177	0x3f589388	0.84600115
178	0x3d59297f	0.05301809
179	0x3eb43b10	0.3520131
180	0x3dc3f912	0.09568991
181	0xc003edcd	-2.0613892
182	0x3c42fb06	0.011900669
183	0x3eb8bfa0	0.36083698
184	0xbf4d881c	-0.8028581
185	0x3f705f03	0.93894976
186	0xbc3c1c8f	-0.011481418
187	0x3e09fb94	0.13474876
188	0x3ecc7722	0.3993464
189	0xc08ab190	-4.334175
190	0xbd60cb6b	-0.054881494
191	0x3e57de10	0.21080804
192	0x3d7ee318	0.062228292
193	0xbfaca376	-1.3487384
194	0x3e369a4e	0.178323
195	0x3eaf7861	0.3427153
196	0x3f32b77e	0.69811237
197	0x3f7847e7	0.96984714
198	0x3e46403b	0.1936044
199	0x3ea0667b	0.31328186
200	0x3dfc0286	0.12305169
201	0xbf97e51d	-1.1866795
202	0x3eaf9d26	0.34299582
203	0x3d40443a	0.046940066
204	0x3f425df7	0.7592463
205	0x3f8c0a47	1.0940636
206	0x3e971bdc	0.29513443
207	0x3d104788	0.035224468
208	0xbdbbdcf7	-0.09173005
209	0xbfa5ac29	-1.2943164
210	0x3cdb2c8b	0.026754638
211	0xbf2441d8	-0.6416297
212	0x3f18d1f3	0.5969536
213	0x400818ec	2.126521
214	0x3da71ef4	0.08160201
215	0xbf1c782a	-0.61120856
216	0xbe9a5273	-0.3014103
217	0xbf5bc04d	-0.858403
218	0xbd496e75	-0.049177606
219	0x3ead3b65	0.33834377
220	0x3e897d88	0.26853585
221	0xbe7c5b69	-0.24644245
222	0xbe02cf9a	-0.12774506
223	0x3eada97f	0.33918378
224	0xbf2cc9d1	-0.6749545
225	0xbf6f8530	-0.93562603
226	0xbe145f1e	-0.1448941
227	0xbe6115d0	-0.21980977
228	0x3eb3c431	0.3511062
229	0xbed64df4	-0.4185635
230	0xbdf95c9a	-0.121758655
231	0xbe17b344	-0.14814478
232	0xbf80760a	-1.0036023
233	0xbf8bb381	-1.0914155
234	0xbf71ba86	-0.9442524
235	0xbe5db9f8	-0.21652973
236	0x3f2d50b6	0.6770128
237	0xbf0b0ca0	-0.5431614
238	0xbf79edb5	-0.9762834
239	0xbe47d63e	-0.1951532
240	0x3f84ffa1	1.0390512
241	0x3f970c91	1.180071
242	0xbdb80026	-0.08984403
243	0xbeafd059	-0.34338644
244	0xbec9a1be	-0.39381212
245	0xbe934f7d	-0.28771582
246	0xbe106197	-0.14099728
247	0xbec6ccc1	-0.3882809
248	0x3e32a658	0.17446268
249	0x3f15c4a5	0.5850318
250	0xbe134200	-0.14380646
251	0xbec36987	-0.38166448
252	0xbf9cfcae	-1.2264612
253	0xbeee67cd	-0.4656357
254	0xbe49709e	-0.19671866
255	0xbecdabbf	-0.40170094

fc1.bias f4 [256]
0	0x3dd683ad	0.10474334
1	0xbe14bac6	-0.14524373
2	0x3e10dd1b	0.14146845
3	0xbe0b8ce7	-0.13627969
4	0x3e3b0776	0.18264565
5	0x3e0e2bbc	0.13883871
6	0x3d95d0c5	0.0731521
7	0xbe4cc139	-0.19995584
8	0xbda7b269	-0.08188326
9	0x3dc3a646	0.095531985
10	0xbe3e9564	-0.18611676
11	0x3dc7d51d	0.09757445
12	0xbda7bf99	-0.08190841
13	0xbe18bdcb	-0.1491615
14	0xbb0ea2fe	-0.0021764631
15	0x3cfff918	0.031246707
16	0x3e1dfc32	0.15428236
17	0xbe051174	-0.12994939
18	0xbe29f045	-0.16595562
19	0xbd8ccfc5	-0.068755664
20	0x3d1e8fab	0.03871123
21	0xbdba58b1	-0.09098948
22	0xbd9db8e5	-0.077012815
23	0xbd91f6a6	-0.071271226
24	0x3db34f78	0.08755392
25	0x3cda8e65	0.026679227
26	0x3e373349	0.17890657
27	0x3e049bbd	0.12950034
28	0xbe3541a0	-0.17700815
29	0x3d57ffeb	0.052734297
30	0xbe370f52	-0.17876938
31	0xbe40da64	-0.1883331
32	0xbd915789	-0.07096774
33	0x3e500cc4	0.2031737
34	0x3c9590f9	0.018257605
35	0xbe163b65	-0.14671095
36	0xbe3c7f25	-0.18407877
37	0x3e1d930f	0.1538813
38	0x3e21d6c8	0.15804589
39	0xbde7f722	-0.11326434
40	0x3e1171ac	0.14203519
41	0x3d9b494e	0.07582341
42	0xbdd76d82	-0.10518934
43	0x3d8047da	0.062637046
44	0x3bf87429	0.0075822067
45	0xbd578960	-0.052621245
46	0xbd56448b	-0.05231146
47	0x3e1abccd	0.15111084
48	0x3db4af57	0.08822506
49	0x3db672eb	0.089086376
50	0x3d734420	0.05939114
51	0x3e0ebf94	0.13940269
52	0xbd555071	-0.052078668
53	0xbb3d2cf2	-0.00288659
54	0x3e2cb459	0.16865672
55	0x3dfaab53	0.12239709
56	0x3d4ec924	0.05048479
57	0xbdd49dcd	-0.103816606
58	0xbd576fcd	-0.052596856
59	0x3d033f4e	0.032042794
60	0xbe0116c2	-0.12606338
61	0x3dbd5cdb	0.092462264
62	0xbe01a1e9	-0.1265942
63	0xbe146a29	-0.14493622
64	0x3d966eed	0.07345376
65	0xbdcedc52	-0.101006165
66	0xbe50eda8	-0.20403159
67	0x3e032119	0.12805595
68	0xbdaa8bf7	-0.083274774
69	0xbd9e19c4	-0.07719758
70	0xbdc27d66	-0.09496574
71	0xbdeef3c5	-0.11667589
72	0xbe0c7212	-0.1371539
73	0xbdb69f29	-0.08917076
74	0xbe18c93f	-0.1492052
75	0xbc91728e	-0.01775482
76	0x3d8557e8	0.065109074
77	0xbe022842	-0.1271067
78	0xbe48faa8	-0.19626868
79	0x3d9170a0	0.0710156
80	0xbde6f403	-0.1127701
81	0x3d649902	0.055809982
82	0xbc80e3c7	-0.015733613
83	0x3d385252	0.04500038
84	0xbb27d012	-0.0025606197
85	0xbd8316b0	-0.06400812
86	0xbe2213dd	-0.1582789
87	0x3e0f648b	0.14003198
88	0x3dc5f9db	0.09666797
89	0x3ca914b8	0.020639762
90	0x3e323fb0	0.17407107
91	0x3e3fec4d	0.18742485
92	0xbe2823ec	-0.16419953
93	0x3dd1f055	0.10250918
94	0x3e3ff898	0.18747175
95	0xbc39d93f	-0.011343299
96	0xbe45d8f0	-0.19321036
97	0xbd9793de	-0.0740125
98	0x3c9a4ec9	0.018836396
99	0xbd32b4ac	-0.043629333
100	0x3dc8b2be	0.09799717
101	0x3da2cc4c	0.07949123
102	0xbe46d734	-0.19418031
103	0x3ce1912a	0.02753504
104	0x3d0464cc	0.03232269
105	0x3e057588	0.13033116
106	0x3cd6bfeb	0.02621456
107	0x3de386fe	0.11109732
108	0x3d2bc29a	0.041933633
109	0xbe0af1e2	-0.13568833
110	0xbe21f550	-0.15816236
111	0xbd8e72b7	-0.06955474
112	0x3a5daba0	0.0008456055
113	0xbdf41818	-0.11918658
114	0xbe3922e2	-0.18079713
115	0x3e331114	0.17486984
116	0x3cbde463	0.023180192
117	0x3da161e0	0.07879996
118	0xbdd4371d	-0.103620745
119	0x3d09b7dc	0.033622608
120	0xbc80b549	-0.015711443
121	0x3ddb6ec4	0.10714486
122	0xbd988d3d	-0.07448814
123	0x3e39e3ed	0.18153353
124	0x3c2f913e	0.010715781
125	0x3c0bf150	0.00854142
126	0x3e12a697	0.14321361
127	0xbbd97ed2	-0.0066374326
128	0x3d738039	0.059448455
129	0xbc665c4d	-0.014060092
130	0x3e215714	0.15755874
131	0xbe4b56d8	-0.19857347
132	0x3e498700	0.19680405
133	0xbdf65594	-0.120280415
134	0x3e4c3c51	0.19944884
135	0x3d8dba68	0.0692032
136	0xbe04ee91	-0.12981631
137	0xbe323999	-0.17404784
138	0x3d658868	0.05603829
139	0x3daa192a	0.08305581
140	0xbe0eccd4	-0.13945323
141	0x3e051c8d	0.12999173
142	0xbdbed42c	-0.09317812
143	0x3e252d69	0.16130604
144	0x3d09e0c2	0.03366161
145	0xbe335d6f	-0.17516111
146	0x3d05f31d	0.032702554
147	0xbd5dc6bc	-0.054144606
148	0x3d5ca8d6	0.053871952
149	0xbd9d3a58	-0.07677144
150	0x3e371fc4	0.17883211
151	0xbdee4ca4	-0.11635712
152	0x3e2b9617	0.16756473
153	0xbe4f3aca	-0.2023727
154	0x3e175a48	0.14780533
155	0xbe0fea36	-0.14054188
156	0x3d1ad36c	0.037799284
157	0xbd559155	-0.052140553
158	0xbe5065dd	-0.20351358
159	0x3e244706	0.16042718
160	0x3d4617fc	0.048362717
161	0x3de88cce	0.11354981
162	0xbdc81583	-0.09769728
163	0xbd815ea9	-0.06316883
164	0xbdc0b0f8	-0.09408754
165	0xbe40ee71	-0.18840958
166	0x3d36bc4c	0.044613168
167	0x3d985873	0.07438745
168	0xbccac59d	-0.024752432
169	0xbe07fe45	-0.1328059
170	0x3cc746bc	0.024325721
171	0x3db1ddbd	0.08684871
172	0x3c9eb70b	0.019374391
173	0xbe4f7d14	-0.20262557
174	0x3dccf862	0.10008313
175	0x3e181321	0.14851047
176	0xbd8886ac	-0.066663116
177	0xbd348b1c	-0.044077978
178	0x3b942178	0.0045205913
179	0x3d2a33ce	0.04155331
180	0x3e397991	0.1811278
181	0x3e1542f9	0.1457633
182	0x3dba820b	0.09106835
183	0xbe09d6ec	-0.13460892
184	0x3dfa974e	0.1223589
185	0x3dcba019	0.099426456
186	0x3e43dd7c	0.19127458
187	0xbda1ea8d	-0.07906065
188	0x3d935f62	0.07195927
189	0x3e09f452	0.13472107
190	0x3dc33f5d	0.0953357
191	0xbca6df68	-0.0203702
192	0xbd70d750	-0.058799088
193	0xbd1948b8	-0.037422866
194	0x3de8e78f	0.11372291
195	0xbd841cbe	-0.06450795
196	0xbe4f7cb0	-0.20262408
197	0xbd074620	-0.03302586
198	0xbe3fffc2	-0.18749908
199	0xbe239db0	-0.15978122
200	0x3e3463fb	0.17616265
201	0xbe037632	-0.12838057
202	0x3df2beb9	0.11852784
203	0xbdfb5893	-0.122727536
204	0xbe4d5424	-0.20051628
205	0x3b95a3b8	0.004566636
206	0x3dd67ec6	0.10473399
207	0x3c1bfe05	0.009521012
208	0x3df006e6	0.11720066
209	0xbc07c9e3	-0.00828788
210	0xbe14f263	-0.14545588
211	0x3dff8920	0.124773264
212	0x3d0f8a53	0.035044026
213	0xbde78a1c	-0.11305639
214	0xbcace169	-0.021103578
215	0x3d939034	0.07205239
216	0xbd2fef86	-0.042953037
217	0xbc163ad0	-0.009169295
218	0x3d534749	0.051581655
219	0x3d85ce54	0.065334946
220	0x3df0582b	0.11735567
221	0xbd5441c4	-0.05182053
222	0x3d790b86	0.060802005
223	0x3d44c864	0.04804267
224	0xbd9e2eef	-0.077237956
225	0x3cffca76	0.03122447
226	0x3bed4559	0.007240933
227	0xbe19d455	-0.15022404
228	0xbe3bbf5d	-0.18334718
229	0x3e360c2e	0.17778084
230	0xbdbef663	-0.09324338
231	0x3e18e619	0.14931525
232	0x3d27a9f8	0.04093358
233	0x3dece18b	0.115664564
234	0xbce2fffd	-0.027709955
235	0xbd3061e9	-0.043062124
236	0xbd9ad443	-0.07560017
237	0xbe469d45	-0.19395931
238	0xba3ca500	-0.0007196218
239	0x3e30171a	0.17196313
240	0x3d284de6	0.041089915
241	0xbd8b843c	-0.06812331
242	0xbe04592a	-0.12924638
243	0xbd44bfe8	-0.04803458
244	0xbdac0f4c	-0.08401355
245	0x3dffcb6e	0.12489973
246	0x3dbcec24	0.09224728
247	0x3d5841a8	0.05279699
248	0x3cf54a18	0.029942557
249	0x3be53578	0.0069948994
250	0xbddc5bbb	-0.10759684
251	0xbccadf4a	-0.024764676
252	0x3e056462	0.13026574
253	0xbcd67a66	-0.026181411
254	0x3d9011c8	0.070346415
255	0xbce87ada	-0.028378893

bn1.weight f4 [256]
0	0x3f63946a	0.88898337
1	0x3cad2bd3	0.021139061
2	0x3f5b386e	0.8563298
3	0x3f1bdeff	0.6088714
4	0x3f7d0ded	0.98849374
5	0x3f0fcf46	0.5617565
6	0x3e639d09	0.22227873
7	0x3fb1ab32	1.388037
8	0x3f7d44f6	0.9893335
9	0x3e88d383	0.2672387
10	0x3f0c2c30	0.54754925
11	0x3f7135ba	0.94222605
12	0x3f617643	0.8807108
13	0x3f1110f1	0.56666476
14	0x3f8928c4	1.0715566
15	0x3f0c4df4	0.5480645
16	0x3f25cf91	0.64769846
17	0x3ecff4f3	0.4061657
18	0x3f6e576a	0.93102133
19	0x3f6f5efe	0.9350432
20	0x3f89da39	1.0769721
21	0x3fbd0171	1.4766065
22	0x3f3112f8	0.6916957
23	0x3b87be5e	0.0041425666
24	0x3eee07bd	0.4649028
25	0x3f0f64a6	0.5601295
26	0x3f7f4399	0.9971252
27	0x3e7cb320	0.24677706
28	0x3f6df0b9	0.9294544
29	0x3f233394	0.63750577
30	0x3eeb4a35	0.45955053
31	0x3f8a714f	1.0815829
32	0x3f682887	0.9068684
33	0x3f7e534f	0.9934587
34	0x3f18a7f5	0.5963128
35	0x3f973c13	1.1815208
36	0x3f7329c2	0.9498559
37	0x3f1a8468	0.60358286
38	0x3f35948c	0.7092979
39	0x3f8c647e	1.0968168
40	0x3f3f78d6	0.74793756
41	0x3fb2aba9	1.3958637
42	0x3fe43279	1.7827903
43	0x3f562544	0.8365061
44	0x3f1bbd7c	0.60836005
45	0x3f25c9fb	0.6476132
46	0x3fa2e286	1.272538
47	0x3fc0c727	1.5060776
48	0x3f7e8419	0.99420315
49	0x3f5f7b83	0.8729784
50	0x3f06e51e	0.52693355
51	0x3f449ad3	0.76798743
52	0x3f60d23f	0.8782081
53	0x3efff28c	0.49989736
54	0x3f648099	0.89258724
55	0x3f2eb82c	0.68249774
56	0x3f59e9cf	0.8512239
57	0x3f27ef3d	0.65599424
58	0x3f8bf548	1.0934229
59	0x3f63f20d	0.89041215
60	0x3f81e961	1.0149347
61	0x3ec6dd6e	0.38840812
62	0x3fbff712	1.4997275
63	0x3f35ceb0	0.71018505
64	0x3f1e686d	0.6187809
65	0x3f8b2d64	1.0873227
66	0x3faff440	1.3746414
67	0x3e03313c	0.1281175
68	0x3f310265	0.6914428
69	0x3ff7a446	1.9347007
70	0x3f4b33d8	0.7937598
71	0x3f2391c0	0.6389427
72	0x3d23dcbd	0.040005434
73	0x3f2929c7	0.6607937
74	0x3f11a18c	0.56887126
75	0x3f05dd00	0.52290344
76	0x3f52be37	0.82321495
77	0x3f0468bd	0.5172232
78	0x3f1a663b	0.6031224
79	0x3f965cea	1.1747105
80	0xbb82a183	-0.003986539
81	0x3f27c23d	0.6553076
82	0x3f572de4	0.840544
83	0x3f4be409	0.7964483
84	0x3f4ba5d9	0.7954994
85	0x3f46aa9a	0.7760407
86	0x3f3f4357	0.7471213
87	0x3f51363a	0.8172337
88	0x3f6b0479	0.918037
89	0x3f76eab3	0.9645187
90	0x3f6b2461	0.91852385
91	0x3f6aa33c	0.91655326
92	0x3f15441b	0.58307046
93	0x3f690b2b	0.91032666
94	0x3fd7d9f2	1.6863387
95	0x3ea2635d	0.31716433
96	0x3f58b80b	0.8465583
97	0x3f4b13c7	0.7932705
98	0x3f51283e	0.8170203
99	0x3f465671	0.7747565
100	0x3f2645f9	0.6495052
101	0x3bc784b7	0.006088819
102	0x3f4288a4	0.7598975
103	0x3f389c95	0.72113925
104	0x3f8c8727	1.0978745
105	0x3bcaa8a1	0.006184653
106	0x3d6cf763	0.057853114
107	0x3f634d52	0.88789856
108	0x3f824e46	1.0180137
109	0x3c909dce	0.017653372
110	0x3f0c26c3	0.54746646
111	0x400a9db0	2.1658745
112	0x3f5289c7	0.8224148
113	0x3f5474be	0.82990634
114	0x3f15e438	0.5855136
115	0x3f7d33f6	0.9890741
116	0x3f94f926	1.1638534
117	0x3f45d70f	0.7728128
118	0x3f8c22bf	1.0948104
119	0x3fac85d7	1.3478345
120	0x3fe8eeb2	1.8197844
121	0x3f35bd31	0.7099181
122	0x3f2f8c87	0.685738
123	0x3f59b859	0.8504692
124	0xbf8e2f4b	-1.1108183
125	0xba3eab47	-0.0007273447
126	0x3f202633	0.6255829
127	0x3eebc962	0.4605208
128	0x3f78fe79	0.97263294
129	0x3f80dca5	1.0067335
130	0x3f57aa34	0.84244084
131	0x3f299fab	0.6625926
132	0x3f4b614e	0.7944535
133	0x3f3dbbe1	0.74114805
134	0x3f122568	0.5708833
135	0x3f3291e5	0.6975387
136	0x3e5e384c	0.21701163
137	0x3fdb39ca	1.7127011
138	0x3f27e3a5	0.65581733
139	0x3fdc2c03	1.7200931
140	0x3f316ac8	0.6930356
141	0x3ef68ee8	0.48155904
142	0x3f35deaa	0.71042883
143	0x3f6a8491	0.9160853
144	0x3f9ed71c	1.2409396
145	0x3f2f24d1	0.6841555
146	0x3f4a6e49	0.7907453
147	0x3f136edd	0.5759104
148	0x3f147ccf	0.5800294
149	0x3f201f89	0.6254812
150	0x3bc4d01a	0.006006253
151	0x3ee3523a	0.4439867
152	0x3f8a7d71	1.0819532
153	0x3f3109ac	0.69155383
154	0x3d345ef9	0.044035885
155	0x3d4daf2c	0.050215885
156	0x3f79449a	0.973703
157	0x3f80e062	1.0068476
158	0x4017feb7	2.3749216
159	0x3f580747	0.84386104
160	0x3f1aeb38	0.60515165
161	0x3f35f456	0.7107595
162	0x3f16e9ed	0.5895069
163	0x3f27e5e4	0.6558516
164	0x3f8c6fd3	1.0971626
165	0xb9c809a6	-0.0003815416
166	0x3f95e604	1.171082
167	0x3f678946	0.9044384
168	0x3f2fa8c6	0.686169
169	0x3d035c3c	0.032070383
170	0x3f47b0a7	0.78003925
171	0x400dcd9f	2.215675
172	0x3fa4c89c	1.2873721
173	0x3f3e1ce7	0.7426285
174	0x3f7827c7	0.96935695
175	0x3f3d7d4c	0.7401931
176	0x3f8b579f	1.0886115
177	0x3f950ce6	1.1644561
178	0x400623da	2.0959382
179	0x3f866f3f	1.05027
180	0x3ed36a93	0.41292247
181	0x3f3bdf41	0.73387533
182	0x3edbfc3a	0.4296587
183	0x3fa49bc8	1.2860041
184	0x3f9ff085	1.2495276
185	0x3f3edfae	0.7456006
186	0x3f4383fd	0.76373273
187	0x3f59e3f2	0.8511344
188	0x3f2358f7	0.63807625
189	0x3c31cb7f	0.01085174
190	0x3faac164	1.3340268
191	0x3f4dd2bf	0.803997
192	0x3f86494f	1.0491122
193	0x3d84ce00	0.06484604
194	0x3d8537f8	0.06504816
195	0x3f48bd2d	0.7841366
196	0x3fab19d9	1.3367263
197	0x3f6b1e84	0.9184344
198	0x3ebf672f	0.3738341
199	0x3f8843e7	1.0645722
200	0x3f527978	0.82216597
201	0x3f34cb2e	0.7062253
202	0x3f5a656d	0.85311013
203	0x3f5194fd	0.81867963
204	0x3ee8f3a7	0.45498392
205	0x3f245f50	0.64207935
206	0x3f52f311	0.8240214
207	0x3f9bed49	1.2181789
208	0x3f2f057a	0.6836773
209	0x3f0edad5	0.5580266
210	0x3f30fffb	0.69140595
211	0x3cf637eb	0.03005596
212	0x3f451097	0.7697844
213	0x3f3b74de	0.732252
214	0x3f9bfb48	1.218606
215	0xbb01c161	-0.00197991
216	0x3f13bb9e	0.57708156
217	0x3f4e0eed	0.80491525
218	0x3f246c28	0.64227533
219	0x3f2ff569	0.6873384
220	0x3f25ea94	0.6481106
221	0x3f971c8f	1.180559
222	0x3f16bdb9	0.58883244
223	0x3f98a2b0	1.1924648
224	0x400b4f68	2.1767216
225	0x3eb56658	0.35429645
226	0x3f4fcad1	0.8116885
227	0x3f6ebd29	0.93257385
228	0x3f833c82	1.025284
229	0x3f6d9519	0.9280563
230	0x3f7d3954	0.989156
231	0x3fa1de08	1.2645884
232	0x3fc1238e	1.5088975
233	0x3f73e372	0.9526893
234	0x3f2052cc	0.6262634
235	0x3fab5eeb	1.3388342
236	0x3f8d1abe	1.1023786
237	0x3e758e53	0.23980074
238	0xbaf9efb6	-0.0019068632
239	0x3fa1e6fc	1.2648616
240	0x3f20ec4a	0.6286055
241	0x3e0c1945	0.13681515
242	0xbb18b343	-0.0023300208
243	0x3fb40cac	1.4066367
244	0x3fb05d48	1.3778467
245	0x3f258ab4	0.6466477
246	0x3f971e9b	1.1806215
247	0x3f0b393a	0.54384196
248	0x3d0c3d4e	0.034238152
249	0x4022e72a	2.5453591
250	0x3f759e1b	0.95944375
251	0x3f49398e	0.78603446
252	0x3f9f32c3	1.2437366
253	0x3f6e82f1	0.9316855
254	0x3c5529fa	0.013010496
255	0x3f053756	0.5203756

bn1.bias f4 [256]
0	0xbf0a65e7	-0.5406174
1	0xbdb13839	-0.08653302
2	0xbf3e8160	-0.7441616
3	0xbf553568	-0.83284616
4	0xbf269545	-0.6507152
5	0x3e600672	0.21877459
6	0x3f0fe1a8	0.562037
7	0xbef73fa3	-0.48290738
8	0xbec0315a	-0.37537652
9	0xbec014df	-0.37515923
10	0x3df39551	0.11893714
11	0xbd997091	-0.074921735
12	0xbf094952	-0.536275
13	0xbf4c4c21	-0.79803663
14	0xbf49cf9c	-0.7883241
15	0xbf1a5097	-0.6027922
16	0xbf2c115b	-0.6721398
17	0xbf22d1d4	-0.6360142
18	0xbf442cba	-0.7663075
19	0xbf26aead	-0.65110284
20	0xbefea32b	-0.49733862
21	0xbd0bc44f	-0.03412276
22	0xbe8df9dd	-0.27729693
23	0xbd423885	-0.047417182
24	0xbf0c710e	-0.5486001
25	0xbe5df544	-0.21675593
26	0xbf072463	-0.52789897
27	0xbecf40f0	-0.4047923
28	0xbf429d90	-0.7602167
29	0xbf78bb32	-0.9716064
30	0x3d347864	0.044060126
31	0xbf7c8dd0	-0.9865389
32	0xbf69f7ae	-0.91393554
33	0xbf54cfc4	-0.83129525
34	0xbc4f8d01	-0.012667895
35	0xbf4b5184	-0.7942126
36	0xbe66da20	-0.22544146
37	0xbde22a1e	-0.110431895
38	0xbf4b5bcf	-0.79436964
39	0xbf990b78	-1.1956625
40	0xbf4287cd	-0.75988466
41	0x3e9535c8	0.29142594
42	0x3f72c219	0.9482742
43	0xbefd3f25	-0.49462238
44	0xbf563fc3	-0.8369104
45	0xbf812579	-1.0089561
46	0xbf6ec0bf	-0.9326286
47	0xbf4557dd	-0.77087194
48	0xbef89a31	-0.4855514
49	0xbf3b16ef	-0.7308187
50	0xbf4029ca	-0.75063765
51	0xbf48be85	-0.7841571
52	0x3d87f744	0.06638959
53	0xbeffb87e	-0.49945444
54	0xbef52d3f	-0.47886083
55	0xbec58f6a	-0.3858598
56	0x3f16de01	0.589325
57	0xbef4edb1	-0.47837594
58	0xbf6277de	-0.8846415
59	0xbf2b496d	-0.66908914
60	0xbe5c00b6	-0.21484646
61	0xbf1614cc	-0.58625484
62	0xbf246111	-0.6421061
63	0xbf01e2e6	-0.50736845
64	0xbe042456	-0.12904486
65	0xbf161019	-0.58618313
66	0xbe9d529e	-0.30727094
67	0x3d89c8db	0.06727763
68	0xbe6c2ba4	-0.23063523
69	0xbf3385d0	-0.70126057
70	0xbf2ff62b	-0.68735
71	0xbf160a5c	-0.5860956
72	0xbe290cfe	-0.16508862
73	0xbf4531ad	-0.77028924
74	0xbf3d2a99	-0.73893124
75	0xbf00ecae	-0.50361145
76	0xbf3f7836	-0.747928
77	0xbf04e69a	-0.5191437
78	0xbc41d0cd	-0.011829567
79	0xbf081544	-0.5315745
80	0xbc783cc6	-0.015151208
81	0xbf3d5bb5	-0.7396806
82	0xbf733a36	-0.950107
83	0xbe2f413a	-0.17114726
84	0xbf5a49d7	-0.8526892
85	0xbf85e1a7	-1.0459489
86	0xbee88416	-0.45413274
87	0xbf8d9971	-1.1062452
88	0xbf35b1ae	-0.7097424
89	0xbe95f47a	-0.29288083
90	0xbf586524	-0.8452933
91	0xbf3973c2	-0.7244226
92	0xbe3a12a0	-0.18171167
93	0xbf402db5	-0.75069743
94	0xbe09a0d5	-0.13440259
95	0xbf88ac9d	-1.0677677
96	0xbf83dcb0	-1.0301723
97	0xbe9431a7	-0.28944132
98	0xbf73de58	-0.95261145
99	0xbf8b160d	-1.0866104
100	0xbf25a7d1	-0.6470919
101	0xbd718315	-0.0589629
102	0xbf87e617	-1.0617093
103	0xbf466d5c	-0.7751062
104	0xbf459d2d	-0.77192956
105	0xbdbe05c0	-0.092784405
106	0xbe7a98e3	-0.24472384
107	0x3d4b1919	0.049584482
108	0xbf5b0b5e	-0.8556422
109	0xbd6c8a1a	-0.05774889
110	0xbf089986	-0.5335926
111	0xbf181a1d	-0.59414846
112	0xbf5803b0	-0.84380627
113	0xbf83202f	-1.0244197
114	0xbf3bd43a	-0.7337071
115	0xbf1ac154	-0.60451245
116	0xbf883865	-1.064221
117	0xbf0e7dd3	-0.5566074
118	0xbf405a80	-0.7513809
119	0xbed5f9a8	-0.41792035
120	0xbeb9bce0	-0.36276913
121	0xbee751f3	-0.4517971
122	0xbf2df21f	-0.6794757
123	0xbf527a4c	-0.8221786
124	0xbead7ebd	-0.33885756
125	0xbcec275a	-0.028827358
126	0x3d74b4d9	0.059742782
127	0xbf05cdc8	-0.5226712
128	0xbf9e537b	-1.2369226
129	0xbf9a4058	-1.2050886
130	0xbeb0a731	-0.34502557
131	0xbed330ef	-0.4124827
132	0xbf69cfd2	-0.91332734
133	0xbf36fdb3	-0.71480864
134	0xbf53da05	-0.82754546
135	0xbf78ec36	-0.9723543
136	0x3f8c512e	1.0962274
137	0xbea19d00	-0.31565094
138	0xbeb531aa	-0.35389453
139	0xbe234d85	-0.1594754
140	0xbf0f0011	-0.55859476
141	0xbec5fa58	-0.3866756
142	0xbeb5d648	-0.35515046
143	0xbea72767	-0.3264725
144	0xbca95386	-0.02066971
145	0xbf0965f5	-0.536712
146	0xbf786a0a	-0.970368
147	0xbee33765	-0.443782
148	0xbf0aa4e4	-0.54157853
149	0xbf486887	-0.78284496
150	0xbcaf78f2	-0.021419976
151	0xbe41fda9	-0.1894442
152	0xbefb9dc1	-0.49143794
153	0xbebaac89	-0.3645976
154	0xbe4b1574	-0.19832402
155	0xbe31835b	-0.17335264
156	0xbf93791f	-1.1521338
157	0xbf4c60e0	-0.7983532
158	0x3f5c7f1e	0.86131465
159	0xbf999c19	-1.2000762
160	0xbf26e1e5	-0.6518844
161	0xbf240136	-0.6406435
162	0xbedfefd6	-0.43737668
163	0xbea7c7ed	-0.3276972
164	0xbf4c81da	-0.7988564
165	0xbc6fde75	-0.01464044
166	0xbf27cefb	-0.655502
167	0xbf9c2cea	-1.2201207
168	0xbf0e7278	-0.55643415
169	0xbe02767b	-0.12740509
170	0xbf339e2d	-0.7016323
171	0x3cdb6bb1	0.02678475
172	0xbf33b149	-0.7019239
173	0xbf29107f	-0.66040796
174	0xbf1c29f6	-0.6100153
175	0xbf9d92f9	-1.2310477
176	0xbf132427	-0.5747704
177	0xbf1311c1	-0.57448965
178	0xbe4b77ef	-0.1986997
179	0xbf38a4a5	-0.7212623
180	0xbee8ac10	-0.45443773
181	0xbf0300a2	-0.5117284
182	0xbf21458c	-0.62996745
183	0xbf824839	-1.0178291
184	0xbf417c9c	-0.75580764
185	0xbf61acc1	-0.88154227
186	0xbf6c5987	-0.9232411
187	0xbf1243f7	-0.57134956
188	0xbea1e45b	-0.31619534
189	0xbde21306	-0.11038785
190	0xbf1fdc7b	-0.624458
191	0xbed619e2	-0.41816622
192	0xbf844daf	-1.0336207
193	0xbe7d8f7c	-0.24761766
194	0x3f1af9fc	0.60537696
195	0xbf2fb6af	-0.6863813
196	0xbf77166e	-0.965186
197	0xbf825f30	-1.0185299
198	0xbe9f574d	-0.31121293
199	0xbf82c451	-1.0216161
200	0xbf44ed0d	-0.7692421
201	0xbf123d65	-0.5712493
202	0xbecfb97b	-0.40571198
203	0xbf1f5d5e	-0.6225184
204	0xbf19150a	-0.5979773
205	0xbd966b6d	-0.073447086
206	0xbe99ef18	-0.30065227
207	0xbf2ec8be	-0.6827506
208	0xbf0f6074	-0.5600655
209	0xbf249a0c	-0.64297557
210	0xbf2aa14b	-0.66652364
211	0xbe0a9faa	-0.1353747
212	0xbf892a85	-1.0716101
213	0xbf40178e	-0.7503594
214	0xbf1968ce	-0.59925544
215	0xbc8de52e	-0.017321195
216	0xbcb606e5	-0.022220084
217	0xbecf9e16	-0.40550297
218	0xbf0fccd2	-0.56171906
219	0xbf66c3da	-0.90142596
220	0xbeaf8774	-0.3428303
221	0xbf6b96e6	-0.9202713
222	0xbe588d99	-0.21147765
223	0xbf0659f1	-0.5248099
224	0x3f603e3a	0.8759495
225	0x3d0a1ef0	0.03372091
226	0xbf191cf1	-0.59809786
227	0xbed1edc0	-0.410017
228	0xbeed5010	-0.46350145
229	0xbf7f381f	-0.9969501
230	0xbed4eb14	-0.415856
231	0xbf0b6180	-0.5444565
232	0xbf1fa425	-0.6235984
233	0xbf66bbe3	-0.9013044
234	0xbcbc7440	-0.023004651
235	0xbf499cf8	-0.7875514
236	0xbef527d3	-0.47881946
237	0x3e95a40e	0.29226726
238	0xbcaa5bbb	-0.020795694
239	0xbf3a9648	-0.7288556
240	0xbed39bf7	-0.4132993
241	0xbef84117	-0.4848716
242	0xbcf6d85d	-0.030132467
243	0xbf29e17d	-0.6635969
244	0x3c2a4470	0.010392293
245	0xbf0b4abf	-0.5441093
246	0xbf0d66f3	-0.55235213
247	0xbf50b75a	-0.8152977
248	0xbe04e061	-0.12976219
249	0x3fa38297	1.2774228
250	0x3f56d9c1	0.83926016
251	0xbf039f5f	-0.51415056
252	0xbf1be3db	-0.60894555
253	0x3e90279a	0.28155214
254	0xbddfc804	-0.10926822
255	0xbef4cf27	-0.47814295

bn1.running_mean f4 [256]
0	0xbf864f8d	-1.0493027
1	0x3f8e69cd	1.1126038
2	0xc00909e0	-2.1412277
3	0x403394b1	2.8059504
4	0xbf0a32ba	-0.5398365
5	0x41d0e126	26.109936
6	0xc212e8c9	-36.72733
7	0xc137c007	-11.484382
8	0x4196a40f	18.830107
9	0x4112584e	9.146559
10	0xc1a10ca5	-20.131174
11	0xc0dee0e9	-6.964955
12	0xc11d6b47	-9.838691
13	0x40368d70	2.8523827
14	0x42172799	37.78867
15	0xc19861fd	-19.047846
16	0x4095b21f	4.6779933
17	0xbf26b665	-0.6512206
18	0x420d0990	35.25934
19	0x410858ab	8.521647
20	0x4164f180	14.30896
21	0xc04f3f16	-3.2382255
22	0x40fa2233	7.8166747
23	0x3ea0da31	0.31416467
24	0x41acccb5	21.599955
25	0xc187b4cc	-16.96328
26	0x419d436d	19.657923
27	0x40f580bc	7.6719646
28	0xc205181e	-33.273552
29	0x41e07018	28.054733
30	0x423ea358	47.659515
31	0x40c34c83	6.10309
32	0x41add942	21.731083
33	0x40dcdc86	6.9019194
34	0x41f986d0	31.190826
35	0x40d7389f	6.7256618
36	0xc21dea82	-39.47901
37	0xc1fea158	-31.828781
38	0xc18e652c	-17.7994
39	0xc14d7daf	-12.843184
40	0x41163d31	9.389939
41	0x41875abd	16.919306
42	0x3fc75d46	1.557534
43	0x4006b152	2.1045728
44	0xc17d9fcc	-15.851513
45	0x40c2a1f9	6.082272
46	0xc1b4625f	-22.548033
47	0xc00057b8	-2.005354
48	0x41990193	19.125769
49	0x402c61d8	2.693472
50	0xc2206d2b	-40.10661
51	0x41fd444d	31.65835
52	0x41a5ac23	20.709051
53	0x420337a9	32.804356
54	0x420b59d1	34.83771
55	0x400c6c7c	2.1941214
56	0x40dd07a6	6.9071836
57	0x4195526f	18.66525
58	0xc02c0436	-2.687757
59	0x422276df	40.616085
60	0xc104bfa0	-8.296783
61	0x3fc16681	1.5109407
62	0x40e72f3f	7.2245173
63	0x3f94d18f	1.1626452
64	0x405b0967	3.4224489
65	0x41d4b6ed	26.58932
66	0xbf6c5804	-0.923218
67	0x418ee4d4	17.861732
68	0x419bf433	19.494238
69	0x41c9e957	25.238935
70	0x41f9f345	31.243784
71	0xc0a55b03	-5.16736
72	0xbf47e2d2	-0.78080475
73	0x41866c72	16.802952
74	0x3b81e4af	0.003964029
75	0x4059267e	3.3929744
76	0x419ed47a	19.853748
77	0x4191fab2	18.24741
78	0x41dc5396	27.540813
79	0x416c8bee	14.7841625
80	0xbdf3a1a4	-0.11896065
81	0xc18580c8	-16.687881
82	0xc184f54e	-16.619778
83	0x41775b08	15.459724
84	0xc0200b57	-2.5006921
85	0xc0e1e9e9	-7.0598035
86	0x41975c02	18.919926
87	0xc1408df1	-12.034654
88	0x4010e9f5	2.2642796
89	0x411eccfb	9.925044
90	0x41f12a95	30.145792
91	0xbf1b86f6	-0.6075281
92	0xc143c946	-12.236639
93	0xc1ca9283	-25.321539
94	0x4086737d	4.2015977
95	0xc05cf1c3	-3.452256
96	0xc072326d	-3.7843277
97	0x42142f6a	37.046303
98	0x4190dff7	18.109358
99	0x40fbe4d8	7.871685
100	0x41712a08	15.072762
101	0x4004f204	2.0772715
102	0xc1cad463	-25.353704
103	0xbec89cc1	-0.39182094
104	0xc108f687	-8.560187
105	0x40488d1b	3.1336124
106	0x3ef5acca	0.4798339
107	0x41ff24aa	31.892902
108	0xc08aeb9c	-4.341261
109	0xbd0f20c0	-0.034943342
110	0x41e446fa	28.534657
111	0x41429cd2	12.163286
112	0x41b6b7a4	22.839668
113	0x4136bf54	11.421711
114	0x40ce3db5	6.4450326
115	0x41cda4c3	25.70545
116	0x419a8728	19.315994
117	0x4184724f	16.555815
118	0x41b73546	22.901012
119	0x41ba5b05	23.294443
120	0xc1c3f2b8	-24.493515
121	0x4158bea2	13.546541
122	0xc1f5a284	-30.704353
123	0x41148dcc	9.284618
124	0xc196b76f	-18.839567
125	0x3e6aec2a	0.22941652
126	0x421d5e0c	39.341843
127	0x41cf5659	25.917162
128	0x3f4f5996	0.8099607
129	0x41324f99	11.144433
130	0xc1094564	-8.579441
131	0x418b1549	17.385393
132	0x41c6fd93	24.873816
133	0xc07c42f3	-3.9415863
134	0xbf9e7985	-1.2380835
135	0xc19dd639	-19.7296
136	0xc204e07d	-33.219227
137	0x4129c326	10.610144
138	0x41e68dbf	28.819212
139	0xc0c04283	-6.008119
140	0x41c174e0	24.182068
141	0xc14ce9f0	-12.807114
142	0x406c577c	3.6928396
143	0x418eca11	17.848665
144	0xc1997364	-19.181343
145	0x416e9634	14.911671
146	0x41856ac7	16.677137
147	0x4126403f	10.390685
148	0x412ea071	10.91417
149	0x4130fa7a	11.0611515
150	0x3f2191b6	0.6311296
151	0x41d6b0a9	26.83626
152	0x40e85bea	7.26122
153	0xc2047112	-33.11042
154	0x4044f8e3	3.0776908
155	0x3f9bf0a9	1.2182819
156	0x418db122	17.71149
157	0xc0d17988	-6.5460854
158	0x411ba3f3	9.727527
159	0x414da3fd	12.852536
160	0x415ba510	13.727798
161	0xc0cac894	-6.3369846
162	0x411dd40a	9.864267
163	0xc0aa9332	-5.330468
164	0x41ba1e50	23.264801
165	0x3e6ad34d	0.22932167
166	0xc15d5f2b	-13.835734
167	0xc1dc17ff	-27.511717
168	0x421633bd	37.550526
169	0xbe6828a2	-0.2267175
170	0x41f6ec21	30.865297
171	0x41005c4c	8.022533
172	0x4229edb2	42.482124
173	0x413b5df5	11.710439
174	0x3f9e1fc1	1.235344
175	0xc208d5a7	-34.208645
176	0x41724c9f	15.143706
177	0xc17ac6b2	-15.67351
178	0x3fda49bd	1.7053753
179	0x41fbe0cc	31.484764
180	0x4166bf72	14.42174
181	0x411fa00a	9.976572
182	0x41063155	8.387044
183	0x420cfd19	35.247166
184	0x419667c5	18.800669
185	0xc0fca7c5	-7.8954797
186	0xc0b43338	-5.6312523
187	0xc125ed4e	-10.370436
188	0x40312c29	2.7683203
189	0x3eed4a8b	0.46345934
190	0x41a7ff78	20.99974
191	0x41b44232	22.532322
192	0x419b6140	19.422485
193	0x3f2d87b0	0.6778517
194	0xc1f3cf01	-30.476076
195	0x419e6d22	19.803288
196	0x413e5a0e	11.896986
197	0xc1fbae9a	-31.460255
198	0x41108ac8	9.033882
199	0x4111838b	9.094615
200	0xc1348449	-11.282296
201	0x41eab745	29.339487
202	0x41df6fb6	27.929546
203	0x414280fa	12.156488
204	0xc1dbf172	-27.492893
205	0xc086b9be	-4.2101736
206	0x41833387	16.40016
207	0xbee2e029	-0.44311646
208	0x41b6f2b3	22.868505
209	0xc06ec956	-3.7310386
210	0x416a2bcc	14.635693
211	0x40153bbc	2.331771
212	0xc14ae808	-12.681648
213	0x415512ca	13.317087
214	0x41368a77	11.408805
215	0xbf481204	-0.7815249
216	0xc1985e36	-19.046001
217	0x40c75b6c	6.22991
218	0xc0ed62ba	-7.4183016
219	0xc0fd0fd3	-7.9081817
220	0x41a79901	20.949709
221	0x41bd89c5	23.69227
222	0xc17d49ae	-15.830488
223	0x3f8413ee	1.0318582
224	0x3f2d0e8b	0.67600316
225	0x410c56ca	8.771189
226	0x4161eef2	14.120836
227	0x41ec08e0	29.504333
228	0x41fb6964	31.42646
229	0x41d9af02	27.210453
230	0x41f2dd99	30.358202
231	0x419d11c6	19.633678
232	0xc1bd322d	-23.6495
233	0xc17077db	-15.029262
234	0x409a3604	4.8190937
235	0x414a6685	12.650029
236	0x41709c24	15.03812
237	0x416a67dd	14.650357
238	0xbe19b256	-0.15009436
239	0x41720240	15.125549
240	0x41b756af	22.917326
241	0x40aaf3ea	5.3422747
242	0x3ef145fc	0.47123706
243	0x415bda1d	13.74075
244	0x3f450e7c	0.76975226
245	0x4153ea0b	13.244639
246	0x4163d4c8	14.239449
247	0xc20e2201	-35.533207
248	0x3fab735b	1.3394579
249	0x3e920e85	0.28526703
250	0xc209aaa8	-34.416656
251	0x41b3aa74	22.45823
252	0x40a1f5f1	5.061272
253	0x4102522b	8.145061
254	0xbf8692c8	-1.0513544
255	0x4072e90d	3.7954743

bn1.running_var f4 [256]
0	0x43f31758	486.18237
1	0x4124bf03	10.296634
2	0x430dfc13	141.98466
3	0x440149e0	517.1543
4	0x4362f056	226.93881
5	0x44202ac3	640.66815
6	0x43979fb1	303.2476
7	0x430bbd2a	139.73892
8	0x43be0ea3	380.11435
9	0x44e16065	1803.0123
10	0x43d5d5af	427.6694
11	0x4353a2db	211.63615
12	0x43f68476	493.03485
13	0x43f06c98	480.8484
14	0x43392510	185.14478
15	0x44080575	544.08527
16	0x4527a0a8	2682.041
17	0x441bb1e9	622.77985
18	0x43dc2e23	440.36044
19	0x4403003f	524.00385
20	0x42bca362	94.31911
21	0x424bc628	50.943512
22	0x42d75375	107.663
23	0x4043bcf0	3.0584068
24	0x4485be6b	1069.9506
25	0x42e4fa39	114.488716
26	0x440c007c	560.00757
27	0x440a8ee3	554.2326
28	0x43258f3b	165.5595
29	0x4375db5e	245.8569
30	0x438ee580	285.79297
31	0x43e94cf4	466.6012
32	0x4363c1ae	227.75656
33	0x4392e49e	293.78607
34	0x440da92a	566.6432
35	0x43acee27	345.86057
36	0x432c9601	172.58595
37	0x43a6310f	332.38327
38	0x4406fe4b	539.9733
39	0x4455c86a	855.1315
40	0x444e8bdd	826.18536
41	0x4388b5e4	273.42102
42	0x418f6611	17.924837
43	0x43f9cceb	499.60092
44	0x43f6eddb	493.85825
45	0x43bc94e3	377.16318
46	0x43a713e1	334.1553
47	0x41b27266	22.305859
48	0x43a002b1	320.02103
49	0x44038600	526.09375
50	0x436f8c9a	239.54922
51	0x4417bffb	606.9997
52	0x4326635b	166.3881
53	0x43bd2427	378.28244
54	0x4392884d	293.06485
55	0x438791c9	271.13895
56	0x42a43d82	82.12013
57	0x43477039	199.43837
58	0x4311a59b	145.6469
59	0x43452a63	197.16557
60	0x439d087d	314.0663
61	0x4462f80b	907.8757
62	0x439d53a1	314.65335
63	0x43e0c71b	449.5555
64	0x434414e3	196.08159
65	0x43dfe119	447.75858
66	0x4402897f	522.1484
67	0x43e82e98	464.364
68	0x435f381d	223.2192
69	0x4302e132	130.87967
70	0x43910eb4	290.11487
71	0x446bebe8	943.68604
72	0x41ddd22b	27.727621
73	0x441d38bb	628.8864
74	0x434c436f	204.26341
75	0x441f9892	638.3839
76	0x4465f552	919.8331
77	0x43d238c7	420.44357
78	0x440a5bd1	553.43463
79	0x43501e7e	208.11911
80	0x407795e2	3.8685231
81	0x4419d069	615.2564
82	0x42ffeafd	127.95896
83	0x43cb475e	406.55756
84	0x4323ace5	163.67537
85	0x42c2cef0	97.404175
86	0x42d8d001	108.40626
87	0x43ecd721	473.6807
88	0x43ca9cc9	405.22488
89	0x431ee7b8	158.90515
90	0x4336da65	182.8531
91	0x44c39ffd	1564.9996
92	0x43fa6344	500.7755
93	0x439d0c91	314.09818
94	0x43356e68	181.43127
95	0x43899f4f	275.2446
96	0x44a0adc5	1285.4303
97	0x43349457	180.57945
98	0x44c48322	1572.0979
99	0x43c6487a	396.56622
100	0x4377fec8	247.99524
101	0x41efca64	29.973824
102	0x446cea77	947.6635
103	0x4429d4bc	679.324
104	0x4352a6c2	210.6514
105	0x41ae97b3	21.824072
106	0x42409cb9	48.15305
107	0x4360f090	224.9397
108	0x44070085	540.0081
109	0x4182afff	16.335936
110	0x43473390	199.20142
111	0x443dc37e	759.05457
112	0x43a755d5	334.67056
113	0x43621e0c	226.11737
114	0x43fe26f0	508.3042
115	0x43be53d3	380.65488
116	0x432113a7	161.07677
117	0x43badeb1	373.73978
118	0x432f7f73	175.49785
119	0x4348afb7	200.68639
120	0x4255ee6b	53.48283
121	0x440182f1	518.04596
122	0x432a1e60	170.11865
123	0x4390c512	289.5396
124	0x4311c18c	145.75604
125	0x40c70c37	6.220241
126	0x43c814ff	400.16403
127	0x4323d7a5	163.84236
128	0x43c073c7	384.9045
129	0x43570a50	215.04028
130	0x43efe43a	479.78302
131	0x4327c08f	167.75218
132	0x43aca30d	345.27383
133	0x43fa5a23	500.7042
134	0x44367373	729.8039
135	0x4318de26	152.86777
136	0x4418abc6	610.68396
137	0x41cc970d	25.573755
138	0x4435f0c6	727.7621
139	0x450aacbc	2218.796
140	0x44257273	661.78827
141	0x43bb7b2d	374.9623
142	0x440e9966	570.39685
143	0x43f50132	490.00934
144	0x42d390d8	105.7829
145	0x44205e56	641.474
146	0x4350e2b3	208.88554
147	0x436ac637	234.77428
148	0x43cddf92	411.74664
149	0x4468f10c	931.76636
150	0x4087a111	4.2384114
151	0x448615f2	1072.6858
152	0x42d3962a	105.79329
153	0x43cf5443	414.6583
154	0x4253bf96	52.937096
155	0x41a08d87	20.069105
156	0x438e6fe9	284.8743
157	0x43977a11	302.95364
158	0x4244a4fc	49.161118
159	0x43c1f92d	387.9467
160	0x445bcf86	879.24255
161	0x43bcaf97	377.3718
162	0x4419a125	614.5179
163	0x438ab6b2	277.4273
164	0x43444da3	196.30327
165	0x4033165c	2.7982397
166	0x434ca208	204.63293
167	0x43e63083	460.379
168	0x445c6e0d	881.71954
169	0x42edbcd9	118.86884
170	0x4386dc49	269.72098
171	0x41e429a9	28.520342
172	0x433c6e78	188.43152
173	0x433b676d	187.404
174	0x4438eb0f	739.6728
175	0x4366f22c	230.94598
176	0x4340dd51	192.86452
177	0x43937275	294.8942
178	0x45250eb6	2640.9194
179	0x43d0892e	417.07172
180	0x43cb7baa	406.96613
181	0x441f2390	636.55566
182	0x43bc2d8d	376.35587
183	0x43576b99	215.4203
184	0x43ca00fa	404.00763
185	0x4373c627	243.77403
186	0x4409c48d	551.0711
187	0x43b3e4b7	359.78683
188	0x4425b6c9	662.856
189	0x4030ada7	2.760599
190	0x4323f62a	163.96158
191	0x43ac93ab	345.15366
192	0x42c5a4bd	98.821754
193	0x42064f60	33.577515
194	0x4417d478	607.3198
195	0x44271c7d	668.4451
196	0x4317a956	151.66147
197	0x43093509	137.20717
198	0x43f717db	494.18637
199	0x435c4f42	220.3096
200	0x441f2671	636.60065
201	0x448d9910	1132.7832
202	0x43ed22ea	474.27277
203	0x43e71084	462.12903
204	0x43a61a5c	332.20593
205	0x4427155f	668.3339
206	0x4435e405	727.5628
207	0x42d9154a	108.54158
208	0x42f1c594	120.885895
209	0x441c7d1f	625.955
210	0x4381683d	258.81436
211	0x4240b94b	48.18095
212	0x43607be5	224.48396
213	0x43da70b3	436.88046
214	0x431d3f59	157.24745
215	0x3fa58fb5	1.2934481
216	0x43c9c498	403.5359
217	0x44433e03	780.96893
218	0x446da160	950.5215
219	0x43af4e15	350.61002
220	0x433e29ad	190.1628
221	0x438896f9	273.17947
222	0x43a392db	327.1473
223	0x4383ab97	263.34055
224	0x41443d91	12.265031
225	0x4393304a	294.37726
226	0x440549a8	533.1509
227	0x4381dc67	259.7219
228	0x43caf083	405.879
229	0x4341dae0	193.85498
230	0x43c28f6c	389.12048
231	0x43003054	128.18878
232	0x4334c7d6	180.78061
233	0x442735fe	668.8436
234	0x43d96775	434.80826
235	0x43dcd1b2	441.63824
236	0x4386277c	268.30847
237	0x43b410f6	360.1325
238	0x4143f89a	12.248194
239	0x43472454	199.1419
240	0x43897117	274.8835
241	0x42ba857b	93.260704
242	0x3fdb80bd	1.7148663
243	0x432bba69	171.72816
244	0x41c2f90d	24.371607
245	0x442300aa	652.0104
246	0x432b272b	171.153
247	0x435f3269	223.19691
248	0x415c9f0c	13.78883
249	0x410d0efe	8.81616
250	0x44003711	512.8604
251	0x447f73de	1021.8104
252	0x439602dc	300.02234
253	0x4421f94d	647.8953
254	0x415816c9	13.505563
255	0x43f4de1b	489.7352

fc2.weight f4 [128, 256]
0	0x3c91cfc8	0.017799273
1	0xbbfad5ed	-0.0076548965
2	0x3f50d143	0.8156931
3	0x3f3cb80d	0.7371834
4	0x3ec34c29	0.38144043
5	0xbf89cafa	-1.0765069
6	0xbe9f0bea	-0.31063777
7	0xbf1dba47	-0.6161236
8	0x3f820e9d	1.016071
9	0x3f98cb01	1.1936952
10	0xbfa02ae9	-1.2513095
11	0x3e7adc98	0.24498212
12	0xbf94d82c	-1.162847
13	0xbefb3062	-0.4906035
14	0x3e09da2d	0.13462134
15	0xbf8e8692	-1.1134818
16	0x3f450324	0.7695792
17	0xbdcd6a69	-0.10030062
18	0x3e5cc2f0	0.21558738
19	0x3e9ed367	0.31020662
20	0x3e42619f	0.18982552
21	0xbce65e4a	-0.028121132
22	0xbf2de470	-0.6792669
23	0xbd8554f3	-0.065103434
24	0x3f84379c	1.0329471
25	0x3ec92423	0.39285383
26	0x3f5b44c9	0.8565183
27	0x3eb5d13f	0.35511205
28	0xbe260596	-0.16213068
29	0xbd2b0459	-0.041752193
30	0xbf7760e3	-0.9663221
31	0xbed9b0b6	-0.42517632
32	0x3e6d0cfc	0.23149484
33	0x3f368ae0	0.71305656
34	0xbf777577	-0.9666361
35	0x3f53fd9f	0.8280887
36	0xbdcbc664	-0.099499494
37	0xbe141751	-0.1446202
38	0xbfdb3f03	-1.7128605
39	0xbf02f0ca	-0.51148665
40	0x3ed6e9d9	0.41975287
41	0x3ec458b5	0.38348928
42	0xbed1121b	-0.40834126
43	0x3dae0de5	0.08498744
44	0xbefb81d9	-0.49122503
45	0xbf204d1f	-0.6261768
46	0x3ed9b699	0.42522123
47	0x3f09edc9	0.53878456
48	0xbeba7bdd	-0.36422625
49	0xbf1243e6	-0.57134855
50	0x3d5e4581	0.054265503
51	0x3e154843	0.14578347
52	0x3efc6478	0.49295402
53	0x3f659eed	0.89695626
54	0x3e822a1a	0.25422746
55	0xbf0389b6	-0.51382005
56	0xbf0568a4	-0.52112794
57	0xbe6f04c8	-0.23341668
58	0xbf996d32	-1.1986449
59	0x3f09df3d	0.5385626
60	0xbf06d2f1	-0.5266562
61	0xbe0c4bbc	-0.13700765
62	0x3d74ac27	0.05973449
63	0x3d7263ad	0.05917709
64	0xbdd34221	-0.103153475
65	0xbf029094	-0.5100186
66	0xbf09d649	-0.538426
67	0xbe070887	-0.13186847
68	0x3da99583	0.0828047
69	0x3e89005d	0.2675809
70	0x3eedc3d2	0.46438462
71	0x3ef8e065	0.486087
72	0xbdf81f04	-0.12115291
73	0x3f18a41c	0.5962541
74	0xbf3cb152	-0.7370807
75	0x3f376671	0.7164069
76	0xbc45f4b2	-0.012082266
77	0x3db48387	0.08814149
78	0xbe56e48d	-0.20985623
79	0xbf93642f	-1.1514949
80	0x3d95c305	0.07312588
81	0xbff15b41	-1.8855973
82	0xbfe19bcc	-1.762567
83	0xbf3dfd1c	-0.7421434
84	0x3db7bb96	0.08971326
85	0xbd9e3ac7	-0.07726055
86	0xbe3ea744	-0.18618494
87	0xbeaf71e5	-0.34266582
88	0x3c559c5c	0.013037767
89	0xbf2acacb	-0.6671569
90	0x3d6bae3e	0.057539217
91	0x3e8a23a0	0.26980305
92	0x3eee3a76	0.46528977
93	0x3e765f47	0.24059783
94	0x3f45d44f	0.7727708
95	0xbf3682db	-0.7129342
96	0xbe218749	-0.15774263
97	0xbe2ad4ab	-0.16682689
98	0x3f959072	1.1684706
99	0x3f9da1b4	1.2314973
100	0x3f26d2af	0.6516523
101	0xbdc3b263	-0.09555509
102	0x3f50a644	0.815037
103	0x3e5d7f9c	0.2163071
104	0xbf0bd865	-0.54627067
105	0x3bb2309f	0.005437925
106	0x3bc3dec0	0.0059774816
107	0x3d550d18	0.05201444
108	0x3ea08be7	0.31356737
109	0xbc9a99c3	-0.018872147
110	0x3f572960	0.8404751
111	0xbcccf918	-0.02502112
112	0xbe6f50df	-0.23370694
113	0xbf8776a0	-1.0583076
114	0xbf902950	-1.1262608
115	0xbed6f30c	-0.41982305
116	0xbf5acb00	-0.85466003
117	0x3e172e5f	0.14763783
118	0xbe38a0c5	-0.18030079
119	0xbe3c65a9	-0.18398155
120	0xbea2f727	-0.31829187
121	0x3f416765	0.7554839
122	0xbe3d2e9d	-0.18474813
123	0x3f3c03c7	0.73443264
124	0x3ebb20e5	0.36548534
125	0x3c20a173	0.0098041175
126	0xbec16416	-0.37771672
127	0x3eafd17f	0.3433952
128	0xbf06d394	-0.5266659
129	0x3ea3988f	0.3195233
130	0x3eeb63ab	0.45974478
131	0xbded28de	-0.115800604
132	0x3fa36318	1.2764616
133	0x3fba01e8	1.4531832
134	0xbeccc0ea	-0.39990932
135	0x3e4f5fe2	0.2025142
136	0xbf7d5ef0	-0.9897299
137	0xbefe0d33	-0.49619445
138	0x3d140357	0.036135998
139	0x3e902f3a	0.2816103
140	0x3e362ce2	0.17790559
141	0x3e7b041b	0.24513285
142	0xbfa47684	-1.2848668
143	0xbf1b4af0	-0.6066122
144	0xbe949e79	-0.29027155
145	0x3ef384f4	0.47562373
146	0xbf7ad57f	-0.9798202
147	0xbe88f67c	-0.26750553
148	0x3f6c9840	0.92419815
149	0xbf03df46	-0.51512563
150	0x3cc5fcdb	0.024168422
151	0x3f1c7e50	0.6113024
152	0xbeaf79ad	-0.3427252
153	0xbe93b4cb	-0.28848872
154	0xbd76d4d3	-0.06026156
155	0xbdc3c634	-0.095592886
156	0xbfb36eeb	-1.4018224
157	0xbf34de52	-0.70651734
158	0xbcd3319b	-0.02578049
159	0xbf23ff9b	-0.640619
160	0xbe1f1f23	-0.15539221
161	0x3c05f98d	0.008177173
162	0xbfaac71e	-1.3342016
163	0x3ea98210	0.33107042
164	0x3e407376	0.18794045
165	0xbd33acad	-0.04386585
166	0xbd06c602	-0.03290368
167	0xbf24daf3	-0.6439659
168	0x3f3d115d	0.7385462
169	0x3cac4948	0.021031037
170	0xbdb42476	-0.08796017
171	0x3f6797ee	0.904662
172	0x3d24787e	0.040153973
173	0x3f147e8e	0.5800561
174	0x3f3df602	0.74203503
175	0x3eaf1c57	0.3420131
176	0xbe38de8a	-0.18053642
177	0xbdc2aee1	-0.09506012
178	0x3e8ff374	0.28115427
179	0x3f20ee2c	0.6286342
180	0x3f3e25ce	0.74276435
181	0xbeb5d7d5	-0.3551623
182	0xbf115f97	-0.56786484
183	0x3eece5ed	0.4626917
184	0xbe4f90d8	-0.20270097
185	0x3eab2d15	0.33432832
186	0xbd859bcb	-0.06523856
187	0xbfbb3427	-1.4625291
188	0x3f709652	0.9397937
189	0x3d3a4a5d	0.045481075
190	0xbf0c1f31	-0.54735094
191	0xbfaeacd7	-1.3646497
192	0xbf8267ee	-1.0187967
193	0xbcfbd74e	-0.030742314
194	0xbf9336d4	-1.1501107
195	0x3f6c43d1	0.9229098
196	0xbfc3495a	-1.525676
197	0xbfb3a050	-1.4033298
198	0x3dc9d0e9	0.098542996
199	0xbe0019a7	-0.12509786
200	0x3ef609ba	0.48054296
201	0x3df6845d	0.12036965
202	0x3e9fe035	0.31225744
203	0xbe0db7fd	-0.13839717
204	0x3f520c62	0.82050145
205	0xbdd6f26f	-0.10495459
206	0xbe17751d	-0.14790769
207	0xbe0a5628	-0.13509429
208	0xbf182774	-0.594352
209	0xc0160cf3	-2.3445404
210	0x3f2b36e0	0.6688061
211	0xbda6f47f	-0.08152103
212	0xbf41a989	-0.75649315
213	0x3f09a152	0.5376178
214	0xc0298d54	-2.649251
215	0xbc404c0b	-0.01173688
216	0xbfbe657b	-1.4874719
217	0x3ea3e6e1	0.32012084
218	0x3f00b66f	0.5027837
219	0x3df3d5ce	0.119060144
220	0x3e4bbc92	0.19896153
221	0x3dc61480	0.09671879
222	0x3df93858	0.1216895
223	0xbd68f758	-0.05687651
224	0x3f4c7fae	0.79882324
225	0xbcb8afed	-0.022544825
226	0x3eb3926d	0.35072652
227	0x3f8710d3	1.0552009
228	0x3f438c1b	0.7638566
229	0x3f2eab0c	0.68229747
230	0x3f1d8fc8	0.6154752
231	0x3e81566c	0.25261247
232	0xbfb50a1d	-1.4143711
233	0x3f05a8b5	0.5221055
234	0xbf2dc7e5	-0.6788314
235	0xbe94694f	-0.28986594
236	0xbefcbd77	-0.493633
237	0xbdda85fa	-0.10670085
238	0x3d32f77d	0.043693054
239	0x3f2ff624	0.68734956
240	0x3decfb1a	0.11571331
241	0xbebf1086	-0.37317294
242	0xbda85403	-0.08219149
243	0x3f223e08	0.633759
244	0xbf9558b3	-1.1667694
245	0xbc5bf40e	-0.013424886
246	0xbf21158f	-0.6292352
247	0x3f387b0e	0.72062767
248	0xbdae6249	-0.0851484
249	0xbf687f2a	-0.90819037
250	0x3d637256	0.05552896
251	0x3ebb52e7	0.36586687
252	0xbd9d7767	-0.0768879
253	0x3d2114c5	0.039326448
254	0xbd375647	-0.044760015
255	0x3ebb89fe	0.36628717

fc2.bias f4 [128]
0	0xbcbbacb2	-0.022909496
1	0xbe00827d	-0.12549777
2	0xbf407ecc	-0.75193477
3	0xbea12226	-0.31471366
4	0x3d9ee655	0.07758776
5	0xbd072f5c	-0.03300415
6	0xbd974ba1	-0.07387472
7	0x3e2102cb	0.15723722
8	0xbf8aadbe	-1.0834272
9	0xbf264a5e	-0.64957225
10	0xbdce3171	-0.10068024
11	0xbe9a7947	-0.30170652
12	0xbe7aeb99	-0.24503936
13	0xbf0edb90	-0.55803776
14	0xbdbde00d	-0.0927125
15	0xbe952215	-0.29127565
16	0xbe678d67	-0.22612534
17	0xbd05c431	-0.032657806
18	0x3d4b52c2	0.04963947
19	0x3e28c28c	0.16480464
20	0xbeaae06c	-0.33374345
21	0xbe25471c	-0.16140407
22	0xbeaf078a	-0.3418544
23	0xbe4dae26	-0.20085964
24	0xbf33aea3	-0.7018835
25	0xbee92bd4	-0.4554125
26	0xbf06ff03	-0.52732867
27	0xbdd5871e	-0.10426162
28	0x3d982232	0.07428397
29	0xbe185aa5	-0.14878328
30	0xbf4b7d14	-0.7948773
31	0xbe5d1e0e	-0.21593496
32	0xbf14c7b0	-0.581172
33	0xbf50c28a	-0.81546843
34	0xbe65fd53	-0.22459917
35	0xbf3447ff	-0.7042236
36	0xbde112d9	-0.10989923
37	0xbdbda7ec	-0.09260544
38	0xbe922008	-0.28540063
39	0x3e9bb90c	0.30414617
40	0x385dd7b2	5.2891388e-05
41	0xbefea074	-0.4973179
42	0xbe6be771	-0.23037507
43	0x3e8dd446	0.27701014
44	0xbf516a8f	-0.8180322
45	0xbdcb06ce	-0.09913407
46	0x3dae0fd6	0.08499114
47	0x3eb61fd4	0.35571158
48	0xbeeb6e06	-0.4598238
49	0xbdbe28d6	-0.092851326
50	0xbf380cd0	-0.7189455
51	0x3b949b7c	0.0045351367
52	0xbd1a0acb	-0.03760795
53	0xbf521ddf	-0.8207683
54	0x3e0f9b3f	0.14024065
55	0xbf066e61	-0.52512175
56	0x3e56691c	0.20938534
57	0xbea12cb5	-0.3147942
58	0xbe86302a	-0.2620862
59	0x3e6a3b6e	0.22874233
60	0xbf72dab7	-0.9486498
61	0xbd7ef1cd	-0.062242318
62	0x3de4209c	0.11139032
63	0xbe34a96e	-0.17642757
64	0x3dfa77bc	0.12229869
65	0xbeed0cfd	-0.46298972
66	0xbdb8ad07	-0.09017377
67	0xbdbdd0b1	-0.0926832
68	0xbf3a0fbd	-0.72680265
69	0xbf386e4c	-0.720433
70	0x3e1a9d55	0.1509908
71	0xbf033ac6	-0.51261556
72	0xbf004095	-0.50098544
73	0xbf90a838	-1.1301336
74	0xbef4ee9d	-0.47838297
75	0xbf75b512	-0.95979416
76	0xbe6cd0be	-0.23126504
77	0xbe3d5217	-0.18488346
78	0x3ee56934	0.44806826
79	0xbe0c5868	-0.137056
80	0x3e7fa25e	0.24964282
81	0xbf3200f0	-0.6953268
82	0x3ddafc22	0.10692622
83	0xbdf24d1c	-0.11831114
84	0xbda22881	-0.07917882
85	0xbea1f279	-0.31630304
86	0xbeac79d3	-0.33686695
87	0xbf87b84a	-1.0603116
88	0xbf958282	-1.1680453
89	0xbe752ad1	-0.23942114
90	0x3cda2967	0.02663107
91	0xbe75794f	-0.23972057
92	0x3e22c213	0.15894346
93	0xbee5cff5	-0.4488522
94	0xbd830f6e	-0.06399427
95	0x3e816435	0.25271764
96	0x3d9796c4	0.07401803
97	0xbed2263a	-0.4104479
98	0xbf139dc1	-0.5766259
99	0xbfbf00f5	-1.4922167
100	0xbce77677	-0.02825473
101	0xbbf5f1bb	-0.007505623
102	0xbcf4f1f4	-0.029900528
103	0xbf6ac23c	-0.9170263
104	0xbe9d6a69	-0.30745247
105	0xbef5ddee	-0.4802088
106	0xbd9e38c2	-0.077256694
107	0xbdab6bef	-0.08370196
108	0xbea49dac	-0.32151544
109	0xbea3c80f	-0.3198857
110	0xbe71be02	-0.23607638
111	0xbe169696	-0.14705881
112	0x3da13a52	0.07872452
113	0xbf45ee16	-0.77316415
114	0xbf35e637	-0.71054405
115	0xbef9aa13	-0.4876257
116	0xbe960f8c	-0.29308736
117	0xbe8b7674	-0.2723881
118	0xbebfb127	-0.37439844
119	0xbee873ab	-0.45400748
120	0x3ed1c83b	0.40973076
121	0xbf038788	-0.5137868
122	0xbeead42c	-0.45865
123	0xbf961aae	-1.1726892
124	0xbe92ddf8	-0.28684974
125	0xbe509226	-0.20368251
126	0xbe36d68d	-0.17855282
127	0xbd7c56b7	-0.061606135
