p2_continuous-control_single-agent/checkpoint_actor.pth (torch_old, 541437 bytes, 6 tensors)

fc1.weight f4 [400, 33]
0.0691051 -0.01087828 -0.05879208 -0.10169311 -0.026178185 0.06261554 -0.04383407 0.048996314
-0.01655821 -0.08601543 -0.017394444 -0.08182703 -0.050492402 0.02572872 -0.035620403 0.0649114
0.051581357 -0.01878986 -0.054587293 0.042433124 0.020993056 0.09374111 -0.025546558 -0.028976126
-0.10117305 0.06667565 0.030788662 -0.07648557 -0.0010660916 -0.020974046 0.016992811 -0.029362602
-0.016482485 -0.009068104 0.025796175 -0.071737 -0.11243712 -0.032337386 0.12187029 -0.032808248
0.07306959 -0.10912967 0.099602014 0.047159042 0.060327105 0.0730461 0.013322837 0.050897818
-0.12875652 0.016265351 -0.019201979 0.1335895 0.10240621 0.10573671 -0.03289248 0.047473878
-0.020715803 0.0026135775 -0.01479248 -0.091858454 -0.057508487 0.055963334 -0.045746047 0.07763324
-0.035196595 -0.044501707 0.035974003 -0.073668905 0.038320996 0.09951852 0.07336508 0.016113954
-0.120648555 -0.073553026 -0.068654455 -0.024561945 -0.02261694 -0.05464374 -0.015282035 0.010745445
-0.042943686 0.118044324 -0.02601014 -0.110929206 0.123110935 -0.043317985 0.11258711 -0.0094638225
0.009958711 0.028976709 0.01782921 0.06622892 -0.016755432 -0.033409834 -0.1409215 -0.024651414
0.07981878 0.03263882 0.050615195 -0.031723533 0.0044341385 -0.06890507 -0.03891524 0.055394623
-0.10016255 0.0028481183 0.008534742 -0.013680775 0.017522426 -0.054102715 0.06300718 -0.015094759
-0.011926968 -0.0085707195 -0.06903963 0.10064709 -0.23189296 0.11129187 0.07261585 0.15843965
0.03623011 -0.0011602491 -0.124468796 0.062550135 -0.014091559 -0.13191904 -0.078196414 0.03957018
0.009037215 0.047095977 0.041343357 -0.010948915 -0.0071715456 0.034157123 -0.014608117 0.06299382
0.029313525 -0.033614773 -0.06529209 -0.10989891 -0.052142255 -0.028652165 -0.00802749 -0.004393063
0.0388409 0.055261042 0.043062206 0.00721251 -0.08548367 -0.046157602 0.021006407 0.0235636
-0.038617812 -0.08836581 0.09073491 0.035895035 0.031692997 0.02966755 -0.02125269 0.030070754
-0.09965105 -0.019585496 0.051060807 0.02447066 -0.05611483 0.0040416885 -0.02668338 -0.035551988
0.04185942 0.029479312 -0.021975199 -0.009818837 0.00081481074 0.08072922 0.0074638845 -0.09023356
-0.010697988 -0.013351764 0.01617845 0.053559437 -0.0088583045 0.085973635 0.021512551 -0.08990983
0.057467844 0.066722155 0.009403032 0.047894526 -0.108118996 -0.042867165 0.05131124 0.03412974
0.010847337 0.1237894 0.040231835 0.06992909 -0.03040647 -0.09843675 0.028269555 0.014847279
0.14897552 0.0103639765 -0.054281346 -0.0057157096 0.07433837 -0.048093583 -0.11073974 0.012574861
0.037896797 0.0055135824 -0.07294438 0.0040075816 -0.059086315 0.0013692699 -0.0351259 -0.057400584
-0.016214851 -0.011506018 -0.039572913 -0.19872727 -0.16377991 0.021883179 0.068067364 -0.06313046
-0.16017747 0.0386074 -0.04935007 0.038549375 0.02638637 0.014932025 -0.10046676 -0.061908234
-0.06680504 0.016546817 0.115664154 0.10852619 -0.050157893 -0.0029977304 -0.009126666 -0.07351064
0.022508198 0.05636341 0.025815086 0.018388676 -0.03167803 -0.1044006 0.10082511 -0.031062923
0.022337282 0.03804887 -0.059240453 0.0121721225 -0.003755786 0.013616883 0.07668147 -0.009166842
00000000: fa86 8d3d d03a 32bc f7cf 70bd 7a44 d0bd
00000010: a273 d6bc 943c 803d 5b8b 33bd 5cb0 483d
00000020: 15a5 87bc dc28 b0bd cb7e 8ebc ee94 a7bd
00000030: 1fd1 4ebd 09c5 d23c b3e6 11bd 45f0 843d
00000040: f946 533d 31ed 99bc ed96 5fbd 5bce 2d3d
00000050: a1f9 ab3c 57fb bf3d 0447 d1bc 575f edbc
00000060: d133 cfbd 3e8d 883d 8138 fc3c 77a4 9cbd
00000070: 19bc 8bba c3d1 abbc 8234 8b3c d789 f0bc
00000080: 4706 87bc 6392 14bc 8052 d33c d9ea 92bd
00000090: 6f45 e6bd 3574 04bd 2197 f93d f161 06bd
000000a0: 82a5 953d 607f dfbd 24fc cb3d d729 413d
000000b0: 8e19 773d 3299 953d 0748 5a3c 3b7a 503d
000000c0: c0d8 03be ea3e 853c 784d 9dbc b0cb 083e
000000d0: 59ba d13d 7d8c d83d 44ba 06bd f873 423d
000000e0: 30b4 a9bc 8e48 2b3b 285c 72bc 4920 bcbd
000000f0: 058e 6bbd cf39 653d 3560 3bbd 2dfe 9e3d
00000100: 4e2a 10bd 6c47 36bd 7a59 133d b9df 96bd
00000110: 7af6 1c3d 5ed0 cb3d 6e40 963d 6901 843c
00000120: 9716 f7bd f8a2 96bd b59a 8cbd 2236 c9bc
00000130: 2947 b9bc 1dd2 5fbd 8061 7abc aa0d 303c
00000140: b8e5 2fbd 39c1 f13d 3813 d5bc da2e e3bd
00000150: 9621 fc3d 336e 31bd 1294 e63d 260e 1bbc
00000160: dd29 233c 9060 ed3c 900e 923c 07a3 873d
00000170: b042 89bc c0d8 08bd ba4d 10be c3f1 c9bc
00000180: 0778 a33d 49b0 053d e151 4f3d 89f0 01bd
00000190: 404c 913b 1a1e 8dbd 9665 1fbd 79e5 623d
000001a0: 0622 cdbd 7fa7 3a3b 4dd5 0b3c 5425 60bc
000001b0: 318b 8f3c cf9a 5dbd e909 813d 0250 77bc
000001c0: 5469 43bc 346c 0cbc a664 8dbd 1020 ce3d
000001d0: 5975 6dbe feec e33d 9eb7 943d 013e 223e
000001e0: 0666 143d 8013 98ba 7fe9 febd 491a 803d
000001f0: 48e0 66bc c915 07be 7125 a0bd 5714 223d
00000200: d410 143c b6e7 403d a757 293d 1463 33bc
00000210: 49ff eabb 57e8 0b3d e256 6fbc e702 813d
00000220: eb22 f03c a5af 09bd dcb7 85bd ae12 e1bd
00000230: 1e93 55bd f2b7 eabc bc85 03bc aff3 8fbb
00000240: a317 1f3d 6759 623d ff61 303d eb56 ec3b
00000250: 1012 afbd c10f 3dbd a115 ac3c 7308 c13c
00000260: b62d 1ebd 22f9 b4bd 39d3 b93d ac06 133d
00000270: 84d0 013d 5d09 f33c 1f1a aebc f156 f63c
00000280: da15 ccbd c371 a0bc 2325 513d b276 c83c
00000290: aad8 65bd 2470 843b 1b97 dabc f69e 11bd
000002a0: c874 2b3d 997e f13c 5505 b4bc 30df 20bc
000002b0: 0699 553a 5c55 a53d 9a93 f43b 5fcc b8bd
000002c0: 9d46 2fbc 5bc1 5abc ab88 843c 2461 5b3d
000002d0: 6c22 11bc f212 b03d 173b b03c a522 b8bd
000002e0: 6763 6b3d a0a5 883d 2d0f 1a3c 0d2d 443d
000002f0: 7e6d ddbd 7b95 2fbd bc2b 523d a0cb 0b3d
00000300: 07b9 313c 4c85 fd3d 23ca 243d fc36 8f3d
00000310: fd16 f9bc 3599 c9bd 8e95 e73c 0042 733c
00000320: 0a8d 183e abcd 293c 1e56 5ebd d94a bbbb
00000330: b73e 983d c7fd 44bd 84cb e2bd ca06 4e3c
00000340: ac39 1b3d 48ab b43b dd63 95bd 0852 833b
00000350: 7e04 72bd 1379 b33a 2de0 0fbd e01c 6bbd
00000360: 02d5 84bc bd83 3cbc 3517 22bd 297f 4bbe
00000370: ecb5 27be 5a44 b33c e766 8b3d 8b4a 81bd
00000380: 9005 24be cb22 1e3d 4d23 4abd f3e5 1d3d
00000390: 3b28 d83c 74a5 743c 84c1 cdbd 7d93 7dbd
000003a0: 15d1 88bd 318d 873c 54e1 ec3d fb42 de3d
000003b0: 5d72 4dbd 9275 44bb 0388 15bc bf8c 96bd
000003c0: 1d63 b83c 52dd 663d 297a d33c d9a3 963c
000003d0: d2c0 01bd fbcf d5bd 657d ce3d ac77 febc
000003e0: adfc b63c 22d9 1b3d 1ea6 72bd 956d 473c
000003f0: a223 76bb 5919 5f3c 2d0b 9d3d 8630 16bc

fc1.bias f4 [400]
0.2165031 0.20941307 0.16056088 0.16368474 0.10892391 0.19633299 0.12915419 -0.032230668
0.18938965 -0.019078983 0.23219746 0.09209307 -0.011974279 -0.16032083 0.23206584 0.011894146
0.0009539236 -0.11117458 -0.061190635 0.13844542 -0.11323279 0.19127871 0.22281945 -0.032972004
-0.11997727 -0.009412976 0.012316621 0.022218531 -0.02144306 -0.12762742 -0.014635307 0.104904674
0.12907217 -0.01324439 0.13027221 -0.045658387 -0.02494458 -0.12371 0.12399625 -0.035630483
0.02236863 -0.14726256 0.12463641 -0.16926187 0.030147007 -0.13539165 -0.009660924 0.08574601
0.10897804 -0.14859165 -0.14365092 0.038040444 -0.056855507 -0.11406687 -0.10177585 0.1543675
0.05237986 0.16525245 0.018221544 0.10878028 0.074881844 0.006570128 0.084198825 -0.004433179
-0.13298836 0.14560592 -0.14731848 -0.05270916 0.012429134 0.223092 -0.124224715 0.04311517
0.033436313 -0.06803408 0.09466245 -0.15745835 -0.03149033 -0.17131773 -0.064748675 -0.114930935
-0.13711718 0.05667329 -0.10996807 0.05073853 -0.12838392 -0.12682742 0.15185441 0.11867877
-0.06558387 -0.09631817 0.16810143 0.17505036 0.12426213 -0.09384467 -0.15127158 0.026217762
0.22179852 -0.12715572 0.028113086 -0.15837099 -0.10476768 0.09752779 0.061978277 0.2516595
0.09176854 0.004960824 0.17814806 0.13699709 -0.12350826 -0.15052408 0.16853048 0.029580614
0.16410923 -0.10953177 0.1216852 -0.11522872 -0.10489082 0.16634342 0.13089134 0.14016792
0.2105875 -0.11864828 0.15660223 0.117103264 -0.12574914 0.20402664 0.1449593 0.19035272
-0.17441203 0.08984009 0.056504205 0.051854167 0.14614083 -0.027035983 -0.027267097 0.06317904
-0.14453484 -0.13579275 -0.2074434 -0.19762233 -0.03926904 0.13071088 -0.15692908 0.14922222
0.020585982 -0.18176535 0.14558999 0.14109477 -0.081941925 0.15773647 -0.042273138 0.07948054
0.028645186 -0.01486421 -0.13737391 0.16876848 -0.12747875 -0.10895067 0.047446195 0.027525976
0.18064271 -0.044187516 0.0012958811 -0.10794439 0.15793003 -0.17290504 -0.122381255 -0.15508965
-0.15452893 0.048537664 0.08887271 0.15101142 -0.02120524 -0.13257402 0.17830525 -0.13840325
-0.1517 0.037312936 0.15075925 0.059001207 -0.07879391 -0.09747169 0.025858153 0.059578344
-0.027503064 -0.083686315 0.084398255 0.097991005 -0.0170813 0.07122668 0.054040145 -0.0631643
-0.008296585 -0.016859403 -0.036525197 -0.013191893 -0.077804066 -0.14358081 0.030866852 0.08543705
-0.09021105 -0.015356618 0.054035272 0.010967963 0.013389672 -0.019919809 -0.02738475 -0.11134882
0.0058531947 -0.118604355 0.083178475 -0.12647177 -0.1309091 0.11372314 -0.013456483 -0.053372238
0.102184854 0.02024523 -0.030256728 0.18291675 0.13214874 -0.09316908 0.1540818 -0.1271211
0.010251499 0.0990023 0.21113461 -0.13130343 -0.111789905 -0.1690784 -0.13379017 -0.13660026
-0.105639 0.03931232 0.04193974 0.15256871 0.11390317 -0.15211155 0.018753009 -0.121695064
0.18225794 0.017288964 0.07116457 -0.1317083 0.18236935 -0.091002166 0.10387609 0.005553716
-0.029055 -0.013005877 0.18293768 0.066822276 0.08874475 -0.03296553 -0.14501438 0.15338449
00000000: fdb2 5d3e 6170 563e 126a 243e f99c 273e
00000010: 8013 df3d 840b 493e ff40 043e 4e04 04bd
00000020: 5cef 413e 874b 9cbc 2cc5 6d3e 4b9b bc3d
00000030: c42f 44bc 252b 24be aba2 6d3e aadf 423c
00000040: bb10 7a3a 80af e3bd 08a3 7abd a3c4 0d3e
00000050: 98e6 e7bd 91de 433e c82a 643e a70d 07bd
00000060: a5b6 f5bd e238 1abc a7cb 493c a303 b63c
00000070: 5ba9 afbc c3b0 02be edc8 6fbc 43d8 d63d
00000080: 7f2b 043e fffe 58bc 1466 053e 4a04 3bbd
00000090: 9358 ccbc ab5b fdbd bff1 fd3d 45f1 11bd
000000a0: 6b3e b73c ffcb 16be 6041 ff3d fc52 2dbe
000000b0: dbf6 f63c 1ca4 0abe da48 1ebc 9b9b af3d
000000c0: e12f df3d 6928 18be 3a19 13be 4cd0 1b3d
000000d0: 52e1 68bd e49b e9bd db6f d0bd 8412 1e3e
000000e0: 448c 563d f037 293e 5945 953c 32c8 de3d
000000f0: a75b 993d 3a4a d73b 6f70 ac3d 3344 91bb
00000100: 1a2e 08be b819 153e a8da 16be 8fe5 57bd
00000110: 91a3 4b3c 3b72 643e 8769 febd 8899 303d
00000120: 84f4 083d 7455 8bbd 63de c13d c33c 21be
00000130: 01fc 00bd ea6d 2fbe f49a 84bd e960 ebbd
00000140: 7268 0cbe 4022 683d f136 e1bd 34d3 4f3d
00000150: 1377 03be 0cdf 01be b97f 1b3e db0d f33d
00000160: d650 86bd 7642 c5bd c822 2c3e 6740 333e
00000170: 257d fe3d a231 c0bd f0e6 1abe a2c6 d63c
00000180: 271f 633e 1c35 02be 6a4d e63c 012c 22be
00000190: 7090 d6bd a6bc c73d efdc 7d3d 84d9 803e
000001a0: 25f1 bb3d 688e a23b 726c 363e f748 0c3e
000001b0: e6f1 fcbd fc22 1abe 4193 2c3e 0b53 f23c
000001c0: 400c 283e 3152 e0bd 1736 f93d 09fd ebbd
000001d0: 00d1 d6bd ee55 2a3e 6108 063e 2e88 0f3e
000001e0: 40a4 573e dffd f2bd 565c 203e d6d3 ef3d
000001f0: 62c4 00be 5cec 503e 3670 143e d3eb 423e
00000200: 1199 32be 15fe b73d f470 673d 0965 543d
00000210: f1a5 153e 917a ddbc 3f5f dfbc 0364 813d
00000220: f100 14be 410d 0bbe 0b6c 54be 825d 4abe
00000230: 93d8 20bd 13d9 053e 04b2 20be b6cd 183e
00000240: efa3 a83c b220 3abe 8b15 153e 267b 103e
00000250: 2bd1 a7bd ab85 213e 9926 2dbd b1c6 a23d
00000260: 4fa9 ea3c 0489 73bc bfab 0cbe a5d1 2c3e
00000270: ca89 02be 8721 dfbd f156 423d 287e e13c
00000280: 67fa 383e f8fd 34bd 8eda a93a f311 ddbd
00000290: 69b8 213e 050e 31be 06a3 fabd d2cf 1ebe
000002a0: d53c 1ebe 6ecf 463d e502 b63d bda2 1a3e
000002b0: 9db6 adbc 7cc1 07be a795 363e 95b9 0dbe
000002c0: 3f57 1bbe 73d5 183d a260 1a3e 40ab 713d
000002d0: b45e a1bd 3d9f c7bd 7ad4 d33c 6c08 743d
000002e0: 1b4e e1bc bb63 abbd fed8 ac3d 82af c83d
000002f0: 15ee 8bbc 4bdf 913d 3359 5d3d 495c 81bd
00000300: 66ee 07bc bb1c 8abc 729b 15bd cf22 58bc
00000310: bd57 9fbd d906 13be 7bdc fc3c 9ff9 ae3d
00000320: 92c0 b8bd 539a 7bbc 1754 5d3d f9b2 333c
00000330: 5b60 5b3c de2e a3bc fc55 e0bc da0a e4bd
00000340: 28cc bf3b d7e6 f2bd 7a59 aa3d d181 01be
00000350: 090d 06be ade7 e83d 9578 5cbc d99c 5abd
00000360: 4b46 d13d 53d9 a53c f5dc f7bc 874e 3b3e
00000370: 0052 073e 6ecf bebd 9fc7 1d3e 092c 02be
00000380: e7f5 273c b8c1 ca3d ac33 583e 6874 06be
00000390: 1bf2 e4bd e322 2dbe 4a00 09be f0e0 0bbe
000003a0: 4359 d8bd f505 213d 01c9 2b3d f93a 1c3e
000003b0: 1146 e93d 21c3 1bbe e99f 993c 433b f9bd
000003c0: d3a1 3a3e 96a1 8d3c bbbe 913d 8ade 06be
000003d0: 08bf 3a3e 585f babd fdbc d43d f2fb b53b
000003e0: c004 eebc 9a16 55bc 0454 3b3e 1eda 883d
000003f0: cfbf b53d dd06 07bd a67e 14be d310 1d3e

fc2.weight f4 [300, 400]
0.008995636 -0.036555663 -0.0150940325 -0.055233363 0.043605193 0.1474293 -0.08365688 -0.0035587423
0.12742904 0.015019522 -0.049571343 -0.02530344 0.040828116 0.024424285 -0.076014385 -0.018338218
-0.10060214 -0.08987156 0.0349924 -0.036599893 0.022786034 -0.032279573 0.005387645 -0.08448427
0.06273928 0.025417238 -0.082831755 0.13643861 0.06125129 -0.06457902 0.0702406 0.06831924
-0.097899444 -0.057601977 0.119216695 0.085392654 0.029239496 -0.03662833 -0.13204755 -0.040597532
0.04523228 -0.015519829 0.018594192 0.05044539 0.0054476275 0.06142689 -0.015261916 -0.058878276
0.0044070734 0.045557328 -0.021312496 -0.010744781 0.06903551 -0.01809479 -0.072579674 0.13865252
-0.041121714 0.03312025 0.016156387 -0.03729727 0.00061923184 -0.086886495 -0.08679892 -0.030272536
-0.038367685 0.04855908 -0.016197152 0.035501566 0.035428207 -0.007140444 0.09370853 0.11217229
-0.054913662 -0.047263626 -0.022749163 -0.014938595 0.015669763 -0.0075736702 -0.026253827 -0.110504344
-0.109515175 0.021101631 0.024346951 0.014440062 -0.00032995475 -0.046147455 0.0013135696 -0.056062445
-0.013643359 -0.08092477 0.02898422 -0.09612222 0.024017377 0.05011533 -0.037149705 -0.0045582703
-0.038593434 -0.02487395 -0.005291055 -0.046796333 -0.029987926 0.056292605 -0.1840796 -0.016144117
-0.15690687 0.09556345 -0.0037209932 -0.0062225685 0.04393897 -0.08026195 0.021937955 0.10750154
0.034064636 -0.12951325 -0.19981478 0.050016776 0.030426377 0.001527324 0.08472033 0.093043655
-0.08083974 -0.13709211 0.0054017813 -0.08382222 0.082993776 0.03830156 0.09498984 0.016776882
-0.073533066 -0.1372653 -0.01956965 0.036172967 0.037433732 -0.1043207 0.04265856 -0.077776246
0.011214922 -0.10894156 -0.13102853 0.0037737014 -0.039924733 0.041387454 -0.07328748 -0.0255923
0.037796367 -0.014481963 -0.059179913 -0.07208316 0.08886666 0.10617499 -0.08238406 -0.033037785
-0.106499374 0.008849443 -0.027096622 -0.07466161 -0.09192697 0.059598535 -0.049655724 0.01777025
-0.15160337 -0.13777341 0.15560456 -0.040908743 0.04455823 0.034125082 -0.004303683 -0.18903661
0.064093545 0.0676151 -0.06723972 -0.012043001 0.10380584 -0.07050996 0.09169296 -0.05528347
0.049928706 0.010359839 -0.035182852 0.037873056 -0.018391835 -0.027749823 -0.022276685 -0.008217827
-0.031615753 -0.036097493 -0.008051071 0.14433949 0.05243273 -0.035057098 0.0017332638 0.00021056617
-0.03296997 -0.1903003 0.0008360187 0.019666009 -0.006469881 -0.03059739 0.013443487 -0.08278499
-0.004021193 -0.07746267 -0.013874171 -0.008254477 0.028954191 -0.13386026 -0.13109268 -0.04058036
0.025599426 0.025367873 -0.041687995 -0.07272287 0.030863846 0.0072523225 0.050532233 0.01918347
-0.032522395 -0.07295497 -0.0630796 -0.017090676 -0.047168225 -0.04065283 0.0907101 0.030447112
-0.086208284 -0.018597448 0.035677828 -0.01989677 0.020706939 -0.0844592 -0.05131871 -0.07621036
0.0073573706 0.058561344 0.014411674 0.003591802 0.070853524 0.08191081 0.025453323 -0.026864748
-0.03193231 0.046586238 -0.027942507 0.019755723 -0.05464525 -0.04638341 0.022584636 0.016474266
-0.09541981 0.045766074 0.03371492 -0.022714732 -0.014259622 -0.028821906 -0.008799409 0.054641288
00000000: 6f62 133c 64bb 15bd f64c 77bc 613c 62bd
00000010: 5c9b 323d b5f7 163e 4c54 abbd ca39 69bb
00000020: c27c 023e 7114 763c 520b 4bbd 2949 cfbc
00000030: 623b 273d 7015 c83c 6ead 9bbd 083a 96bc
00000040: 7f08 cebd 950e b8bd 3154 0f3d c5e9 15bd
00000050: c7a9 ba3c 9637 04bd d88a b03b 1706 adbd
00000060: 747d 803d d037 d03c b2a3 a9bd 90b6 0b3e
00000070: a2e2 7a3d 0142 84bd 4eda 8f3d f5ea 8b3d
00000080: 817f c8bd 0df0 6bbd e227 f43d 58e2 ae3d
00000090: ab87 ef3c 9607 16bd 7937 07be 9949 26bd
000000a0: 7c45 393d e146 7ebc d952 983c d39f 4e3d
000000b0: 0382 b23b c39a 7b3d 1e0d 7abc 592a 71bd
000000c0: 3669 903b 529a 3a3d 8b97 aebc e10a 30bc
000000d0: 7d62 8d3d 863b 94bc a7a4 94bd edfa 0d3e
000000e0: 3e6f 28bd 19a9 073d 665a 843c 06c5 18bd
000000f0: f253 223a 8cf1 b1bd a2c3 b1bd 1cfe f7bc
00000100: 6f27 1dbd e3e5 463d e4af 84bc 176a 113d
00000110: 2b1d 113d 63fa e9bb 42ea bf3d 96ba e53d
00000120: 26ed 60bd 8197 41bd 745c babc 02c1 74bc
00000130: e05d 803c 8d2c f8bb 4412 d7bc 1a50 e2bd
00000140: 7e49 e0bd 54dd ac3c 4273 c73c 0396 6c3c
00000150: c7fd acb9 1d05 3dbd 152c ac3a bca1 65bd
00000160: 6588 5fbc e3bb a5bd 5170 ed3c badb c4bd
00000170: 17c0 c43c bb45 4d3d 4a2a 18bd 8b5d 95bb
00000180: 2614 1ebd 74c4 cbbc 9660 adbb 83ad 3fbd
00000190: 3da9 f5bc 1393 663d 5d7f 3cbe ab40 84bc
000001a0: 32ac 20be c5b6 c33d e8db 73bb b0e6 cbbb
000001b0: 59f9 333d 6160 a4bd 3ab7 b33c c429 dc3d
000001c0: 5c87 0b3d 1f9f 04be 3f9c 4cbe 64de 4c3d
000001d0: bd40 f93c 7d30 c83a da81 ad3d ac8d be3d
000001e0: 4e8f a5bd e061 0cbe 6d01 b13b fcaa abbd
000001f0: a4f8 a93d 19e2 1c3d 098a c23d ac6f 893c
00000200: 8198 96bd 468f 0cbe 8850 a0bc 1b2a 143d
00000210: 1d54 193d 17a6 d5bd beba 2e3d 2749 9fbd
00000220: cbbe 373c c11c dfbd 582c 06be 3450 773b
00000230: 1e88 23bd e485 293d bf17 96bd f1a6 d1bc
00000240: 5dd0 1a3d c145 6dbc a366 72bd 56a0 93bd
00000250: b9ff b53d 4672 d93d f9b8 a8bd a152 07bd
00000260: 581c dabd 41fd 103c bcf9 ddbc 30e8 98bd
00000270: 3544 bcbd 981d 743d cd63 4bbd ea92 913c
00000280: ea3d 1bbe 7914 0dbe cd56 1f3e ed8f 27bd
00000290: b182 363d bec6 0b3d e905 8dbb d092 41be
000002a0: 7a43 833d c979 8a3d fab4 89bd 0250 45bc
000002b0: 2898 d43d 8767 90bd 85c9 bb3d eb70 62bd
000002c0: 0b82 4c3d 50bc 293c e51b 10bd c720 1b3d
000002d0: 79aa 96bc 9953 e3bc 987d b6bc 11a4 06bc
000002e0: 857f 01bd f7da 13bd a4e8 03bc bbcd 133e
000002f0: b4c3 563d 0898 0fbd af2e e33a 6dcb 5c39
00000300: 850b 07bd 15de 42be 4428 5b3a 9c1a a13c
00000310: 4c01 d4bb 61a7 fabc 1242 5c3c 2d8b a9bd
00000320: 36c4 83bb c0a4 9ebd 7e50 63bc c93d 07bc
00000330: 5731 ed3c aa12 09be 293d 06be 9737 26bd
00000340: e3b5 d13c 49d0 cf3c 08c1 2abd baef 94bd
00000350: 2dd6 fc3c e4a4 ed3b e3fa 4e3d a726 9d3c
00000360: 3436 05bd 6a69 95bd e12f 81bd bf01 8cbc
00000370: 7833 41bd 9583 26bd 38c6 b93d 396c f93c
00000380: f88d b0bd ad59 98bc ea22 123d 8dfe a2bc
00000390: 99a1 a93c f2f8 acbd 9133 52bd 2d14 9cbd
000003a0: 1916 f13b 05de 6f3d f11e 6c3c 7064 6b3b
000003b0: a71b 913d dbc0 a73d 7d83 d03c 7613 dcbc
000003c0: 74cb 02bd 36d1 3e3d afe7 e4bc c1d6 a13c
000003d0: b3d3 5fbd 88fc 3dbd 6a03 b93c 0af5 863c
000003e0: 766b c3bd 3575 3b3d a818 0a3d 3f14 babc
000003f0: 31a1 69bc eb1b ecbc 652b 10bc 8bcf 5f3d

fc2.bias f4 [300]
0.0030994962 0.03231262 0.09604535 0.0554044 0.02768089 0.012645799 0.0037305627 -0.0671535
0.026449975 0.027018549 -0.042967655 -0.041668255 -0.029706664 0.017919952 -0.029439848 0.053766463
-0.0070408746 -0.036025677 0.07733967 0.06705635 0.042268198 0.017879466 -0.019170666 0.040365703
0.011682789 0.042773478 0.019176137 0.029009929 0.060603693 0.008313857 0.046336737 0.049050707
0.06920514 0.057390757 0.004529733 -0.016685054 0.0788007 0.015128731 0.0052621965 0.008164149
0.025136827 0.07151224 -0.0068411357 0.033357896 0.055603992 0.04609812 0.0068488414 0.013621786
-0.010482727 -0.021579206 -0.0047097346 -0.020403182 0.014546063 0.0469563 0.040202618 -0.028845415
-0.028776988 -0.00035991336 -0.01768096 0.004137395 0.028518645 0.0669679 0.010750046 0.0042892736
0.07784068 0.037780188 0.07374676 0.053156782 -0.017718721 -0.010742032 0.015598298 -0.03260923
0.0005249593 0.049965557 0.049609296 -0.04654533 0.06315372 0.041878887 0.003454774 -0.07832778
0.042697158 -0.016685244 0.010103432 -0.012611765 0.13381629 -0.041023538 0.030748926 0.0005963303
-0.01916401 -0.004758235 0.0009764716 0.055439346 -0.006650642 0.021298228 0.024472453 -0.0187907
-0.006177218 -0.014684381 0.0059194933 0.06279142 -0.033686873 0.045647588 0.060671493 0.04504335
-0.011659188 0.048549306 -0.0024377091 0.0732252 -0.07978922 0.07996428 0.016203355 0.023350965
0.055878773 0.072495505 -0.035528157 0.008314 0.023100898 -0.012742233 -0.071913645 0.01383729
0.07118898 0.041129943 -0.024790654 0.04752277 0.021694336 0.058228344 -0.004915354 -0.020409275
-0.018188853 -0.017251039 0.005746041 0.06583973 -0.00519683 0.052107405 -0.009149095 -0.021904534
0.028769894 -0.03963694 0.07486009 -0.0010666371 0.024603592 0.02536576 -0.018052384 0.013150518
0.009992973 0.023970485 -0.01505257 0.014143845 0.06786943 0.025595885 -0.023839088 0.0030202288
0.019008871 0.09380594 -0.049818978 -0.015482474 0.022342086 -0.009519271 0.0642614 0.011350226
-0.027435597 -0.015933193 0.04784642 0.05853154 -0.024641097 -0.02969852 -0.019779507 -0.0422568
-0.04292075 -0.036784306 -0.024865262 -0.010334105 0.052296363 -0.04751992 -0.0012214648 -0.002282064
-0.02835348 0.07377715 -0.04625941 -0.009202652 0.056263506 0.01141435 -0.028816657 0.0077686575
0.07959276 0.020289589 -0.0035039012 0.012974977 0.05429045 -0.03576057 -0.04611043 0.077513285
0.025093324 -0.006734498 0.0014934115 0.013392244 0.022089189 0.012895476 -0.044800956 0.032179907
-0.0034008117 -0.028840793 0.03221139 -0.046541225 -0.023292052 0.09335136 0.01875193 0.01700071
0.047718495 0.049597465 0.037641704 -0.07339022 -0.060037427 0.05732419 -0.0005379979 -0.009274293
0.061408877 0.012797888 0.036275283 0.029257644 -0.031621378 -0.018252663 0.017378468 -0.0040919976
0.0313667 0.052460276 0.06467219 -0.03804306 0.041769277 0.0014838971 -0.001880974 0.018151741
0.058115117 -0.030405067 0.07602461 0.013763443 -0.047465596 0.05325949 -0.007712943 0.026071645
0.019485978 -0.028207649 0.026468545 0.024598591 0.048304424 -0.026227763 -0.011237172 0.02329308
-0.074873924 0.04672435 0.0036584504 0.028129166 -0.11082606 0.02967928 0.06795727 0.03506103
00000000: eb20 4b3b 3d5a 043d 6db3 c43d b9ef 623d
00000010: 09c3 e23c 5330 4f3c 757c 743b c687 89bd
00000020: 9ead d83c 0156 dd3c dafe 2fbd 55ac 2abd
00000030: 645b f3bc ddcc 923c d62b f1bc 393a 5c3d
00000040: 23b7 e6bb a98f 13bd 4364 9e3d d754 893d
00000050: 6b21 2d3d f577 923c cd0b 9dbc 8256 253d
00000060: 2b69 3f3c 3e33 2f3d 4617 9d3c 3ba6 ed3c
00000070: 943b 783d d836 083c 97cb 3d3d 65e9 483d
00000080: 6dbb 8d3d 9212 6b3d 286e 943b 18af 88bc
00000090: 4362 a13d 7fde 773c 816e ac3b ecc2 053c
000000a0: bfeb cd3c 0275 923d 9b2b e0bb 4aa2 083d
000000b0: 03c1 633d 62d1 3c3d 3f6c e03b e92d 5f3c
000000c0: bebf 2bbc e0c6 b0bc 1e54 9abb 9324 a7bc
000000d0: 9c52 6e3c 4055 403d 80ab 243d 384d ecbc
000000e0: b8bd ebbc c1b2 bcb9 a9d7 90bc fc92 873b
000000f0: ef9f e93c 7726 893d f620 303c 098d 8c3b
00000100: ef6a 9f3d 66bf 1a3d 8b08 973d edba 593d
00000110: da26 91bc 59ff 2fbc 0190 7f3c 4291 05bd
00000120: 6c9d 093a afa8 4c3d 1e33 4b3d 51a6 3ebd
00000130: bd56 813d 3289 2b3d 7d69 623b 516a a0bd
00000140: 37e3 2e3d 7eaf 88bc de88 253c 94a1 4ebc
00000150: 2307 093e 4c08 28bd 2ce5 fb3c 0d53 1c3a
00000160: d8fd 9cbc f8ea 9bbb e6f9 7f3a 5e14 633d
00000170: a1ed d9bb 9f79 ae3c 747a c83c f4ee 99bc
00000180: 436a cabb c296 70bc 4ff8 c13b ca98 803d
00000190: 3ffb 09bd f7f8 3a3d ac82 783d 607f 383d
000001a0: 2e06 3fbc a3db 463d f9c1 1fbb 18f7 953d
000001b0: 8868 a3bd 50c4 a33d e6bc 843c 864a bf3c
000001c0: 24e1 643d 8678 943d f985 11bd 7237 083c
000001d0: 183e bd3c cdc4 50bc 7647 93bd cdb5 623c
000001e0: 87cb 913d df77 283d c515 cbbc 3ca7 423d
000001f0: 52b8 b13c d880 6e3d fa10 a1bb 5a31 a7bc
00000200: ca00 95bc 0d52 8dbc 4949 bc3b fbd6 863d
00000210: 2b4a aabb 936e 553d 16e6 15bc 2371 b3bc
00000220: d7ae eb3c 585a 22bd 3f50 993d 67ce 8bba
00000230: 798d c93c dbcb cf3c 98e2 93bc 4575 573c
00000240: 91b9 233c c05d c43c 0e9f 76bc 96bb 673c
00000250: 21ff 8a3d 76ae d13c 314a c3bc 08ef 453b
00000260: 7eb8 9b3c 541d c03d fc0e 4cbd 34aa 7dbc
00000270: c006 b73c b7f6 1bbc 7b9b 833d 4cf6 393c
00000280: 9ec0 e0bc 5486 82bc 9cfa 433d c5be 6f3d
00000290: 20dc c9bc 504a f3bc a208 a2bc 7715 2dbd
000002a0: abcd 2fbd 24ab 16bd 3cb2 cbbc 6150 29bc
000002b0: b634 563d 3fa4 42bd 8f19 a0ba ae8e 15bb
000002c0: 8f45 e8bc 7918 973d 827a 3dbd b8c6 16bc
000002d0: 9074 663d 4103 3b3c e910 ecbc 3990 fe3b
000002e0: 8701 a33d 5a36 a63c b5a1 65bb ff94 543c
000002f0: aa5f 5e3d ad79 12bd 4ade 3cbd 49bf 9e3d
00000300: 8490 cd3c 10ad dcbb 93be c33a 256b 5b3c
00000310: 63f4 b43c 8c47 533c 3581 37bd 14cf 033d
00000320: 27e0 5ebb 8743 ecbc 17f0 033d 03a2 3ebd
00000330: f9ce bebc ff2e bf3d a69d 993c 1345 8b3c
00000340: 7874 433d b626 4b3d 302e 1a3d 9d4d 96bd
00000350: cee9 75bd c5cc 6a3d 6e08 0dba 34f3 17bc
00000360: e087 7b3d 3cae 513c 6495 143d baad ef3c
00000370: 6b85 01bd 9c86 95bc 4a5d 8e3c 2a16 86bb
00000380: 5e7a 003d 96e0 563d da72 843d 0ad3 1bbd
00000390: 4316 2b3d 537f c23a 048b f6ba f6b2 943c
000003a0: 1e0a 6e3d 0c14 f9bc cab2 9b3d 1080 613c
000003b0: 496b 42bd 9f26 5a3d dbbc fcbb 3494 d53c
000003c0: 0fa1 9f3c ba13 e7bc 90d4 d83c fc82 c93c
000003d0: dcda 453d 9bdb d6bc 1e1c 38bc 21d1 be3c
000003e0: 8057 99bd 0862 3f3d 9dc2 6f3b 236f e63c
000003f0: c6f8 e2bd f621 f33c 2e2d 8b3d 289c 0f3d

fc3.weight f4 [4, 300]
0.102839835 -0.08661887 0.016416823 0.020906257 -0.0584032 0.003314619 0.008310033 0.05982573
0.029898748 0.06493691 -0.05578073 -0.03328525 0.025433276 -0.06151076 0.08356079 0.11056814
0.12187214 0.12245743 -0.021823497 0.061844822 0.13763726 0.08407551 -0.056481462 -0.17287499
0.055785567 0.11101294 -0.010671909 0.09173753 0.004635514 0.056593988 0.018129317 0.00611613
0.06279374 -0.04483925 -0.051163454 0.0039510224 0.06745608 0.0071327477 0.055763215 -0.054768603
-0.010221371 0.10902501 -0.011463422 -0.0138288215 -0.1038201 -0.010368911 0.022123061 -0.04294683
-0.12224199 0.050068222 0.007902675 -0.13670969 -0.07930639 0.03288782 -0.0397091 0.18119645
-0.09514511 -0.076043665 0.048704386 0.09308599 0.15201229 0.017131737 -0.055984255 0.067050695
-0.00097413565 0.039530937 0.06102238 0.0140055185 -0.025317345 -0.026974564 0.107651986 0.002456518
-0.022743106 0.0099523775 -0.0006716574 -0.07248765 -0.030682193 0.02256869 0.013594616 0.06735563
0.031762842 0.07325595 0.10169511 -0.079181485 -0.04112742 -0.034595408 -0.08607357 0.08012937
0.052407738 -0.06912481 0.00787802 0.051755447 -0.055866916 -0.00071642915 -0.09272409 0.021379909
0.07622033 -0.013018511 -0.1053211 0.13024767 -0.08954271 -0.023496605 -0.060957097 -0.12934013
-0.022269458 -0.09358596 0.07438195 -0.058405068 0.030625444 0.037022404 -0.008597426 -0.049128417
-0.026074236 0.085078426 0.058564454 0.0069541475 -0.014198437 0.020622838 0.07393101 -0.007350912
0.06617291 -0.027808536 -0.06452216 0.038772084 -0.10407333 0.113035545 0.038807586 -0.060126375
-0.108674474 -0.12069403 0.08867323 -0.06358096 -0.056881465 -0.17338642 -0.07239878 -0.07165144
0.1122172 0.116064854 0.13962162 -0.08244574 0.04249088 -0.08220615 -0.053275704 -0.017621525
-0.050242055 -0.0030522149 -0.008051648 -0.08280106 0.20073593 0.07415841 -0.013262143 -0.055624295
0.0673157 0.07989479 -0.007788871 0.099792056 0.035851464 -0.08587842 -0.013018646 -0.050501168
-0.019216906 0.0021474948 -0.018294664 0.10655526 -0.033639763 -0.0805552 -0.08259236 0.054301936
-0.05490655 -0.034865476 -0.07228803 -0.013193406 0.11690416 0.0442819 -0.036884803 0.10972289
-0.031064587 0.05832456 -0.040070567 -0.06814728 -0.08786292 0.04314033 0.0757425 -0.15412484
-0.06463501 0.061023578 -0.19525537 -0.10504493 -0.046860274 0.073622964 0.010661417 -0.11760557
0.057341788 -0.050536398 -0.011751205 0.014097656 -0.0052345693 0.10351431 0.02242495 0.041340522
-0.00011155562 -0.054864928 -0.04212287 0.033676773 -0.013862655 0.059091307 0.04348918 0.13785598
-0.11016586 -0.024714017 -0.030466132 -0.059059504 -0.086753756 -0.035538774 0.08012413 0.013388173
-0.1282343 -0.039532986 0.0868485 0.064880945 -0.017410252 -0.0075610336 -0.0209696 0.09936786
-0.081514366 0.068304576 -0.032205373 0.18709022 -0.08485105 0.04315352 0.07801289 0.035641253
0.07192627 0.030416016 -0.064657114 -0.050708167 0.03990574 0.06865964 -0.076501645 -0.10101853
0.10653934 0.074819915 0.07545758 0.026148193 -0.018873561 -0.07977128 -0.0069578607 -0.022302043
-0.021979757 0.081695914 -0.06665518 -0.019617056 -0.12333346 0.041411772 -0.019667607 0.100650035
00000000: b19d d23d 3c65 b1bd 937c 863c 9943 ab3c
00000010: 3238 6fbd 143a 593b ce26 083c d30b 753d
00000020: 38ee f43c a5fd 843d 567a 64bd 1d56 08bd
00000030: 7259 d03c b5f2 7bbd eb21 ab3d 8d71 e23d
00000040: 1a98 f93d f6ca fa3d 31c7 b2bc ff50 7d3d
00000050: c8f0 0c3e c82f ac3d 1b59 67bd 2406 31be
00000060: 687f 643d c15a e33d 3bd9 2ebc e3e0 bb3d
00000070: 83e5 973b 19cf 673d ef83 943c d169 c83b
00000080: 019a 803d 5da9 37bd c590 51bd 9477 813b
00000090: 6a26 8a3d d3b9 e93b f867 643d 0b55 60bd
000000a0: 8a77 27bc 8148 df3d 14d1 3bbc 4892 62bc
000000b0: a29f d4bd 5de2 29bc 6c3b b53c 04e9 2fbd
000000c0: 025a fabd 5614 4d3d 397a 013c a0fd 0bbe
000000d0: 636b a2bd 61b5 063d 02a6 22bd 908b 393e
000000e0: 70db c2bd c8bc 9bbd 407e 473d dea3 be3d
000000f0: 1ca9 1b3e db57 8c3c bf4f 65bd e051 893d
00000100: 235d 7fba 31eb 213d 9af2 793d 6777 653c
00000110: 5266 cfbc c3f9 dcbc a578 dc3d 88fd 203b
00000120: c04f babc 4c0f 233c 2a12 30ba 6874 94bd
00000130: 3959 fbbc f9e1 b83c f4bb 5e3c c0f1 893d
00000140: c119 023d 3707 963d 8745 d03d e729 a2bd
00000150: 3a75 28bd eab3 0dbd 5747 b0bd de1a a43d
00000160: 7fa9 563d 4f91 8dbd d012 013c 85fd 533d
00000170: b5d4 64bd bfce 3bba 21e6 bdbd eb24 af3c
00000180: 6819 9c3d 984b 55bc 97b2 d7bd a55f 053e
00000190: 2b62 b7bd f47b c0bc 26ae 79bd bd71 04be
000001a0: 706e b6bc ffa9 bfbd 9055 983d 273a 6fbd
000001b0: 36e2 fa3c cea4 173d 38dc 0cbc e13a 49bd
000001c0: a399 d5bc 993d ae3d 48e1 6f3d 9edf e33b
000001d0: 90a0 68bc 3af1 a83c 2469 973d ebdf f0bb
000001e0: aa85 873d bace e3bc 3224 84bd 7acf 1e3d
000001f0: 6624 d5bd 2e7f e73d b4f4 1e3d 1347 76bd
00000200: b990 debd 6e2e f7bd 4f9a b53d bc36 82bd
00000210: 8afc 68bd 368c 31be d045 94bd fdbd 92bd
00000220: 22d2 e53d 69b3 ed3d f8f8 0e3e 50d9 a8bd
00000230: eb0a 2e3d b35b a8bd a037 5abd 045b 90bc
00000240: 9dca 4dbd ab07 48bb 0feb 03bc 9a93 a9bd
00000250: b88d 4d3e 5de0 973d 7649 59bc 4dd6 63bd
00000260: d0dc 893d e19f a33d c939 ffbb c75f cc3d
00000270: fcd8 123d 06e1 afbd 294c 55bc 50da 4ebd
00000280: c66c 9dbc fcbc 0c3b b1de 95bc a539 da3d
00000290: d9c9 09bd 20fa a4bd 2f26 a9bd b56b 5e3d
000002a0: b1e5 60bd 1acf 0ebd bf0b 94bd 2829 58bc
000002b0: 736b ef3d f060 353d 8514 17bd 65b6 e03d
000002c0: 297b febc bce5 6e3d 0921 24bd cd90 8bbd
000002d0: 79f1 b3bd eab3 303d e21e 9b3d e7d2 1dbe
000002e0: 5c5f 84bd dcf3 793d 06f1 47be cc21 d7bd
000002f0: 8ff0 3fbd a3c7 963d 39ad 2e3c 30db f0bd
00000300: 39df 6a3d 41ff 4ebd 2088 40bc dbf9 663c
00000310: c086 abbb 50ff d33d 87b4 b73c ae54 293d
00000320: f8f2 e9b8 0cba 60bd 0889 2cbd a8f0 093d
00000330: 3020 63bc ba09 723d b621 323d 1e2a 0d3e
00000340: a39e e1bd 0d75 cabc 1c94 f9bc 61e8 71bd
00000350: f4ab b1bd 1b91 11bd 1f18 a43d 115a 5b3c
00000360: da4f 03be 57ed 21bd a0dd b13d 4de0 843d
00000370: f29f 8ebc 8cc2 f7bb 70c8 abbc 6081 cb3d
00000380: 01f1 a6bd 45e3 8b3d c8e9 03bd 9494 3f3e
00000390: 63c6 adbd bfc1 303d 39c5 9f3d 90fc 113d
000003a0: 154e 933d 022b f93c f36a 84bd 5eb3 4fbd
000003b0: 3474 233d 6d9d 8c3d e5ac 9cbd cee2 cebd
000003c0: 4c31 da3d 2f3b 993d 8189 9a3d bc34 d63c
000003d0: ba9c 9abc 205f a3bd c4fe e3bb c6b2 b6bc
000003e0: e40e b4bc 3050 a73d 8382 88bd f3b3 a0bc
000003f0: 4196 fcbd 649f 293d f61d a1bc 9b21 ce3d

fc3.bias f4 [4]
-0.021167208 0.01095052 0.01813426 0.08872334
00000000: da66 adbc cf69 333c 4d8e 943c 95b4 b53d
