p2_continuous-control_single-agent/checkpoint_critic.pth (torch_old, 542628 bytes, 5 tensors)

fcs1.weight f4 [400, 33]
0.08409338 -0.08013674 0.006114838 -0.13745917 -0.1125753 0.15815778 -0.16504154 -0.16241494
-0.07635237 -0.12244879 0.12558025 -0.06481587 -0.069189236 -0.020568563 0.16867551 -0.2291428
0.29341093 0.4067627 -0.3061442 -0.032311138 -0.039877478 0.30937696 -0.11004735 -0.011463634
0.057341922 -0.0064903186 -0.052708507 0.0044878875 0.04585118 -0.032072395 -0.034477945 0.020004634
0.24816902 -0.2193159 -0.122127175 0.021041447 -0.23135805 0.033009477 0.038208388 -0.20123364
0.019494966 -0.11675657 -0.10196962 0.020016542 -0.082302734 -0.11101702 -0.05399982 -0.00922911
-0.03648048 -0.21024401 -0.29002532 -0.1863808 0.10622824 -0.019140285 -0.09110162 0.043900505
-0.060858447 0.03323975 -0.032073688 -0.13872036 0.117649496 -0.08897511 0.031498138 -0.030499643
-0.03546477 -0.011043632 0.018314872 -0.005146319 -0.09687214 0.20059162 -0.16954534 0.16367538
0.14665446 -0.037658636 0.00032847532 -0.06623382 -0.06522036 0.03116661 0.012672162 -0.21344388
0.034836944 -0.034591835 0.24627382 0.19352373 0.11065846 0.2118134 -0.09151978 -0.03403003
-0.1984359 -0.035269104 -0.07502699 0.03813518 -0.0121243205 0.19312595 0.08726943 -0.011843462
-0.21848063 -0.022013057 0.23093145 0.042606805 0.045554306 -0.00339112 -0.02481615 0.12838359
-0.0096764425 -0.11422446 -0.11176494 -0.06234726 -0.06288876 0.047497302 -0.12811321 0.0123219695
0.112679295 0.17832187 -0.043280445 0.3507827 0.16937728 -0.08646881 -0.34941584 -0.08396532
0.088140465 -0.04067857 -0.02876108 0.013575302 -0.012167382 -0.037033126 0.118860096 -0.02537844
-0.031285264 -0.16957004 0.0010398515 -0.28248385 -0.00093313074 -0.12253697 -0.12778538 -0.013169268
0.2606244 0.23449346 0.017247235 0.15554349 -0.06536046 -0.15634249 0.14763415 0.102530785
-0.16436297 -0.02251078 0.09004501 -0.034724645 0.40837622 0.24666786 -0.25998065 -0.0446459
0.02073107 -0.08084548 -0.16629367 0.0074243494 -0.009457936 -0.036345124 0.057713583 0.012800607
-0.08982869 -0.016741253 -0.011196024 0.041545507 0.26870623 0.028248426 0.068535924 0.13117921
0.17754097 0.18903534 -0.26548466 -0.018254012 0.088942505 0.1600303 -0.04998661 0.11556907
0.038744736 -0.15121943 0.0034764628 -0.013733575 0.06256753 -0.04639572 -0.16704363 0.40343672
-0.5908121 0.08869212 -0.03771692 -0.062013533 -0.07107559 -0.04381535 0.026512528 -0.20574044
0.11692978 -0.08865377 -0.03380834 -0.085561834 0.027915943 0.07343961 0.04308605 0.12434195
0.10883932 0.021338928 -0.09536149 -0.16587326 0.10455775 -0.050118648 -0.07303257 -0.06626991
0.07827347 -0.021434681 0.0875862 -0.011704158 0.026929231 0.08963394 0.066174984 0.16030692
-0.33976048 -0.31918016 -0.025647977 0.016374713 -0.008468331 -0.07603538 0.00694512 -0.063939005
-0.11593256 0.21057253 0.053365037 -0.022260953 -0.2292691 -0.017022885 -0.04700555 0.079479106
0.103165425 -0.012977777 0.17153078 0.16779484 0.11330501 -0.13566288 0.13064955 -0.16057466
0.00054001017 -0.02200384 0.040347014 -0.02468971 0.026871521 0.14363657 -0.03972704 0.013025196
0.29863623 0.31712294 0.06447285 0.09980056 -0.053002127 0.10602595 0.0052377153 -0.037812073
00000000: 2639 ac3d bb1e a4bd fb5e c83b 19c2 0cbe
00000010: e18d e6bd 1df4 213e a600 29be 1a50 26be
00000020: a25e 9cbd 6ec6 fabd 1c98 003e 2fbe 84bd
00000030: 16b3 8dbd 677f a8bc 46b9 2c3e 69a4 6abe
00000040: f539 963e 3343 d03e efbe 9cbe af58 04bd
00000050: 9156 23bd a866 9e3e 8160 e1bd f7d1 3bbc
00000060: 5ddf 6a3d bdac d4bb e0e4 57bd 210f 933b
00000070: 72ce 3b3d 585e 03bd bf38 0dbd c2e0 a33c
00000080: 0520 7e3e 5994 60be d01d fabd 1d5f ac3c
00000090: 20e9 6cbe f234 073d 6680 1c3d 3110 4ebe
000000a0: e8b3 9f3c 121e efbd 73d5 d0bd bbf9 a33c
000000b0: 568e a8bd e45c e3bd ea2e 5dbd b135 17bc
000000c0: 8e6c 15bd 354a 57be 337e 94be 9cda 3ebe
000000d0: 318e d93d 16cc 9cbc 7c93 babd 04d1 333d
000000e0: b546 79bd 6726 083d b35f 03bd b60c 0ebe
000000f0: 38f2 f03d 9538 b6bd 3104 013d 63da f9bc
00000100: 8243 11bd 5af0 34bc 1209 963c 74a2 a8bb
00000110: e764 c6bd e467 4d3e 4b9d 2dbe 859a 273e
00000120: 962c 163e f13f 1abd 3637 ac39 99a5 87bd
00000130: 4192 85bd 1e51 ff3c e69e 4f3c 0891 5abe
00000140: 2fb1 0e3d 2bb0 0dbd 342f 7c3e 162b 463e
00000150: e7a0 e23d 9de5 583e b96e bbbd 1363 0bbd
00000160: c832 4bbe 5676 10bd c0a7 99bd a233 1c3d
00000170: 16a5 46bc cfc2 453e 51ba b23d 140b 42bc
00000180: 63b9 5fbe ba54 b4bc 4b79 6c3e 7984 2e3d
00000190: 2797 3a3d 8d3d 5ebb 3d4b cbbc fd76 033e
000001a0: f189 1ebc 84ee e9bd 04e5 e4bd d75f 7fbd
000001b0: d2cb 80bd 888c 423d 1c30 03be 16e2 493c
000001c0: 67c4 e63d 029a 363e d646 31bd ca99 b33e
000001d0: 3d71 2d3e 8f16 b1bd a2e6 b2be 02f6 abbd
000001e0: fd82 b43d 929e 26bd 5b9c ebbc f26a 5e3c
000001f0: b359 47bc 0cb0 17bd ec6c f33d 72e6 cfbc
00000200: fa24 00bd c5a3 2dbe a04b 883a b9a1 90be
00000210: 589d 74ba aaf4 fabd 2cda 02be eac3 57bc
00000220: 9070 853e 0e1f 703e 134a 8d3c cb46 1f3e
00000230: b4db 85bd 3f18 20be 682d 173e a9fb d13d
00000240: c44e 28be 8768 b8bc 8569 b83d 6e3b 0ebd
00000250: b016 d13e 8096 7c3e 2f1c 85be 9fde 36bd
00000260: 34d4 a93c 5192 a5bd e348 2abe f547 f33b
00000270: 75f5 1abc a0de 14bd 1465 6c3d a3b9 513c
00000280: 1bf8 b7bd f424 89bc 876f 37bc 9f2b 2a3d
00000290: dd93 893e 3e69 e73c 905c 8c3d d853 063e
000002a0: 4dcd 353e 7b92 413e 9bed 87be 7089 95bc
000002b0: 7d27 b63d fcde 233e c2be 4cbd 7aaf ec3d
000002c0: cdb2 1e3d 44d9 1abe 5ed5 633b ca02 61bc
000002d0: 6823 803d 7009 3ebd 7c0d 2bbe 428f ce3e
000002e0: 763f 17bf 37a4 b53d 0f7d 1abd e701 7ebd
000002f0: 1490 91bd b977 33bd cd30 d93c 9fad 52be
00000300: e178 ef3d 1c90 b5bd 9d7a 0abd 0b3b afbd
00000310: faaf e43c 8267 963d ff7a 303d fea6 fe3d
00000320: 26e7 de3d face ae3c e34c c3bd aeda 29be
00000330: 6022 d63d 3649 4dbd 1a92 95bd 85b8 87bd
00000340: d74d a03d c997 afbc 6560 b33d ccc2 3fbc
00000350: b19a dc3c 0092 b73d c086 873d 7f27 243e
00000360: 16f5 adbe 956b a3be b51b d2bc 4324 863c
00000370: c1be 0abc 70b8 9bbd e493 e33b 74f2 82bd
00000380: 0d6e edbd 53a0 573e 4c95 5a3d 9a5c b6bc
00000390: 85c5 6abe 9473 8bbc e488 40bd f1c5 a23d
000003a0: 6548 d33d bea0 54bc c4a5 2f3e 69d2 2b3e
000003b0: 750c e83d 36eb 0abe ffc8 053e af6d 24be
000003c0: 788f 0d3a 6641 b4bc e942 253d 1342 cabc
000003d0: aa21 dc3c 7715 133e d2b8 22bd a267 553c
000003e0: d9e6 983e f05d a23e 570a 843d 3c64 cc3d
000003f0: c218 59bd 2224 d93d 24a1 ab3b d5e0 1abd

fcs1.bias f4 [400]
0.1305009 0.053952996 -0.08058213 -0.054304507 0.06974032 0.067645 -0.09015989 -0.108041994
0.09512555 -0.25063103 -0.15485469 -0.033309918 -0.20303841 -0.23270224 0.10326951 -0.17065011
-0.06327575 -0.31494528 -0.074124865 0.1204819 -0.30395725 0.0070781326 0.013658024 -0.06462616
-0.24981542 0.025589885 -0.081704386 -0.15861854 -0.23412356 -0.30899012 -0.2358673 -0.02672287
0.07576218 -0.29436085 0.072334066 -0.21205908 -0.27110967 -0.23735319 0.034519453 -0.120176576
-0.26023152 -0.37351972 0.09353902 -0.2996501 -0.24049662 -0.20283346 -0.10842084 0.077625886
-0.07051025 -0.3070377 -0.18081532 -0.11181227 0.05550737 -0.17501853 -0.3365834 -0.026778474
0.06238584 -0.06684444 -0.020784127 -0.0019368958 0.06441665 -0.2922484 0.012283446 -0.15046915
-0.20707771 0.1255277 -0.23917723 -0.29893494 -0.15102632 0.08630119 -0.2869606 -0.20642866
-0.14108177 -0.18471016 -0.17483407 -0.20702404 -0.15386286 -0.17564829 -0.26686648 -0.37614667
-0.30347162 0.09169195 -0.28665328 -0.14455509 -0.13606414 -0.23018458 0.046833936 0.17827229
-0.057046533 -0.11999509 3.2983546e-05 0.03472382 0.016080724 -0.14087522 -0.35988313 -0.075788684
0.17817797 -0.18932816 0.02217844 -0.21172681 -0.2120193 0.063351326 -0.16958168 0.17636393
-0.021200614 -0.020577077 0.062542304 0.060045995 -0.18680422 -0.21716464 -0.0872286 -0.054589897
0.021098578 -0.3417741 -0.13490185 -0.31498536 -0.30929506 -0.0821823 0.07147509 0.047862925
0.10300274 -0.32629743 0.11987687 0.09920186 -0.23315148 -0.014695917 0.008107714 0.08108187
-0.16431859 0.04253234 -0.0057615796 -0.08941319 0.101262264 -0.307313 -0.21281785 -0.15401508
-0.3423941 -0.15202221 -0.40966597 -0.3174552 -0.18822865 -0.07522755 -0.32178262 -0.04585155
-0.11309808 -0.21610469 -0.003786053 0.091478854 -0.3716513 -0.050396476 -0.16756496 -0.076686725
-0.04971526 0.030154811 -0.3223314 -0.05288132 -0.13578793 -0.07238428 -0.055737708 -0.025357945
-0.107608594 -0.121310286 -0.20132145 -0.2347615 0.05531066 -0.40443897 -0.16197221 -0.3093512
-0.42266828 0.090350635 -0.036592204 0.09804923 -0.37645587 -0.4990387 0.024762036 -0.38867095
-0.19987544 -0.056708064 -0.19463171 -0.1277376 -0.24277788 -0.3356266 -0.1269373 -0.06826792
-0.41485754 -0.17988943 0.034703873 -0.032891966 -0.32181802 -0.029544165 -0.07111029 -0.20943066
-0.07555294 -0.2508984 -0.14275023 -0.1825365 -0.18918273 -0.2616693 -0.20736718 -0.24534999
-0.24304563 -0.2910306 -0.03288195 -0.101356596 -0.011284326 -0.17614599 -0.08050552 -0.33205274
-0.15992796 -0.35886732 -0.14800541 -0.23355068 -0.33232135 -0.08072025 -0.17378773 -0.1722503
0.011201343 -0.21306382 -0.27103806 0.102597035 0.06364036 -0.2908722 -0.1334799 -0.21716024
-0.3456287 -0.21033308 0.09165583 -0.28319654 -0.18132174 -0.120732665 -0.36650097 -0.34839848
-0.33942583 -0.14410876 -0.1160389 0.21827325 0.057895932 -0.1450742 -0.049236715 -0.49907207
-0.08146476 0.038241636 -0.06666132 -0.2108837 0.07705354 -0.22179416 -0.049908027 -0.16498609
-0.24405044 -0.16112223 0.08744878 -0.13339151 0.073109 -0.20675786 -0.31297377 0.1351952
00000000: 07a2 053e d1fd 5c3d 3e08 a5bd 676e 5ebd
00000010: 03d4 8e3d 7689 8a3d c0a5 b8bd 1f45 ddbd
00000020: 2fd1 c23d b652 80be 3a92 1ebe fb6f 08bd
00000030: 4de9 4fbe 7f49 6ebe f77e d33d e7be 2ebe
00000040: b796 81bd 8240 a1be c7ce 97bd 37bf f63d
00000050: 49a0 9bbe aeef e73b e8c5 5f3c b85a 84bd
00000060: 9dcf 7fbe e1a1 d13c a154 a7bd e66c 22be
00000070: 16be 6fbe f433 9ebe 3387 71be ece9 dabc
00000080: 3429 9b3d 77b6 96be e223 943d 0426 59be
00000090: e3ce 8abe b70c 73be 4564 0d3d 231f f6bd
000000a0: 113d 85be fa3d bfbe 6391 bf3d bd6b 99be
000000b0: bf44 76be 93b3 4fbe bf0b debd 52fa 9e3d
000000c0: ae67 90bd 0c34 9dbe a727 39be d5fd e4bd
000000d0: b25b 633d 0f38 33be a954 acbe 885e dbbc
000000e0: 4b88 7f3d bde5 88bd 7943 aabc 70df fdba
000000f0: e0ec 833d 95a1 95be 8240 493c 9614 1abe
00000100: 2e0c 54be 558a 003e e0ea 74be 000e 99be
00000110: a5a6 1abe aebe b03d 80ec 92be 0962 53be
00000120: bd77 10be a924 3dbe b407 33be 1cfe 53be
00000130: 3a8e 1dbe 25dd 33be b9a2 88be 4c96 c0be
00000140: a260 9bbe fdc8 bb3d 38c4 92be 4006 14be
00000150: 6654 0bbe 82b5 6bbe f1d4 3f3d 038d 363e
00000160: a0a9 69bd fcbf f5bd d057 0a38 903a 0e3d
00000170: b9bb 833c 9841 10be 9a42 b8be 1937 9bbd
00000180: 4974 363e 3edf 41be 8faf b53c eace 58be
00000190: 961b 59be 57be 813d d2a6 2dbe bf98 343e
000001a0: e9ac adbc 4291 a8bc 2e16 803d caf2 753d
000001b0: 9b49 3fbe 6860 5ebe e9a4 b2bd a899 5fbd
000001c0: edd6 ac3c 04fd aebe b623 0abe c345 a1be
000001d0: ec5b 9ebe 324f a8bd 8861 923d ea0b 443d
000001e0: 1af3 d23d 7510 a7be 0182 f53d 582a cb3d
000001f0: 43bf 6ebe 25c7 70bc 38d6 043c 400e a63d
00000200: 2243 28be 6436 2e3d a2cb bcbb 431e b7bd
00000210: 9762 cf3d 2158 9dbe ecec 59be 21b6 1dbe
00000220: 484e afbe b6ab 1bbe bdbf d1be 7d89 a2be
00000230: 03bf 40be e710 9abd b1c0 a4be d6ce 3bbd
00000240: f79f e7bd 8c4a 5dbe 6e1f 78bb 4459 bb3d
00000250: 1449 bebe 896c 4ebd 2696 2bbe ee0d 9dbd
00000260: 3aa2 4bbd 3907 f73c 9f08 a5be 159a 58bd
00000270: fe0b 0bbe 363e 94bd 394d 64bd 77bb cfbc
00000280: e561 dcbd 8771 f8bd 3627 4ebe 5265 70be
00000290: 6e8d 623d a012 cfbe 0bdc 25be 4863 9ebe
000002a0: fa67 d8be c109 b93d b5e1 15bd 09ce c83d
000002b0: d3be c0be 0082 ffbe c1d9 ca3c e1ff c6be
000002c0: 26ac 4cbe b746 68bd 894d 47be a5cd 02be
000002d0: c49a 78be 40d7 abbe dafb 01be 0dd0 8bbd
000002e0: 3568 d4be ef34 38be a625 0e3d bab9 06bd
000002f0: 55c5 a4be 9b06 f2bc 46a2 91bd fe74 56be
00000300: 80bb 9abd c175 80be 1e2d 12be d9ea 3abe
00000310: 1eb9 41be 85f9 85be 1058 54be 073d 7bbe
00000320: f4e0 78be f601 95be 39af 06bd 0c94 cfbd
00000330: e5e1 38bc 9d5f 34be 14e0 a4bd d102 aabe
00000340: 28c4 23be 75bd b7be bb8e 17be e927 6fbe
00000350: 0626 aabe a950 a5bd 69f5 31be 6262 30be
00000360: d685 373c 672d 5abe 80c5 8abe 651e d23d
00000370: e155 823d 33ed 94be f4ae 08be 415f 5ebe
00000380: 3ff6 b0be 8e61 57be 0db6 bb3d 23ff 90be
00000390: 68ac 39be b042 f7bd 04a6 bbbe 4961 b2be
000003a0: 39c9 adbe 3f91 13be cea5 edbd 0683 5f3e
000003b0: 4924 6d3d 558e 14be 70ac 49bd 6086 ffbe
000003c0: ffd6 a6bd 43a3 1c3d bb85 88bd e6f1 57be
000003d0: 3fce 9d3d 021e 63be 5c6c 4cbd 1df2 28be
000003e0: 5ce8 79be 3afd 24be 5918 b33d c997 08be
000003f0: 2cba 953d 55b8 53be 193e a0be 9c70 0a3e

fc2.weight f4 [300, 404]
-0.05741739 -0.05048161 -0.027254948 0.0040788352 -0.012182962 -0.13823447 -0.06032739 -0.065338515
0.02096899 -0.031535883 -0.059261348 -0.05320424 -0.044686444 -0.028291522 -0.037303276 -0.036613293
-0.023510024 0.034109246 0.018793598 -0.002855375 -0.032092314 0.020771964 0.047038797 -0.0064878846
-0.03564445 -0.06282842 0.0054210983 -0.025334243 -0.06364932 -0.038573693 -0.06312141 -0.051758576
-0.0980715 -0.07480003 -0.012522397 -0.02255014 0.0040716496 -0.062435538 -0.10619674 -0.080185205
0.026976148 0.026944466 -0.059046432 0.004954609 0.028492529 -0.052235924 0.01051332 -0.02148747
0.030649327 0.0042064437 0.026397755 -0.0595591 -0.027525464 -0.048777845 -0.02559519 -0.054287042
-0.022875415 -0.048438877 -0.005257098 -0.066323206 -0.024277672 0.04010103 -0.023130989 -0.030201767
-0.055590723 -0.027248109 -0.029992715 -0.087840855 -0.023112034 -0.009694771 0.0027452048 0.017168747
-0.030098442 -0.0034215203 0.01909 -0.047237057 -0.03928902 -0.09008512 -0.021441044 -0.05522161
-0.05226142 -0.024977213 -0.0075395717 0.04558535 -0.059465695 0.015739858 -0.017945718 -0.061186746
0.040253107 0.01329781 0.025844762 -0.015287917 -0.07050122 -0.030776186 0.041558523 -0.010477402
0.049712 0.016218241 0.020470895 -0.02342625 0.013805483 -0.036789335 0.025085464 -0.06287585
-0.10153858 -0.046167385 -0.07331611 0.003950382 -0.013691764 0.006505548 0.010952986 -0.01133379
-0.035050865 -0.02293468 -0.06393697 -0.03182758 -0.0578895 -0.041181512 -0.044107188 -0.09151356
0.045251478 -0.00031277857 0.0077859196 -0.023428455 -0.023038428 -0.020576838 0.018685116 -0.05375618
-0.059915204 -0.021944296 -0.002779524 -0.033005953 0.022090582 0.013251575 -0.063062586 0.0014925428
-0.015332677 -0.019524014 -0.05694192 0.036787435 0.04128102 -0.034124866 0.032163102 -0.063874505
0.043135423 -0.011018878 0.02304453 -0.07562817 -0.04960003 -0.0010409016 -0.032866325 -0.033377517
0.01792489 -0.02997148 -0.021613106 0.021668388 -0.026444359 -0.0050935317 -0.029104603 -0.065100364
-0.029137725 -0.01260445 0.01557155 0.02169328 -0.039144684 -0.03846645 0.00964118 -0.045317836
0.015484764 -0.04988146 -0.04880683 -0.0032073497 -0.061655067 -0.026536426 -0.0930482 -0.061232492
-0.05278148 -0.0073524523 -0.004275037 -0.010217489 0.028094376 0.038595304 -0.021879463 -0.0075043654
0.020845953 -0.05950369 -0.0018781654 -0.05208498 0.02555914 -0.07038742 -0.04741245 -0.055017073
-0.02109354 -0.0011026113 -0.07318899 -0.06407129 -0.036170624 0.028555814 -0.046270367 0.04043105
-0.010842306 -0.004326888 -0.044991307 -0.018124053 -0.058712352 -0.010458235 0.011553935 0.0023458502
-0.010711207 -0.041303407 0.021952208 -0.032572284 -0.051384453 -0.04698881 -0.053071737 -0.046653625
-0.033949364 -0.03427556 -0.04218647 -0.017845416 0.011443656 -0.05048143 -0.053410925 -0.04267825
-0.021681417 -0.028340014 -0.023536494 -0.03947751 -0.0038934867 -0.019505957 -0.0094490675 -0.022102442
0.010436136 -0.017586945 -0.061793722 -0.054368436 0.038206685 -0.0574052 -0.11264186 0.036017768
0.007633654 -0.0030063228 0.024922704 -0.03283031 -0.00338789 0.0154969385 0.03920222 -0.03662645
-0.05855916 -0.0046527795 0.022177175 0.03362645 -0.03421839 0.00744023 -0.01772099 -0.028903076
00000000: 7f2e 6bbd cec5 4ebd c545 dfbc c0a7 853b
00000010: 0c9b 47bc 568d 0dbe da19 77bd 33d0 85bd
00000020: 29c7 ab3c c52b 01bd 07bc 72bd b0ec 59bd
00000030: 2209 37bd 9fc3 e7bc 52cb 18bd d2f7 15bd
00000040: 1898 c0bc 23b6 0b3d 08f5 993c 3e21 3bbb
00000050: 3b73 03bd f729 aa3c c1ab 403d 5298 d4bb
00000060: eaff 11bd 30ac 80bd 78a3 b13b c289 cfbc
00000070: 935a 82bd 73ff 1dbd cc45 81bd cd00 54bd
00000080: b6d9 c8bd c230 99bd bd2a 4dbc 12bb b8bc
00000090: 796b 853b 68bc 7fbd ad7d d9bd 2438 a4bd
000000a0: 15fd dc3c a4ba dc3c acda 71bd 465a a23b
000000b0: 2a69 e93c 56f5 55bd 0f40 2c3c 7e06 b0bc
000000c0: 4c14 fb3c 35d6 893b 1b40 d83c 3ef4 73bd
000000d0: 157d e1bc 47cb 47bd 01ad d1bc 175c 5ebd
000000e0: 3965 bbbc d867 46bd bc43 acbb 76d4 87bd
000000f0: f8e1 c6bc fa40 243d 337d bdbc b269 f7bc
00000100: 19b3 63bd 6d37 dfbc 48b3 f5bc e8e5 b3bd
00000110: 7355 bdbc d1d6 1ebc e5e8 333b 79a5 8c3c
00000120: 0291 f6bc 963b 60bb a262 9c3c a57b 41bd
00000130: 86ed 20bd 8c7e b8bd 21a5 afbc 0e30 62bd
00000140: 1210 56bd 039d ccbc 830e f7bb b4b7 3a3d
00000150: 4d92 73bd e0f0 803c e602 93bc f49e 7abd
00000160: 71e0 243d 0fdf 593c 65b8 d33c 2c7a 7abc
00000170: f262 90bd 571e fcbc 4539 2a3d 69a9 2bbc
00000180: cf9e 4b3d 1edc 843c 94b2 a73c 68e8 bfbc
00000190: 6430 623c 6ab0 16bd 0880 cd3c 0ec5 80bd
000001a0: 76f3 cfbd 031a 3dbd c226 96bd 3572 813b
000001b0: 6c53 60bc 7e2c d53b 2774 333c 5cb1 39bc
000001c0: 7f91 0fbd 83e1 bbbc 63f1 82bd a35d 02bd
000001d0: 8a1d 6dbd f2ad 28bd bda9 34bd 766b bbbd
000001e0: 9d59 393d 6efc a3b9 0721 ff3b 08ed bfbc
000001f0: 16bb bcbc c290 a8bc 8711 993c 712f 5cbd
00000200: a569 75bd 86c4 b3bc ad28 36bb 4031 07bd
00000210: 4ff7 b43c 221d 593c f526 81bd 6da1 c33a
00000220: e935 7bbc d3f0 9fbc ee3b 69bd 6cae 163d
00000230: 4916 293d 84c6 0bbd 75bd 033d a3d0 82bd
00000240: c5ae 303d 8688 34bc e2c7 bc3c f1e2 9abd
00000250: 6729 4bbd dd6e 88ba d79e 06bd ddb6 08bd
00000260: 38d7 923c c086 f5bc f80d b1bc e781 b13c
00000270: d7a1 d8bc a4e7 a6bb c76c eebc 5753 85bd
00000280: 3db2 eebc e582 4ebc d01f 7f3c 1bb6 b13c
00000290: 2d56 20bd ff8e 1dbd 0af6 1d3c 329f 39bd
000002a0: cfb3 7d3c 8050 4cbd ace9 47bd 6632 52bb
000002b0: 068a 7cbd eb62 d9bc 0e90 bebd ecce 7abd
000002c0: 6531 58bd d7ec f0bb 9c15 8cbb 4167 27bc
000002d0: 2d26 e63c 1c16 1e3d 8f3c b3bc 2ee7 f5bb
000002e0: 22c5 aa3c 24ba 73bd c62c f6ba 0f57 55bd
000002f0: 6761 d13c 4827 90bd 8f33 42bd 9559 61bd
00000300: 5ccc acbc 7f85 90ba 1ce4 95bd cf37 83bd
00000310: a627 14bd e2ed e93c ff85 3dbd 079b 253d
00000320: eda3 31bc 91c8 8dbb ce48 38bd e578 94bc
00000330: 5d7c 70bd 0459 2bbc b74c 3d3c d6bc 193b
00000340: 0f7e 2fbc c32d 29bd 1ed5 b33c 846a 05bd
00000350: 8178 52bd 5777 40bd c061 59bd df17 3fbd
00000360: 7d0e 0bbd 8864 0cbd b8cb 2cbd 8d30 92bc
00000370: 2c7e 3b3c 9ec5 4ebd 6ac5 5abd 64cf 2ebd
00000380: 3a9d b1bc 5129 e8bc 9bcf c0bc 2bb3 21bd
00000390: de29 7fbb f5ca 9fbc 43d0 1abc 2e10 b5bc
000003a0: 54fc 2a3c 7f12 90bc 6a1b 7dbd 70b1 5ebd
000003b0: 9d7e 1c3d b721 6bbd c7b0 e6bd 5e87 133d
000003c0: bb23 fa3b ba05 45bb b32a cc3c 1379 06bd
000003d0: 5d07 5ebb dfe6 7d3c 8292 203d 9e05 16bd
000003e0: bbdb 6fbd 5876 98bb e8ac b53c e3bb 093d
000003f0: 9528 0cbd 2ccd f33b 9c2b 91bc 25c6 ecbc

fc2.bias f4 [300]
-0.06616952 -0.029347543 0.12784664 -0.011381175 0.043023277 0.12066227 0.0100514265 -0.03884669
-0.074777685 0.006972771 -0.068199 -0.021526579 0.02373074 -0.046757553 -0.06839212 -0.054445855
0.012247631 -0.087023646 -0.048306283 -0.054736473 -0.029219706 -0.05933134 -0.03357928 -0.048097983
-0.008186118 0.0440269 -0.04555273 0.0028361408 -0.064811714 -0.057144098 -0.055953935 -0.021330826
-0.04897712 -0.09557603 -0.0036539852 -0.016466398 -0.018416328 -0.061668683 -0.06842691 0.0032900355
-0.035891317 0.009233357 0.026637837 -0.04736891 -0.06894496 0.0040137055 -0.031628165 -0.04549963
-0.037576783 0.011472935 0.106487416 0.008529659 -0.029989092 -0.032400984 -0.095926724 -0.0058097085
0.022090396 -0.02899074 -0.0072029876 -0.040848304 -0.070112064 -0.01763432 0.016622374 -0.022367824
-0.06708686 -0.048306208 0.023458114 -0.023645481 0.0051259687 0.029774595 -0.05066831 0.00076245127
-0.050557703 -0.0031916348 -0.031937514 -0.0284376 -0.009329069 0.010488894 -0.04229083 0.115104355
-0.07653879 -0.029340506 -0.046196677 -0.057866473 -0.053101797 -0.050647736 -0.091937825 -0.08964081
-0.022523526 -0.037282445 -0.010518243 -0.062430274 -0.054671478 -0.05516392 -0.04100179 -0.050127015
0.007226496 -0.04032731 0.0012973262 -0.00041620893 -0.048255675 0.03970139 -0.049980637 0.07175629
-0.057437353 -0.0401316 -0.0056663337 -0.03229036 -0.041832402 -0.006522311 -0.008616945 -0.071832396
-0.033527132 0.0064713787 -0.03007332 0.08878201 -0.028385187 0.0013165787 0.11494178 -0.04782636
-0.06621652 -0.005912383 0.0013459438 -0.06690676 -0.024050685 -0.085294254 -0.06681662 -0.048208836
0.13029622 -0.104749806 -0.08362098 0.017814808 -0.03181253 0.12650113 -0.0717453 -0.0034692693
-0.05460771 -0.0667883 -0.008755343 -0.060061436 -0.06969199 -0.010731219 -0.01310195 -0.014000695
-0.049169414 -0.023072734 -0.07746337 -0.0038154642 0.010669717 0.06014341 -0.04092023 0.020739686
-0.058538873 -0.022444174 -0.061268307 -0.06569904 0.040598277 -0.0113162 0.024573596 0.010529215
-0.054272443 -0.086387776 -0.033335574 0.055934384 -0.085700795 -0.06827345 -0.0061385417 -0.06020655
0.052402914 -0.023963258 -0.01815744 -0.03145686 0.0048047313 -0.058354963 0.043418124 -0.049003597
-0.047573507 -0.007849786 -0.020789362 -0.0070979507 -0.030198177 -0.07815858 -0.012530172 -0.018554047
-0.08220224 -0.015562145 -0.052866705 -0.05276565 -0.045299646 -0.0537033 -0.012363478 -0.0025808942
-0.048989672 0.06649964 -0.012203073 0.034399126 -0.039906077 -0.03588385 0.016161568 0.01849978
-0.031676482 0.057400238 0.01807334 -0.026865888 -0.042233646 -0.055426076 -0.035635583 -0.05864868
0.10735672 0.005428124 0.022657592 -0.020773573 0.09351355 0.017433114 -0.056561604 -0.06278596
0.15023005 0.14704187 0.007571849 -0.071654834 -0.009784346 -0.058066964 -0.041123006 0.0374121
-0.020617971 -0.06428871 -0.043865792 -0.06607726 -0.07994364 -0.027192632 -0.056144826 -0.019177074
0.042704817 -0.006488889 -0.07424293 -0.0034827364 -0.009706436 -0.008119819 -0.027102934 -0.027835375
-0.027478782 -0.1112053 -0.05144216 -0.066635 -0.06881181 -0.0021259189 0.012695261 -0.024370553
-0.0027108756 -0.03032186 -0.0772706 -0.034645393 -0.06436303 0.001720192 0.0009019473 -0.08399436
00000000: e383 87bd 426a f0bc 3bea 023e 1c78 3abc
00000010: 2d39 303d c81d f73d bdae 243c b51d 1fbd
00000020: 0b25 99bd d87b e43b ebab 8bbd 8258 b0bc
00000030: f866 c23c d984 3fbd 2b11 8cbd 9e02 5fbd
00000040: 4aaa 483c 7439 b2bd cfdc 45bd 5a33 60bd
00000050: 2a5e efbc 6b05 73bd 6d8a 09bd 6402 45bd
00000060: 111f 06bc 8d55 343d 8095 3abd 8cde 393b
00000070: 01bc 84bd ee0f 6abd f42f 65bd fcbd aebc
00000080: 3c9c 48bd 5ebd c3bd b377 6fbb 8ae4 86bc
00000090: d7dd 96bc 4d98 7cbd 6823 8cbd a39d 573b
000000a0: c602 13bd 8247 173c 9837 da3c e705 42bd
000000b0: 0433 8dbd 6785 833b 898c 01bd d25d 3abd
000000c0: 1dea 19bd faf8 3b3c 1316 da3d fcbf 0b3c
000000d0: afab f5bc e5b6 04bd 3b75 c4bd 5e5f bebb
000000e0: ebf6 b43c fd7d edbc 0a07 ecbb 8d50 27bd
000000f0: ea96 8fbd d975 90bc a52b 883c ba3c b7bc
00000100: d664 89bd bbdc 45bd 3b2b c03c 2bb4 c1bc
00000110: bef7 a73b dae9 f33c 9389 4fbd 3ddf 473a
00000120: 9815 4fbd bf2a 51bb e9d0 02bd f8f5 e8bc
00000130: f4d8 18bc 9cd9 2b3c 2639 2dbd d5bb eb3d
00000140: 5ec0 9cbd 805b f0bc ba38 3dbd 6505 6dbd
00000150: 4581 59bd 0074 4fbd e649 bcbd 9a95 b7bd
00000160: 4283 b8bc 7ab5 18bd b554 2cbc e3b6 7fbd
00000170: 33ef 5fbd 90f3 61bd 7ef1 27bd fc51 4dbd
00000180: 3ecc ec3b 402e 25bd 0b0b aa3a 9e36 dab9
00000190: bea7 45bd ed9d 223d 7fb8 4cbd f6f4 923d
000001a0: 6e43 6bbd 0861 24bd a7ac b9bb e642 04bd
000001b0: 7458 2bbd 1cb9 d5bb 162e 0dbc dd1c 93bd
000001c0: bf53 09bd dc0d d43b 535c f6bc 58d3 b53d
000001d0: 0d88 e8bc 0d91 ac3a 9966 eb3d 93e5 43bd
000001e0: 879c 87bd aabc c1bb 616a b03a 6906 89bd
000001f0: f105 c5bc c1ae aebd 27d7 88bd a176 45bd
00000200: 5f6c 053e 1187 d6bd 7a41 abbd 5cf0 913c
00000210: db4d 02bd 8389 013e 33ef 92bd ae5c 63bb
00000220: 56ac 5fbd 4ec8 88bd 9272 0fbc fb02 76bd
00000230: adba 8ebd ffd1 2fbc 90a9 56bc 2c63 65bc
00000240: de65 49bd 0803 bdbc 1ea5 9ebd de0c 7abb
00000250: 09d0 2e3c f058 763d f99b 27bd 46e6 a93c
00000260: 75c6 6fbd d8dc b7bc 7af4 7abd 388d 86bd
00000270: 614a 263d 9567 39bc 914e c93c bb82 2c3c
00000280: c84c 5ebd 13ec b0bd e28a 08bd 741b 653d
00000290: e683 afbd f3d2 8bbd d225 c9bb 259b 76bd
000002a0: 70a4 563d 984e c4bc e9be 94bc e9d8 00bd
000002b0: 0271 9d3b 9d05 6fbd 34d7 313d ffb7 48bd
000002c0: 70dc 42bd 649c 00bc 744e aabc ed95 e8bb
000002d0: 2b62 f7bc 9b11 a0bd 5a4b 4dbc a8fe 97bc
000002e0: a659 a8bd 5ef8 7ebc c28a 58bd cb20 58bd
000002f0: 1f8c 39bd fef7 5bbd 2f90 4abc 3824 29bb
00000300: 65a9 48bd f730 883d 66ef 47bc 19e6 0c3d
00000310: 8e74 23bd f2fa 12bd 4465 843c da8c 973c
00000320: 33bf 01bd 831c 6b3d 8b0e 943c da15 dcbc
00000330: 30fd 2cbd 7406 63bd 9ef6 11bd 9939 70bd
00000340: d7dd db3d 68de b13b 6a9c b93c 572d aabc
00000350: 0884 bf3d e4cf 8e3c 24ad 67bd ed95 80bd
00000360: e8d5 193e 2592 163e 461d f83b c5bf 92bd
00000370: 864e 20bc a0d7 6dbd 9970 28bd 6e3d 193d
00000380: 05e7 a8bc cda9 83bd 9eac 33bd 8453 87bd
00000390: 7eb9 a3bd 15c3 debc 1ef8 65bd 3d19 9dbc
000003a0: 3feb 2e3d bfa0 d4bb ad0c 98bd 9f3e 64bb
000003b0: be07 1fbc fd08 05bc f906 debc 0307 e4bc
000003c0: 2f1b e1bc 9bbf e3bd 04b5 52bd ee77 88bd
000003d0: 35ed 8cbd 0053 0bbb c9ff 4f3c c1a4 c7bc
000003e0: f2a8 31bb 8d65 f8bc 0c40 9ebd 54e8 0dbd
000003f0: c4d0 83bd 1178 e13a a970 6c3a 3c05 acbd

fc3.weight f4 [1, 300]
0.008041614 0.004643439 -0.02080114 0.02686532 0.0025092533 -0.010487403 -0.0023041477 0.016058438
0.011291738 -0.028582733 -0.010349508 -0.0024115888 0.0037381812 -0.025835373 -0.0014290196 -0.025116928
0.0048031225 0.022283968 0.00177073 0.001343072 0.012540233 0.0030465764 0.003156042 0.005909479
-0.008831124 -0.016593164 -0.015455442 -0.0014693056 0.0013591091 -0.0163767 -0.0055912724 -0.0002441562
-0.011902904 -0.0107338 0.03489692 -0.0033777754 -0.0075880797 0.0021391674 -0.0046806973 -0.0010654485
0.0016340121 -0.0049619614 0.0006360833 0.00486783 0.022828273 0.021478795 0.008252508 -0.002100198
0.0011093615 0.0004149741 -0.019650204 0.03310515 0.0026119642 0.0067726453 -0.007508452 -0.0016504247
-0.016030636 0.0014145097 -4.5766832e-05 -0.0038005768 0.0027154235 0.00096964947 -0.010472497 0.004061943
0.0012241233 -0.008845634 0.021469729 -0.0011539288 -0.0017624442 -0.0043286616 -0.020564016 -0.011816443
-0.009870791 0.007139565 -0.00116643 0.0004025026 0.0013702563 -0.011096665 -0.010653684 0.034024205
0.009975834 -0.002507626 0.00029859244 -0.016630996 0.015952792 -0.021870293 0.020596733 -0.02374694
-0.0047242064 0.0019896151 0.005559169 0.0009860189 0.006110939 -0.007839154 -0.003780812 0.011563014
0.009232035 -0.009588266 -0.020508353 0.01423481 0.00068532315 0.004376236 -0.008099031 0.046892054
-0.013867239 0.01007204 0.0012462261 -0.0024816403 0.0045053866 0.0013459602 -0.009064512 0.0010158467
0.0014911845 0.009869436 0.026429417 0.00075791037 -0.0007301912 -0.0034857574 -0.016028516 0.014975041
0.0006113038 -0.009733326 -0.021771127 0.0008017707 0.0019023136 0.0052780244 0.010592336 0.0011731995
-0.011363593 -0.008573527 0.001352514 -0.0005989432 0.0010043245 -0.012485449 0.00326698 -0.007964856
0.006309671 0.013415638 -0.0034356366 0.008045065 0.0050061597 -0.0013048757 0.020041129 -0.0028499255
-0.007271354 0.0021355364 0.0022564752 0.026887527 -0.001775217 -0.010809055 0.01986883 -0.0019616815
-0.0019836747 -0.0051503074 0.00018107804 0.0022971423 -0.0076002562 -0.0068744477 -0.006319639 -0.010609466
0.022210484 -0.011852719 -0.015881198 -0.016835311 -0.034790378 -0.010903326 -0.009291365 0.017854951
-0.01432598 -0.0019364138 -0.0012838389 5.4554916e-05 0.018020524 0.0010842218 -0.014775729 0.0039245766
0.0043900968 -0.000499952 0.0026227704 0.001606539 0.0208875 -0.0026495515 -0.0044892505 -0.00011981657
0.018288726 -0.0018330186 0.015772544 -0.024537763 0.0009520105 0.011813688 -0.0047478923 -0.0034038
-0.003587094 0.0008788195 0.0046941633 -0.028751798 0.006245014 -0.01923858 -0.010288685 -0.00016761979
-0.0051594963 0.011432569 0.0019630222 -0.0032228346 0.0015854965 -0.009625732 -0.011676035 0.019268224
-0.019662779 -0.0026594216 -0.010734099 0.00041133742 0.046970222 0.0015762264 0.0035484259 0.013468792
-0.016010584 -0.024516845 -0.006972817 -0.0089477915 0.0034141617 0.0026661307 0.014507275 0.021709928
0.0016706785 -0.003637891 0.0073070806 -0.0027910394 0.032283876 -0.0047900155 -0.003932838 0.0037691498
0.03785213 -0.0011635019 -0.0046151984 -0.0024107394 0.0099210385 -0.002269053 0.0020916986 0.0014230142
-0.007103741 0.00910979 -0.021263765 -0.008636773 -0.019238764 -0.019823188 0.001745481 0.013916807
-0.013843051 -0.0018458348 -0.0014156313 0.004231309 -0.008892199 0.009273721 0.022403307 -0.033881865
00000000: f9c0 033c fd27 983b 2767 aabc a914 dc3c
00000010: 4972 243b 5bd3 2bbc 2f01 17bb fc8c 833c
00000020: fb00 393c 5626 eabc fc90 29bc bf0b 1ebb
00000030: 46fc 743b b4a4 d3bc f14d bbba 04c2 cdbc
00000040: 8363 9d3b de8c b63c d717 e83a 050a b03a
00000050: 8d75 4d3c 12a9 473b 99d5 4e3b 4ea4 c13b
00000060: 6bb0 10bc 63ee 87bc d238 7dbc b795 c0ba
00000070: 2224 b23a 6e28 86bc fe36 b7bb 1702 80b9
00000080: 6604 43bc d2dc 2fbc 13f0 0e3d ab5d 5dbb
00000090: 6da5 f8bb 4631 0c3b 8960 99bb 85a6 8bba
000000a0: 592c d63a f397 a2bb d4be 263a 5182 9f3b
000000b0: 5c02 bb3c 4cf4 af3c 8735 073c 7aa3 09bb
000000c0: ff67 913a e290 d939 77f9 a0bc 4499 073d
000000d0: 7d2d 2b3b 11ed dd3b 7609 f6bb 1053 d8ba
000000e0: ae52 83bc 1267 b93a c3f5 3fb8 1913 79bb
000000f0: 3ff5 313b 1330 7e3a d694 2bbc 0c1a 853b
00000100: c372 a03a 47ed 10bc 49e1 af3c 6d3f 97ba
00000110: d001 e7ba 72d7 8dbb de75 a8bc c199 41bc
00000120: 19b9 21bc 03f3 e93b e5e2 98ba fc06 d339
00000130: 2c9a b33a c9ce 35bc ca8c 2ebc f75c 0b3d
00000140: ae71 233c fc56 24bb 668c 9c39 ba3d 88bc
00000150: 6eaf 823c 5429 b3bc 7bba a83c f188 c2bc
00000160: 84cd 9abb 3464 023b b129 b63b 4e3d 813a
00000170: 463e c83b cc6f 00bc 80c7 77bb cc72 3d3c
00000180: f641 173c 1a18 1dbc 2201 a8bc 1f39 693c
00000190: 42a7 333a 8766 8f3b ccb1 04bc e211 403d
000001a0: 6a33 63bc 3305 253c 6958 a33a 04a3 22bb
000001b0: eca1 933b ee6a b03a 5283 14bc 2926 853a
000001c0: d973 c33a 6ab3 213c 8182 d83c 81ae 463a
000001d0: 4d6a 3fba 4e71 64bb 3c4e 83bc e059 753c
000001e0: e73f 203a 8778 1fbc 5d59 b2bc ec2d 523a
000001f0: 0d57 f93a 47f3 ac3b 7a8b 2d3c 0bc6 993a
00000200: 5d2e 3abc fb77 0cbc d746 b13a 6602 1dba
00000210: 8aa3 833a c58f 4cbc d41a 563b 077f 02bc
00000220: 5bc1 ce3b 44cd 5b3c 6b28 61bb 73cf 033c
00000230: b60a a43b 5d08 abba 4b2d a43c d1c5 3abb
00000240: 8a44 eebb 5bf4 0b3b 5fe1 133b 3b43 dc3c
00000250: 66ae e8ba 7618 31bc f5c3 a23c 8e8f 00bb
00000260: 8a00 02bb e9c3 a8bb c4df 3d39 a78b 163b
00000270: 920b f9bb 0c43 e1bb f914 cfbb 53d3 2dbc
00000280: c3f2 b53c e831 42bc 4919 82bc 35ea 89bc
00000290: 5b80 0ebd dda3 32bc cf3a 18bc 8c44 923c
000002a0: 84b7 6abc 44cf fdba 7c46 a8ba e5d1 6438
000002b0: c79f 933c 721c 8e3a e615 72bc bc99 803b
000002c0: cdda 8f3b 360f 03ba c9e2 2b3b 8192 d23a
000002d0: 431c ab3c 19a4 2dbb 901a 93bb 0846 fbb8
000002e0: 3dd2 953c e641 f0ba 6c35 813c 6b03 c9bc
000002f0: 5890 793a 338e 413c 3594 9bbb 4a12 5fbb
00000300: 7315 6bbb 9460 663a 7fd1 993b e488 ebbc
00000310: f9a2 cc3b 3a9a 9dbc df91 28bc 18c3 2fb9
00000320: fe10 a9bb ab4f 3b3c 0ca6 003b 3136 53bb
00000330: 6fd0 cf3a 3fb5 1dbc d74c 3fbc 65d8 9d3c
00000340: d613 a1bc b149 2ebb 13de 2fbc c6a8 d739
00000350: d963 403d 6299 ce3a b58c 683b 35ac 5c3c
00000360: a128 83bc 8dd7 c8bc 3a7c e4bb c299 12bc
00000370: 21c0 5f3b 40ba 2e3b ecaf 6d3c 05d9 b13c
00000380: abfa da3a af69 6ebb 3c70 ef3b dfe9 36bb
00000390: 193c 043d 90f5 9cbb 09df 80bb d703 773b
000003a0: d60a 1b3d a580 98ba 173b 97bb 7ffd 1dbb
000003b0: da8b 223c 64b4 14bb e114 093b 6f84 ba3a
000003c0: 80c6 e8bb 3b41 153c 5931 aebc 4081 0dbc
000003d0: 9d9a 9dbc 3d64 a2bc a0c8 e43a 5203 643c
000003e0: f7cd 62bc f0ef f1ba b48c b9ba cba6 8a3b
000003f0: 96b0 11bc cef0 173c 2487 b73c b6c7 0abd
