p2_continuous-control_single-agent/checkpoint_actor.pth (torch_old, 541437 bytes, 6 tensors)

fc1.weight f4 [400, 33]
0	0x3d07a982	0.03312064
1	0x3da18613	0.07886901
2	0xbd4dc9ae	-0.050241165
3	0xbd9cd230	-0.076572776
4	0x3d4b6939	0.049660895
5	0xbc9eb956	-0.019375484
6	0xbd0e08b6	-0.034676276
7	0xbc7891e9	-0.015171506
8	0x3ca52ddd	0.02016347
9	0x3cae667c	0.021289103
10	0x3de5cf21	0.11221147
11	0x3c75975c	0.0149897
12	0xbd1d21d8	-0.038362354
13	0xbd8a610f	-0.06756794
14	0x3d652e26	0.055952214
15	0x3ce21735	0.027598957
16	0xbcd8c9b6	-0.02646337
17	0xbc31c71a	-0.010850692
18	0xbaf7882b	-0.0018885186
19	0xbc233b29	-0.009962835
20	0xbd00e45f	-0.03146779
21	0xbd161a63	-0.036646258
22	0x3d61008b	0.05493216
23	0xbcae218d	-0.021256233
24	0xbd67bb93	-0.05657537
25	0x3ca2d8ea	0.019878823
26	0x3df9abf7	0.12191003
27	0xbcab35ea	-0.020899732
28	0xbc4cd9a6	-0.012503063
29	0xbcabd1c3	-0.020974046
30	0xbd1e1359	-0.03859267
31	0xbcf089d7	-0.029362602
32	0x3d2f1910	0.04274851
33	0x3c54f1b1	0.012997077
34	0x3dad47f2	0.08460988
35	0x3d12e8fd	0.035866726
36	0x3da8b003	0.082366966
37	0xbd2dccc8	-0.042431623
38	0x3e0cb022	0.13739064
39	0xbe5224e9	-0.20521893
40	0xbc22aee0	-0.009929389
41	0xbcf1d37c	-0.029519789
42	0x3d618b7c	0.055064663
43	0x3c220a38	0.009890132
44	0xbd446678	-0.047949284
45	0xbc7be8b2	-0.015375303
46	0x3d1ebb08	0.038752586
47	0x3e180e23	0.14849143
48	0x3c4cb171	0.012493477
49	0xbd7082fb	-0.058718663
50	0x3dd3275a	0.1031024
51	0x3d84a25e	0.064762816
52	0x3dc8bc43	0.09801533
53	0xbdc287f0	-0.09498584
54	0xbd23cc46	-0.039989732
55	0xbdab4473	-0.08362665
56	0xbccfb1da	-0.02535336
57	0x3c7716d7	0.015081129
58	0x3da1d9a9	0.079028435
59	0x3d1d5ae3	0.038416754
60	0x3d5d0c0a	0.05396656
61	0xbd60fb4f	-0.054927167
62	0xbd3b6035	-0.045746047
63	0xbd0a9d3a	-0.03384135
64	0xbd102a4e	-0.035196595
65	0x3e149acd	0.14512177
66	0x3d85a674	0.06525889
67	0x3d86596c	0.065600246
68	0xbc27f26f	-0.010250672
69	0x3e3b6174	0.18298894
70	0xbd03e8b9	-0.032204363
71	0xbde134f0	-0.10996425
72	0xbe8d7295	-0.27626482
73	0xbdd516ee	-0.10404764
74	0x3c5d154f	0.01349385
75	0xbd013c74	-0.031551793
76	0xbc4b0c31	-0.012393043
77	0xba8fb6ec	-0.0010964549
78	0xbd0b65e3	-0.034032714
79	0x3c6ce403	0.014458659
80	0x3db10c37	0.08644908
81	0x3c3cddb9	0.011527472
82	0xbe15db4f	-0.14634441
83	0x3cf67c34	0.030088522
84	0x3d83327d	0.06406114
85	0x3d7e4b73	0.062083673
86	0x3da0767b	0.07835098
87	0x3d23db0f	0.040003832
88	0x3d309e93	0.04311998
89	0x37f407bb	2.9090666e-05
90	0x3d7723f3	0.06033702
91	0x3d04f4d8	0.032460064
92	0xbdb33ea5	-0.08752183
93	0x3d1002fe	0.035159104
94	0xbd3fb166	-0.04680004
95	0xbcc9f1c3	-0.024651414
96	0x3c385188	0.011249907
97	0x3d05b049	0.03263882
98	0x3df588b2	0.11988963
99	0x3c170957	0.009218535
100	0xbc5cdf83	-0.013481024
101	0x3d91a5b5	0.07111684
102	0xbdb52b4e	-0.0884615
103	0xbbd57ecf	-0.006515361
104	0x3d1f244e	0.038852982
105	0x3e13d715	0.14437516
106	0xbd7756b0	-0.060385406
107	0xbcd938bb	-0.026516309
108	0x3cd0bd72	0.02548096
109	0xbb4b913e	-0.0031061913
110	0xbd3ecc6a	-0.046581663
111	0xbce72f37	-0.028220756
112	0x3da377f8	0.079818666
113	0xbd138d70	-0.036023557
114	0x3d9b0f42	0.075712696
115	0x3d76a12b	0.060212296
116	0x3c89b66a	0.016810615
117	0xbe25f1e8	-0.16205561
118	0xbcdcbb23	-0.026944702
119	0x3c620f21	0.013797552
120	0x3cce31ae	0.025170173
121	0x3cd766af	0.02629408
122	0xbc86ee50	-0.016471058
123	0x3d87c1dc	0.066287726
124	0xbd3764d5	-0.044773895
125	0xbe354fa9	-0.17706169
126	0xbd605b07	-0.05477431
127	0x3d69fa71	0.057123605
128	0x3c1410d4	0.009037215
129	0x3cc1ef96	0.023673814
130	0x3d2957a7	0.041343357
131	0x3e1d737a	0.15376082
132	0x3c83e807	0.01610185
133	0xbd775021	-0.06037915
134	0xbda7c708	-0.08192259
135	0x3e35eaed	0.17765398
136	0x3d1faf3f	0.038985487
137	0xbd9cd103	-0.07657053
138	0xbe20c06a	-0.156984
139	0xbdaa0284	-0.08301261
140	0x3b728f84	0.0037011812
141	0xbcbc8f3a	-0.023017514
142	0xbbf7b8b2	-0.007559859
143	0x3d48eddb	0.04905496
144	0xbbce832d	-0.0063022585
145	0x3dcc278d	0.09968481
146	0xbd3d4feb	-0.046218794
147	0x3c2de850	0.01061447
148	0xbe1e98dc	-0.15487999
149	0xbc170abe	-0.00921887
150	0x3c38ec46	0.011286801
151	0x3d5a29e4	0.053262606
152	0xbcc8d996	-0.024517816
153	0x3c1b9355	0.009495576
154	0x3d558fa2	0.052138932
155	0x3db3a1d3	0.087711
156	0x3ca3e84b	0.020008227
157	0xbc42f541	-0.011899293
158	0xbcdd97e3	-0.027049964
159	0xbc2f8f3b	-0.010715301
160	0xbce02995	-0.027363578
161	0xbca071c3	-0.019585496
162	0x3dbc1a26	0.09184675
163	0x3cc876b2	0.02447066
164	0x3d75bf4f	0.0599969
165	0x3db552bd	0.08853672
166	0xbc0276ca	-0.007962892
167	0xbcbec57d	-0.02328753
168	0x3cc9eca4	0.024648972
169	0x3d237ee2	0.039915927
170	0x3cb2dfac	0.02183517
171	0x3d5b48ea	0.053536333
172	0x3c84e023	0.016220158
173	0xbd464af1	-0.048411313
174	0x3db3fee9	0.08788855
175	0x3b11fb3b	0.002227499
176	0x3dacc655	0.08436266
177	0x3c502eff	0.012706517
178	0x3dbc30b4	0.09188977
179	0x3cba1819	0.022716569
180	0xbd2ce7d6	-0.042213283
181	0x3c0e3280	0.008679032
182	0xbd3d987f	-0.04628801
183	0xbd7204ac	-0.059086487
184	0x3a7f075a	0.00097285735
185	0x3d8956e2	0.06706025
186	0x3d57a9cc	0.052652165
187	0x3d99e2b3	0.075139426
188	0xbcbd96b6	-0.023143154
189	0x3d79422d	0.060854126
190	0x3b78d5fa	0.0037969337
191	0x3d1b4e03	0.037916195
192	0x3bfe3b3f	0.0077585275
193	0x3c9eff8b	0.019408962
194	0x3d24ca23	0.040231835
195	0x3d9589f8	0.07301706
196	0xbcf916fd	-0.03040647
197	0x3caef6da	0.021357942
198	0x3d51e387	0.051242378
199	0x3d04f7bf	0.03246283
200	0x3dbc5fba	0.09197946
201	0x3c004224	0.007828269
202	0xbdfc20d0	-0.12310946
203	0xbd8944ae	-0.06702553
204	0x3cb9dfd3	0.022689736
205	0x3d890535	0.06690446
206	0xbd692fe7	-0.05693045
207	0xbcef5b67	-0.029218389
208	0xbca034ba	-0.019556392
209	0xbd3e1931	-0.046410743
210	0xba2980d3	-0.00064660347
211	0x3cf910b4	0.030403472
212	0xbd36c6cd	-0.044623185
213	0xbcbbc221	-0.022919716
214	0x3de815c7	0.11332279
215	0x3d640898	0.05567226
216	0x3d278dc5	0.040906686
217	0x3d3053e0	0.04304874
218	0x3d0f95f7	0.035055127
219	0xbbe098b0	-0.0068541393
220	0x3ab7b3bb	0.0014015356
221	0x3d1e62b7	0.03866836
222	0x3d504098	0.05084285
223	0xbd0198eb	-0.031639975
224	0xbe109508	-0.14119351
225	0x3cf3b899	0.029751109
226	0xbd8618f1	-0.06547726
227	0x3d1de5f3	0.038549375
228	0x3d105ae4	0.03524293
229	0x3c74a574	0.014932025
230	0x3da8dd78	0.08245367
231	0xbd9303a8	-0.07178432
232	0xbd27807a	-0.04089401
233	0xbc9b3cc5	-0.018949876
234	0x3e05b0b1	0.13055684
235	0x3d81f514	0.06345573
236	0xbda934c7	-0.082620196
237	0x3c4e6725	0.012597834
238	0x3d9d3b70	0.076773524
239	0xbdde7d8e	-0.108637914
240	0x3d811fc8	0.0630489
241	0x3d2bbcad	0.041927982
242	0x3bd458bf	0.006480306
243	0xbc541356	-0.012944063
244	0xbd3a2a5d	-0.045450557
245	0xbdaec540	-0.08533716
246	0x3c90532a	0.01761778
247	0xbc5d7ea3	-0.013518962
248	0xbc03efda	-0.008052791
249	0xbd1737e1	-0.036918525
250	0x3d1cafc1	0.03825355
251	0xbb151711	-0.0022749344
252	0x3c271248	0.01019723
253	0x3d5a94f8	0.053364724
254	0x3caa68eb	0.020801982
255	0xbd18cbe3	-0.037303817

fc1.bias f4 [400]
0	0x3e24c789	0.16091742
1	0x3dc893f6	0.09793846
2	0x3dbc6607	0.09199148
3	0x3e0fa126	0.14026317
4	0x3e194db2	0.14971045
5	0x3e4c34cd	0.19942017
6	0x3e0d52a6	0.13801059
7	0xbc921e31	-0.017836662
8	0x3e204705	0.15652092
9	0x3cbe311a	0.023216773
10	0x3e4bc586	0.19899568
11	0x3d844f64	0.06460455
12	0xbc1dc8b7	-0.009630374
13	0xbe234b83	-0.15946774
14	0x3e323fd8	0.17407167
15	0x3d1e9606	0.038717292
16	0x3d187e4e	0.03722983
17	0xbdfeeaef	-0.12447154
18	0x3c06894d	0.008211446
19	0x3e098f16	0.13433489
20	0xbdcddc05	-0.10051731
21	0x3e21b3cf	0.15791248
22	0x3e8263ad	0.25466672
23	0xbdb6cb87	-0.089255385
24	0xbdee02cd	-0.11621628
25	0xbd7c76a4	-0.061636582
26	0x3ca25e61	0.019820394
27	0xbd8eb56f	-0.069681995
28	0xbd2c9fa9	-0.04214445
29	0xbdd85dfb	-0.105648
30	0xbd1234e2	-0.035694964
31	0x3dca4a40	0.09877443
32	0x3df72761	0.12068058
33	0x3d75a7a9	0.059974346
34	0x3e254f57	0.16143547
35	0x3bd4858a	0.0064856457
36	0xbd96eae1	-0.07369018
37	0xbe39e218	-0.18152654
38	0x3e277092	0.16351536
39	0xbcd99a65	-0.026562879
40	0xbd9b863e	-0.07593964
41	0xbdeb8746	-0.11500411
42	0x3e19b9ab	0.15012233
43	0xbe116286	-0.1419774
44	0x3d3d8577	0.04626986
45	0xbd8f3c18	-0.06993884
46	0x3c06721c	0.008205917
47	0x3de81d88	0.11333758
48	0x3e3283e5	0.17433126
49	0xbdb01a3f	-0.08598756
50	0xbdfa6b63	-0.12227514
51	0x3d809e73	0.06280222
52	0xbcc6c5fa	-0.024264324
53	0xbd7e6bb6	-0.06211444
54	0xbe151c20	-0.1456151
55	0x3e0969cf	0.13419269
56	0x3c8ca0e5	0.017166564
57	0x3de70f50	0.112822175
58	0xbcc7be0b	-0.024382612
59	0x3cbe31f0	0.023217171
60	0x3d9c85a2	0.07642676
61	0xbd1cce3d	-0.03828262
62	0x3d09db64	0.033656493
63	0x3c1726e5	0.009225582
64	0xbdbeb0ff	-0.09311103
65	0x3df475db	0.11936542
66	0xbe1cec63	-0.1532455
67	0xbd28e452	-0.04123337
68	0xbc64de14	-0.013968963
69	0x3e2847e8	0.1643368
70	0xbe1caedc	-0.15301079
71	0xbc81d42e	-0.015848245
72	0x3c9cf7fb	0.019161215
73	0xbdf983d5	-0.12183348
74	0x3dabed9e	0.08394931
75	0xbe008142	-0.12549308
76	0x3c5025fa	0.012704367
77	0xbddb4e06	-0.10708241
78	0xbdb79518	-0.08963984
79	0xbdff0146	-0.12451415
80	0xbe2d6d96	-0.16936335
81	0x3dd3faab	0.103505455
82	0xbd855c12	-0.06511702
83	0x3d64cb15	0.055857737
84	0xbdc6217b	-0.09674355
85	0xbe0b841d	-0.13624616
86	0x3e04d3b3	0.12971382
87	0x3e48ff1f	0.19628571
88	0xbde43f67	-0.111449055
89	0xbe036b41	-0.12833883
90	0x3df2cccd	0.11855469
91	0x3e455af9	0.19272985
92	0x3e1af657	0.15133034
93	0xbd9a18a4	-0.07524231
94	0xbdf3e621	-0.11909128
95	0xbcf60da3	-0.0300358
96	0x3e546a22	0.20743611
97	0xbe3b86b5	-0.18313105
98	0x3d666725	0.05625071
99	0xbdfed9b4	-0.12443867
100	0xbcd796eb	-0.02631708
101	0x3e087743	0.13326745
102	0x3cd6d48c	0.026224397
103	0x3e231f5e	0.15929934
104	0x3ccff64d	0.025386
105	0xbc95087a	-0.018192519
106	0x3df13e8b	0.11779507
107	0x3e0f4112	0.13989666
108	0xbda8c0c2	-0.08239891
109	0xbdfa2429	-0.12213928
110	0x3e651a2e	0.22373268
111	0x3ddea709	0.10871703
112	0x3e012c33	0.12614517
113	0xbe28d499	-0.1648735
114	0x3dba5ba1	0.09099508
115	0xbdad3087	-0.084565215
116	0xbde7cf5e	-0.11318849
117	0x3dc81441	0.09769488
118	0x3e669968	0.22519457
119	0x3e35c936	0.17752537
120	0x3e003434	0.12519914
121	0xbdee3799	-0.11631698
122	0x3e3cf9a6	0.18454608
123	0x3e41a53d	0.1891069
124	0xbe181028	-0.14849913
125	0x3e3e1ee0	0.18566465
126	0x3e2008f2	0.15628412
127	0x3e26fa90	0.1630652
128	0xbe0e00d0	-0.13867497
129	0x3e1187ea	0.14212003
130	0x3cf97021	0.030448975
131	0xbd35d104	-0.044388786
132	0x3e024540	0.1272173
133	0xbd508d33	-0.050915908
134	0x3da511cb	0.08060034
135	0xbd6849ef	-0.056711134
136	0xbe236fe4	-0.15960652
137	0xbe1a14d8	-0.15047014
138	0xbe05febd	-0.13085456
139	0xbdb68b99	-0.08913345
140	0xbd527665	-0.05138244
141	0x3dcb79da	0.09935351
142	0xbe264e64	-0.16240841
143	0x3e20da3e	0.15708253
144	0x3cb855db	0.022501877
145	0xbdf83a8d	-0.12120543
146	0x3dd75a6a	0.10515292
147	0x3dd20412	0.102546826
148	0xbe0c19af	-0.13681673
149	0x3e0bbbc8	0.13645852
150	0xbd17dfc9	-0.037078653
151	0x3cd41e10	0.025893241
152	0x3d13b22c	0.03605859
153	0xbc6a7d51	-0.014312104
154	0xbe152781	-0.14565851
155	0x3dccc18d	0.099978544
156	0xbe3427a3	-0.17593245
157	0xbdb0d1f2	-0.08633794
158	0x3ac30958	0.0014880104
159	0x3d352ac7	0.04423025
160	0x3e2ba0f8	0.16760623
161	0x3ce477e4	0.0278892
162	0xbd530cef	-0.051526006
163	0xbdd98daf	-0.10622727
164	0x3e3fb144	0.18719965
165	0xbe3b23f3	-0.18275432
166	0xbbe1584c	-0.006876981
167	0xbd750f3d	-0.059828985
168	0xbdab9887	-0.08378702
169	0x3dd0abee	0.10189043
170	0x3daec32f	0.08533322
171	0x3e39b077	0.18133722
172	0x3aab15e4	0.0013052789
173	0xbdb28bf0	-0.08718097
174	0x3df921af	0.12164628
175	0xbe18a2dd	-0.14905877
176	0xbda44a08	-0.08021933
177	0x3d48acbe	0.048992865
178	0x3dce569e	0.10075115
179	0x3d09188f	0.033470687
180	0xbdbd7831	-0.0925144
181	0xbdc3bb46	-0.09557204
182	0x3c9a3550	0.01882425
183	0x3e0b003b	0.13574307
184	0x3c495df8	0.01229047
185	0xbd2d7b8f	-0.042354163
186	0x3db6c6ee	0.089246616
187	0x3d94b834	0.072616965
188	0xbd52417b	-0.05133198
189	0xbad9920e	-0.0016599314
190	0x3d2432cc	0.040087506
191	0xbd9094f8	-0.070596635
192	0xbd4faed3	-0.050703835
193	0xbd908b8c	-0.070578665
194	0x3d0f6746	0.0350106
195	0xbda27b02	-0.07933618
196	0xbdad6fd3	-0.084685944
197	0xbd850d52	-0.06496681
198	0x3daa0409	0.08301551
199	0x3b83a190	0.0040170625
200	0xbd419207	-0.047258403
201	0x3c98f0ca	0.018669505
202	0x3da2e007	0.07952886
203	0x3dae004c	0.084961504
204	0xbb880152	-0.004150548
205	0x3aca1b88	0.0015419582
206	0xbe072863	-0.13199
207	0xbdec591f	-0.11540436
208	0x3bb56de1	0.00553678
209	0xbe0e068d	-0.13869686
210	0x3b6d6c15	0.0036227752
211	0xbd8761ba	-0.06610437
212	0xbe2c1f09	-0.16808714
213	0x3da2076e	0.07911573
214	0xbd0eabf1	-0.034831945
215	0xbd0ec0a4	-0.034851685
216	0x3d86d982	0.06584455
217	0x3cbf8aa3	0.023381537
218	0xbd9fdd9c	-0.078059405
219	0x3e597cdb	0.21239035
220	0x3df6adb7	0.12044852
221	0xbe44bf34	-0.19213563
222	0x3e2d9097	0.16949688
223	0xbe1c1ef9	-0.1524619
224	0x3d54f6c7	0.051993158
225	0x3dd75a27	0.10515242
226	0x3e15284f	0.14566158
227	0xbdb5f752	-0.08885063
228	0xbdfb898c	-0.12282094
229	0xbe0cde9e	-0.13756797
230	0xbe54aab0	-0.20768237
231	0xbdf97ddb	-0.12182208
232	0xbdf4b832	-0.11949195
233	0x3d9f88eb	0.07789787
234	0x3de52bb1	0.11189974
235	0x3e46a510	0.19398904
236	0x3dc9725e	0.09836267
237	0xbdc251b5	-0.09488241
238	0x3deb1363	0.11478307
239	0xbdde2c51	-0.108482964
240	0x3e0b949b	0.13630907
241	0x3bbb9741	0.005724818
242	0x3e184c96	0.14872965
243	0xbdebe829	-0.115188904
244	0x3e1dd887	0.1541463
245	0xbe0bc413	-0.13649015
246	0x3d4dc651	0.050237957
247	0x3c7b9732	0.015355872
248	0xbc831ba1	-0.016004385
249	0x3d30fe28	0.043211132
250	0x3e0f6d60	0.14006567
251	0x3d822f7b	0.063567124
252	0x3daf4b6e	0.08559309
253	0xbcd50371	-0.026002618
254	0xbd8f2cc7	-0.069909625
255	0x3dff28e3	0.124589704

fc2.weight f4 [300, 400]
0	0xbd322e5f	-0.043501254
1	0x3df84ada	0.12123652
2	0x3d8ed2e7	0.0697382
3	0xbc99af64	-0.01876039
4	0x3e103acc	0.14084929
5	0x3d7bc77f	0.06146955
6	0x3d6223c1	0.05520988
7	0x3ce07bb1	0.02740273
8	0xbbeeffba	-0.0072936686
9	0xbd3ae848	-0.045631677
10	0xbdcdf053	-0.10055604
11	0xbce43dba	-0.027861465
12	0x3cbf1234	0.02332411
13	0x3d447104	0.047959343
14	0xbca9b9ac	-0.020718418
15	0xbdb1b604	-0.08677295
16	0xbd97e5c7	-0.074168734
17	0xbc7d13d7	-0.015446625
18	0xbd0f4e8b	-0.034987014
19	0xbd47db72	-0.048793264
20	0xbd39a034	-0.045318797
21	0xbb65ecde	-0.003508381
22	0x3d63a1da	0.055574276
23	0xbda0390f	-0.07823383
24	0xbccc9ff0	-0.024978608
25	0x3d965eff	0.07342338
26	0x3d51332f	0.051074203
27	0xbbd5d1c5	-0.0065252506
28	0x3d33744b	0.043812077
29	0xbdda691a	-0.10664578
30	0x3db6bdcf	0.08922922
31	0x3dfb2a16	0.12263887
32	0x3d3a7880	0.045525074
33	0xbd861999	-0.06547851
34	0x3c8c4187	0.01712109
35	0xbe095648	-0.1341182
36	0xbd8062b6	-0.062688276
37	0xbdfeeea4	-0.12447861
38	0x3c11ab26	0.008890903
39	0xbd6c47ae	-0.057685547
40	0x3d376cca	0.044781484
41	0xbd093ca9	-0.033505116
42	0x3cc24362	0.023713771
43	0x3d33f947	0.0439389
44	0xbddf7510	-0.10911
45	0xbdb1e180	-0.08685589
46	0x3c202d24	0.009776387
47	0xbd209873	-0.039207887
48	0x3a8fb5cb	0.0010964213
49	0xbca49e19	-0.020094918
50	0xbd519c55	-0.05117448
51	0xbe0c0b65	-0.13676222
52	0x3d76e499	0.0602766
53	0x3cbc952d	0.023020351
54	0xbd5102ed	-0.05102818
55	0x3d5ffae1	0.054682616
56	0xbd65adba	-0.05607388
57	0x3b0b2703	0.002123297
58	0xbd8b28be	-0.0679488
59	0xbdf5b4d7	-0.11997383
60	0xbcac165d	-0.021006757
61	0x3da0370c	0.07822999
62	0x3cd9959f	0.026560603
63	0xbd0eb7ff	-0.03484344
64	0x3c9e26ea	0.019305665
65	0x3d55afbc	0.052169546
66	0x3dc67d2d	0.09691844
67	0xbcdf6f8f	-0.027274875
68	0xbc0d4bbc	-0.0086240135
69	0xbd494392	-0.049136706
70	0x3dcda50e	0.10041247
71	0x3cb317da	0.02186196
72	0x3c0ea02a	0.008705178
73	0x3aa292f8	0.0012403419
74	0xbd087eb9	-0.033323977
75	0x3c6b9360	0.014378399
76	0xbcd41251	-0.02588764
77	0xbda7450b	-0.08167466
78	0x3d3e5e62	0.04647673
79	0xbd5e37ac	-0.05425231
80	0xbe0aef35	-0.13567813
81	0x3d29ec0b	0.041484874
82	0x3dddede1	0.108363874
83	0xbced5394	-0.028970517
84	0x3d540f62	0.051772483
85	0xbd15d415	-0.03657921
86	0xbd26f1b5	-0.040757854
87	0xbca0b70d	-0.019618535
88	0xbc6c6540	-0.014428437
89	0xba941beb	-0.0011299824
90	0x3c9da944	0.019245751
91	0xbd1f2914	-0.038857535
92	0xbb1eba64	-0.0024219984
93	0xbe2f96c5	-0.17147358
94	0x3c3ce136	0.011528304
95	0x3d326a22	0.043558247
96	0xbb0686b2	-0.0020527062
97	0xbd76c96a	-0.060250677
98	0x3d0d7f53	0.034545254
99	0xbc5af026	-0.01336292
100	0xbc6422c5	-0.013924305
101	0x3d787200	0.060655594
102	0x3da418e9	0.08012564
103	0xbd973926	-0.07383947
104	0xbd2fcafe	-0.042918198
105	0x3b475d9f	0.0030420793
106	0xbd82eadf	-0.06392454
107	0x3d9ac6f5	0.07557479
108	0xbc96d1f9	-0.01841067
109	0xbdaaa9cc	-0.083331674
110	0xbe2f1a9a	-0.17099991
111	0xbd6aee11	-0.057355944
112	0x3d57f99c	0.05272828
113	0x3c6578ac	0.014005821
114	0xbdbdbce7	-0.09264546
115	0x3d60c6ea	0.0548772
116	0xbd055330	-0.032550037
117	0xbccdf4d9	-0.025141167
118	0x3d265606	0.040609382
119	0xbd85c773	-0.065321825
120	0x3bbed26d	0.0058234246
121	0x3d612ecb	0.054976266
122	0x3d95e25a	0.07318564
123	0x3cd0a43e	0.025468942
124	0x3cf06a27	0.029347492
125	0x3d11aa7c	0.035562977
126	0x3dfc03d7	0.1230542
127	0xbd081e66	-0.033232115
128	0x3b57bdff	0.0032919643
129	0x3d8a5376	0.067542
130	0x3d0d517e	0.034501545
131	0x3d13ea65	0.036112208
132	0x3d97acb2	0.07405986
133	0xbe034889	-0.12820639
134	0xbde3b64d	-0.111187555
135	0xbd9369b7	-0.07197898
136	0xbcc7260b	-0.024310132
137	0xbce97c4a	-0.028501648
138	0xbc653b8d	-0.013991249
139	0xbc6e0e2e	-0.014529748
140	0x3d396fff	0.045272823
141	0x3d7f89b9	0.062387202
142	0xbd074280	-0.033022404
143	0xbbb464a2	-0.0055051604
144	0x3d9b1788	0.075728476
145	0x3dabaf7b	0.083830796
146	0xbd6eec60	-0.058330894
147	0xbdd3c478	-0.10340208
148	0xbd922a9c	-0.07137033
149	0x3d4ef1c5	0.05052354
150	0xbe5c70c7	-0.21527396
151	0xbcd141a4	-0.025543995
152	0xbd722b69	-0.05912343
153	0xbbeda9fb	-0.0072529293
154	0x3ce76bef	0.028249709
155	0x3ca4cb4d	0.020116473
156	0xbd02dade	-0.03194701
157	0xbdc8c7b3	-0.098037146
158	0xbd6c3965	-0.057671923
159	0x3d750f4a	0.059829034
160	0x3c8ee4ea	0.01744314
161	0xbd39a626	-0.045324467
162	0x3d89d7d0	0.06730616
163	0x3c254c63	0.010089013
164	0x3d187c1d	0.03722774
165	0xbc78164b	-0.015142034
166	0xbd5977ee	-0.05309289
167	0x3cbabe72	0.02279589
168	0x3d84f317	0.06491678
169	0x3d4b68ec	0.04966061
170	0xbcc58066	-0.024109077
171	0xbe2edb8e	-0.17075941
172	0x3cab067e	0.02087712
173	0xbde4d115	-0.11172692
174	0x3de45aa2	0.11150099
175	0x3c2abd9f	0.010421186
176	0xbcd3b273	-0.025841927
177	0xbccadda6	-0.024763893
178	0x3b81707f	0.003950178
179	0xbc2bd683	-0.010488155
180	0xbd2fe5d2	-0.042943783
181	0x3d15fd40	0.03661847
182	0xbdc2f082	-0.095185295
183	0x3be683b4	0.007034743
184	0xbcc2f712	-0.023799453
185	0xbdfb390b	-0.122667395
186	0xbd4729b4	-0.048623756
187	0x3c6a3f6c	0.0142973475
188	0x3d4af018	0.049545377
189	0x3cb00566	0.02148695
190	0x3c5c88a3	0.013460311
191	0x3b77171a	0.0037702979
192	0x3d9986b8	0.07496399
193	0xbd914e31	-0.07094992
194	0xbbcbe7ba	-0.0062226923
195	0x3cc90757	0.024539633
196	0x3ce83517	0.028345628
197	0xbda8cc02	-0.082420364
198	0xba8f1c6e	-0.0010918507
199	0xbce50dbd	-0.027960652
200	0xbc970ee1	-0.018439712
201	0x3c3f9556	0.011693319
202	0x3d6d139b	0.057880025
203	0x3d8059ec	0.06267151
204	0x3d0b3a5e	0.03399121
205	0xbd5e31b9	-0.054246638
206	0xbde4a2ab	-0.11163839
207	0xbd7ee5fe	-0.062231056
208	0x3dbb94dd	0.09159253
209	0x3daef7ca	0.08543356
210	0xbbb46c5d	-0.005506082
211	0xbd0ae550	-0.033910096
212	0x3cbc28c3	0.022968655
213	0xbe562a75	-0.20914634
214	0xbbe8f15e	-0.0071088513
215	0xbd5ff8ab	-0.054680508
216	0xbd2b6423	-0.041843545
217	0xbd5cc0a3	-0.05389465
218	0xbdf97c26	-0.121818826
219	0xbd930da5	-0.07180337
220	0xbe3304cf	-0.17482303
221	0xbb37deb1	-0.0028056318
222	0x3cdb0eb3	0.026740408
223	0xbd4d2e94	-0.05009325
224	0x3c595008	0.01326371
225	0xbdba2a2a	-0.090900734
226	0xbd7d3e5b	-0.061827045
227	0xbbaf61ad	-0.00535222
228	0x3c6e5e95	0.014548917
229	0x3d6a5f86	0.057220004
230	0xbdad0154	-0.08447519
231	0xbd0d69dc	-0.034524783
232	0x3d743f0e	0.059630446
233	0xbc861965	-0.01636953
234	0xbdf79484	-0.12088874
235	0xbcacf963	-0.02111501
236	0x3de8caae	0.11366783
237	0x3b960849	0.0045786244
238	0xbd980132	-0.07422103
239	0xbd34b045	-0.044113416
240	0xbdaad7be	-0.08341931
241	0xbd6a061e	-0.05713474
242	0xbd6426e7	-0.055701163
243	0x3c56f922	0.013120921
244	0x3c08ace7	0.008342004
245	0xbd810eb3	-0.06301632
246	0x3cda1cb2	0.026625011
247	0xbc87d962	-0.016583148
248	0xbd829fda	-0.063781455
249	0x3db42cc5	0.087976016
250	0x3d535352	0.051593132
251	0xbd4f2b40	-0.050578356
252	0xbd97974f	-0.07401907
253	0xbc555b3d	-0.013022241
254	0xbd1342dd	-0.035952438
255	0x3d5166d6	0.051123463

fc2.bias f4 [300]
0	0xbca41778	-0.020030722
1	0x3b8eb655	0.0043552318
2	0x3d2cafb0	0.042159736
3	0x3cd8bf85	0.026458511
4	0xbc4921ce	-0.012276126
5	0x3c38098e	0.011232747
6	0x3d074570	0.033025205
7	0xbcc331ed	-0.023827517
8	0x3d21dbdb	0.03951631
9	0x3cc908c6	0.024540316
10	0xbd019ff9	-0.031646702
11	0x3b00539a	0.001958108
12	0xbd1d5faf	-0.03842133
13	0x3d28144c	0.04103498
14	0xbcb3c7f5	-0.021945933
15	0x3c9d14b6	0.019174915
16	0x3d24738f	0.040149268
17	0xbd0c00d2	-0.03418047
18	0x3dba3253	0.0909163
19	0x3d16521c	0.0366994
20	0x3d1baf2d	0.038008858
21	0x3b9c4502	0.0047689686
22	0xbd89500f	-0.06704723
23	0x3d2c5a74	0.04207845
24	0xbcd8aaf2	-0.0264487
25	0x3d56e4cb	0.052464288
26	0x3d489608	0.048971206
27	0x3d1881ac	0.03723304
28	0x3d826ed0	0.06368792
29	0x3d2f284b	0.042763036
30	0x3d2b3a7f	0.041803833
31	0x3d9bd889	0.0760966
32	0x3d14dace	0.03634148
33	0x3d990fe8	0.07473737
34	0x3c51cc64	0.012805078
35	0xbca243c0	-0.019807696
36	0x3d98076e	0.07423292
37	0xbb021a8a	-0.0019852244
38	0xbc68f561	-0.014218659
39	0xbd494d69	-0.04914609
40	0xbd16b1da	-0.036790706
41	0x3dbd5828	0.0924533
42	0xbc5b8a10	-0.013399616
43	0x3cebc45a	0.028780151
44	0x3ce78a94	0.028264321
45	0x3cca29fb	0.024678221
46	0x3d320427	0.04346099
47	0xbc90ef21	-0.01769215
48	0x3bfa976e	0.0076474464
49	0xbccfe16a	-0.02537604
50	0xbc959d52	-0.018263493
51	0xbd54f45a	-0.051990844
52	0x3d2f879a	0.04285393
53	0x3d82d5e5	0.063884534
54	0x3d7283be	0.05920767
55	0x3d4aa197	0.04947051
56	0x3d05b5f1	0.032644216
57	0xbce4fa90	-0.027951509
58	0x3ce47699	0.027888583
59	0xbccd0a35	-0.025029281
60	0x3b3ad99b	0.002851105
61	0x3d145e0c	0.036222503
62	0x3c0890a2	0.008335264
63	0x3d28b9b5	0.04119273
64	0x3ce870e1	0.028374137
65	0x3d7ef13a	0.06224177
66	0x3d2270e2	0.039658435
67	0xbb2f678d	-0.0026764602
68	0xbc27ee54	-0.010249693
69	0xbbb110be	-0.005403607
70	0x3cde0876	0.027103644
71	0xbcf0f32c	-0.029412828
72	0x3bce288b	0.006291454
73	0x3d570ac3	0.052500498
74	0xbcf1e4f5	-0.02952812
75	0xbd206a67	-0.039163973
76	0x3ca7a04e	0.020462181
77	0x3d41f146	0.047349237
78	0x3d1ceadd	0.03830992
79	0xbbfa8f2e	-0.007646463
80	0x3d443497	0.047901716
81	0x3b678140	0.0035324842
82	0x3dc61956	0.09672801
83	0xbcb9de1f	-0.022688923
84	0x3d8d7700	0.06907463
85	0xbbfabb36	-0.007651712
86	0x3ca73f70	0.020415992
87	0xbd3277f4	-0.043571427
88	0xbc4c2d16	-0.012461921
89	0x3d099cca	0.03359679
90	0x3c8d8f06	0.017280113
91	0x3d3a7563	0.045522105
92	0x3d40a4b3	0.04703207
93	0xbbdf4b79	-0.006814417
94	0x3d1c5696	0.038168512
95	0x3a2f70e6	0.00066925434
96	0xbcbf0c3e	-0.023321267
97	0xbb945e2a	-0.004527827
98	0xbc9bfed0	-0.019042403
99	0x3d3d25c0	0.04617858
100	0xbd555c97	-0.052090254
101	0x3d62f91d	0.055413354
102	0x3c9cb1e0	0.019127786
103	0x3d86df80	0.06585598
104	0x3bfb1b98	0.0076632015
105	0x3d8a460e	0.06751643
106	0x3cd5b22a	0.026085932
107	0x3d76b41b	0.060230356
108	0xbb5c09eb	-0.0033575248
109	0x3c8a09d9	0.016850399
110	0xbc818d79	-0.01581453
111	0xbb9dd784	-0.004816951
112	0x3d8c1b44	0.06841138
113	0x3d95083f	0.072769634
114	0x3b246116	0.0025082282
115	0x3d6913c1	0.056903604
116	0x3d336026	0.043792866
117	0xbcec69e6	-0.02885909
118	0xbd63a094	-0.05557306
119	0x3d2334b1	0.039845172
120	0x3d7ec3e8	0.06219855
121	0x3d876177	0.06610387
122	0x3b223ea4	0.0024756575
123	0x3d8a5c19	0.067558475
124	0x3cd99f59	0.02656524
125	0x3d964a87	0.07338434
126	0x3c0a3557	0.008435569
127	0xbb591292	-0.003312264
128	0x3cbc16cc	0.02296009
129	0xbc282227	-0.010262049
130	0x3c370e06	0.011172777
131	0x3d76ecd8	0.060284466
132	0xbc90b791	-0.017665656
133	0x3d86883a	0.06568952
134	0xbc13cb37	-0.009020618
135	0x3cacf342	0.021112088
136	0x3ce4dbb8	0.027936801
137	0xbcf968a4	-0.030445404
138	0x3da43573	0.08018007
139	0x3d1dd765	0.038535494
140	0x3cf802a4	0.030274697
141	0x3d8a7e20	0.06762338
142	0x3cdea507	0.0271783
143	0x3ceed53b	0.02915441
144	0x3d11c090	0.035584033
145	0x3b23965f	0.0024961454
146	0x3cbe9ecd	0.023269081
147	0xbca62c85	-0.0202849
148	0x3da7342e	0.08164249
149	0xbd05e2db	-0.03268705
150	0xbd0c7dfd	-0.03429984
151	0xbb0b6c5e	-0.0021274309
152	0x3d831736	0.064009115
153	0x3d7c354c	0.061574265
154	0x3a0a1465	0.0005267321
155	0xbc4545f5	-0.012040605
156	0x3ce8a109	0.0283971
157	0x3ccde7ac	0.025134884
158	0x3d11871a	0.035529234
159	0x3d1d1bfe	0.038356774
160	0xbc99aed9	-0.018760132
161	0xbcbf4382	-0.02334762
162	0x3d2d18cc	0.042259976
163	0x3ce60b5e	0.028081592
164	0xbd01f3a9	-0.031726513
165	0xbd1d1c59	-0.038357113
166	0xbce0d8c5	-0.027447114
167	0x3ccb60e1	0.024826469
168	0x3c4fd0a8	0.012684025
169	0xbc58c5bc	-0.013230737
170	0xbc181d1c	-0.009284284
171	0xbca529bc	-0.020161502
172	0x3d92e509	0.07172591
173	0xbd3a8d07	-0.04554465
174	0xbd661949	-0.056176458
175	0xbd18f233	-0.037340354
176	0x3bc110d8	0.0058919005
177	0x3d29aa14	0.041421965
178	0xbcc52538	-0.024065599
179	0x3d4a3636	0.049368106
180	0x3d855b76	0.065115854
181	0x3d41e3c0	0.04733634
182	0xbcd67615	-0.026179353
183	0x3c3a0f72	0.0113562215
184	0x3d73b210	0.059495986
185	0xbd0fea43	-0.03513552
186	0xbc489ffc	-0.0122451745
187	0xbc284ee2	-0.010272713
188	0x3d1f6e08	0.038923293
189	0xbc395859	-0.011312568
190	0xbd30e18c	-0.04318385
191	0x3dc82700	0.09773064
192	0xbd18ed55	-0.037335712
193	0xbc793952	-0.01521142
194	0xbc8be69c	-0.017077737
195	0x3cd1a4f8	0.025591359
196	0x3d0da746	0.034583353
197	0x3d4996df	0.049216148
198	0x3d04f1c7	0.03245714
199	0xbc0992ee	-0.008396847
200	0xbc4e4d36	-0.012591651
201	0xbcc019cd	-0.023449803
202	0xbb04bc51	-0.0020253847
203	0x3d7e0afd	0.062022198
204	0xbbee752e	-0.0072771525
205	0x3d897730	0.06712186
206	0x3dab1362	0.08353306
207	0x3c2d4b05	0.010576968
208	0x3d0bf3b3	0.034167957
209	0xbd269b48	-0.04067543
210	0x3ce67a47	0.028134478
211	0xbb45419e	-0.0030098925
212	0xbd20283a	-0.039100863
213	0x3c95f7fc	0.018306725
214	0xbaa55b77	-0.001261576
215	0xbb97c413	-0.004631528
216	0x3ca4081e	0.020023402
217	0xbd4c01d2	-0.049806423
218	0x3d65bf02	0.056090362
219	0x3c877bf6	0.016538601
220	0xbad07df8	-0.0015906682
221	0xbd382b22	-0.04496301
222	0xbc15bb17	-0.009138844
223	0x3bf6e6b1	0.007534825
224	0x3c374e74	0.011188138
225	0x3d165b43	0.036708128
226	0x3daa0c10	0.08303082
227	0xbcb42f2a	-0.021995146
228	0x3d88c45d	0.06678078
229	0x3d1a1084	0.037613407
230	0x3bdeda82	0.0068009505
231	0x3cc6b365	0.024255464
232	0x3ccbd9d7	0.024884148
233	0xbcd7df69	-0.026351647
234	0xbb90c53a	-0.0044180425
235	0xbc4f2306	-0.012642628
236	0xbd06d6f5	-0.032919843
237	0x3d9174c8	0.071023524
238	0xbcaeafb6	-0.02132402
239	0x3cfeffa6	0.031127762
240	0xbcb34f95	-0.021888534
241	0x3d962398	0.07331008
242	0x3d923561	0.071390875
243	0x3d65563b	0.05599044
244	0x3dbedea3	0.09319808
245	0xbcf9e655	-0.030505339
246	0x3d31b720	0.043387532
247	0x3d18f250	0.037340462
248	0x3be4a7aa	0.006977995
249	0x3db92778	0.09040731
250	0xbcbfab88	-0.023397222
251	0x3c8a4a41	0.01688111
252	0xbcb13375	-0.021630982
253	0x3c6d9c4f	0.014502599
254	0x3dc0efee	0.09420763
255	0x3d84150e	0.06449328

fc3.weight f4 [4, 300]
0	0x3d2f10a2	0.04274047
1	0x3bd453e3	0.0064797266
2	0x3d1f910f	0.038956698
3	0x3d95d0da	0.07315226
4	0x3b3dc68c	0.0028957454
5	0x3d7ead9b	0.06217728
6	0xbcf49b00	-0.029859066
7	0x3cfe5603	0.031046873
8	0x3da885e8	0.082286656
9	0xbc5c50cd	-0.013446999
10	0x3c2dbe4f	0.010604455
11	0xbe0998b5	-0.1343716
12	0xbdcc7e8c	-0.099850744
13	0xbb780ff0	-0.0037851296
14	0x3d1aef1e	0.037825696
15	0x3dbaebdf	0.0912702
16	0xbcc8da1e	-0.024518069
17	0x3cffc401	0.031221392
18	0x3d9e8aff	0.07741355
19	0x3d98d08e	0.07461654
20	0xbcb1054b	-0.02160897
21	0x3d6c6442	0.0577128
22	0x3da96523	0.082712434
23	0xbd48cef7	-0.049025502
24	0x3d1690b4	0.036759093
25	0x3e022a54	0.1271146
26	0xbb75424a	-0.0037423545
27	0xbd0f89f9	-0.03504369
28	0x3c3a1254	0.011356909
29	0x3d85b938	0.06529468
30	0xbdaf378c	-0.085555166
31	0xbd594527	-0.053044464
32	0x3d195cad	0.037441898
33	0xbd82827e	-0.06372546
34	0xbc844f12	-0.016150985
35	0xbcd217f6	-0.025646191
36	0x3dbd8227	0.0925334
37	0xbc023753	-0.007947761
38	0xbdb271d1	-0.08713115
39	0xbdc44f43	-0.095854305
40	0x3cdac931	0.026707264
41	0x3d067fc2	0.032836683
42	0x3d989f6b	0.074522816
43	0x3bbe12e4	0.005800592
44	0xbd3eaf23	-0.046553742
45	0x3db9085d	0.09034798
46	0xbd73a120	-0.059479833
47	0x3c97db21	0.018537106
48	0xbe2039c1	-0.15647031
49	0x39c41de5	0.00037406306
50	0x3dc49fc2	0.09600784
51	0xbdab39c0	-0.08360624
52	0x3db9b9a7	0.090686135
53	0xbdd33a21	-0.103138216
54	0xbcf5ac99	-0.029989528
55	0x3dcc236c	0.09967694
56	0x3d6abd4d	0.057309438
57	0x3d800f8d	0.06252966
58	0xbd9cab9a	-0.07649918
59	0x3d3fb47b	0.04680298
60	0x3d26cdea	0.04072372
61	0x3da954b5	0.0826811
62	0xbcd4390f	-0.025906114
63	0xbe25da10	-0.16196465
64	0xbdafe979	-0.08589453
65	0x3cbab341	0.022790553
66	0xbc5514ca	-0.013005445
67	0xbd449199	-0.047990415
68	0x3dfdf4ea	0.12400229
69	0x3cacd51a	0.021097708
70	0x3d84dad1	0.064870484
71	0xbdfec944	-0.12440732
72	0xbbf364c3	-0.007427783
73	0xbe162a01	-0.1466446
74	0x3c8019aa	0.015637238
75	0x3d858834	0.06520119
76	0xbd884772	-0.06654252
77	0x3d1df9b6	0.03856822
78	0xbd88f903	-0.0668812
79	0x3d5229ab	0.05130927
80	0xbdb9f0ff	-0.090791695
81	0x3d902f30	0.0704025
82	0x3db24cf0	0.08706081
83	0x3d3fe42e	0.04684847
84	0xbc99079e	-0.01868039
85	0x3d683e16	0.056699835
86	0xbd91c160	-0.071169615
87	0xbc233461	-0.009961219
88	0xbd89ccdf	-0.06728529
89	0xbda9752c	-0.08274302
90	0xbd73dc9c	-0.05953656
91	0x3d916492	0.070992604
92	0xbd438058	-0.04772982
93	0x3e3de7a4	0.18545395
94	0xbb94cf0d	-0.004541284
95	0x3e0ef2e1	0.13959838
96	0xbd97c198	-0.07409972
97	0x3d111bec	0.03542702
98	0xbdb3c1ee	-0.087772235
99	0x3e4e8dd0	0.20171285
100	0xbe18c47a	-0.149187
101	0x3d8d622f	0.06903493
102	0xbe7a7447	-0.24458419
103	0xbdc6c857	-0.097061805
104	0x3c428bd5	0.011874159
105	0xbc179f81	-0.009254337
106	0x3d81b9ca	0.063342646
107	0xb9efb240	-0.0004571844
108	0xbe028075	-0.12744315
109	0x3cab0e96	0.020880979
110	0xbdd76fd5	-0.10519377
111	0x3d873b17	0.06603067
112	0xbb8c8884	-0.004288735
113	0xbdc48ba6	-0.09596948
114	0x3bf3b19b	0.0074369437
115	0xbd5df559	-0.05418906
116	0xbd316d51	-0.043317143
117	0xbbd9a6f9	-0.006642219
118	0x3d258e41	0.040418867
119	0x3b735145	0.0037127298
120	0x3d2bbb4b	0.041926663
121	0xbd9ef862	-0.07762219
122	0xbe3aae2e	-0.18230507
123	0x3c8a49ef	0.016880957
124	0xbd547d6b	-0.05187742
125	0x3dbc46a6	0.091931626
126	0x3df8dd20	0.12151551
127	0xbd22678b	-0.039649528
128	0x3cd8c69d	0.026461894
129	0xbd82ff0d	-0.06396303
130	0x3e4233ff	0.18965147
131	0x3c012273	0.0078817485
132	0xbd1eee0f	-0.03880125
133	0xbdf6f8ea	-0.12059195
134	0x3c6e3199	0.014538192
135	0x3c91cc3f	0.017797587
136	0x3d88e260	0.066838026
137	0x3deebf28	0.11657554
138	0x3d358e97	0.044325437
139	0x3d53d83d	0.051719893
140	0xbe08f032	-0.13372877
141	0xbd69bd33	-0.0570652
142	0xbdfeed68	-0.124476254
143	0x3d45ecd9	0.04832158
144	0xbd8b3c34	-0.06798592
145	0xbda82b48	-0.0821138
146	0xbd86b80c	-0.06578073
147	0x3dc23021	0.09481836
148	0xbd402122	-0.046906598
149	0x3ddfc8d2	0.10926975
150	0x3d0355b8	0.03206417
151	0x3c1c4cf1	0.009539829
152	0xbd81272e	-0.06306301
153	0xbe09bb9f	-0.13450478
154	0xbd4039a7	-0.04692998
155	0x3d87be00	0.066280365
156	0x3d85a4d9	0.06525583
157	0x3d5d7a33	0.054071616
158	0xbc92d0d6	-0.017921846
159	0xbd160761	-0.03662813
160	0x3d88cfc1	0.06680251
161	0x3c8c5f1c	0.017135195
162	0xbcdbf8c5	-0.026852021
163	0xbdc08691	-0.094006665
164	0x3c638520	0.01388672
165	0x3d829273	0.06375589
166	0xbd8c37c2	-0.068465725
167	0x3d3ddc6c	0.04635279
168	0x39bf4835	0.00036484157
169	0xbd6dd1fb	-0.05806158
170	0x3d24542a	0.040119328
171	0xbc88935a	-0.016671825
172	0x3caf247c	0.021379702
173	0x3c00a468	0.0078516975
174	0xbdf77e37	-0.120846204
175	0x3dea188c	0.11430463
176	0xbd4e14c1	-0.05031276
177	0x3e018ba0	0.12650919
178	0xbb0440b1	-0.002018016
179	0xbcdf24cc	-0.027239226
180	0xbd253501	-0.04033375
181	0xbc55ebac	-0.013056677
182	0x3da5264e	0.08063947
183	0xbe32fe98	-0.17479932
184	0xbe3d30c3	-0.18475632
185	0x3db7b64f	0.089703195
186	0xbd11e1d5	-0.03561576
187	0xbe35ef5c	-0.1776709
188	0xbde4ab16	-0.111654446
189	0xbdc5257f	-0.096262924
190	0x3d8f04ff	0.06983375
191	0xbdfa755e	-0.12229417
192	0x3da74e20	0.08169198
193	0x3c220e30	0.009891078
194	0xbdcc3f03	-0.09972956
195	0x3d0f25ee	0.034948282
196	0x3daebcc6	0.085320994
197	0x3cdb376d	0.026759828
198	0x3d72d1bc	0.05928205
199	0x3c58cd83	0.013232592
200	0x3d7a3005	0.06108095
201	0xbc85b8c2	-0.016323451
202	0xbe18e588	-0.14931309
203	0x3d954257	0.07288044
204	0x3c8173d6	0.015802305
205	0xbe08eddd	-0.13371988
206	0x3da9addb	0.082851134
207	0x3dca7d64	0.098871976
208	0x3cc97c5d	0.024595434
209	0xbe03101c	-0.12799114
210	0xbd129757	-0.03578886
211	0xbdc0a3da	-0.09406252
212	0x3dd32623	0.103100084
213	0x3bcb113f	0.0061971243
214	0xbe58650a	-0.21132293
215	0x3d97a098	0.07403678
216	0xbde8b3c2	-0.11362411
217	0xbe166e64	-0.14690548
218	0x3d89bcc6	0.06725459
219	0x3cea7147	0.028618468
220	0xbdae260c	-0.085033506
221	0xbc5a6677	-0.013330094
222	0xbd305c9e	-0.043057077
223	0x3d684ba4	0.05671276
224	0xbd8afccc	-0.067864984
225	0x3d93e9ae	0.07222305
226	0xbbf3c32f	-0.007439039
227	0x3d7c2f75	0.061568696
228	0xbd4bae72	-0.04972691
229	0xbca8e20a	-0.020615596
230	0xbdd8baa5	-0.105824746
231	0x3d03619b	0.032075506
232	0x3e2f1a1f	0.17099808
233	0x3d470391	0.048587386
234	0xbe3c9628	-0.18416655
235	0x3d602db5	0.05473109
236	0xbd7e13eb	-0.062030714
237	0x3d200eba	0.039076544
238	0xbd81b163	-0.06332662
239	0xbd0f172f	-0.03493422
240	0xbe05d5e8	-0.1306988
241	0x3d78e031	0.06076068
242	0x3db0aea4	0.0862706
243	0x3d050f41	0.03248525
244	0x3d0ee0c3	0.03488232
245	0xbd560714	-0.052252844
246	0x3d1a3e18	0.037656873
247	0x3dfad186	0.12246995
248	0xbd0ae41a	-0.03390894
249	0x3d4183c6	0.04724481
250	0xbde301a0	-0.11084294
251	0x3d4c364e	0.049856476
252	0xbd815f7a	-0.06317039
253	0x3c7750ef	0.01509498
254	0x3d3afa8a	0.04564909
255	0xbdbb99d9	-0.091602035

fc3.bias f4 [4]
0	0xbc1ff012	-0.009761827
1	0x3cacc2b7	0.021088941
2	0x3d4aad89	0.049481902
3	0x3ca7fcef	0.02050635
