p2_continuous-control_single-agent/checkpoint_critic.pth (torch_old, 542628 bytes, 5 tensors)

fcs1.weight f4 [400, 33]
0	0xbe824a4e	-0.25447315
1	0x3db90f1e	0.090360865
2	0xbe334304	-0.17506033
3	0x3fc041b7	1.5020055
4	0x3e6571a5	0.22406633
5	0xbf8488e7	-1.0354279
6	0x3e1fd41a	0.15608254
7	0xbe76091d	-0.24026914
8	0x3baf472f	0.005349062
9	0xbe4d2ff8	-0.2003783
10	0x3ee01f36	0.43773812
11	0xbd47e7f8	-0.048805207
12	0x3f1cf504	0.61311364
13	0x3e3266b8	0.17421997
14	0x3d8c5688	0.06852442
15	0xbd9b501d	-0.0758364
16	0xbf58cc61	-0.8468686
17	0x3ef2fe97	0.47459862
18	0xbe1760d6	-0.14783034
19	0x3ee2b8a7	0.44281504
20	0xbeba71ce	-0.3641495
21	0x3ed1d21a	0.40980607
22	0xbee45a27	-0.4460003
23	0xbe154e2a	-0.14580598
24	0xbdef911f	-0.116976015
25	0x3e58f9b2	0.21189001
26	0xbddf7921	-0.109117754
27	0x3f63050b	0.8867957
28	0x3d35d690	0.044394076
29	0xbd035e58	-0.032072395
30	0xbf6ab27d	-0.916786
31	0x3ca3e0c2	0.020004634
32	0xbf9e254d	-1.2355133
33	0xbf2a327b	-0.6648328
34	0xbe3d0b97	-0.18461452
35	0xbdd9d9b2	-0.10637225
36	0x3e6b0526	0.22951183
37	0x3eee0a7a	0.46492368
38	0xbdedda19	-0.116138645
39	0x3f34f6be	0.70689
40	0xbcad810c	-0.021179698
41	0xbd3e96e7	-0.04653063
42	0xbead8e90	-0.3389783
43	0x3e07bc5d	0.13255449
44	0xbe53c36a	-0.20680013
45	0xbc89eb18	-0.016835734
46	0x3e29d3fa	0.16584769
47	0xbd83f17e	-0.06442545
48	0xbe29f2a4	-0.16596466
49	0xbf4e7911	-0.8065348
50	0xbf81911c	-1.0122409
51	0xbea89010	-0.3292241
52	0x3ece7877	0.40326282
53	0xbf1f1135	-0.6213563
54	0x3e55b830	0.20871043
55	0xbea9ba86	-0.3315012
56	0x3e97335d	0.29531375
57	0x3e6179f8	0.22019184
58	0xbe25b329	-0.16181625
59	0xbec58078	-0.38574576
60	0x3f7041ce	0.9385041
61	0x3e0f8e42	0.14019111
62	0x3d010431	0.031498138
63	0xbf59f2b8	-0.85135984
64	0xbd114382	-0.03546477
65	0x401b4afe	2.4264522
66	0x3d80f03f	0.06295823
67	0xbc87305c	-0.016502552
68	0xbe29e9b6	-0.1659306
69	0xbd7ffc85	-0.06249668
70	0xbf83aae9	-1.0286533
71	0xbf0e316f	-0.5554418
72	0xbf3b5dcc	-0.7319
73	0x3e424e00	0.18975067
74	0x3e3778e1	0.17917205
75	0x3dd76ff2	0.10519399
76	0x3d544986	0.05182793
77	0x3d782870	0.06058544
78	0x3da86098	0.08221549
79	0xbe35e294	-0.17762214
80	0xbe51901c	-0.2046513
81	0xbebd334f	-0.36953208
82	0xbfee7c8b	-1.8631757
83	0xbf1fde4e	-0.62448585
84	0x3f554f03	0.8332369
85	0x3f6cc2db	0.92484826
86	0xbe156deb	-0.14592712
87	0x3dcc541c	0.0997698
88	0xbe18f2e3	-0.14936404
89	0x3e8c003d	0.27343932
90	0x3cde5adc	0.027142935
91	0xbe541c40	-0.20713902
92	0xbd645177	-0.055741753
93	0x3f850a36	1.0393741
94	0x3de087a7	0.10963374
95	0xbc420b14	-0.011843462
96	0xbf884908	-1.0647287
97	0xbcb454ba	-0.022013057
98	0xc0062772	-2.0961576
99	0x3ed42a25	0.41438404
100	0x3e573cc8	0.2101928
101	0x3e860b5d	0.26180544
102	0xbeb12793	-0.34600505
103	0x3f4d0ebe	0.8010062
104	0x3f708a30	0.9396086
105	0xbe3b45c3	-0.1828833
106	0x3da2185c	0.079148024
107	0x3edd0628	0.4316876
108	0xbe10e8e8	-0.14151347
109	0x3e153fd0	0.14575124
110	0x3e37be5a	0.17943707
111	0xbde54efc	-0.11196706
112	0xbe706dcb	-0.23479383
113	0x3e5ec581	0.2175503
114	0xbeb30f29	-0.34972504
115	0xbf988eec	-1.1918616
116	0x3e3df2a2	0.18549588
117	0xbf1ca0b9	-0.61182743
118	0x3ec8e288	0.3923533
119	0x3d281d6b	0.04104368
120	0x3eb38052	0.35058838
121	0xbd9f5c14	-0.077812344
122	0xbe3bf857	-0.18356453
123	0x3e2d1c80	0.16905403
124	0xbe60cfb8	-0.21954238
125	0x3e8fae34	0.28062594
126	0x3e9e5484	0.30923855
127	0xbeca482e	-0.39508194
128	0xbd0024fa	-0.031285264
129	0xbeb84b02	-0.35994726
130	0x3a884ba0	0.0010398515
131	0xbf84206e	-1.0322397
132	0x3e0ab979	0.13547315
133	0xbe387623	-0.18013816
134	0xbeec4f32	-0.4615417
135	0x3e277091	0.16351534
136	0x3c3a48ed	0.011369926
137	0xc006d6b5	-2.1068547
138	0xbc57e56d	-0.013177258
139	0x3d0d3905	0.034478206
140	0xbef010d5	-0.46887842
141	0xbf9c6d8b	-1.222093
142	0xbdbb0268	-0.09131318
143	0x3e45303a	0.19256678
144	0x3e2ab68b	0.16671197
145	0xbf0de14c	-0.554219
146	0xbd8a4175	-0.06750766
147	0x3ea30768	0.31841588
148	0x3f3aa643	0.72909945
149	0xbf8aa9b5	-1.083304
150	0x3d99e878	0.07515043
151	0x3f0e75d0	0.5564852
152	0xbd99f9b5	-0.07518331
153	0x3dcf0f7c	0.10110375
154	0xbda24231	-0.07922781
155	0x3e64574f	0.2229893
156	0xbd7ccd02	-0.06171895
157	0x3e864f9f	0.2623262
158	0x3db760bb	0.08953997
159	0x3fbd58a9	1.4792682
160	0x3e645e33	0.22301559
161	0xbc8924f4	-0.016741253
162	0xbfbd2413	-1.4776634
163	0x3d2a2b9f	0.041545507
164	0xbfe4d56e	-1.7877634
165	0xbebdd750	-0.37078333
166	0x3eb72e4b	0.35777506
167	0xbf0ca4c0	-0.5493889
168	0xbe600386	-0.21876344
169	0xbf965bab	-1.1746725
170	0xbfb60956	-1.4221599
171	0x3f2076c6	0.62681234
172	0xbe4c13ff	-0.19929503
173	0xbdc61bac	-0.09673247
174	0x3f003fa4	0.5009711
175	0xbea898cd	-0.32929078
176	0x3e120727	0.14260541
177	0xbdae1d92	-0.08501734
178	0xbd2fc0a6	-0.042908333
179	0x3d9c02ed	0.076177455
180	0xbdee7864	-0.116440564
181	0xbf613197	-0.87966293
182	0xbf624f8c	-0.8840263
183	0x3e728afb	0.2368583
184	0xbf0c4a08	-0.5480046
185	0xbddcf2f2	-0.10788526
186	0xbdb1d1a1	-0.08682562
187	0x3dcfa144	0.10138181
188	0xbe0abdad	-0.13548918
189	0x3e9654e2	0.29361635
190	0x3e747336	0.23872074
191	0xbe92ccae	-0.28671783
192	0x3f6ee6e5	0.9332107
193	0xbe1838a9	-0.14865364
194	0xbd0a7a9d	-0.03380834
195	0xbf66df23	-0.9018423
196	0x3ce4affa	0.027915943
197	0x3fc6c5c3	1.5529102
198	0xbe858cf3	-0.26084098
199	0x3e8d3a6d	0.27583638
200	0x3da02380	0.07819271
201	0xbfa16bf4	-1.261107
202	0x3f72e579	0.948814
203	0x3fb5b24b	1.4195036
204	0x3b873562	0.004126237
205	0xbea84167	-0.32862398
206	0xbf5dc1a9	-0.86623627
207	0xbe6f16cf	-0.23348545
208	0xbe2335d1	-0.15938498
209	0xbd77d79f	-0.060508367
210	0x3d9fd849	0.07804925
211	0x3e980bed	0.296966
212	0xbe27a990	-0.16373277
213	0xbe4b81d8	-0.1987375
214	0x3df58590	0.11988366
215	0x3fccf46b	1.601209
216	0x3f6a4008	0.91503954
217	0xbf2687e9	-0.6505113
218	0xbe33294e	-0.17496225
219	0xbe5d011d	-0.21582456
220	0xbf097259	-0.53690106
221	0xbca8784e	-0.020565178
222	0x3d8fab5c	0.07015106
223	0xbe2863f6	-0.16444382
224	0xbe72e3ac	-0.23719662
225	0x3f81d07e	1.0141752
226	0x3ee06361	0.4382582
227	0xbcb65c9a	-0.022260953
228	0xbf84353a	-1.0328743
229	0xbc8b7394	-0.017022885
230	0xbf5a10d8	-0.8518195
231	0x3e0a8771	0.1352823
232	0x3da2b9d3	0.079455994
233	0x3d8d83d1	0.069099076
234	0xbf1663ab	-0.5874583
235	0x3f84b3cd	1.0367371
236	0x3f85056b	1.0392278
237	0xbeea7c97	-0.4579818
238	0xbeb4002a	-0.35156375
239	0x3f06f151	0.5271197
240	0xbf01b392	-0.5066463
241	0xbdae44a2	-0.085091844
242	0xbe4387f2	-0.19094828
243	0x3cc477d5	0.023982922
244	0x3f18e0ae	0.59717834
245	0xbe4a14a7	-0.1973444
246	0x3e47baa1	0.19504787
247	0xbe514dfa	-0.20439902
248	0xbfd594fb	-1.668609
249	0x3eb11b02	0.34590918
250	0xbf9f524c	-1.244699
251	0xbe5d379d	-0.21603246
252	0x3eb76a54	0.3582331
253	0xbf0d9a61	-0.5531369
254	0x3dac0126	0.083986565
255	0xbd6e3adc	-0.0581616

fcs1.bias f4 [400]
0	0xbf407657	-0.7518057
1	0xbf4453b9	-0.7669025
2	0xbf6d4547	-0.92683834
3	0xbe7a8de8	-0.24468195
4	0xbfb2c7e6	-1.3967254
5	0xbf3fa684	-0.7486346
6	0xbf64cdcf	-0.8937654
7	0xbf9cac59	-1.2240096
8	0xbf357a95	-0.7089017
9	0xbf9ac45a	-1.2091172
10	0xbf993c00	-1.1971436
11	0xbf599577	-0.8499369
12	0xbf4b2cfa	-0.79365504
13	0xbf4643ec	-0.7744739
14	0xbeb7bd01	-0.35886386
15	0xbfb473bb	-1.4097818
16	0xbef1972c	-0.47185647
17	0xbf9cc12a	-1.2246449
18	0xbf8f8e2e	-1.1215265
19	0xbf9d49a2	-1.2288096
20	0xbf92cd89	-1.1468974
21	0xbf968a67	-1.1760987
22	0xbf6c2b79	-0.92253834
23	0xbf5e9ed8	-0.86961126
24	0xbf1a5b2c	-0.6029537
25	0xbfbba531	-1.4659787
26	0xbf1e7d21	-0.6190968
27	0xbf819405	-1.0123297
28	0xbf5dc628	-0.8663049
29	0xbe8f14c9	-0.27945545
30	0xbfa4045c	-1.281383
31	0xbebf3684	-0.3734628
32	0xbf73ffb6	-0.9531206
33	0xbf4924b6	-0.7857164
34	0xbf6b9161	-0.92018706
35	0xbf81daae	-1.0144861
36	0xbfc21e72	-1.5165541
37	0xbfabda0a	-1.3425915
38	0xbf9badc3	-1.2162403
39	0xbf7cbef0	-0.9872885
40	0xbf3548eb	-0.7081439
41	0xbe8b10b8	-0.27161193
42	0xbf2723fa	-0.6528927
43	0xbf09dd56	-0.53853357
44	0xbfb0088d	-1.375261
45	0xbf61ed2b	-0.88252515
46	0xbfa9b437	-1.3258122
47	0xbebfc939	-0.37458208
48	0xbf739f69	-0.95165116
49	0xbfadda8d	-1.3582321
50	0xbf42df08	-0.7612157
51	0xbf7f4ae2	-0.9972364
52	0xbf92289c	-1.1418643
53	0xbf88fb07	-1.0701607
54	0xbfb985cb	-1.4493955
55	0xbf6291b3	-0.8850357
56	0xbfa19fc5	-1.2626883
57	0xbf0ad504	-0.54231286
58	0xbfb31fb0	-1.3994045
59	0xbf8ce8e8	-1.1008577
60	0xbf829cce	-1.0204103
61	0xbfa492aa	-1.2857258
62	0xbf12b601	-0.57308966
63	0xbf716ea5	-0.94309455
64	0xbf8193c9	-1.0123225
65	0xbfb4ec19	-1.4134551
66	0xbfbdb514	-1.4820886
67	0xbf21f82a	-0.63269293
68	0xbf6119ad	-0.87929803
69	0xbf27e972	-0.65590584
70	0xbfaedc31	-1.3660947
71	0xbf8b8d23	-1.0902447
72	0xbf89f42e	-1.0777643
73	0xbfafccbf	-1.3734359
74	0xbfb3b59a	-1.4039795
75	0xbf98c966	-1.1936462
76	0xbf9202a3	-1.1407055
77	0xbf9c056b	-1.2189153
78	0xbf5841fe	-0.84475696
79	0xbfc1eae6	-1.514981
80	0xbfb38d2c	-1.4027457
81	0xbf43f9ec	-0.76553226
82	0xbea30a13	-0.31843624
83	0xbfbce160	-1.4756279
84	0xbf8c13d1	-1.0943547
85	0xbf920e9c	-1.1410708
86	0xbf1f4914	-0.62220883
87	0xbfadf1f4	-1.3589463
88	0xbf1459fb	-0.579498
89	0xbf9dbd50	-1.2323399
90	0xbfae80c4	-1.3633046
91	0xbf31de36	-0.6947969
92	0xbf241174	-0.6408913
93	0xbf8b05c9	-1.086114
94	0xbf6f955a	-0.9358727
95	0xbfa2712e	-1.269079
96	0xbf85ddac	-1.0458274
97	0xbf8344f0	-1.0255413
98	0xbfb552b3	-1.4165863
99	0xbf2d3aa6	-0.67667615
100	0xbfac64b4	-1.3468232
101	0xbf347c77	-0.7050242
102	0xbfc30ed6	-1.5238903
103	0xbf40a9bd	-0.75259
104	0xbf86fb58	-1.0545454
105	0xbf79c14a	-0.9756056
106	0xbf3f8644	-0.7481425
107	0xbf96dd42	-1.1786273
108	0xbfc1ac0b	-1.5130628
109	0xbfbb09ee	-1.4612405
110	0xbf840ced	-1.0316445
111	0xbf80033c	-1.0000987
112	0xbf478df5	-0.77950984
113	0xbfb167ce	-1.3859804
114	0xbf945e95	-1.1591364
115	0xbfc1eafd	-1.5149838
116	0xbf99c483	-1.2013096
117	0xbf8addb1	-1.0848905
118	0xbf8ea664	-1.1144528
119	0xbf3c8e85	-0.7365497
120	0xbcfa1989	-0.030529754
121	0xbf7d5463	-0.9895689
122	0xbf997250	-1.198801
123	0xbf5cd936	-0.8626894
124	0xbf6a7994	-0.91591763
125	0xbef7c0c2	-0.4838925
126	0xbfa1d498	-1.2643003
127	0xbf962a78	-1.173171
128	0xbf9d0392	-1.2266715
129	0xbf9fe4f4	-1.2491746
130	0xbf7d2737	-0.9888796
131	0xbf1d8da5	-0.6154426
132	0xbf78add3	-0.97140235
133	0xbf9ec54e	-1.2403963
134	0xbf85b75c	-1.0446582
135	0xbf9aa403	-1.2081302
136	0xbf82898c	-1.0198226
137	0xbfda9e2e	-1.7079523
138	0xbfc6bb7c	-1.5525966
139	0xbfc4fc17	-1.5389432
140	0xbf3a36aa	-0.7273966
141	0xbf751cef	-0.95747274
142	0xbfaaa6ae	-1.3332117
143	0xbfa0db1d	-1.2566868
144	0xbfa2c617	-1.2716702
145	0xbf8a5846	-1.0808189
146	0xbf474eb2	-0.77854455
147	0xbf298f16	-0.66233957
148	0xbfa28602	-1.2697146
149	0xbf882799	-1.0637084
150	0xbf9b7ee0	-1.2148094
151	0xbf8ea21e	-1.1143224
152	0xbf760d36	-0.9611391
153	0xbf7ef690	-0.99594975
154	0xbfae303f	-1.3608474
155	0xbeb8cbd4	-0.3609301
156	0xbf94a35c	-1.1612353
157	0xbfb2ea01	-1.3977662
158	0xbf3ab0d9	-0.729261
159	0xbfa15d28	-1.2606554
160	0xbf463bbd	-0.77434903
161	0xbf2fd799	-0.6868835
162	0xbf7b538c	-0.9817436
163	0xbf8b0934	-1.0862184
164	0xbf787970	-0.970603
165	0xbfbfbee7	-1.4980134
166	0xbfa8c949	-1.3186427
167	0xbf576380	-0.841362
168	0xbf81d73b	-1.0143808
169	0xbf5e0368	-0.8672395
170	0xbfb7bf94	-1.435534
171	0xbf79ec20	-0.97625923
172	0xbfb8c496	-1.4434993
173	0xbfbe5dab	-1.4872335
174	0xbf9915d5	-1.1959788
175	0xbf933dbc	-1.1503215
176	0xbf7ab34a	-0.97929823
177	0xbf842a22	-1.0325358
178	0xbf87bea8	-1.0605059
179	0xbfb60b3c	-1.4222178
180	0xbfc4b189	-1.536668
181	0xbfca663b	-1.5812448
182	0xbf7ae385	-0.9800342
183	0xbf40b35a	-0.7527367
184	0xbf94c0d8	-1.1621351
185	0xbf9f8f66	-1.2465637
186	0xbf2288a9	-0.63489777
187	0xbf413cff	-0.754837
188	0xbf9e5b5e	-1.2371633
189	0xbf2934f0	-0.660964
190	0xbf578fed	-0.8420399
191	0xbf54a233	-0.83059996
192	0xbfb7903e	-1.4340894
193	0xbf8ef097	-1.1167172
194	0xbfb12256	-1.3838603
195	0xbf5b5cad	-0.85688287
196	0xbf81fa5a	-1.0154526
197	0xbf5e43a9	-0.8682199
198	0xbfb13f31	-1.384741
199	0xbf85adb9	-1.0443641
200	0xbf939d2e	-1.1532342
201	0xbf6a0306	-0.91410863
202	0xbfafd846	-1.3737876
203	0xbfb24380	-1.3926849
204	0xbf837dc4	-1.0272756
205	0xbf9e9ba3	-1.2391247
206	0xbf433c52	-0.76263916
207	0xbfb1f143	-1.3901752
208	0xbef54114	-0.47901213
209	0xbfd0b63a	-1.6305611
210	0xbf875fbc	-1.0576091
211	0xbfbcc72e	-1.4748285
212	0xbf5eb1b9	-0.86989933
213	0xbf92f497	-1.1480893
214	0xbf94d280	-1.162674
215	0xbf939bde	-1.1531942
216	0xbfbac663	-1.4591793
217	0xbf5541f4	-0.8330376
218	0xbfa57cfa	-1.2928765
219	0xbefa0fc8	-0.48840165
220	0xbf838ae8	-1.0276766
221	0xbfbcdcda	-1.4754899
222	0xbf78b4e4	-0.9715102
223	0xbf6ccf7f	-0.92504114
224	0xbfad6208	-1.3545542
225	0xbf8b0aee	-1.086271
226	0xbee9618b	-0.45582232
227	0xbf8fddd9	-1.1239578
228	0xbf81a59c	-1.0128665
229	0xbf8d72a4	-1.105061
230	0xbfa8a813	-1.3176292
231	0xbf42d33d	-0.76103574
232	0xbf9ec38e	-1.2403429
233	0xbf761aaf	-0.96134466
234	0xbfa06afe	-1.2532651
235	0xbe34aeca	-0.17644802
236	0xbfc670b1	-1.5503141
237	0xbf9d31fb	-1.2280878
238	0xbf8bf3c6	-1.0933769
239	0xbf98198c	-1.1882796
240	0xbf9b5026	-1.2133834
241	0xbf673f6e	-0.9033116
242	0xbfbca8cf	-1.4739016
243	0xbf91e3cd	-1.1397644
244	0xbf99267d	-1.1964871
245	0xbf39fb7b	-0.72649354
246	0xbfbd438c	-1.4786239
247	0xbf1ffa7e	-0.62491596
248	0xbfad5b3b	-1.3543466
249	0xbef7436e	-0.48293632
250	0xbf663112	-0.89918625
251	0xbf80b6dc	-1.0055804
252	0xbf01699f	-0.5055179
253	0xbf3827b7	-0.719356
254	0xbf817f7c	-1.011703
255	0xbee54b36	-0.44783944

fc2.weight f4 [300, 404]
0	0xbcc26cc5	-0.023733506
1	0xbdc5d782	-0.096602455
2	0xbd3b1d0e	-0.045682006
3	0xbd021ee7	-0.031767752
4	0x3d6c5689	0.057699714
5	0xbdbce2da	-0.09222956
6	0xbd6d114a	-0.057877816
7	0xbd8eb07e	-0.06967257
8	0x3cdb7e77	0.026793702
9	0xbc889647	-0.01667322
10	0xbd80c69a	-0.0628788
11	0xbbe85274	-0.0070899073
12	0xbdb8868d	-0.090100385
13	0xbcf9a574	-0.030474402
14	0xbce2e054	-0.027694859
15	0xbd31bb73	-0.043391656
16	0xbd45791b	-0.0482112
17	0x3ce5c10d	0.028046155
18	0x3d47c55b	0.048772197
19	0xbca6c58e	-0.020357873
20	0xbd07a86b	-0.0331196
21	0x3c849535	0.016184429
22	0x3d014470	0.031559408
23	0x3c70f305	0.014706378
24	0xbd1fe611	-0.039037768
25	0xbd9f98a5	-0.077927865
26	0x3cce15e9	0.025156932
27	0x3ba58532	0.0050512785
28	0xbdb01387	-0.085974745
29	0xbd082148	-0.033234864
30	0xbd805bbd	-0.06267498
31	0xbd866b72	-0.06563462
32	0xbd4f0f19	-0.050551508
33	0xbd75443b	-0.059879523
34	0x3b4c5fc4	0.003118501
35	0xbcfb7bbd	-0.030698651
36	0xbc8310a2	-0.015999142
37	0xbdc69a5c	-0.096974105
38	0xbd976c0d	-0.07393656
39	0xbcff39bf	-0.031155465
40	0xbc239016	-0.009983083
41	0x3c4a6dd9	0.012355291
42	0xbdaba671	-0.083813556
43	0x3b86d147	0.0041143033
44	0x3c7872cb	0.0151640875
45	0xbd96d2f3	-0.07364454
46	0xbd078c77	-0.033092942
47	0xbd6052c1	-0.05476642
48	0x3d044ca1	0.03229964
49	0x3c1c66d6	0.009546002
50	0x3ce8ec62	0.028433029
51	0xbdaf2876	-0.08552639
52	0xbda4a5d9	-0.080394454
53	0xbdc9091e	-0.09816192
54	0xbb5de696	-0.0033859364
55	0xbd63ab44	-0.055583254
56	0x3d0dbdd6	0.03460487
57	0xbd8cf498	-0.0688259
58	0xbb736ad2	-0.0037142527
59	0xbce7fcbc	-0.028318755
60	0xbcd65ad8	-0.026166365
61	0xbc472e37	-0.012157015
62	0xbca6375c	-0.02029007
63	0xbd4b7c45	-0.04967906
64	0xbc0d85a2	-0.008637818
65	0x3bef2711	0.0072983583
66	0xbd040ea9	-0.032240544
67	0xbd86d525	-0.06583623
68	0xbcbb3df1	-0.022856684
69	0xbc55af76	-0.013042321
70	0x3c53c813	0.012926119
71	0x3cc196da	0.023631502
72	0xbd2979df	-0.04137599
73	0xb9309f88	-0.00016844098
74	0x3cff6e6f	0.031180589
75	0xbcb660b6	-0.022262912
76	0xbbf0e367	-0.007351327
77	0xbd879ea1	-0.06622053
78	0xbd911b6b	-0.07085308
79	0xbd4aff62	-0.04955996
80	0xbdace9c9	-0.084430285
81	0x3d85efc3	0.065398715
82	0x39cb70b3	0.00038803145
83	0x3d452e7e	0.04814004
84	0xbd425889	-0.047447715
85	0x3c785c92	0.015158789
86	0xbccde607	-0.0251341
87	0xbd9c25d3	-0.07624402
88	0x3d3f5828	0.04671493
89	0x3c8fd555	0.01755778
90	0x3d272f44	0.04081656
91	0x3bfee86e	0.0077791726
92	0xbd72bde6	-0.059263133
93	0xbccbcc8c	-0.024877809
94	0x3cb4c0e8	0.022064641
95	0xbd0336bb	-0.032034617
96	0x3d1634ca	0.036671437
97	0x3d109e5c	0.035307273
98	0xbc02275e	-0.007943956
99	0xbd271a2a	-0.040796436
100	0x3ca5eb20	0.020253718
101	0xbd48dcfb	-0.04903887
102	0x3d0b294f	0.03397494
103	0xbd038ee4	-0.032118693
104	0xbd496e54	-0.049177483
105	0xbcfd919f	-0.030953227
106	0xbd5a4a74	-0.05329366
107	0xbc2c3aaa	-0.0105120335
108	0x3cad36fd	0.021144385
109	0x3cb45da5	0.02201731
110	0xbd155143	-0.03645445
111	0xbcd0eec0	-0.02550447
112	0xbbb977da	-0.0056600394
113	0xbcbe5a30	-0.023236364
114	0xbd83ba71	-0.06432045
115	0xbca9bf16	-0.020721
116	0xbda8e589	-0.08246905
117	0xbc5b147b	-0.013371582
118	0xbd0e343c	-0.034717783
119	0xbd1d8315	-0.038455088
120	0xbce51804	-0.027965553
121	0x3d81a042	0.06329395
122	0x3d0d4a14	0.034494475
123	0xbd2ffc1e	-0.042965047
124	0x3d0236e2	0.03179062
125	0xbdf314df	-0.11869215
126	0x3ce9ca21	0.028538765
127	0xbdb6aaca	-0.08919294
128	0xbd46a0ff	-0.04849338
129	0x3b72ba34	0.0037037255
130	0xbc04ecfb	-0.008113141
131	0xbd4bc8cd	-0.049752045
132	0x3c9a020e	0.018799808
133	0x3ceddedb	0.02903693
134	0xbd95f607	-0.073223166
135	0x3c671fc4	0.014106695
136	0xbccff261	-0.02538413
137	0xbd1d5091	-0.038406912
138	0x3ce41c7e	0.027845617
139	0x3c0d1ed6	0.008613309
140	0x3c999c86	0.018751394
141	0xbdfac06c	-0.12243733
142	0x3cfefaa2	0.03112537
143	0xbdb0c4b6	-0.0863127
144	0x3d369b41	0.044581655
145	0x3c6304ae	0.013856096
146	0x3d499445	0.049213666
147	0xbd7dbde9	-0.06194869
148	0xbe148923	-0.14505439
149	0xbcdf465b	-0.027255228
150	0xbcb0a0e9	-0.021561103
151	0xbdea43da	-0.11438723
152	0x3ce499c9	0.027905362
153	0xbbd0f034	-0.0063762907
154	0xbcf076c2	-0.029353503
155	0xbcb29557	-0.021799726
156	0xbd8918c5	-0.066941775
157	0xbb95ee88	-0.0045755543
158	0xbd4e4e31	-0.050367538
159	0xbda3a618	-0.07990664
160	0xbac583d6	-0.0015069197
161	0xbb863502	-0.0040956745
162	0xba92cbf9	-0.0011199705
163	0xbc58a332	-0.013222503
164	0xbd8e5d75	-0.06951419
165	0xbdaed22c	-0.08536181
166	0x3cf6b479	0.030115353
167	0xbdbf0bd7	-0.0932843
168	0x3ce0ca7b	0.0274403
169	0xbdbfaf8c	-0.09359655
170	0xbd766fdb	-0.060165267
171	0xbcddd6c3	-0.027079945
172	0xbd6dd4f1	-0.058064405
173	0xbd8454ab	-0.06461462
174	0xbd7ff681	-0.062490944
175	0xbd887155	-0.06662241
176	0xbd4ce5d7	-0.05002388
177	0xbc29fc1f	-0.010375052
178	0xbb8dd862	-0.0043287734
179	0xbc9f755a	-0.019465137
180	0x3c107942	0.008817973
181	0x3d1e80bf	0.038697
182	0x3bceeee8	0.006315101
183	0x3c3a5548	0.011372872
184	0x3c0eaf56	0.0087087955
185	0xbd8fb928	-0.070177376
186	0xbbf730e1	-0.0075436686
187	0xbd4e61d2	-0.050386257
188	0x3d194c0f	0.03742605
189	0xbd3813e1	-0.044940833
190	0xbc6dbfe8	-0.014511086
191	0xbdbd7f3c	-0.09252784
192	0xbd27ac47	-0.04093578
193	0xbd1645bb	-0.036687594
194	0xbd68e710	-0.056860983
195	0xbd114ca5	-0.035473485
196	0xbd96d534	-0.07364884
197	0xbd829d31	-0.06377638
198	0xbce65b68	-0.028119758
199	0x3c6cf351	0.014462308
200	0x3d801c50	0.062554
201	0x3cd5cfaa	0.026099999
202	0x3cd68c42	0.026189927
203	0x3c8c1dd2	0.017104063
204	0xbd6926f6	-0.05692192
205	0xb9ac24cd	-0.00032833815
206	0x3cb88d9c	0.022528462
207	0xbc5eebff	-0.013606071
208	0xbd1a25aa	-0.037633575
209	0x3ad653a9	0.0016351837
210	0x3d0189f5	0.031625707
211	0xbd1a80a2	-0.03772033
212	0xbd7d283a	-0.06180594
213	0xbd8a06a3	-0.06739547
214	0xbda19a34	-0.0789074
215	0xbe6804a3	-0.22658019
216	0x3c0ba559	0.008523309
217	0xbd4150a2	-0.047196038
218	0xbd5ec55c	-0.054387435
219	0xbd850e7e	-0.06496905
220	0x3cdb9cd0	0.026808172
221	0xbda427f2	-0.080154315
222	0xbdcea65d	-0.10090325
223	0xbd3c70dd	-0.046006072
224	0xbcb7f364	-0.022454925
225	0xbcf50c90	-0.029913217
226	0xbd41dd87	-0.047330406
227	0xbd188d8d	-0.03724437
228	0x3c8eabf7	0.017415984
229	0xbd623ace	-0.05523186
230	0xbbde9ddd	-0.006793721
231	0xbbad55b0	-0.0052897558
232	0xbc19f23d	-0.009396133
233	0xbc805f9c	-0.01567059
234	0xbd92214c	-0.07135257
235	0xbd1087b0	-0.03528565
236	0x3d2fa5e1	0.042882804
237	0xbd7de821	-0.061988954
238	0xbda18c1d	-0.078880526
239	0xbd857e0a	-0.06518181
240	0xbc02218b	-0.007942568
241	0xbb032f0e	-0.002001706
242	0x3cbbc954	0.02292315
243	0xbc386e2b	-0.011256735
244	0xbc980627	-0.018557621
245	0xbcce818e	-0.02520826
246	0x3d186512	0.037205763
247	0xbd29081a	-0.041267492
248	0xbd7016d1	-0.05861551
249	0xbc462c3f	-0.01209551
250	0x3cf4b820	0.029872954
251	0x3d62f0f4	0.055405572
252	0xbc2da0c5	-0.0105974125
253	0xbbb4687f	-0.005505621
254	0xbc89b100	-0.016808033
255	0xbda9caf4	-0.08290663

fc2.bias f4 [300]
0	0xbd6e10ec	-0.058121607
1	0xbdaf12bf	-0.085484974
2	0xbd74abc3	-0.059734117
3	0xbcf0254f	-0.029314665
4	0xbdd3d05f	-0.10342478
5	0xbd2a7aaa	-0.041620888
6	0xbd2c6a1e	-0.04209339
7	0xbd94c2a6	-0.07263689
8	0xbe091853	-0.13388185
9	0xbd94f189	-0.07272632
10	0xbdcaac61	-0.0989616
11	0xbe1c8e97	-0.15288769
12	0xbd559a29	-0.05214897
13	0xbd8e2b88	-0.06941897
14	0xbeac1154	-0.3360697
15	0xbda4f390	-0.08054268
16	0xbcd65b1d	-0.026166493
17	0xbe9546ab	-0.29155478
18	0xbd94969a	-0.072552875
19	0xbdae8e20	-0.08523202
20	0xbd2ba74e	-0.0419076
21	0xbdbcfd5d	-0.09228013
22	0xbd9eae75	-0.07748119
23	0xbdd80599	-0.10547943
24	0xbd9727e5	-0.07380656
25	0xbdca500d	-0.0987855
26	0xbe8c43ad	-0.27395383
27	0xbd6b5841	-0.057457212
28	0xbde2208b	-0.11041363
29	0xbdc22387	-0.094794326
30	0xbe06740d	-0.13130207
31	0x3f582ff5	0.84448177
32	0xbdbd0315	-0.092291035
33	0xbdbefafd	-0.09325216
34	0xbd8681ef	-0.065677516
35	0xbd47b4c1	-0.048756365
36	0xbe4e1adc	-0.20127434
37	0xbe0aa3df	-0.13539074
38	0xbdb1bf8b	-0.08679112
39	0xbdc7864c	-0.09742412
40	0xbd42e6e7	-0.047583487
41	0xbd6427b7	-0.055701938
42	0xbd39eac9	-0.045389924
43	0xbd7c6546	-0.06162002
44	0xbdcbf62c	-0.09959063
45	0xbdb7d86f	-0.08976828
46	0xbda005de	-0.07813619
47	0xbd832c30	-0.064049125
48	0xbda41a52	-0.08012833
49	0xbdc5c71f	-0.0965712
50	0xbd8e8c9b	-0.06960412
51	0xbd7360f6	-0.05941864
52	0x3e0372ed	0.1283681
53	0xbdb6e413	-0.089302205
54	0xbe04345b	-0.12910597
55	0xbd53d0d1	-0.051712815
56	0xbda72124	-0.08160618
57	0xbdd0015a	-0.10156508
58	0xbd1994de	-0.037495486
59	0xbd98e8c2	-0.0746627
60	0xbdd843b2	-0.10559787
61	0xbd97c8e4	-0.07411364
62	0xbe0b59f1	-0.13608529
63	0xbd30f318	-0.043200582
64	0xbe5bf9fd	-0.21482082
65	0xbd80464b	-0.06263407
66	0xbdb4ff66	-0.08837776
67	0xbd82c1bd	-0.06384609
68	0xbd451556	-0.04811605
69	0x3fb7c4c1	1.435692
70	0xbdd8b301	-0.10581017
71	0xbdb151c3	-0.08658173
72	0xbdd4cd34	-0.10390702
73	0xbc8ae1ee	-0.016953435
74	0xbd91ac26	-0.07112913
75	0xbd96bf06	-0.073606536
76	0xbd8feacf	-0.07027208
77	0x3ec668b4	0.38751757
78	0xbdeaecde	-0.1147096
79	0x3f1e4d41	0.6183663
80	0xbdfd418f	-0.1236602
81	0xbdba9cc9	-0.09111936
82	0xbd9105f3	-0.07081213
83	0xbe073e2b	-0.13207309
84	0xbd3a7b86	-0.045527957
85	0x3f9fa44e	1.2472017
86	0xbdc63466	-0.09677963
87	0xbdfa323f	-0.12216615
88	0xbdcb469a	-0.099255756
89	0xbddced0e	-0.10787402
90	0xbd92a398	-0.07160109
91	0xbe137c53	-0.14402895
92	0xbe1785f8	-0.14797199
93	0xbdea0e81	-0.11428548
94	0xbdd75f4a	-0.10516222
95	0xbe006591	-0.12538745
96	0xbd808902	-0.06276132
97	0xbceeb73d	-0.02914011
98	0xbd766c4b	-0.06016187
99	0xbd17c5ad	-0.037053753
100	0xbdd133a8	-0.10214931
101	0x3e003e33	0.12523727
102	0xbdd6851b	-0.104746066
103	0x3f4f4e03	0.8097841
104	0xbdfdbad4	-0.1238915
105	0xbd81108f	-0.063019864
106	0xbd8d5a0d	-0.069019414
107	0xbde3cb65	-0.11122779
108	0xbe228c50	-0.15873837
109	0xbd5fcda6	-0.05463948
110	0xbc9cb536	-0.019129377
111	0xbdb4cb32	-0.08827819
112	0xbd903d95	-0.07042996
113	0xbda72bcd	-0.08162651
114	0xbde4541f	-0.11148857
115	0xbd1c6e9f	-0.038191434
116	0xbde315d4	-0.11088148
117	0xbcf08d4e	-0.029364254
118	0xbd3d9762	-0.046286948
119	0xbd64b4f1	-0.05583662
120	0xbdbda1b9	-0.09259362
121	0x3f2517ee	0.6448964
122	0xbda20085	-0.07910255
123	0xbdd6bf62	-0.10485722
124	0xbd258516	-0.040410124
125	0xbe19740d	-0.14985676
126	0xbdfbdbcf	-0.122977845
127	0xbe423349	-0.18964876
128	0x3c70cc4d	0.014697147
129	0xbe00a92f	-0.12564538
130	0xbdf35a17	-0.11882418
131	0xbc90b70a	-0.017665405
132	0xbe0124de	-0.1261172
133	0x3d9a7811	0.07542432
134	0xbdbd9924	-0.09257725
135	0xbd468f88	-0.048476726
136	0xbdc3a544	-0.09553006
137	0xbdb91787	-0.090376906
138	0xbd8b6b21	-0.068075426
139	0xbe24bb11	-0.16086985
140	0xbde28e29	-0.11062271
141	0xbdbd9dc5	-0.09258608
142	0x3f885a6d	1.0652596
143	0xbd898b16	-0.06715982
144	0xbdcec5a5	-0.100962915
145	0xbdfe8394	-0.1242744
146	0xbdf3cef0	-0.119047046
147	0xbd2d884c	-0.04236631
148	0xbd3c115e	-0.045915
149	0xbc4271df	-0.011867969
150	0xbd7b4a73	-0.061350297
151	0xbcaf4fab	-0.021400293
152	0xbe09fe88	-0.13476002
153	0xbc2c29f2	-0.010508047
154	0xbdbfe81b	-0.093704425
155	0xbe16ce8f	-0.14727233
156	0xbd8dc6f6	-0.069227144
157	0xbd904132	-0.07043685
158	0xbd942b19	-0.07234783
159	0xbde84b86	-0.1134253
160	0xbd89b846	-0.067246005
161	0xbdde5e75	-0.1085786
162	0xbdb79fc0	-0.08966017
163	0xbd02f965	-0.031976122
164	0xbdcd69b2	-0.100299254
165	0xbd7bcb74	-0.061473325
166	0xbddd5a80	-0.10808277
167	0xbdc3b9f8	-0.09556955
168	0xbdc9fc54	-0.09862581
169	0xbdd49e96	-0.1038181
170	0xbdca847d	-0.098885514
171	0xbdc0e713	-0.09419074
172	0xbda32b0f	-0.07967197
173	0xbdd4ec5e	-0.10396646
174	0x3f377565	0.71663505
175	0xbdbba07a	-0.09161468
176	0xbdefc323	-0.11707141
177	0xbd5bd64d	-0.05367117
178	0xbe0e5b27	-0.1390196
179	0xbe45eb0b	-0.19327943
180	0xbdf24ce4	-0.11831072
181	0xbe0e020d	-0.1386797
182	0xbd3feca0	-0.046856523
183	0xbd06dfae	-0.03292816
184	0xbdd3d054	-0.1034247
185	0xbd954481	-0.07288457
186	0xbdc3f681	-0.09568501
187	0xbde833e7	-0.113380246
188	0xbe15b476	-0.14619622
189	0xbdd65e4c	-0.104672045
190	0xbdb3df67	-0.08782845
191	0xbd91be10	-0.0711633
192	0xbd8e15f0	-0.06937778
193	0xbd1d5af2	-0.03841681
194	0xbde9f91b	-0.11424466
195	0xbd61af4a	-0.05509881
196	0xbd97acbc	-0.07405993
197	0xbd9c6fef	-0.07638537
198	0xbcd97860	-0.026546657
199	0xbd31a551	-0.04337055
200	0xbd5c82d5	-0.05383571
201	0x3eb53f56	0.35399884
202	0xbd5185c1	-0.05115295
203	0xbd5e4f51	-0.05427486
204	0xbdc879a3	-0.09788825
205	0xbdc1fe37	-0.09472316
206	0xbd7aa3c7	-0.061191346
207	0xbdbe5609	-0.09293754
208	0xbd0efb47	-0.034907605
209	0xbde0b08f	-0.10971176
210	0xbc05bb9c	-0.008162405
211	0xbd818432	-0.063240424
212	0xbd9d1e6e	-0.076718196
213	0xbe090fe3	-0.13384967
214	0xbdc88557	-0.097910576
215	0xbe06e9d0	-0.1317513
216	0xbd7094c7	-0.058735635
217	0xbf76d6c0	-0.9642143
218	0xbd43232e	-0.04764097
219	0xbdfaba35	-0.122425474
220	0xbdb95a9a	-0.09050484
221	0xbe15905a	-0.14605847
222	0xbe4bc08a	-0.19897667
223	0xbe103960	-0.14084387
224	0xbddc04b5	-0.10743085
225	0xbe271b2a	-0.16318956
226	0xbdb50bd8	-0.0884015
227	0xbd9b2fec	-0.075775
228	0xbdf13ac1	-0.117787845
229	0xbda56baa	-0.08077176
230	0xbde3df47	-0.11126571
231	0xbd5809e4	-0.052743807
232	0xbdf1f4a1	-0.118142374
233	0xbd17144f	-0.036884602
234	0xbdf33bc8	-0.11876637
235	0xbdb2dbdb	-0.0873334
236	0xbdb6a2c6	-0.08917765
237	0xbdcada2b	-0.099048935
238	0xbe07134d	-0.13190956
239	0x3ed4344c	0.4144615
240	0x3e8ab501	0.2709122
241	0xbdf604a1	-0.12012602
242	0xbd6b8459	-0.057499263
243	0xbe3ed950	-0.18637586
244	0xbd423f6b	-0.04742376
245	0xbd70604c	-0.058685586
246	0xbc4f909c	-0.012668755
247	0xbd5c0c23	-0.053722512
248	0xbc7b4150	-0.015335396
249	0xbdc694f0	-0.09696376
250	0xbda011af	-0.07815873
251	0xbddd16ea	-0.10795386
252	0xbdda2030	-0.106506705
253	0xbd2477e5	-0.040153403
254	0x3ea19a47	0.31563017
255	0xbdf27f1f	-0.11840653

fc3.weight f4 [1, 300]
0	0xbc80833d	-0.01568758
1	0x3b158f1d	0.0022820898
2	0x3c8c9ce6	0.017164659
3	0xbc014ff7	-0.0078926
4	0x3bf4433d	0.0074543045
5	0xbc84d881	-0.016216518
6	0xbae4efcd	-0.0017466486
7	0x3b855435	0.004068876
8	0x3c897269	0.016778188
9	0x3c712af1	0.014719711
10	0x3c8e4ffc	0.017372124
11	0x3a1ca3e7	0.0005975351
12	0xbcedf53a	-0.029047597
13	0xbbda3f64	-0.006660389
14	0xbd128387	-0.035769965
15	0x3c76480b	0.015031825
16	0xba0a3a86	-0.0005273003
17	0x3c4be69c	0.012445118
18	0x3b04dbb4	0.0020272555
19	0xbc831ce7	-0.016004993
20	0x3c437b96	0.011931321
21	0x3c9f19ce	0.019421484
22	0xbcfdec69	-0.030996518
23	0x3cbde202	0.023179058
24	0x3bb590fb	0.0055409647
25	0x3c6a3ebc	0.014297184
26	0xbca93985	-0.02065731
27	0xbcae1c82	-0.021253828
28	0xbc8cb30b	-0.017175218
29	0xba0a9df2	-0.0005287818
30	0xbc998df1	-0.01874444
31	0x3cf20845	0.029544959
32	0x3c63a36e	0.013893945
33	0x3bc582e0	0.0060275644
34	0xbb96a9e7	-0.0045978907
35	0x3b9f3423	0.00485851
36	0xbcd8cc60	-0.026464641
37	0xbcdbd3c2	-0.026834372
38	0xbb3ff370	-0.0029289387
39	0xbbfbbb63	-0.0076822503
40	0x3c8ed6b9	0.017436372
41	0x3ce0ddb9	0.027449476
42	0x3c65ba71	0.014021502
43	0x3a15d5ee	0.0005715777
44	0xbcaa4ac0	-0.020787597
45	0xbc814823	-0.015781468
46	0xbb61547f	-0.003438264
47	0x3c1f19ef	0.009710773
48	0x3c207060	0.009792417
49	0x3cdb8f02	0.02680159
50	0x3bca5722	0.006174938
51	0x3c9c3519	0.019068288
52	0x3cfb8e31	0.03070745
53	0xbc1d2638	-0.009591632
54	0xbca3197a	-0.01990961
55	0x3b547090	0.0032415725
56	0xbc201569	-0.00977073
57	0xbbe490e5	-0.0069752806
58	0xbb1aae3e	-0.0023602392
59	0xbb265b8c	-0.0025384156
60	0x3cb21871	0.02174017
61	0xbbb25a37	-0.0054428834
62	0xbd0cc46d	-0.034367014
63	0x3c3841ec	0.011246186
64	0xbdd312b2	-0.103063
65	0x3c4f8546	0.012666052
66	0xbc026b34	-0.0079601295
67	0x3a8b69a5	0.0010636343
68	0x3c2dc272	0.010605441
69	0x3cf998a4	0.030468293
70	0xbcacfb75	-0.021115998
71	0x3d8f1b26	0.069876
72	0x3cef184d	0.029186392
73	0xbc8c55a0	-0.017130673
74	0xbb0f1c27	-0.0021836848
75	0x3b2dcd4c	0.0026520072
76	0xbcb79ed3	-0.0224146
77	0x3d004fa3	0.031325947
78	0x3bea18a6	0.0071440516
79	0x3d02d971	0.03194565
80	0x3cf0452a	0.029329855
81	0x3c7d31bb	0.015453751
82	0xbce73f58	-0.028228447
83	0x3bc7fb4e	0.006102956
84	0xbc485e23	-0.012229475
85	0x3ced0e5a	0.028937507
86	0x3c14b4c8	0.009076305
87	0xbc34a316	-0.011025211
88	0x3cb60e2a	0.02222355
89	0x3ca58ca1	0.020208659
90	0x3beb2765	0.007176327
91	0xba941b43	-0.0011299629
92	0x3befcb73	0.007317954
93	0x3c9d1caa	0.019178707
94	0xbc5b0cf9	-0.013369792
95	0xbc16ce5a	-0.0092044715
96	0xbc220914	-0.00988986
97	0xbb5fdeab	-0.003415982
98	0xbcd07daa	-0.025450546
99	0xbb45fb46	-0.0030209585
100	0x3c97f6ab	0.018550238
101	0x3d104fd5	0.035232384
102	0xbb730bd8	-0.0037085917
103	0x3d1a0e83	0.037611496
104	0x39e9dc55	0.00044605383
105	0x3ca32c66	0.019918632
106	0xbca5399a	-0.020169068
107	0xbb54565b	-0.0032400105
108	0xbc9c255d	-0.019060785
109	0xbceaf9ed	-0.028683627
110	0xbd3fc179	-0.04681537
111	0xbcecf77b	-0.028926602
112	0x3b75dc47	0.0037515329
113	0xbb5ae18d	-0.00333986
114	0x3c6b868a	0.014375338
115	0x3c2acf1a	0.010425353
116	0xbc9427d8	-0.018085405
117	0x3c73d8bc	0.0148832165
118	0xbcb1ed24	-0.021719523
119	0x3b98fe8d	0.0046690167
120	0x3cd3890d	0.025822187
121	0x3d1033dd	0.03520571
122	0xbbe84203	-0.0070879473
123	0xbc6752e0	-0.01411888
124	0xbc6be0b4	-0.014396835
125	0x3bbd66c8	0.0057800747
126	0xbcc1efdf	-0.02367395
127	0xbc66db10	-0.0140903145
128	0xbc4ff923	-0.012693676
129	0x3b673c9b	0.0035283926
130	0x3c0bdad3	0.0085360585
131	0xbc5bedea	-0.013423422
132	0xbc28497f	-0.010271429
133	0xbba62974	-0.0050708596
134	0x3c4275ad	0.011868876
135	0xbc8ba9ca	-0.017048735
136	0xbc2b958b	-0.010472666
137	0x3cf3eb72	0.029775355
138	0xbc83f640	-0.016108632
139	0xbc1ba0ac	-0.009498756
140	0x3cf16e35	0.029471496
141	0xbc9effdb	-0.01940911
142	0x3d064730	0.032782733
143	0x3c9dc66d	0.019259656
144	0xba8468e1	-0.0010102057
145	0xbc0ecc6e	-0.008715732
146	0xbccef6ef	-0.025264231
147	0x3ce61ceb	0.028089961
148	0xbbb4bb76	-0.005515511
149	0xbca08e05	-0.01959897
150	0x3b360b5e	0.0027777771
151	0xbc989140	-0.018623948
152	0xb9e6fbef	-0.00044056724
153	0x3d5b8cae	0.05360096
154	0xbc97cbe6	-0.018529844
155	0x3aa69900	0.0012710392
156	0x3cf4a687	0.029864563
157	0xbbd8792f	-0.006606243
158	0x3ca2d88f	0.019878654
159	0xbcd38515	-0.025820294
160	0xbbb71cb6	-0.0055881394
161	0x3b2a9c4f	0.0026033109
162	0xbb3ef24d	-0.0029136122
163	0xbba1f713	-0.0049427836
164	0x3c0dc951	0.008653955
165	0x3c97c578	0.018526778
166	0xbbd3bbe8	-0.006461609
167	0x3c12b0e1	0.008953304
168	0x3d374ac4	0.044749036
169	0x3c4a9541	0.0123646865
170	0xbd55c174	-0.052186444
171	0x3c88b6bf	0.016688703
172	0x3c244c09	0.010027894
173	0xbbd0914f	-0.0063649784
174	0x3d009dc9	0.031400476
175	0x3ce549c9	0.027989285
176	0x3cc95f36	0.024581533
177	0xbc0b1b30	-0.008490369
178	0x3bbad6dc	0.0057018828
179	0x3b95672a	0.0045594173
180	0x3b577108	0.0032873768
181	0x3c8a1064	0.016853519
182	0xbc976351	-0.018479975
183	0xbcc3345e	-0.023828682
184	0xbbfda20f	-0.007740266
185	0x3c86b7c0	0.01644504
186	0x396937de	0.00022241424
187	0x3924fe06	0.0001573489
188	0xbb93bbda	-0.0045084776
189	0x3becb1ab	0.007223328
190	0x3cf630f7	0.030052645
191	0x3ca823fa	0.020524967
192	0xbc856153	-0.01628176
193	0xbc9a6714	-0.01884798
194	0xbba665f6	-0.0050780727
195	0x3c5c77f8	0.013456337
196	0x3c1da4e8	0.009621836
197	0xbcb50b6c	-0.022100173
198	0xbbc94a50	-0.006142892
199	0xbc87ee76	-0.0165932
200	0x3c10a2d8	0.0088278875
201	0x3d305211	0.043047015
202	0x3c7de63d	0.015496788
203	0x3b575a30	0.0032860152
204	0xbc0cc240	-0.008591235
205	0xba248b90	-0.00062769
206	0xbc7dab2b	-0.015482704
207	0x39035b46	0.00012527136
208	0xbcd6a1bb	-0.026200166
209	0xbb63f059	-0.003478071
210	0xbb854247	-0.0040667388
211	0xbc68f3f6	-0.014218321
212	0x3bcb291d	0.0061999694
213	0xbb17c600	-0.0023158789
214	0xbbad0e14	-0.0052812193
215	0xbbc99c61	-0.006152675
216	0x3cf56dff	0.029959677
217	0xbba54a69	-0.005044271
218	0x3ca8718d	0.020561958
219	0x3b1c61f1	0.0023862089
220	0x3ca5c9cd	0.020237828
221	0xbcd430c3	-0.025902158
222	0x3c616830	0.01375775
223	0x3b5abe07	0.0033377425
224	0xbcb103f8	-0.021608338
225	0x3c1da1cb	0.009621094
226	0xbc59ecd2	-0.013301091
227	0xba8a92b4	-0.0010572285
228	0x3c669574	0.014073718
229	0xbbdd3f2e	-0.0067519164
230	0x3a7f117f	0.0009730085
231	0x3bd34632	0.006447577
232	0xbc3950e4	-0.01131079
233	0x3c82f799	0.015987204
234	0xbcef962f	-0.029246418
235	0x3cba3868	0.022731975
236	0xbcb49b0d	-0.02204659
237	0x3be1ffcb	0.006896948
238	0x3c6f2a79	0.014597529
239	0x3cd564ff	0.026049135
240	0x3d075c54	0.033047035
241	0x3c4f6810	0.012659088
242	0xbcb4b629	-0.022059517
243	0x3be79c61	0.0070682024
244	0xb9753e3a	-0.00023388202
245	0xbbe9e7f3	-0.007138246
246	0xbc28251a	-0.010262752
247	0xbcff6d1d	-0.031179959
248	0x3ccdf1c7	0.025139702
249	0x3c477d9e	0.012175946
250	0xbcb2ace8	-0.021810964
251	0xbb681884	-0.0035415003
252	0x3c09e2f5	0.008415927
253	0x3c91e7b8	0.017810687
254	0x3ccfdc3e	0.025373574
255	0xbc0d3e1f	-0.008620768
