p2_continuous-control_single-agent/checkpoint_critic.pth (torch_old, 542628 bytes, 5 tensors)

fcs1.weight f4 [400, 33]
00000000: 49ec eebd 610f b43d 9175 e43c 55ea 00be
00000010: 3383 e53d 41bd d3bd ea90 3c3d 77ef 5fbe
00000020: fa40 473e b032 2f3d aa0f 18bd 7a01 d33c
00000030: 67c5 f23d 49cf 1cbe 0b2a f73d 36be 33be
00000040: 51ee 26be 4584 643e e855 90be d2f4 243e
00000050: c409 5d3d 7bd9 8d3d 7274 5dbd aa29 c9bd
00000060: 9e09 f13c 748c 843b 41b5 82be 49c9 ab3d
00000070: c74d 883b 585e 03bd b834 e9bd c2e0 a33c
00000080: d42e c1be 8a57 b1bb b2e5 3d3d 420e 6fbd
00000090: 0864 5e38 f32a a63d 1e8a debd 64d6 7d3e
000000a0: 8dd0 d03b 1988 31bd 4260 72be 39f5 3e3d
000000b0: 3a62 a93c d03e e4bd 302a 2ebd d5e6 ef3d
000000c0: 9181 f13d 087e c7bd 807d 50be fd66 9cbd
000000d0: afa9 453d ff2c 7fbe d589 243d c13a 153c
000000e0: 1efb 04b9 1d3f 043c 99cf c6bd 543c 8fbd
000000f0: 67e7 cf3e 0b3d 0e3e 3104 013d 6548 a3be
00000100: 8243 11bd d623 b93e d015 313b ddc6 87bd
00000110: 4547 dd3b 2159 49bd 49d2 d03e b724 bbbe
00000120: 5abd 9c3e f967 af3d dfb6 83bd 55aa 633b
00000130: 43f4 18be ce22 d23a 8407 80bc 674e c5bd
00000140: 64b7 253e f807 083d 7eb5 9bbb 44d3 033e
00000150: 2394 963d 465e 40bd 0ca9 24be 15ad aabd
00000160: 8714 043d 6a33 043e b336 f8bc 41bb 1f3e
00000170: d9a7 d83c c130 3b3e 67d7 9b3d 140b 42bc
00000180: 4527 55be ba54 b4bc d89f e7be 4de4 a03d
00000190: 1b72 8a3d 0a06 453e 6cd4 bbbe 9f6b 3a3e
000001a0: 84a9 2bbe a160 843e d0a4 95bd 700a 03be
000001b0: 3134 a83d 0c22 343d cde2 babd 49b2 d33c
000001c0: 2320 7f3d 5508 0a3e f5c3 543d 9ffe 88be
000001d0: edf0 6abe daf5 103f b4f0 103e a464 3ebe
000001e0: 9cf0 343c 1c1e 2bbd 2880 013d 19d1 08bd
000001f0: 4229 00bd 9440 603d 700d e13d 1ff0 973d
00000200: fa24 00bd f873 24be a04b 883a b918 0ebf
00000210: 89f3 59bd a7b8 dc3c 3a3e ddbd 51b2 4d3d
00000220: 7d9f 9f3e 2e9d f13c 98ea 10be ceb5 f4bc
00000230: b9d8 f9bd a90e 96bd 3743 ac3c 2857 27bd
00000240: 4b58 823d c4a2 95bc 4d33 2a3e 098d 71bd
00000250: f72e 653f ff40 0c3e ca1f 743e 1a7c aebe
00000260: 3875 c0bd 8b62 b8bc 7803 033d 1211 7f3d
00000270: fba3 fc3b 29f6 863d 8f20 3dbc bb5b a93c
00000280: 58e1 94bd f424 89bc a536 9cbc 9f2b 2a3d
00000290: eda3 d83d e040 a3bd 791c 2cbc f4aa 173e
000002a0: e908 58be bfd2 d13d 0864 e43e ae57 883e
000002b0: e013 e23d 13f1 b1be 408b a23b 6c2d 963c
000002c0: 105a 123c 321a d8bc 55f4 68bd dabc 8cbd
000002d0: bd41 4e3e c1b9 abba 8ac4 883e bccb 67bf
000002e0: 202d d83e d89f 5a3a 8c5b 5bbc 95c0 d3bc
000002f0: fcf5 f03b 0f49 653c d2a4 863d 4b8b 83be
00000300: 007d b83d d749 2ebc 9d7a 0abd d97e 70bd
00000310: faaf e43c 9c60 8bbb 5bdf 753d 084f 373e
00000320: 0e03 623d 6948 933e eda0 e2b9 8db6 fc3d
00000330: 9828 93be 24a4 4e3c f9a0 9abd fc32 8ebd
00000340: b874 7bbb abee 1b3e dc58 a8bd e808 0abc
00000350: 8707 403e 90d0 863d 1842 183e 43fa e33e
00000360: 49d3 eabe 45c9 0a3e d6f1 06bd e9c1 2e3d
00000370: f2ed f53c aff8 efbb 59e3 523d 8b45 04bc
00000380: 0f31 083d 02ac 5a3e 98c2 483e 9a5c b6bc
00000390: 2ed1 6dbe 9473 8bbc 3442 b63d 12f8 8dbd
000003a0: 2e81 c73d db6c eabc bc7d 373e 5011 923e
000003b0: 4df5 953d b325 1e3e 4545 20be 7d72 1fbe
000003c0: 299e f33d 5f13 81bc 1c53 7d3d 0e44 22be
000003d0: 81f0 b4bd ac11 333e ef9f 2bbd f189 ca3e
000003e0: ace7 8a3d ad5b 47bc 3248 07be 03c4 8c3d
000003f0: 7155 28be 55eb c63c 2924 1dbd d70d c5bc
-0.116661616 0.08791996 0.027888091 -0.1258939 0.11206665 -0.10338832 0.04603664 -0.21868692
0.1945838 0.04277295 -0.037124313 0.02575754 0.11854058 -0.15313448 0.12068566 -0.17553028
-0.16301848 0.22316082 -0.2819054 0.16109017 0.05396439 0.06926247 -0.05406613 -0.098224
0.029423531 0.0040450636 -0.2552891 0.083880015 0.0041596624 -0.032072395 -0.113870084 0.020004634
-0.3773104 -0.005412047 0.046361633 -0.058363207 5.3022086e-05 0.08113661 -0.108661875 0.24788815
0.0063725174 -0.043342683 -0.23669532 0.04662058 0.02067672 -0.11144793 -0.042520702 0.117139496
0.11792291 -0.097408354 -0.20360374 -0.07636831 0.048257526 -0.24919508 0.04017051 0.009108246
-0.0001268205 0.008071688 -0.09707565 -0.069939286 0.40606233 0.13890474 0.031498138 -0.3189117
-0.03546477 0.36160153 0.0027021058 -0.06629727 0.0067528808 -0.049157266 0.40785435 -0.3655145
0.30613214 0.08564753 -0.06431364 0.0034738977 -0.14936928 0.0016032101 -0.015628584 -0.09634095
0.16183239 0.033210725 -0.00475186 0.1287356 0.073524736 -0.046964906 -0.16080111 -0.08333794
0.03224614 0.12910238 -0.03029952 0.15598775 0.026447223 0.18280317 0.07609444 -0.011843462
-0.20815761 -0.022013057 -0.4523914 0.07856045 0.06760045 0.19240585 -0.36685503 0.18205117
-0.16763884 0.25854972 -0.07306826 -0.1279695 0.0821308 0.043977782 -0.0912529 0.025841849
0.062286507 0.13479741 0.05194469 -0.2675676 -0.22943468 0.5662514 0.14154321 -0.18593079
0.011043694 -0.04177676 0.03161636 -0.033402536 -0.031289347 0.054749086 0.10988891 0.07418846
-0.031285264 -0.16059864 0.0010398515 -0.55506474 -0.05321077 0.026943518 -0.108028844 0.050218884
0.31176367 0.029493894 -0.1415199 -0.029871847 -0.1219954 -0.07327015 0.021028144 -0.040854603
0.06364497 -0.01826609 0.16621132 -0.058972392 0.8952479 0.13696669 0.23840252 -0.34079057
-0.09397358 -0.022507926 0.03198573 0.06227214 0.0077099777 0.0658992 -0.011543407 0.020673623
-0.072695434 -0.016741253 -0.019069025 0.041545507 0.10578141 -0.07971358 -0.010504835 0.14811307
-0.21097149 0.10245275 0.44607568 0.26629394 0.11038947 -0.34754238 0.0049604475 0.018332206
0.008932605 -0.026379678 -0.05687364 -0.06871958 0.20142265 -0.0013101624 0.26712447 -0.9054525
0.42221928 0.00083398586 -0.013388526 -0.025848666 0.0073535424 0.013994469 0.06574406 -0.2569221
0.09008217 -0.010637722 -0.03380834 -0.05871472 0.027915943 -0.00425346 0.06002746 0.17901242
0.055178694 0.28766182 -0.00043225978 0.12339506 -0.28741908 0.012612376 -0.07550234 -0.06943318
-0.003836913 0.15227763 -0.082200736 -0.008424975 0.18752871 0.06582749 0.14868963 0.44526872
-0.45864323 0.1355334 -0.032945476 0.042665396 0.030020688 -0.0073233466 0.051486347 -0.008073221
0.03324991 0.21354678 0.19605482 -0.022260953 -0.23224327 -0.017022885 0.08899346 -0.06932081
0.09741436 -0.02861636 0.17919058 0.28528833 0.07322178 0.15444069 -0.15651424 -0.15571018
0.11895401 -0.015756307 0.061846837 -0.15846273 -0.08834935 0.1748721 -0.04190057 0.39558366
0.06782469 -0.012167853 -0.13211134 0.06873324 -0.16438843 0.024282137 -0.038364563 -0.02405445

fcs1.bias f4 [400]
00000000: 4155 513d 3f16 70be 10e4 8fbd 23af 39bd
00000010: d368 7d3d 7285 c13d 17bd bebd c339 1abe
00000020: 72c3 523b e3ce 25be 4b9f 563d 6c27 a8bc
00000030: 5cf0 35be 11b6 84be 1284 d3bd a608 48bd
00000040: 769a 4cbe 0dec 61be 431a 12be cc95 b23c
00000050: f9f3 4bbe d761 1dbc 529d 153e 7b82 84be
00000060: ee23 85be 0572 8dbd ea04 05be cdb5 05bf
00000070: 37e6 35be 9d0c 0dbe d06a 70be 24a1 063d
00000080: 8228 71bd e5b4 6dbe 74e8 7abd 870d f7bd
00000090: f5e8 1cbe 5f06 78be 5cc1 993c 4c9c 85be
000000a0: 3841 95be cbae b1be 99ba 7abc 36b8 96be
000000b0: d4e6 30be a3a0 2ebe 121a 06be 38af 80bd
000000c0: 2a9f 05bb eb55 d3be 2646 72be 7ab6 43be
000000d0: e879 33be db74 67be a707 b7be 6a8f bbbd
000000e0: b9eb 13be 9098 3ebe af3c cbbd befc 07be
000000f0: 9dde b8bd 21e8 8bbe 13ee 44be bc67 91bd
00000100: d63b aebe a2bb 01bc 8fdc a4be 0c14 05be
00000110: 49bc 14be 837e 253d aa3e 6ebe 7821 eabd
00000120: ba23 6ebc 0ae7 92be 26d8 34be 9814 58be
00000130: 0225 70be 1bc1 b9be eb28 7bbe 5894 b0be
00000140: a954 eebe b193 afbd ccf6 94be 0543 9fbe
00000150: 233b 8abe d415 80be 4bca debd 443f e3bd
00000160: da48 a1be 45e1 adbe 7916 68bc 8914 e63d
00000170: 9738 943d 6f3a c1be 95b0 a1be f17a fabd
00000180: 16e0 eb3d cad8 a0be afa0 73bd c791 5ebe
00000190: 161c 6dbe 4353 b4bd ecf8 023d 5e13 813d
000001a0: f00f ecbd 6f98 14be df32 87bd 0f39 04be
000001b0: f846 71be e106 5ebe 37b7 123d 7009 81bd
000001c0: 9e29 23bc bd23 80be 88f5 abbd 4f72 59be
000001d0: 12c9 f8bd bfa0 34be 7719 abbd f3fc 23bb
000001e0: 8254 003e f2c7 b8be 5955 053e 7c42 243e
000001f0: 283f 69be ff49 8abd 0a47 7a3d dc8f 9a3d
00000200: 27fa 17be 9fc3 22bd 67e2 253b 3a49 79be
00000210: d3b3 d23c 4766 06be 6286 69be d24d e9bd
00000220: b188 d5be 5772 90be 292a 7cbe 2b8f b6be
00000230: 014f 4bbe 2492 06be ab0a 75be ecb4 283b
00000240: 80be 3ebe 9dfc 75be b923 4ebd 1b56 8cbd
00000250: d188 15be 6f07 683d aed1 67be 252e 98bd
00000260: afcf c1bd 99bb bfbd 6dae febe 6324 583d
00000270: 11b2 46be 2ffc 65be f623 c0bd a942 1ebd
00000280: 7dfd 9bbb 5875 d8bc 0b88 14be a172 42be
00000290: 257a 10bc 2c30 cbbe 290b 3bbe c8cf 69be
000002a0: 5dab 98be 983a 2bbe 9ee3 b73c 49ca 41bd
000002b0: 2415 2fbe 0812 bebe 06df 793d bedd aabe
000002c0: e9e6 27be c4d1 e9bd 1e7f 023d 3b06 01be
000002d0: 7f22 a8be 1296 72be 9ad8 fabd e19c 6b3d
000002e0: 55ea efbd 1fc5 49be c577 8ebd e353 59bd
000002f0: 3f7c 56be 20cc 3abe ee9d 25bd 55ed 03be
00000300: b08f 4bbe 4062 4ebe 833b 07be d900 10be
00000310: 10a3 53be db0f 3ebe 5b0f 03be 4f33 1abe
00000320: b90b abbe 900a 44be 121a f4bd 4589 6fbe
00000330: a17b cebc 0fbd 7fbc 8416 a9be 7b17 b2be
00000340: 504b 43bd b470 64be f229 0dbe 74a2 0ebe
00000350: 1237 93be 15eb 7abd 1c2a 42be 350c c0bd
00000360: 45e9 bfbd ad36 1ebe abe2 14be e40a 073e
00000370: e779 413c 0cc8 8cbe a72d e03c 7121 06be
00000380: 878d 2ebe 3729 aabd 76c1 683d 814b f4be
00000390: 9052 69be 0e49 d7bd 13e9 a9be fb65 94be
000003a0: 7345 22be 1711 d1bd 62f2 a83a a4db 72bb
000003b0: 3a1b 1d3c 7b6d 77be 6919 44be f87a a6be
000003c0: 53cf 183d 4c68 20be c507 cabd 9c8a 93be
000003d0: f6e8 b83c 1c0d dbbe 40c3 1dbe b32d 94be
000003e0: 98b2 64be 6239 45be deb3 61bd f0fe 22be
000003f0: dc16 763c 0223 6cbe faba 48be 407c 2c3d
0.051106695 -0.23445986 -0.07025921 -0.04533304 0.061867546 0.09449281 -0.0931341 -0.15061097
0.0032159952 -0.16192202 0.052398007 -0.02052661 -0.17767471 -0.25920156 -0.10327925 -0.048836373
-0.19980797 -0.22062702 -0.1426783 0.021799944 -0.19917287 -0.009605846 0.14610794 -0.258808
-0.26003975 -0.06906513 -0.12990156 -0.5223053 -0.17763601 -0.13774343 -0.23478246 0.03286852
-0.058876522 -0.23213537 -0.06125684 -0.12063127 -0.15323241 -0.2422118 0.018768959 -0.26095808
-0.2915132 -0.3470367 -0.015303277 -0.29437417 -0.17275554 -0.17053466 -0.13095883 -0.0628342
-0.0020389059 -0.41276488 -0.23659572 -0.19112578 -0.17526972 -0.2260317 -0.35748026 -0.091582134
-0.1444539 -0.18612885 -0.09923684 -0.13280007 -0.09026835 -0.27325538 -0.19231443 -0.07099864
-0.34030026 -0.00791827 -0.32199523 -0.12995929 -0.1452495 0.040403854 -0.23266092 -0.11432165
-0.014534885 -0.28691894 -0.17660579 -0.21101606 -0.23451617 -0.3628014 -0.24527328 -0.34488177
-0.46548966 -0.08573092 -0.2909454 -0.3110582 -0.26998243 -0.25016654 -0.10878428 -0.11096051
-0.31500894 -0.3396093 -0.014165514 0.112343855 0.07237356 -0.37739894 -0.31580034 -0.122304805
0.115173504 -0.31415397 -0.05947941 -0.21735297 -0.23155245 -0.088049434 0.03197567 0.06302522
-0.11526477 -0.14511274 -0.066015 -0.12912391 -0.23562229 -0.21682312 0.03581926 -0.06300628
-0.009958653 -0.25027266 -0.08396441 -0.21235012 -0.12147726 -0.17639445 -0.083544664 -0.0025022596
0.12532237 -0.36090046 0.13020839 0.16040987 -0.22777998 -0.06752395 0.061102904 0.0754697
-0.1484152 -0.03973734 0.0025311948 -0.2434434 0.025720512 -0.13124953 -0.22805169 -0.11391796
-0.4170585 -0.28212234 -0.24625458 -0.35656103 -0.19854356 -0.13141686 -0.23929851 0.0025742603
-0.18627357 -0.24022146 -0.050327037 -0.06852361 -0.14602973 0.056647714 -0.2263858 -0.07430676
-0.094634406 -0.09361953 -0.4974245 0.052769076 -0.19403864 -0.22459482 -0.09381859 -0.03863779
-0.004760443 -0.026423141 -0.14505021 -0.1898904 -0.008818184 -0.3968519 -0.18265976 -0.22833169
-0.2981824 -0.1672157 0.022447404 -0.047312055 -0.17097908 -0.37123132 0.061003707 -0.333723
-0.16396679 -0.11416963 0.03185951 -0.12600033 -0.32838818 -0.2369006 -0.12248345 0.05752266
-0.11714617 -0.19704102 -0.06956438 -0.053058516 -0.20945834 -0.1824193 -0.040433817 -0.12883504
-0.19879031 -0.20154667 -0.13206296 -0.14062823 -0.20667672 -0.18560736 -0.12798826 -0.15058635
-0.3340738 -0.19144654 -0.11919035 -0.23392208 -0.025205435 -0.01560904 -0.3302499 -0.3478354
-0.047679245 -0.22308618 -0.13785532 -0.13929158 -0.28752953 -0.061259348 -0.18961376 -0.09377328
-0.093706645 -0.15450545 -0.14539592 0.13187748 0.011808849 -0.27496374 0.027365519 -0.13098694
-0.17046176 -0.08308642 0.056825124 -0.47713855 -0.22785401 -0.10511981 -0.33185634 -0.28984055
-0.15846805 -0.10208338 0.0012889619 -0.0037057186 0.009589011 -0.24162857 -0.19150318 -0.32515693
0.037307095 -0.15664786 -0.09864763 -0.28816688 0.022572022 -0.4278344 -0.15406513 -0.28941116
-0.22333753 -0.19260171 -0.055103175 -0.15917563 0.015020099 -0.2306023 -0.19602576 0.04211068

fc2.weight f4 [300, 404]
00000000: 6b8c aa3b 6f49 13bd 9911 26bc 435b 523b
00000010: a3b0 c0bc da9f eebd 94fb a6bc 5e56 8cbd
00000020: 5748 d03b 937f ecbc abc2 a8bd 0f08 3bbd
00000030: 2fb2 eabd 205a 0cb8 a7a9 5abd 56cc dabd
00000040: 0771 38bd 31fb 2d3d a648 5bbc f340 6e3c
00000050: 234a 9cbd df6a 823c 76f6 88bc 55af 8c3c
00000060: 44f0 90bc 2125 bebd 894b 98bc beb9 b8bb
00000070: 81f3 77bd 3d9c 2ebd 17a2 7bbd d615 aabd
00000080: 4ecf 69bd 11c9 16bd 4b61 8d3b ec56 8ebd
00000090: 4fc3 7b3c 1b1b cbbd 84fc e2bc e3fb 6abd
000000a0: fb71 1c3d 702c 3e3d b5d2 96bd 2032 213c
000000b0: a071 fc3c ce92 2dbd a15f a13c c09a 85bb
000000c0: e7ce 153d a2db e33b 4e41 37bd 7649 b4bd
000000d0: dfe4 7fbd 221b 90bd f2fa 10bc b512 97bd
000000e0: 1108 8a3c bd21 96bd 2cfe ba3b 9861 dabc
000000f0: 1b42 5abd 329b d83c 0606 babc 9614 72bd
00000100: 19b0 c1bc 284d b2bd 4e15 f43a ea83 a6bd
00000110: 8e70 6fbd 30d2 0abd 625c b33b cd19 9e3c
00000120: 99ee e8bd 2637 f0ba 75d2 a23c d71b c1bc
00000130: ca14 b1bc 7a72 cebd 1761 a6bc 6805 c9bd
00000140: 216d 4cbd 47c3 3dbb a256 d3bb 8672 2e3d
00000150: 9738 58bd 8ad2 bdbc 5c21 17bd 5d4c 24bd
00000160: ff35 943c 1a1a de3c 583f 453d 6acf 1a3c
00000170: d15c e3bd 7727 19bc 1521 b33c 57d8 d0bc
00000180: 957c f53b 0ee4 6a3c e3b8 413c 241e f5bb
00000190: 6d34 783c 4d47 a9bd 077d 2b3d cac9 b5bd
000001a0: 6783 54bd 0c17 37bd a4b9 48bd 0ec1 72bd
000001b0: 9968 743d 36ef 0d3b 01db 073d 1ec2 bebd
000001c0: 2dc5 56bd cc94 21bd 0848 83bd 7243 583a
000001d0: 8a57 81bd d884 57bc d6d8 1dbd 287b 51bd
000001e0: e8df 6e3c 4556 33bd 1f29 2abd 3d78 2fbd
000001f0: 3886 c1bc 2381 90bc c320 84bc 9f78 87bd
00000200: 39ef a9bc 00c4 d93a 0a54 78bb 8442 8dbc
00000210: da29 f73c e96d 693c 5212 b4bd 2e58 89bb
00000220: 5ff8 19bd 5c6f 6cbd 7393 47bd 015e 893c
00000230: d82f 103d 5e74 8fbd e734 a63b 6813 78bd
00000240: f643 ba3c 67d8 6ebb 1033 fc3c 9e36 d0bd
00000250: bbe1 7abc a567 e9bc 7af9 8b3c 02c1 3dbd
00000260: abd2 1c3a eaff 55bd 18a2 69bd 9afe 91bd
00000270: b37d 45bd f57b 083d 7602 03bd 831d 87bd
00000280: d0a3 03bd 2683 99bd ec8f 003c 75b3 983c
00000290: 9118 6abd c2b7 e4bc f65d b43c e7ff 39bd
000002a0: b467 133b 24c7 71bd 15a8 0fbd 24f0 ebbc
000002b0: ac0b 74bd 6dcd 54bc 2632 d3bd c72a c6bd
000002c0: e512 33bd cda0 afbc 3d45 d4bc 5087 5abc
000002d0: 7cf0 a7ba b3ad bc3c 6510 4a3c f416 cbbc
000002e0: 720a b03c ecac 71bd d67e f3bc 5c5b acbd
000002f0: e595 6ebc 5719 21bd ea53 d2bd 2995 d2bd
00000300: d1e4 59bd ca51 ebbc c8b1 7ebd a680 89bd
00000310: 57a1 93bd 64ea 25bb 233e 01bd 480e a13d
00000320: 93d5 36bc d644 6e3c 8c08 ed3b 42a6 bebc
00000330: e30e 81bd 37c6 f5b9 34df 88ba 42fa 493c
00000340: 89cf d6bc f002 8dbc c0cb 803c 8dbe 3dbd
00000350: 4f1f 5dbd c501 40bd 9c0c 8bbd 437b bc3c
00000360: c4d4 21bd 0d01 54bd 1a49 c3bc 0ea4 ccbc
00000370: c095 ce3c d4e6 44bd 6c98 63bd bce1 a2bd
00000380: 5b04 723c fad7 41bc bff6 84bd e6e8 19bd
00000390: 6b17 8dbd fc30 f4bc d6d7 b0bb 54c2 dfbc
000003a0: 0340 073c 2c74 80bd 22a7 06be 5af0 48bd
000003b0: e7e4 2d3d 80dd 89bc 4c62 bdbd e96e c83b
000003c0: 14ea 30bd 1fd4 34bd 2851 e73b 72a3 df3a
000003d0: c7c6 aebc 5e66 933d e1d5 af3c 15c5 0dbd
000003e0: 619f 80bd 4a10 4abc fd0a 3a3d 53b4 0a3d
000003f0: 728d 16bc 66ab cbbc d7e0 57bd f2dc 6dbc
0.0052047274 -0.035958704 -0.010136032 0.0032097853 -0.023521727 -0.11651583 -0.020383634 -0.06852411
0.00635628 -0.028869426 -0.08240255 -0.045661982 -0.11459767 -3.3462537e-05 -0.05338445 -0.10683505
-0.045029666 0.042475883 -0.01338402 0.014541852 -0.07631328 0.0159201 -0.016719084 0.017173449
-0.017692693 -0.092844255 -0.018590705 -0.0056373766 -0.060534958 -0.04262947 -0.061433878 -0.08304946
-0.057082467 -0.036812846 0.0043145767 -0.06950173 0.015366389 -0.09917279 -0.0277083 -0.057369124
0.038194638 0.046429098 -0.07364408 0.009838611 0.0308159 -0.042376332 0.01969892 -0.0040772855
0.03657427 0.0069536725 -0.044740014 -0.08803074 -0.062474128 -0.07036425 -0.0088488925 -0.07376615
0.01684955 -0.07330654 0.005706569 -0.026657864 -0.0532857 0.02644119 -0.02270795 -0.059101664
-0.02364354 -0.08706123 0.0018622072 -0.08130629 -0.05845695 -0.033891857 0.0054736594 0.019299412
-0.11373634 -0.0018326982 0.019875744 -0.023572845 -0.021616358 -0.100804284 -0.020309968 -0.09815484
-0.04990876 -0.0028955506 -0.0064495364 0.042589687 -0.052788343 -0.023171682 -0.03689705 -0.04011189
0.018092154 0.027112056 0.048156112 0.009448865 -0.11101688 -0.009347788 0.02186636 -0.025493784
0.007491658 0.014336599 0.011823866 -0.0074803997 0.015149218 -0.08265553 0.041867282 -0.08876379
-0.051883128 -0.044699714 -0.049005166 -0.059266143 0.059670065 0.0021657473 0.033167843 -0.09314369
-0.052434135 -0.039448544 -0.06410223 0.0008249796 -0.06315525 -0.013154231 -0.03853687 -0.05114284
0.014579751 -0.043783445 -0.041543122 -0.042839278 -0.02362357 -0.017639702 -0.016128903 -0.066148035
-0.020743953 0.0016614199 -0.0037891888 -0.017243631 0.030171324 0.014247396 -0.08792557 -0.00419142
-0.03759038 -0.057723388 -0.048724603 0.016768457 0.035201877 -0.07004617 0.0050722244 -0.060565382
0.022737484 -0.0036444904 0.030786067 -0.101666674 -0.015312607 -0.028491804 0.017086733 -0.046326645
0.00059823197 -0.05224601 -0.05703935 -0.071286395 -0.04821558 0.03332134 -0.03198477 -0.06597426
-0.032138646 -0.07495718 0.007846814 0.01864026 -0.057152335 -0.027919654 0.02201746 -0.045410063
0.0022492232 -0.059027806 -0.035072405 -0.028801031 -0.059581444 -0.01298843 -0.103122994 -0.09676128
-0.04371919 -0.02143898 -0.025911922 -0.013337925 -0.0012812759 0.023032045 0.01233301 -0.024791218
0.021489356 -0.0590028 -0.029723566 -0.08415863 -0.014562105 -0.039330807 -0.102699116 -0.10282356
-0.053196732 -0.028725524 -0.062181264 -0.06713991 -0.072085075 -0.002531671 -0.0315534 0.07864052
-0.0111593185 0.014542779 0.007233685 -0.023272637 -0.063016675 -0.00046877723 -0.0010442496 0.0123277325
-0.026222007 -0.017213315 0.015722156 -0.0463243 -0.053984936 -0.046876688 -0.067895144 0.023007995
-0.03950955 -0.051758815 -0.023838568 -0.024980571 0.02521789 -0.048071697 -0.055565283 -0.07953212
0.014771546 -0.011831278 -0.064923756 -0.037575625 -0.06889232 -0.029808514 -0.0053968234 -0.027314343
0.008255008 -0.06272158 -0.13149694 -0.049057342 0.042454626 -0.016829252 -0.09247264 0.006116737
-0.043191984 -0.044147607 0.007059235 0.001706226 -0.021335019 0.07197259 0.02146429 -0.03461178
-0.06280399 -0.012332985 0.045420635 0.033863377 -0.009188997 -0.024862003 -0.05270466 -0.0145180095

fc2.bias f4 [300]
00000000: a91f a8bd 9d86 aebd 13da 98bc ad41 2bbd
00000010: 4c44 b0bc b741 8f3d d527 26bb 6b0a 2ebd
00000020: be9b fcbd 6a71 873d d5aa bdbd 4005 07be
00000030: 3270 0cbc a04b adbc 76cb 8dbd aecd 31bd
00000040: 6410 6abd 7a58 cebd 8e02 95bd c759 bdbd
00000050: f051 a5bd 9636 c2bd 0df0 a1bd 4ddb 8fbc
00000060: 1302 aabc 0a16 e2bc 04c8 26bd 0dbe 283e
00000070: b2b3 dabd 98bc 86bd fd47 93bd 2197 363c
00000080: f0d8 02bd a599 c5bd 9f88 73bd 1a8f 89bb
00000090: d6b2 28bd b323 c3bd cf29 6cbd a9c0 03bc
000000a0: 9d8f 90bc 068e 55bc 58d6 c53c b758 ddbb
000000b0: d93e 91bd 6e69 0dbb 6906 9ebd d33f 37bd
000000c0: e83b 77bd fcb4 68bd 23dd 81bd da98 74bc
000000d0: 0b9d 7fbd c216 df39 067e a6bd 4221 07bc
000000e0: af9d b4bc 32cf 5dbd c3ad 7c3d 9199 e9bc
000000f0: ba69 7abd e71a 07bd e5c9 383c f92c 24bd
00000100: 6258 cbbd 5679 9ebd 6a3e e7bc 901a 10bd
00000110: 135a d2bb 754d 013a 1ba0 e1bd 81ee 33bd
00000120: 3d95 b8bd 642e 003c 8e63 0dbd d60e 24bd
00000130: aa5b 80bc 0fa0 c6bc c6ae 143e ef8a 58bd
00000140: 98ea c3bd baec 12bd 2c44 89bd 022a 81bd
00000150: a461 80bc 2d51 e6bc 6d92 d0bd 7cef a6bd
00000160: 40f9 94bc 7da6 b8bc b734 aebc 9591 76bd
00000170: 1a3c 97bd 5583 53bd c66a a1bd 3494 23bc
00000180: 94cf 29bc 3350 75bd 1e49 9fbc f199 b93c
00000190: 2945 2ebd 4d3e 81bd 0ace eabc d932 003d
000001a0: 87e0 81bd 03f2 f9bb c281 19bd 4611 17bd
000001b0: d8e5 76bd 5e6d 27bd 619b d0bc 298a 6abd
000001c0: 1129 84bc ce8a 55bc 6882 debc f7ad 853c
000001d0: b989 4d3e 8446 10bb 95ad 033e b475 dfbc
000001e0: 8094 8cbd 78bd 853d 94e9 d939 0ebb a1bd
000001f0: 1b4f b2bc 1a4e aebd bd10 6fbd 1185 9abd
00000200: e72d ca3c 5a0e bdbd 9b48 e4bd da72 bebc
00000210: 920e 50bd d340 3d3e da9f 92bd 231e ae3c
00000220: 99f5 90bd ee92 5ebd 1ee7 1ebb 6f8a a1bd
00000230: 4ca4 c9bd 4b37 1cbd 404a 79bb e2af 39bd
00000240: 268d 57bd db52 50bd 687c bcbd f027 acbc
00000250: dd5e ca3a 188f 0a3c ea7e a83d e754 fc3c
00000260: e557 edbd 0ac2 0d3d dc53 8ebd 0876 9bbd
00000270: 507b b2bc 63d9 eebc 17cc 32bc e079 94bd
00000280: d3d2 64bd ac0c c6bd 67b2 7bbc b1f0 15bd
00000290: 0f07 77bd e1d2 73bd b881 2cbc a487 71bd
000002a0: cdf6 1f3d 3e3d 9b3b 286a cbbc a4df 3ebd
000002b0: 3cb8 353b 1849 bfbd 0e35 233e 0413 40bd
000002c0: d995 8fbd bf42 4bbc da28 12bd 553c 79bd
000002d0: 2215 7fbd 6373 82bc db8d 06bc 22b5 c9b9
000002e0: 7d90 67bd 99b6 94bc 8466 64bd 3362 69bd
000002f0: 39f8 d0bd 6aff 0cbd d12a 2cbd 3231 39bc
00000300: 2d7c d1bb 3ce3 faba 07d1 2f3e 0eff 80bb
00000310: 7c59 a3bd 57f2 52bc 349b efbb 8d0e e239
00000320: c48a c1bc 711f d93d 209f 373e db43 4dbd
00000330: 72a0 47bd 22f3 bebc 4cba 0abd 9cab 28bd
00000340: dbef 28bd 0ef9 44bd 318b b13c 009a 3fbd
00000350: 11d5 3dbd 7d39 93bb a7eb 3abd 41f7 8dbd
00000360: 58a6 efba 12cf 25bd 41c9 34bb b60f c0bd
00000370: 78c3 c7bc 418d 25bd 54f4 2bbd 2d83 1e3d
00000380: 154c 6cbc de79 a2bd 35ac 1bbd 5b9e b9bd
00000390: 7762 a0bd 6c7f f1bc c62e cbbd 5d24 95bb
000003a0: fa39 b7bd 3385 88bc 4ecc 91bd b244 81b9
000003b0: 63a2 86bc ae71 adbc a246 8ebd b54c 39bc
000003c0: d9ce f4bc d96b 7fbd d32c 273e 99b0 1bbd
000003d0: 8f9b 253d bb9e 4c3b 2b1b 0ebc 6fbc 2abd
000003e0: 0634 dfbd 9843 03bd 5488 9dbd 0f0c 70bd
000003f0: 4980 8fbd cd5b 2c3c b1ef 10bc 1e52 6dbd
-0.08209164 -0.08521769 -0.018658673 -0.04181068 -0.021516941 0.06994956 -0.0025353332 -0.042490404
-0.12334393 0.06613429 -0.09261099 -0.13185596 -0.008571671 -0.021154225 -0.06923573 -0.043409042
-0.057144538 -0.10075469 -0.07275878 -0.09245639 -0.08072269 -0.09483068 -0.07907114 -0.017560625
-0.020752942 -0.0275984 -0.040718094 0.16478749 -0.106788054 -0.0657894 -0.07191465 0.01114443
-0.03194517 -0.09648446 -0.059456464 -0.0041979672 -0.041186176 -0.095282935 -0.05765706 -0.008041539
-0.017646605 -0.013034349 0.024150059 -0.0067549604 -0.07092065 -0.0021577734 -0.077160664 -0.044738602
-0.060359865 -0.056813225 -0.063410066 -0.014929021 -0.062405627 0.0004255083 -0.08129506 -0.008247675
-0.022047846 -0.054152675 0.06168915 -0.028515609 -0.061135985 -0.03298464 0.011278604 -0.04008195
-0.09928967 -0.07737987 -0.028228004 -0.035181582 -0.006419429 0.00049325015 -0.11016866 -0.043928627
-0.0901284 0.00782356 -0.03451877 -0.04005321 -0.015668709 -0.024246244 0.14519796 -0.052866872
-0.095662296 -0.03587029 -0.06702456 -0.063068405 -0.015671559 -0.02811488 -0.101841785 -0.08151147
-0.018185258 -0.022540325 -0.02126537 -0.06019743 -0.0738451 -0.05163892 -0.078816935 -0.009984065
-0.010364432 -0.059890937 -0.019444045 0.022656413 -0.042546425 -0.06310711 -0.0286627 0.031298492
-0.06341653 -0.007627727 -0.037477262 -0.036881708 -0.06027779 -0.040875785 -0.025464715 -0.057260666
-0.016132863 -0.013033582 -0.027161792 0.016318304 0.20072068 -0.0022014687 0.12859185 -0.027277805
-0.068642616 0.06530279 0.00041563495 -0.07897006 -0.021766236 -0.085109904 -0.058365572 -0.07544912
0.024680091 -0.09231253 -0.11146661 -0.023248125 -0.050795145 0.1848176 -0.071593955 0.021254605
-0.07078094 -0.05433934 -0.0024246643 -0.07887732 -0.0984579 -0.03813867 -0.0038038641 -0.04533375
-0.052624844 -0.050860267 -0.09203416 -0.021015137 0.0015439648 0.008456968 0.08227332 0.030802203
-0.1158903 0.03460888 -0.06949589 -0.07590872 -0.021787316 -0.029156392 -0.010912917 -0.07249808
-0.05586512 -0.09670386 -0.015362359 -0.036606494 -0.060309466 -0.05952728 -0.010528974 -0.058967248
0.039053727 0.0047375252 -0.024830893 -0.0466 0.002772822 -0.093401134 0.15938208 -0.046893135
-0.07011003 -0.01240605 -0.03568349 -0.060848553 -0.062276013 -0.015924161 -0.008212532 -0.00038472662
-0.05653428 -0.018153476 -0.05576183 -0.056978416 -0.10203595 -0.03442327 -0.04203302 -0.011303233
-0.0063929767 -0.0019141207 0.17169581 -0.003936655 -0.07976052 -0.012875161 -0.007312203 0.0004311692
-0.023625739 0.106017 0.17931795 -0.05011354 -0.048736997 -0.023309294 -0.033869073 -0.041179284
-0.04124437 -0.04808908 0.021672817 -0.046777725 -0.046345774 -0.004492937 -0.04563489 -0.069319256
-0.0018283827 -0.04048068 -0.0027585777 -0.093779966 -0.024385199 -0.040417913 -0.041981056 0.038699318
-0.014422436 -0.079334006 -0.038006026 -0.09063407 -0.07831281 -0.029479705 -0.09921031 -0.004551454
-0.08946605 -0.016665077 -0.07119046 -0.0002465598 -0.016434854 -0.02117237 -0.06947066 -0.011309792
-0.029883789 -0.06235871 0.16325693 -0.038010214 0.040431555 0.003122254 -0.00867347 -0.04168361
-0.108985946 -0.032046884 -0.07692018 -0.05860525 -0.0700689 0.010519934 -0.008846209 -0.05793964

fc3.weight f4 [1, 300]
00000000: 6370 9ebc ea9b 61bb eee5 c3b9 6146 58bc
00000010: 4440 253b e4c4 bebb e602 493b db77 12bd
00000020: 3a81 51bc a64a d8bc e9ac 9b3c 886f 6eb9
00000030: 2764 15ba ae23 2dbc 2f38 c7ba c88c 0d3b
00000040: 8fe0 7dba 7035 59bb 98c1 043c a9e6 b339
00000050: 8c80 9c3b 71ab d8bc 5af3 41bb c36d 09bb
00000060: 6956 94ba 68f5 943b b402 2d3b 83b0 fa3c
00000070: 9805 8aba cfa2 963b 548f 87ba 16dd 963c
00000080: 9139 513b 51f6 523b fe4d ccbb 487f b4bc
00000090: d3b6 8bba bb46 78ba b2e5 05bb a154 f1bb
000000a0: 6005 78ba 1671 3fbc 7652 adba 1cba 733b
000000b0: 1c89 e0bc 53f8 ecbc 9576 c8bc c33d 1a3b
000000c0: bc45 a03c 6805 4e3b 9bdb bc3a 9707 88bc
000000d0: f308 543b 7a72 933b 0f2c 833c 63b2 3eba
000000e0: 926e e03a efbc 793b c9ee f83c 99f4 5eba
000000f0: 94c3 d23a 9dab 45bc 2bab f23a 68ea 37bb
00000100: de13 23bc fe6a 9b3b 1906 573b f439 94bc
00000110: 3577 e6bc 87ff 8139 d22d 763b 0109 44bd
00000120: 8959 cfbc d608 e33a 5a3c 843c f8e1 05ba
00000130: b939 b03c d134 863b 0aa4 2c3d ea59 a53b
00000140: db8b 60bb b22f 473a 7c50 473a fe1f c33a
00000150: 3848 4d3b c03c 58bb 42b2 32bb 7ba7 433c
00000160: b5be 453b 5b5d 89bb 1502 b63c be2a 1d3b
00000170: aee9 63bc 8a02 003c a63c 7fbb 6c51 bf3c
00000180: 3ee7 8a3b b492 383c e112 3fbc bf69 ffbb
00000190: 3aae 74bc 6bd7 27bb fc7d 87bc 9050 433d
000001a0: 0a2c 2ebb be1f f739 25ac c7bb 972a 4ebb
000001b0: b992 00bb 362b d8bb 65fe 883a 3bfd 4abb
000001c0: 3f72 68ba 5da1 1f3c ec22 e039 9bbd d0ba
000001d0: 588e 533d ead7 42bb 89f2 e8bb 3662 4f3a
000001e0: 5c2b d53a 841f 393d 1909 f7bb 3bda 93bc
000001f0: 0add cfbc b844 ac3c 607b 73bb 8265 113c
00000200: b8e8 c6b9 d415 d53c dd0c 143c 0500 39ba
00000210: 1d32 b039 b620 c0bb 0338 b73a f876 a5bc
00000220: 8743 923a 23b1 c83a 1bc4 033c fd27 1fba
00000230: 0eaa c9bc b999 d93b f6d4 ec3b 75fb 5a3c
00000240: 20e4 dd3c ca3c 46bb ded2 fdbb fb95 433b
00000250: 79c6 cf3c 2fdd cb3c b424 153d 2c62 a1bb
00000260: cdd9 9fbc 5cb9 3d3d 2ae6 c33b a7f1 9f3a
00000270: 77a7 d939 d49d 7b3b 723c 883b 76be 393b
00000280: fdd2 97bb 9e1c 993a db58 c43b a142 8639
00000290: 714d e9bb 1996 02ba f573 2c3b 326b 88bc
000002a0: e00e 04bb 2347 46bb e27e e438 451f 073b
000002b0: 18e9 79bc 78fa f03a b46f f83c ea50 a53c
000002c0: 6d1b 01bc 5d3f 043c cf62 02bc 0786 ce3a
000002d0: f176 4e3b 60e5 c83d b1b9 533b 3dff 303c
000002e0: cfb3 0f3b 2438 a1bb ff14 073c 499a 8839
000002f0: 54e7 8e3b 50f2 0c3d a17e f0bb d76a 71bc
00000300: d233 f0bc ba67 a33b de76 da3c 7f73 f73a
00000310: 5197 acbc b9e9 8abb cb04 0c3b 766b 6ebc
00000320: 194b 873b 9dd0 2b3d 2362 133d cfeb 51bb
00000330: cbc1 933c eed7 e8b9 bdc1 9ebb ff6a f03b
00000340: e246 18bb 787f 9f3c 6691 5ebc 0271 223c
00000350: 5001 063d 7f9a 37bc 8a4f 483b ae44 abbb
00000360: 146f 12bb 2668 98bc 90f0 6b3c a696 bd3c
00000370: eace ae39 f033 e83a 687a 5b3b 6a45 fe3c
00000380: 49d9 a7ba 1ecc 613a 016c 8dbb a22b 4a3a
00000390: c692 883b 8247 acbb f943 283c acf9 1cbb
000003a0: 4215 f1b8 c5f5 ac3c e2c5 42bb 1e16 bc3a
000003b0: f10e 42bd 51fd ddba a385 1fbb bc34 ccb9
000003c0: e9fc 473b dad9 ae3b 5fd2 083d 3fdf 3dbc
000003d0: dbff d0bc 1b90 1d3b 04ad 3db9 7dcb 9cbb
000003e0: 9b49 b6bc 8f55 2fbc 4a3f a9bc df2a 4dbc
000003f0: 493e 9fbb 40c5 9dba cd46 113c fde8 0f3b
-0.0193407 -0.0034425207 -0.0003736461 -0.013200373 0.0025215307 -0.005821811 0.0030671894 -0.035758834
-0.012787158 -0.026402783 0.019003348 -0.00022738997 -0.0005698823 -0.010567589 -0.0015199239 0.0021598805
-0.0009684646 -0.0033143423 0.008102797 0.00034313396 0.004776066 -0.026448937 -0.0029594512 -0.0020969964
-0.0011317256 0.0045458563 0.0026399316 0.030601745 -0.0010530232 0.004597045 -0.0010342398 0.018415969
0.0031925181 0.0032190273 -0.0062348833 -0.022033349 -0.0010659344 -0.0009470989 -0.0020431099 -0.007364825
-0.000946125 -0.011684677 -0.0013223428 0.0037189787 -0.027409129 -0.028927004 -0.024470607 0.0023535348
0.019564502 0.0031436328 0.0014408709 -0.016605182 0.0032353967 0.0044997307 0.01601222 -0.00072745065
0.0017122796 0.0038106998 0.0303873 -0.0008505076 0.0016080015 -0.012064842 0.0018514147 -0.00280633
-0.009953467 0.004742979 0.003281003 -0.01809404 -0.028133014 0.0002479518 0.0037563932 -0.04786015
-0.025311248 0.0017321359 0.01614206 -0.00051072193 0.0215119 0.0040956517 0.042148627 0.005046119
-0.0034263048 0.0007598355 0.00076032407 0.0014886854 0.0031323563 -0.0032995194 -0.0027266894 0.011941786
0.0030173485 -0.004192037 0.02221779 0.0023981775 -0.013910694 0.007813105 -0.0038946061 0.023354255
0.004238992 0.0112654455 -0.011662216 -0.0077945883 -0.014934117 -0.0025610577 -0.016539566 0.047684252
-0.0026576542 0.0004713516 -0.0060935193 -0.003145849 -0.0019618704 -0.006596948 0.0010451792 -0.003097369
-0.00088671217 0.009743062 0.00042750628 -0.0015925647 0.05164942 -0.0029730746 -0.0071089906 0.0007911058
0.0016263532 0.04519607 -0.0075389263 -0.018048396 -0.025373954 0.021028861 -0.0037152395 0.008874299
-0.00037938892 0.026011385 0.00903627 -0.0007057193 0.00033606673 -0.0058632744 0.0013978485 -0.02019833
0.0011159041 0.001531158 0.008042361 -0.00060713274 -0.024617221 0.0066406396 0.0072275354 0.013365616
0.027086318 -0.0030248635 -0.0077460846 0.0029844034 0.025363194 0.024885742 0.036411956 -0.004925033
-0.019513035 0.04631935 0.0059783654 0.0012202755 0.00041514236 0.0038393633 0.0041575963 0.0028342283
-0.004633306 0.0011681502 0.0059920377 0.00025608114 -0.0071198274 -0.0004981473 0.0026314233 -0.016652677
-0.0020150468 -0.0030254803 0.00010895521 0.0020618003 -0.015253328 0.0018385192 0.030326702 0.020180184
-0.007880074 0.008071748 -0.007958128 0.0015756496 0.0031504 0.09809375 0.0032306726 0.010803041
0.0021927243 -0.0049200226 0.008244752 0.00026054893 0.0043610726 0.034410775 -0.007339314 -0.014734945
-0.029321585 0.0049867304 0.026668008 0.0018879025 -0.021068247 -0.0042392877 0.0021365162 -0.014551988
0.0041288254 0.041946996 0.035982262 -0.0032031422 0.018036744 -0.00044411368 -0.0048448727 0.0073369737
-0.0023235609 0.019469962 -0.01358447 0.0099146385 0.032716095 -0.011206268 0.0030564987 -0.005226693
-0.002234404 -0.01860435 0.014400616 0.023143124 0.0003334203 0.0017715674 0.0033489708 0.031038959
-0.0012805845 0.00086134847 -0.0043158536 0.000771219 0.0041678874 -0.005257548 0.010270112 -0.0023952527
-0.00011495735 0.021113286 -0.0029719998 0.0014349853 -0.04737753 -0.0016936456 -0.0024341128 -0.00038949202
0.0030515736 0.0053360285 0.03340375 -0.011588871 -0.025512626 0.0024042192 -0.00018088898 -0.004785
-0.022251895 -0.010701551 -0.020660061 -0.012522428 -0.00485972 -0.0012036934 0.008866978 0.002195894
