p2_continuous-control_single-agent/checkpoint_actor.pth (torch_old, 541437 bytes, 6 tensors)

fc1.weight f4 [400, 33]
00000000: 31cd 8dbd 7df3 98bd 0092 34bd 977f d13d
00000010: db76 103d cd09 55bd ede3 60bc c887 5d3d
00000020: 963c 33bd afe3 5d3d cdb5 e73d a145 26bd
00000030: 7a38 a3bd e965 853d 4a52 1bbd 2020 553d
00000040: 9218 e3bd 9a1e bd3d 6fd4 153e 487c 8b3e
00000050: 6621 493d 3482 083d 324f 2fbc 3c39 8cbd
00000060: 0a41 88bd 6b36 d63d 709c 76bd b031 72bd
00000070: 7f5c febd c3d1 abbc 867d beb9 d789 f0bc
00000080: dc81 d7be 3f2f 55bc f860 b63d 067a 24be
00000090: 89f7 cabe e326 bcbd 1d58 743e 786c 983e
000000a0: 708f 9dbd f951 e8bd 24c4 cf3d 4636 e0bc
000000b0: a1cb 123e 8046 4f3d 4e37 b13d cbc7 2e3e
000000c0: 1894 4abd 52cf 5d3b 80c5 f9bd fe69 4dbe
000000d0: 723a 293e ab55 bebd 9f61 2cbd da2c 84bd
000000e0: 765e 59bd bd01 92bd 788c 743c 2b83 cbbc
000000f0: 8a56 e83b d2df 67bc 3560 3bbd 958e 553c
00000100: 4e2a 10bd d8cd e2be 82de 743d 2cc2 46bd
00000110: 810c 873d c400 153e 5790 61be 0afe a2bd
00000120: a0b5 1fbe a285 0ebe 0de6 e4bd 6698 cc3b
00000130: 931b 8c3c 5d91 cfbd e04f 8d3b 8b32 fbbc
00000140: e35a 213c 5ae6 293e 37be c9bd 90f3 20bd
00000150: 7046 963d 0840 8c3e 503a 983c 6d95 33bd
00000160: e397 c33d da5b 86bd ad90 61bd b1bf a73d
00000170: e2ca 453d 7d66 f9bc 53ba bd3d c3f1 c9bc
00000180: d265 9d3d 49b0 053d 7846 063f e5d9 713d
00000190: a349 6c3e 7178 32bd 396d ae3d 14da 17be
000001a0: 0f1a ad3e 202d 9bbe 0113 3f3d eef6 303d
000001b0: 4f68 ef3d 43c2 c23b d855 b23d dd68 aabd
000001c0: 774d cd3d 69b5 0b3e adb2 fd3c c86a e93d
000001d0: c4bf 243d 6750 003e 1901 ec3b faf6 533d
000001e0: 4e8f 3dbe 9022 67bc 8b13 b6bc c544 bfbd
000001f0: e8c2 0dbe 0cbd 733c 9b4d 17bd dc75 a73d
00000200: d410 143c 3959 bf3b a757 293d a78f 9c3d
00000210: b5ad b63d 38d5 a83c f355 223e cc9d a6be
00000220: 61d3 49be 435d 843e 62fc adbe 37f7 ab3c
00000230: 8ad4 0c3d 9ad5 a6bd 5035 6f3d 2f74 52bc
00000240: 8e89 933c ac93 d33d 8220 23bd a247 b63d
00000250: b1d1 f73d 57e9 933d 2b7c 3dbe 2f1b db3d
00000260: cb32 2dbe 212b d4bd a9b2 8f3d 3877 003e
00000270: 24dd c13c 6ac1 8c3c bbda 88bd ebcd 713d
00000280: 6c03 193e c371 a0bc 9d04 b53c b276 c83c
00000290: e0f5 8ebe 8ee1 4d3d 8a4f eebc b32c b93c
000002a0: 2da3 a0be 63ad 073d e6b5 573e 9f55 eb3c
000002b0: 0b3f 693d 6fb9 993d 8263 6d3d f3fd 85bb
000002c0: 51d1 853d 3b7b aabc 931d aa3d ac21 ca3d
000002d0: c923 c93d 4d17 6ebd 32ff 4fbc 62e5 c0bd
000002e0: b888 94bb 63e6 c03d 1976 723d 75b1 e43d
000002f0: d396 23bd 24cb a03d 8e47 213d fd19 183e
00000300: 3826 9e3c 79b1 633d 23ca 243d edc9 7b3d
00000310: fd16 f9bc 0143 3ebe b610 8f3d a6b9 c03d
00000320: 9eba 703d 6756 f33d 7edf 2bbe 7a11 c03e
00000330: 97f1 05be 3971 0fbc 13fd e73c ae80 fcbb
00000340: 9650 af3c f625 64bd 6af6 5d3c 55af 93bd
00000350: 2279 243d 7bc1 c2bd c27f 5f3c 15f5 783d
00000360: 0cde b33d 1289 91bd af74 913d 195b 8d3d
00000370: 2425 8f3c 3004 763b 62c4 34bd 76dc 113d
00000380: 8146 87bd 9831 123d 85c9 f7bd f3e5 1d3d
00000390: 310b f03c 74a5 743c 9f9e c4be 9c29 09be
000003a0: 4ac3 403d 142b a73c d7f5 08bb 6026 dabd
000003b0: d306 413e 0dec 173e 4717 70bd c333 2c3e
000003c0: 34ae c63c 13bd d4bd 1171 cf3d 13fd 143e
000003d0: 72d3 18be 6377 d6bc 52f0 da3d 87e5 7fbe
000003e0: 5fc2 a4bd a5a2 6d3d de6f aa3d 4589 453d
000003f0: 4274 203d 95dd a7bd 6ce0 1bbe baf5 80bd
-0.06923903 -0.07468317 -0.04408455 0.10229414 0.0352696 -0.0520113 -0.013726217 0.05408457
-0.04375895 0.054172214 0.113139726 -0.040593747 -0.079697564 0.065135784 -0.037920274 0.05203259
-0.11088671 0.092343524 0.14631818 0.27243257 0.049104117 0.033327296 -0.010700034 -0.06846854
-0.0665303 0.10459598 -0.060207784 -0.059129417 -0.12419986 -0.020974046 -0.00036333146 -0.029362602
-0.42091262 -0.013011753 0.08905214 -0.16062173 -0.3964198 -0.091871046 0.23861738 0.29770255
-0.07693374 -0.1134376 0.10144833 -0.02736963 0.14335491 0.050604343 0.08653127 0.17068402
-0.04945764 0.0033845496 -0.12195873 -0.20059964 0.16526201 -0.092936836 -0.042085286 -0.06453867
-0.0530686 -0.07129238 0.0149260685 -0.02484282 0.0070903944 -0.014152484 -0.045746047 0.0130344825
-0.035196595 -0.4429767 0.059782512 -0.04852502 0.06594182 0.14551073 -0.22027718 -0.0795861
-0.15596628 -0.13918164 -0.11176691 0.0062437532 0.017102992 -0.10135148 0.0043125004 -0.03066375
0.009848329 0.16591778 -0.09850734 -0.03929478 0.07337654 0.27392602 0.018582493 -0.043843675
0.095504545 -0.06560488 -0.055069614 0.08190859 0.048289187 -0.030444378 0.09264054 -0.024651414
0.07685436 0.03263882 0.52451277 0.05904569 0.23074965 -0.043571893 0.08516926 -0.14829284
0.33808944 -0.30307865 0.046648983 0.04320424 0.11689817 0.005943568 0.0870778 -0.08320782
0.10024541 0.13643421 0.030968988 0.1139732 0.040221944 0.12530671 0.0072022793 0.051749207
-0.18511698 -0.014107361 -0.022226116 -0.093392886 -0.13843882 0.014876615 -0.036939245 0.08176777
0.009037215 0.0058394936 0.041343357 0.07644587 0.08919851 0.020609483 0.158531 -0.32542264
-0.19709541 0.25852403 -0.33981615 0.020991905 0.03438238 -0.0814621 0.058400452 -0.012845083
0.018009927 0.103309005 -0.039825924 0.089003816 0.12100542 0.072222404 -0.18504398 0.10698544
-0.16913907 -0.10359789 0.070164986 0.12545478 0.023665018 0.01718207 -0.066823445 0.05903427
0.14942712 -0.019585496 0.022096926 0.02447066 -0.27921963 0.050263934 -0.029090662 0.022604322
-0.31374493 0.03312434 0.21065482 0.02872735 0.056944888 0.07506072 0.057956226 -0.004089111
0.065340646 -0.020810714 0.08306422 0.09869704 0.098212786 -0.05812769 -0.012695121 -0.09418751
-0.0045328997 0.09418943 0.059194658 0.1116666 -0.03993876 0.07851246 0.03937488 0.14853664
0.019305333 0.055589173 0.040231835 0.06147187 -0.03040647 -0.18580247 0.06985609 0.0941041
0.058771722 0.11881714 -0.16784474 0.37513334 -0.1308044 -0.008755022 0.028318917 -0.0077057695
0.021400731 -0.055700265 0.013547519 -0.07211176 0.040154584 -0.0950956 0.0136413 0.060780603
0.087825865 -0.07106222 0.07102334 0.06902141 0.017473765 0.0037539117 -0.044132598 0.03561064
-0.066052444 0.035691828 -0.12098984 0.038549375 0.029302211 0.014932025 -0.38402268 -0.13394779
0.047061242 0.020406283 -0.0020898485 -0.10651851 0.1885026 0.1483614 -0.05861595 0.1681662
0.024252988 -0.103876255 0.101289876 0.14549665 -0.1492441 -0.026179975 0.10690369 -0.24989901
-0.08044886 0.058016438 0.08322118 0.048226614 0.039173372 -0.0819656 -0.15222329 -0.062968686

fc1.bias f4 [400]
00000000: 14ed 4b3e f749 143e 5760 213e 84bb fa3d
00000010: 22c2 a33d 4462 403e f13d 073e 7594 5cbc
00000020: 65ed 5ebc f1be 2b3c b6fe 313e 4929 433e
00000030: 6073 fcbd 914d 8abe cd0c d23d 61b5 ecbd
00000040: 9e8a 073e 82f6 78be 8231 dfbd 49b6 ab3c
00000050: f6f0 cfbd f875 593e 56a1 583e 18f9 47bd
00000060: 4093 a4be 8606 16bd 1232 2bbd ae21 7a3d
00000070: d1cd 0dbe d498 12be e935 babb fc0b 7e3d
00000080: 1957 873d 742d c0bc b7b5 873d 148f 93bb
00000090: b07e 64bd ee48 34be 4461 7d3e b3cc c3bd
000000a0: 366e 05bd a782 2fbe bf18 273e e9ef a6bd
000000b0: abe1 78bd aa28 3abe d07a b3bc c748 bc3d
000000c0: 1157 263e fe18 b1bd fca3 58bd 9a35 a33d
000000d0: 6226 2abd 8403 63be 196a 2fbe 8b96 2a3e
000000e0: 6fce c2bd 1396 bb3d f25d 043d 6566 853c
000000f0: fc23 dfbc 1d89 333c 15a2 653d af3d c6bc
00000100: 5815 b7bd fbfa 5a3e 7ef6 4abe d5fe b9be
00000110: d184 bbbc 554e 3c3e 0a86 cbbc 3cd3 fcbc
00000120: f4e3 0bbc d34f ddbb 4733 b73d e20c 24be
00000130: 079f 5e3d abdf 60be ef50 bbbd 3a03 1cbe
00000140: be03 3cbe cfad eb3d c5ab 2bbe 80e4 59bd
00000150: 06a8 14bd d54a 67be 40e5 bc3d 3db0 8e3d
00000160: 4b4b 55bc f121 91bd 4e60 5d3e 182d 153e
00000170: 9730 203e bbbb 28be 3298 1ebe e955 e13b
00000180: 0f8f 593e c90f 18be bdfa 473d 7804 90be
00000190: 1d43 06be 86b8 873d 14fe b13d 1f49 2a3e
000001a0: ecf7 d73d 4242 943c 5fa4 013e 8bd7 f83d
000001b0: 9af2 82bd d7b7 09be bb9f 0b3e ae09 803d
000001c0: 0b5d 223e 244b 29be 03d5 1e3e 3866 9fbd
000001d0: 247c 2cbe b7a5 3a3e 9aa7 253e b22c e23d
000001e0: 22d7 013e f9a1 1fbe 5f01 073d ee9b 243e
000001f0: c66b 39be fc09 6a3e 9faf fc3d 296a 123e
00000200: 3131 14be 17a3 a13d 479a 4f3d ff37 713d
00000210: 0f64 b53d 5429 18bd d8cf 23bd a426 eb3c
00000220: e956 0abe 8147 0ebe 314c a5be 0a6f 8fbe
00000230: 63de 99bd b55a 7b3d 70b4 08be a2e2 163e
00000240: 050f a23d bf8a cfbd 168f 4fbd 5f58 ff3d
00000250: 96a5 e0bd 3ad7 153e f864 34bd 31b9 803d
00000260: e051 29bd 134d 133c 4e3e 90bd def5 1a3e
00000270: ed02 c5bd a757 ffbd a09a d73d 573b 4bbd
00000280: 3319 203e 42fb 0dbe ff91 c53c 381c 3ebe
00000290: a381 483e e332 4fbe 8759 07be f92e 1dbe
000002a0: 2ce3 11be d6ca ca3d ba4d 813d 11f7 9039
000002b0: 27d2 28bd b4b8 e8bd 5a3e ca3d dc79 6abe
000002c0: fb0d 02be d355 903d a103 b63d 5525 d33d
000002d0: 5363 6ebe 5012 bebd 1bb9 47bd 2167 273d
000002e0: 5de9 1abc dc04 b9bd 6702 ee3c 4742 113d
000002f0: 05c4 42bd ed48 473d 720a 303d 5f95 a5bd
00000300: 46e0 ab3c cf81 78be b936 16bd c510 a4bd
00000310: 7080 b7bd 67e5 0bbe e92b be3c ba61 073e
00000320: bce3 9fbd 86de cb3b 62aa 413d 48bb bd3d
00000330: 78ae 18bd b6dd 673c 40b6 32bd 9cd7 4dbe
00000340: 72c5 183d 0d57 95bd d573 943d fbec 94bd
00000350: 1de4 6abe 1449 2e3c 6806 7b3d 9573 f9bd
00000360: 3f3b cebc bcaa a5bd 525e 2fbc 86f8 3b3d
00000370: 0d48 473e d229 afbd 5ab9 8e3d f6a2 45be
00000380: f294 55be 29cb d03d aeaa a33e 1493 09be
00000390: 9131 62be df76 10be 47f7 50be e4b0 46bd
000003a0: 1ed5 8dbd 5597 c83d 4157 aebd 12cc 533e
000003b0: 1327 ce3d ec1b 4cbe 32cd 683d 037f 77be
000003c0: 35bd 0c3e 1092 7bbd f10b 053e 8e59 abbd
000003d0: 7a12 1b3e 532b 9dbd fd39 083e 31a7 d2bc
000003e0: 3d17 bbba f1ca 1cbd 3922 8e3d 399a ec3d
000003f0: fe45 5b3c 9bcc a2bd 0d35 9f3b 116e 8f3d
0.19914657 0.1448134 0.15759407 0.12242797 0.07996012 0.18787485 0.13207223 -0.013463129
-0.013606404 0.010482536 0.17382321 0.19058718 -0.123266935 -0.27012303 0.10256348 -0.11558033
0.13236472 -0.24312785 -0.10898115 0.020960944 -0.101533815 0.21236408 0.21155295 -0.04882154
-0.32143593 -0.036627315 -0.041795798 0.061067276 -0.13848044 -0.14316112 -0.005682696 0.062023148
0.066084094 -0.023459174 0.06626456 -0.00450314 -0.05578488 -0.17605945 0.24744135 -0.09560528
-0.03257581 -0.17139684 0.16318034 -0.08151228 -0.06076209 -0.18179575 -0.021909148 0.09193569
0.1624415 -0.08647345 -0.052890763 0.07969208 -0.04154051 -0.2216931 -0.17130317 0.1665899
-0.0951203 0.09159484 0.032316156 0.016284177 -0.027238838 0.010957983 0.056062777 -0.024199335
-0.08939618 0.21384804 -0.19820592 -0.36327234 -0.02289048 0.18389256 -0.024844188 -0.030862443
-0.008538235 -0.0067539006 0.08945327 -0.1602054 0.05435088 -0.21960323 -0.09146296 -0.15235606
-0.18360803 0.11507761 -0.16764744 -0.05319643 -0.036293052 -0.2258714 0.092234135 0.069672085
-0.0130184395 -0.07086552 0.21618769 0.14567983 0.15643536 -0.16477863 -0.15487745 0.0068766964
0.21245979 -0.14849772 0.048823107 -0.2812841 -0.13111539 0.06626992 0.0869104 0.16629456
0.10545334 0.018098 0.12660359 0.121504866 -0.06393929 -0.13449036 0.13635151 0.06251846
0.15855806 -0.1653257 0.15510945 -0.077831686 -0.16844231 0.18227278 0.16177216 0.11043681
0.12679723 -0.15589131 0.032960292 0.16075107 -0.18107519 0.22855371 0.123381846 0.1429831
-0.1447189 0.07892435 0.05068424 0.058891293 0.08856975 -0.03714879 -0.039993137 0.028704949
-0.13509716 -0.13894464 -0.32284692 -0.28014404 -0.0751312 0.0613658 -0.13350081 0.14734891
0.07913021 -0.101338856 -0.050673567 0.12468027 -0.10969083 0.14632884 -0.044041604 0.062853225
-0.041337848 0.008990544 -0.07043134 0.15132853 -0.09619699 -0.1246789 0.10527539 -0.049617138
0.15634613 -0.13865378 0.024117468 -0.18565452 0.19580702 -0.20234255 -0.13217746 -0.1534995
-0.14246815 0.09901969 0.06313653 0.000276499 -0.041216042 -0.11363354 0.09875174 -0.22898048
-0.12700646 0.0704762 0.08887411 0.10309855 -0.23280077 -0.092808366 -0.048760515 0.040869836
-0.009455052 -0.0903413 0.02905388 0.035463598 -0.04755022 0.04865353 0.04297871 -0.08085131
0.020980965 -0.24268268 -0.03667328 -0.08011011 -0.089600444 -0.13661729 0.023214297 0.13220873
-0.07807109 0.006221595 0.04728163 0.09264237 -0.03727576 0.014151981 -0.04363084 -0.2010178
0.037297674 -0.07291994 0.07248656 -0.07271763 -0.22938581 0.01063754 0.061285406 -0.12180249
-0.025174735 -0.080892056 -0.01070364 0.045891307 0.19461079 -0.085528985 0.06968947 -0.19300446
-0.208576 0.10195 0.31966156 -0.13435012 -0.2208922 -0.14107846 -0.20406829 -0.04850854
-0.069254145 0.09794489 -0.08512736 0.20683315 0.100660466 -0.19932526 0.056836314 -0.24169545
0.13744052 -0.061418593 0.12992837 -0.083666906 0.15143767 -0.07674279 0.13303371 -0.025714489
-0.0014273893 -0.038279478 0.06940121 0.11552853 0.013383387 -0.07949182 0.004858619 0.070034154

fc2.weight f4 [300, 400]
00000000: 697d 663a ab5f 1c3d 0857 a73c 274e d03c
00000010: c03b 123e 9c85 29bd d242 d33d ab65 b2be
00000020: 7c74 0c3d dd49 51be f73e 8abd b280 9bbe
00000030: f923 003e cd39 8d3d 2d91 7cbd 550e 79bc
00000040: 82ca 253b 2a0f 8cbe 544b 27be aca1 cd3d
00000050: 3158 99bb 8043 e9bd e646 0a3e 3e72 e33c
00000060: 7074 50bd 0382 b63d 1b22 ef3b 9ac9 923d
00000070: dd9c bc3d 31ac 703d e8a9 e5bd 4985 b73c
00000080: 9ee0 413d 4e48 d5bd 0bef d3bd 7c82 82bc
00000090: b7b1 bfbd c1c6 33bd 6f6d 113c 64d1 a5bd
000000a0: 1355 f73c 3867 5d3d 294d 21bc e5b8 f23d
000000b0: b894 093e 2c65 213d db91 2ebe b166 aabd
000000c0: edb7 9bbb 0fc1 703d 4aef 8e3c 6380 47be
000000d0: f6f9 073e 9b6c 8fbc 3b96 00bc 6f86 2fbe
000000e0: 5fb9 b0bc d54b 63be e5f6 8fbd baf0 073c
000000f0: 6cfb 35be 944d 19bc b857 073e 3b51 f5bd
00000100: e3c7 e7bc 9c36 bc3d 2cb6 1fbe 423f 99bd
00000110: 0ce2 8f3d 3146 70be d755 2e3e a6a6 b43c
00000120: ca82 7cbd d102 f1bc 9533 00be 8e36 72bd
00000130: f419 3c3d 6fcf 303e b4e1 d33c d218 39be
00000140: 78e8 c73d 961e cd3c 81e6 f53d ac07 f63c
00000150: 71b0 d9ba 7c09 14be 35fa 3abd b2ac 0f3d
00000160: b7bd c6bd afd9 9cbd 2b3d ad3d 53d3 b9bd
00000170: ad7d 03bd dde7 473d e3db 15bd a76d fdbc
00000180: 1cd0 12be 4ed9 66bd 260a f7bc d7ad 123e
00000190: 3032 5a3b 17cf 37bc a7b5 9b3b 2f58 20be
000001a0: 4c34 41be d9be 14be 476b dc3b 3930 0ebb
000001b0: 30b5 6e3d a372 e5bd a2f4 62bd b3ef 1e3b
000001c0: dc11 5fbb 4d97 36be 34e6 83be ee3d 283d
000001d0: a7a1 68bd bf41 13bd e3be 95bd a37e 01bd
000001e0: d7ff d33b 8386 0cbe 59d3 383d 6c8e 903d
000001f0: 3ea6 823d 5dd3 6c3c d873 0f3d 8a41 43be
00000200: fb6d 9cbc cb80 ac3d 3b1c 49bb cbde b63c
00000210: f950 e6bc 5ec7 e5bd ce01 073e 184b b1bd
00000220: e66c 7d3d ac7b 75bd 0f90 72bd 2b98 aebd
00000230: 14b6 91bd 0ba4 c63c bf53 3cbd c33e 22be
00000240: b4d9 ca3d 469f b8bd 7eb0 413d f33e 5ebd
00000250: f854 273d 681a 9a3d 2e8a 19be c71f cdbc
00000260: 1827 aebd 2678 2abd bee0 c93d 6fd2 a83c
00000270: e16b ae3c 93d4 d33d 078d 0ebe 19f0 9ebc
00000280: 3ef5 b2bc 9d6a a9bc ab92 08be 79f3 69be
00000290: b15e dd3c 73ad 78bd 94df 21be 3a94 a33d
000002a0: 3eed 2b3e a14d 6a3d 24a1 47be 8975 78be
000002b0: 03c2 133e 29f4 31be 858f 2abe aed6 0c3d
000002c0: de5b 883d c9e2 4b3d 7698 10be c0c5 e13c
000002d0: 5505 53bd f028 f53b c6a2 30be 32d5 95be
000002e0: 3b00 ad3d 4167 b9bd 734b 393d d066 b7bd
000002f0: 989a 273e 7955 b9bd 24de d9bd c576 8bbd
00000300: 4248 7f3d a32f dabc 0eab 80bd 9aa4 9d3d
00000310: da74 6e39 a4fc ba3d 7148 813b da82 0fbe
00000320: dfc4 903d 098a ba3c cdd4 19bd 180b 283d
00000330: faba d3bb 9690 eabd a111 593d 1128 96bc
00000340: 2bed 7d3d ccf8 1bbd a58d 10bd 8a1d f2bd
00000350: a6d8 ed3d 3101 40bd bc56 ecbd 9791 54bd
00000360: be98 0bbe b134 56bd b6e4 0f3d eede 523e
00000370: 9f01 27be ad38 45bd b4f1 9fbd 0700 39bd
00000380: 69ea f6bd 1962 d2bd 6920 2bbe 6b8d 293d
00000390: c04f a23d 7b81 9b3d 7957 fdbd 5747 6dbd
000003a0: be8d ba3d 5875 d03d f548 40bb 8037 fc3a
000003b0: e2de af3d 189b fb3d 71f7 3cbe 05a9 aebd
000003c0: 44c8 a7bd bce8 ac3d 282f bcbc 7253 983d
000003d0: 622a 303c 96ab eabc 1ebf 373d 47c6 1fbd
000003e0: 0174 2bbe 42d7 983c 3f14 52be 70bb 28bd
000003f0: bd6d 85bd 0c0f 6f3d b10c b1bc d2fd 04bd
0.0008792491 0.038177174 0.020427242 0.025427891 0.14280605 -0.041387185 0.10315479 -0.34843192
0.034290776 -0.20438333 -0.06750291 -0.30371624 0.12513722 0.0689579 -0.061661888 -0.015201171
0.0025297706 -0.2735532 -0.16337329 0.10040602 -0.0046797027 -0.11389828 0.13503608 0.027764436
-0.050892293 0.089115165 0.007297767 0.07167359 0.09209607 0.058757965 -0.11214048 0.022402423
0.047333352 -0.10414182 -0.10348328 -0.01593136 -0.09360068 -0.04389072 0.008876189 -0.08096579
0.030191934 0.054053515 -0.009845057 0.11851672 0.13435638 0.039403126 -0.17047827 -0.08320368
-0.0047521503 0.058777865 0.017448086 -0.1948257 0.13278946 -0.017507842 -0.007848318 -0.17141126
-0.021572767 -0.22196896 -0.07029513 0.00829714 -0.17771691 -0.009356875 0.13217056 -0.11978384
-0.028293556 0.091901034 -0.15596837 -0.074827686 0.07025537 -0.23464276 0.17024933 0.02205212
-0.061648168 -0.029420288 -0.12519677 -0.05913406 0.04592319 0.1726663 0.02586446 -0.18075874
0.09761137 0.025038999 0.12006856 0.030032955 -0.001660837 -0.14456743 -0.045648772 0.035076804
-0.09704154 -0.07658707 0.084589325 -0.0907351 -0.032102276 0.048805106 -0.036586653 -0.030936075
-0.143372 -0.05635958 -0.030156206 0.14324127 0.0033294074 -0.011218808 0.0047518793 -0.1565864
-0.18867606 -0.14525928 0.0067266556 -0.0021696223 0.058278263 -0.11203506 -0.05540908 0.0024251759
-0.0034037745 -0.17831154 -0.2576157 0.041074686 -0.05679479 -0.035951372 -0.073117994 -0.03161491
0.0064697075 -0.13723187 0.04512343 0.07058415 0.063793644 0.01445469 0.035022587 -0.1906797
-0.019095412 0.08423003 -0.0030686993 0.022323033 -0.028114783 -0.11219667 0.13184282 -0.08656901
0.06187143 -0.059932396 -0.059219416 -0.085251175 -0.07114807 0.024248144 -0.045978304 -0.15844254
0.09904805 -0.09014754 0.047287457 -0.05425925 0.040852517 0.07524568 -0.14994118 -0.025039567
-0.0850355 -0.04161849 0.09857319 0.020608155 0.021291675 0.1034328 -0.13920985 -0.019401597
-0.021845456 -0.02068072 -0.133372 -0.22846784 0.027022691 -0.06071229 -0.15807945 0.07987256
0.1678972 0.05720294 -0.19495064 -0.24263586 0.14429478 -0.17378296 -0.16656311 0.034384422
0.06658147 0.049776826 -0.14120659 0.027560115 -0.051518757 0.007481687 -0.17249593 -0.29264218
0.084473096 -0.09052897 0.04523797 -0.08955157 0.16367567 -0.09049506 -0.10638073 -0.06809763
0.06232477 -0.026634043 -0.06282626 0.07697411 0.0002274098 0.091302186 0.0039454033 -0.1401476
0.070688 0.022770898 -0.03755646 0.041026205 -0.0064614983 -0.11453359 0.052995328 -0.018329652
0.06199376 -0.038079068 -0.035291333 -0.118220404 0.11613588 -0.046876136 -0.11539981 -0.051896658
-0.13632485 -0.052296344 0.035130225 0.20592853 -0.16309212 -0.048149753 -0.07809773 -0.04516604
-0.12056429 -0.10272617 -0.16711582 0.041394632 0.07925367 0.07593056 -0.123702 -0.057929363
0.091090664 0.101786315 -0.002934036 0.0019242615 0.085874334 0.12285441 -0.18453766 -0.08528332
-0.081924945 0.08442828 -0.022971705 0.07437791 0.010752292 -0.028646272 0.044859998 -0.03900745
-0.1674347 0.01865733 -0.20515536 -0.04119438 -0.065150715 0.05836396 -0.021612497 -0.032468624

fc2.bias f4 [300]
00000000: 8dd6 0bbd f8fb ae3c 5eea 093e 4e56 5c3d
00000010: 26ff be3c 6041 24bd 7c42 f3bb d4e0 203d
00000020: 6758 01bc 2370 60bc 9519 00bc 1afa 8bbd
00000030: 3313 2f3b 7905 a23d 8fd8 1abd 53df 993d
00000040: 5d93 dbbb c52e c1bd 4551 853c d437 8b3b
00000050: 5a04 bb3c bb95 c7bb a3d9 4dbd 6793 fe3d
00000060: 15d6 2d3c 1d1a d4bb 718c e3bc afc9 643c
00000070: 9b99 c63d 8f59 263d 23e0 fe3c eb97 583d
00000080: 8bb7 903d 6ae8 98bc 8472 9fbd 095f 223c
00000090: 3a3d 713d e57b 0c3d d76a 68bd a4bb 93bd
000000a0: e74b 70bd a222 bf3d 45e7 143d e145 8bbc
000000b0: 5062 043e b62b 5a3d 9092 4d3d 636b 93bc
000000c0: 747d c6bc 5796 513c 9844 1c3c 186a 45bd
000000d0: 4216 d0bc 9203 a13d 608b 1e3d 45dd a13d
000000e0: e3f8 3ebb 270f a0bd ccb6 4ebd 64ea cdbc
000000f0: 007c 283d cb68 4cbb 39a7 3f3c 9fcd b13d
00000100: acc8 b6bb b21e 8a3c ae01 5a3d ee0a 873d
00000110: 5f6f a1bc 76bd 53bc bd41 213d df7f 3ebd
00000120: 066f f6bd cf06 963c 7de0 763d dbc3 24bc
00000130: 0bf0 a43d 5f6b ac3c cc1d 42be d06a 04be
00000140: 19a2 d63d 13be f8bc 78be c03d 95dc c2bd
00000150: d217 e73c ca2c 973c 1d83 993d cd8e f6bc
00000160: 602f a43c ddb6 aa3c c309 873d e22d 4e3d
00000170: 4b09 9f3c 388d 933c 283c ba3d a706 043d
00000180: 85e4 3bbc e667 82bd 1aa0 d9bc b599 a93d
00000190: 5ccb 8c3c 1110 3e3d c15b 713d 1104 ae3d
000001a0: 14af f2bc 69c6 c53d 0cba 693d 095c 953d
000001b0: d723 dcbd 420b 993d 7649 593d 44b8 f5bc
000001c0: 399f 7b3d 16c0 8f3d 77f4 3dbd 6ec1 7f3d
000001d0: 5dc6 0f3d 8eff b43c 7490 093d 5439 043d
000001e0: 225b c83c 4e93 b23a 54dc 78bd 5866 4dbd
000001f0: db8d c8bc 8b10 d03d a677 afbc 735c 1cbd
00000200: 8ba6 803d 7c79 4bbd f775 abbd fb8d 53bd
00000210: 9ed6 8d3d 241e ea3d e66f c7bc c9e3 9d3d
00000220: e86e ecbb 9285 42bd 583d 5d3d 863a bdbc
00000230: 3090 ac3d bce9 9b3d 8693 7c3c 9e31 b23b
00000240: 08fa 893c 5e84 113d 942d 8abc cc4b 0a3c
00000250: 6a02 8a3d b935 0abc af0f d73a 811e 963b
00000260: 8aaf 6a3d aef2 ad3d 5c36 28bc 670b 2e3d
00000270: b262 e5bc 68c4 a7bd 87af db3c 8670 c4ba
00000280: aee1 293a 4f0a 99bd 9ebd 453d 59f8 ac3d
00000290: 9482 9ebd a481 8a3d f943 d23c ba7e 56bd
000002a0: 16da 6fbd 7278 b8bc 40b9 af3d 5c07 97bd
000002b0: a239 e63c 0d7b b5bd f722 b9bc 6483 80bd
000002c0: c872 19bb b609 91bc d748 71bd c78d 54bc
000002d0: 5737 afbb 24f9 02bb 22f1 4cbd fa30 35bb
000002e0: 6fb8 093e dab1 813d 9ca7 193d 417e 07bd
000002f0: 5d82 643b c5d4 653c 7d2f 493c 80a2 9cba
00000300: 0738 bfbb df35 943d 8cd3 003d 9f32 2c3d
00000310: 0aa7 873d 25a2 123d f1ea 4d3b 2cad b5bd
00000320: 168a 963d 1d2a bcbd 9451 c0b9 89aa 7c3c
00000330: d6e4 b63d a0ce 283d f85b 913d 452a ddbc
00000340: a71f e93c f917 0abc bd48 403d de7d 093c
00000350: 4cb1 293d 9a4b 183d 160d 693c 62da 743c
00000360: 034c 9b3d 2bf7 b13d 6894 3d3d c89f 523d
00000370: 2b36 183a 55c0 fc3c f2da 49bd 24eb 0ebd
00000380: e20e 233b 034c ad3d 4606 e93d d19d 8ebd
00000390: 9238 a83d 7249 04bc d962 d23b 63b1 23bc
000003a0: 1be3 563d 0965 babc 6952 0bbb d9f2 f93c
000003b0: 4641 8abd f8e8 763d 2244 e8bc b9cd 81ba
000003c0: c9ae aebc f96a 413d 4574 413d 55e6 e33b
000003d0: d8d0 11bc b81d 92bd 98b8 9d3d be86 ec3c
000003e0: 02ef c2bc c710 063e 8378 b3bd 74e4 b33d
000003f0: adbb 1ebc b347 383d 8c23 ae3b f93e 473d
-0.03414016 0.021360382 0.1346831 0.053793244 0.023315024 -0.04010141 -0.007423697 0.039276913
-0.007894612 -0.0136986105 -0.007818599 -0.068348125 0.0026714324 0.079112 -0.037804183 0.07513299
-0.0067009167 -0.09432749 0.016274104 0.0042485986 0.022829223 -0.0060908473 -0.050256383 0.124304585
0.010610123 -0.0064728395 -0.027776929 0.013964101 0.09697267 0.040612753 0.031112736 0.052879255
0.07066258 -0.018665511 -0.07785514 0.009910353 0.05889628 0.034297843 -0.056742515 -0.07213524
-0.058666136 0.093327776 0.03635337 -0.017001094 0.12928128 0.053264342 0.0501886 -0.017995542
-0.024229743 0.0127921915 0.009537838 -0.048196882 -0.025401238 0.07862009 0.038707137 0.07903532
-0.0029140047 -0.0781539 -0.050467297 -0.02513618 0.04113388 -0.0031190391 0.011697584 0.08681797
-0.005578121 0.01686034 0.053224258 0.065938815 -0.019706426 -0.012923589 0.039369334 -0.046508666
-0.12032895 0.018313793 0.060272682 -0.010056461 0.08053597 0.021047292 -0.18956679 -0.1293137
0.104801364 -0.030364072 0.09411329 -0.09514729 0.0282096 0.018453974 0.07495711 -0.03009739
0.020042121 0.02083915 0.06593659 0.050336726 0.01941361 0.018011674 0.09093505 0.032232907
-0.0114680575 -0.06367473 -0.0265656 0.082812704 0.017186813 0.04640204 0.058925394 0.08496869
-0.0296245 0.09656984 0.057062194 0.07292945 -0.107490234 0.074728504 0.053048573 -0.029995091
0.061431143 0.07019059 -0.046375718 0.06244033 0.035101283 0.022094514 0.033585027 0.032281235
0.024457518 0.0013624222 -0.060756996 -0.05014643 -0.024481704 0.10159405 -0.021419358 -0.038174104
0.062817656 -0.049676403 -0.083721094 -0.051649075 0.069257006 0.1143153 -0.02434535 0.07709462
-0.0072153695 -0.047490664 0.05401358 -0.023099195 0.08425939 0.07612941 0.015416032 0.0054380437
0.016842857 0.035526626 -0.016867436 0.008440923 0.06738742 -0.00843566 0.0016407872 0.004581273
0.057296313 0.08493553 -0.010266867 0.042491343 -0.028001163 -0.081917584 0.026817096 -0.0014987148
0.0006480467 -0.07472669 0.048276536 0.08445806 -0.077397496 0.06763008 0.025667178 -0.05236695
-0.058557592 -0.02251837 0.085802555 -0.073744506 0.028103653 -0.08861361 -0.02259968 -0.06275061
-0.0023414362 -0.017704826 -0.058907356 -0.0129732555 -0.005347173 -0.0019984925 -0.05003465 -0.00276476
0.13449262 0.063327506 0.03751336 -0.03307939 0.0034867742 0.014027779 0.0122793885 -0.0011950284
-0.0058355364 0.072368376 0.031451747 0.042040464 0.06623657 0.035799164 0.0031420554 -0.088709205
0.073505566 -0.0918772 -0.00036681874 0.015421518 0.08930366 0.041212678 0.0709762 -0.026997695
0.028457476 -0.008428567 0.04694437 0.0083918255 0.04142885 0.037181474 0.014224311 0.014944645
0.075828575 0.08689722 0.04628411 0.05142191 0.00058064115 0.03085343 -0.04928107 -0.034892216
0.0024880697 0.08461764 0.1137815 -0.06963695 0.08213915 -0.008074151 0.006420475 -0.009991023
0.05246268 -0.022753255 -0.0021258837 0.030511307 -0.06750731 0.06028077 -0.0283528 -0.0009903229
-0.021323578 0.047221158 0.047230024 0.006954948 -0.00889989 -0.07134575 0.07701224 0.028872844
-0.023795608 0.13092338 -0.0876322 0.08783808 -0.0096883 0.044990253 0.005314296 0.04864404

fc3.weight f4 [4, 300]
00000000: 8048 3d3d 2195 4dbe 0c11 d2bd 7d55 463e
00000010: 7d59 6a3d 0de0 3e3e a9e0 683e 6540 9a3e
00000020: 06c9 b23e 33fc 26bd cf9c e8be 211d 413c
00000030: 8efc 5e3c d308 44be c91a 00be d58d 8f3e
00000040: f1a3 aa3d 72bd ca3e 7de8 953d 9a05 c03d
00000050: c869 f13e c43c 2e3e fb1d 86be bc54 013e
00000060: 5e3c a13e 1f11 653d 9ca4 99be 9c5d af3e
00000070: 98ed a93d e929 9dbd 367c 8b3e 2fbb b3bd
00000080: 6f5c 91be e9a5 56bd 60c0 ffbe 296d 123b
00000090: 4a91 493e 63f6 833e f3ea 73bd 511c a9bd
000000a0: b32b 2a3d b5d3 a53d ed84 973c 1f88 1dbe
000000b0: ae4c e0be 2ca1 f4bd 49c6 7f3e dbba 5f3e
000000c0: 4412 2dbe b32f 713e 04a7 fcbd 3258 ba3e
000000d0: 3494 d03e 6b5a 5b3e b2aa 94be 3c96 803c
000000e0: 8606 763c 6704 27be 4c6d bdbd bcf2 04bd
000000f0: 00c4 8c3e ac11 fabc d462 893d fb40 873e
00000100: b537 61be 36d0 8fbe f9a7 b43e a8b4 aa3d
00000110: bfb8 cd3e 58eb 0e3d 7750 c13c 091f c5be
00000120: d793 91bd fba2 88be bd0b b63a 2768 debc
00000130: 61e4 0b3d 6551 363e b303 4bbe 546a 09bf
00000140: 376d 873d 9285 c23d 82cc 9c3e cb8c 74be
00000150: 4f01 7fbd ef4c a8bc ce45 453d aea3 de3d
00000160: ab0d fa3d 9eb1 d8bd 696b 9b3d 48ff 813e
00000170: ec05 a53e c4be cc3d 4fe0 a53b 16a3 473e
00000180: 45f7 823e cf6a f7bd a5d9 39be 3b16 173e
00000190: 17c6 643d c7e1 d0be d88b c13d c23a 97bc
000001a0: 8d00 0bbe d650 073d 7a98 7c3d fbed b4be
000001b0: 8e04 fdbd 45b6 653e a390 9cbd 695f 7bbe
000001c0: 642d 96be 4a0d e43e 5e4e 233c 4269 0bbe
000001d0: b994 5d3b 915d 9f3e b9d9 fb3c 1456 cebe
000001e0: c20c 15be 63b4 2b3e 3459 ad3e bad8 123e
000001f0: 8b8e dabd 287f 5b3e d9bd 5d3e 8bde e0bd
00000200: 47fb 1abe b2c9 b3bc 71f0 8abe 00ae eabd
00000210: 8e7c 0f3d 2b92 e4bc cae3 5fbe 91d2 bd3d
00000220: 512d 583e d9a9 173e 774b cc3e 3cfb 013e
00000230: b9d5 5b3e 51e9 81be 6c3d 83be 15df 86be
00000240: ea72 3abe c776 8c3e 7fff c5be d77a 8cbd
00000250: 8eb6 06bc 231c 4d3e ae71 b6bd ae60 e8bd
00000260: 9eda 443d 4959 103e 848e 47be e715 6a3e
00000270: 2e7f 023d 1e84 65be 123c 33be f54b 05bd
00000280: a148 f33d 11db 33bd b9e8 c1bd e6eb 013e
00000290: 6387 353d 1904 30be ff17 0fbe 6615 05be
000002a0: d4d0 a4be 1e68 c7be 43d1 963d 7f33 bdbe
000002b0: f4ce a23d 8a87 48bd 7355 9f3c 03e0 db3d
000002c0: b9da 59be 3a4c a23e b47c 80be 9a37 5ebe
000002d0: 539a 14be 44c1 8fbe 4f4d 3f3e bf9e 85bd
000002e0: d490 833e 26cd 19be fa5e 443e 4a8e 1e3c
000002f0: ea32 7ebe 1753 2c3e c427 47bd 8008 6ebd
00000300: 5497 a6be 08d1 a73d 7ab5 46bd f28d 46be
00000310: b923 73be 6a9f c5bd 7050 edbd eaa9 8f3e
00000320: a8ee 143c 5901 e83d 5069 63be 882e 34be
00000330: 7ac1 c4bc b7a9 e13d 2eaa 76bd af0c d1bd
00000340: 136b a1bd 37fd 2ebe 05eb a73c 86bb f9bd
00000350: ee43 ed3d 3a6b 98bd 5334 61be 83a1 bf3e
00000360: 9bbd 383e abe2 34be f90e 0c3d 8174 593d
00000370: c481 963b c394 373d de00 143e ec80 0abe
00000380: f4bc 89be d2ac 033e 8890 ed3d 291f 2d3e
00000390: 33b8 60be 394e 093e 1e9d 3d3e 69f0 c93e
000003a0: 76fa 253e 8d28 683e 87ba 23bd 80c9 193e
000003b0: 98f5 9f3d a865 903e b610 c83d c353 8cbe
000003c0: 818b 6dbd 7e9c a03e 172f c13d 82a0 b03d
000003d0: d90f 233e 95f3 babe ec59 cc3d 9123 323e
000003e0: 9a42 033c 938e e6bd 38f4 06be 61bb 5cbd
000003f0: 666f 2fbe caac 5d3e e373 b7be 207b a93d
0.04621172 -0.2007642 -0.10257158 0.19368549 0.05721425 0.18640156 0.22741951 0.30127254
0.34918994 -0.04076786 -0.45432135 0.01178673 0.013610018 -0.19143991 -0.12510218 0.28037897
0.083320506 0.3959766 0.07319734 0.093760684 0.47151017 0.17015368 -0.26194748 0.1262998
0.3149137 0.05592453 -0.300084 0.34251106 0.082972705 -0.07674009 0.27243203 -0.08775937
-0.28390834 -0.052404318 -0.49951458 0.0022342897 0.1968433 0.25773916 -0.059550237 -0.08257354
0.04154558 0.080970205 0.018496001 -0.15383957 -0.43808502 -0.119448036 0.24977984 0.21848623
-0.16901499 0.23553352 -0.12336543 0.36395413 0.4073807 0.2142121 -0.2903648 0.015696637
0.015016204 -0.16310273 -0.09249362 -0.032458052 0.27493286 -0.030526005 0.06708303 0.26416764
-0.21993907 -0.2808854 0.35284403 0.08335239 0.40180013 0.03489241 0.023597939 -0.3850024
-0.07108276 -0.26686844 0.0013888996 -0.027149273 0.034153346 0.17804487 -0.1982563 -0.5367787
0.06612628 0.09498133 0.30624777 -0.23881833 -0.062257107 -0.020544497 0.048162274 0.10871063
0.12209638 -0.10580753 0.07588846 0.25390077 0.3223108 0.09997323 0.00506214 0.19495806
0.25579277 -0.12080919 -0.18149431 0.14754574 0.055852976 -0.40797254 0.09450501 -0.018460635
-0.13574429 0.033036076 0.06166885 -0.35337815 -0.12354384 0.22432812 -0.07644775 -0.24548115
-0.29331505 0.4454139 0.009967415 -0.13614371 0.003381057 0.31126073 0.030743467 -0.40300047
-0.14555648 0.16768031 0.3385712 0.14340487 -0.10671719 0.21435225 0.21654452 -0.10979947
-0.15134917 -0.021946762 -0.27136567 -0.11458969 0.035030894 -0.02790173 -0.21864238 0.09268678
0.21111037 0.14810885 0.39901325 0.12693495 0.21468247 -0.2537332 -0.256328 -0.26342073
-0.18207899 0.2743437 -0.3867149 -0.06859367 -0.008222235 0.20030265 -0.089084014 -0.11346565
0.048060052 0.1409656 -0.19487959 0.22859918 0.03185957 -0.2241368 -0.17503384 -0.03254314
0.11879087 -0.04391009 -0.094682164 0.12687644 0.044318568 -0.17189063 -0.13973998 -0.12996444
-0.32190573 -0.38946623 0.07364132 -0.3695335 0.079496294 -0.048957385 0.019449925 0.10736086
-0.21274842 0.3169878 -0.2509514 -0.21700898 -0.14511995 -0.28077137 0.18681835 -0.06524419
0.25696433 -0.15019664 0.19176856 0.009677479 -0.2482411 0.16828571 -0.048621908 -0.058113575
-0.3253733 0.081941664 -0.048512913 -0.19390085 -0.23744096 -0.096495464 -0.11587608 0.28059322
0.009090103 0.11328382 -0.22208142 -0.17595875 -0.024018038 0.11018699 -0.06022089 -0.10207497
-0.07881751 -0.17088781 0.020497808 -0.121939704 0.11585222 -0.07442327 -0.21992616 0.3742791
0.18041079 -0.17664592 0.034193967 0.053089622 0.004593106 0.044819605 0.14453456 -0.13525742
-0.26901972 0.12858894 0.11599833 0.16906418 -0.21945266 0.13408746 0.18516967 0.3944123
0.16208825 0.22671719 -0.03997281 0.15018272 0.07810515 0.28202558 0.09768812 -0.27407655
-0.05799437 0.31369394 0.0943281 0.086243644 0.15924014 -0.36513963 0.09978089 0.1739638
0.0080114845 -0.112576626 -0.131791 -0.053889636 -0.17132339 0.21647945 -0.35830602 0.08275437

fc3.bias f4 [4]
00000000: 1fcb 29bd 9e5a 543d e3a0 343c fdf9 e33c
-0.041453477 0.05184423 0.0110246865 0.027829165
