p2_continuous-control_single-agent/control_ddpg_actor.pth (torch_old, 548296 bytes, 10 tensors)

fc1.weight f4 [400, 33]
0	0x3d4096fa	0.047018982
1	0xbe14a0c0	-0.14514446
2	0xbd35861a	-0.044317342
3	0xbca16640	-0.019702077
4	0xbc11aeb8	-0.008891754
5	0x3f01c924	0.5069754
6	0xbe97322f	-0.29530475
7	0xbd87f891	-0.06639207
8	0x3e37c71b	0.17947046
9	0xbe118730	-0.14211726
10	0x3d852d7c	0.06502816
11	0xbda5ad54	-0.080897
12	0xbe0575a9	-0.13033165
13	0x3d1752dc	0.036944255
14	0xbe1f4849	-0.15554918
15	0xbcdbadd5	-0.026816288
16	0x3eba20b4	0.36353076
17	0xbd6ead22	-0.05827058
18	0x3de7e2e3	0.11322572
19	0x3cc5d91d	0.02415138
20	0xbb05f147	-0.0020438002
21	0xbdb707c4	-0.08937028
22	0xbd463f9f	-0.048400518
23	0x3e918240	0.28419685
24	0x3cbf4918	0.023350284
25	0x3e10fa66	0.1415802
26	0x3e1d2a84	0.1534825
27	0x3a82f931	0.0009992478
28	0xbe0b6472	-0.13612536
29	0xbc6d9398	-0.014500521
30	0xbbdf0f98	-0.006807279
31	0xbcbd7daa	-0.02313121
32	0x3b605604	0.0034230957
33	0x3d74d23b	0.059770804
34	0xbea68361	-0.3252211
35	0x3db5c866	0.088761136
36	0x3e054f2d	0.13018484
37	0x3e7b8cb8	0.24565399
38	0x3e57b67e	0.21065709
39	0x3ea41738	0.32048965
40	0xbe46e513	-0.19423322
41	0x3e2ab576	0.16670784
42	0xbeae1f6f	-0.34008357
43	0xbcf7f5cf	-0.030268578
44	0xbe01606c	-0.12634438
45	0x3d9085d9	0.070567794
46	0xbdb90555	-0.0903422
47	0x3e2e5742	0.17025474
48	0xbdf1444e	-0.11780606
49	0x3d2501a3	0.040284764
50	0xbc1bb743	-0.009504142
51	0xbe232760	-0.15932989
52	0x3cf567e0	0.029956758
53	0xbde27970	-0.110583186
54	0x3c2032ec	0.009777766
55	0x3d992635	0.074779905
56	0xbe3c2d99	-0.18376769
57	0xbcd75b7f	-0.026288746
58	0xbe07dbd4	-0.13267452
59	0x3d32eecf	0.043684777
60	0x3d2a3102	0.041550644
61	0x3d3ba4c6	0.045811437
62	0xbc2dd788	-0.010610469
63	0x3a8786eb	0.0010339891
64	0x3d1a7f63	0.03771914
65	0x3f2e531d	0.6809557
66	0x3c7489f3	0.014925468
67	0x3e3f7c34	0.18699723
68	0x3d4874f7	0.04893967
69	0xbb879d25	-0.004138606
70	0x3d4d64f7	0.050145116
71	0xbe0923eb	-0.13392608
72	0x3d6dd9b9	0.058068965
73	0x3af92820	0.001900915
74	0xbd6a3b9b	-0.05718575
75	0xbc8b9b58	-0.017041847
76	0xbd7b62fe	-0.061373703
77	0xbd53577f	-0.051597115
78	0x3dd78ee2	0.105252996
79	0x3d8216b3	0.06351986
80	0xbdb3b416	-0.08774583
81	0x3e45f710	0.19332528
82	0xbc05abac	-0.008158606
83	0xbd9c738e	-0.07639228
84	0xbd05da6e	-0.032679014
85	0xbdbb95f2	-0.09159459
86	0xbe2f149e	-0.17097709
87	0xbd7b98cb	-0.06142501
88	0x3a9178e9	0.0011098656
89	0x3d8695f1	0.06571568
90	0xbd5347ee	-0.05158227
91	0x3dd468d6	0.10371558
92	0xbd948652	-0.07252182
93	0x3ce2ab54	0.027669586
94	0xbe8770db	-0.2645329
95	0x3d20ebe9	0.03928748
96	0x3d4d66e9	0.05014697
97	0x3ca514e2	0.02015156
98	0x3ec29353	0.38003024
99	0x3d86080e	0.06544505
100	0x3e61e6ea	0.22060743
101	0xbdd05b60	-0.101736784
102	0xbd00a0ed	-0.03140347
103	0x3eb9a315	0.36257234
104	0xbe84b38d	-0.25918236
105	0xbd8e92cd	-0.06961594
106	0x3e7393ed	0.23786898
107	0x3e65338a	0.22382942
108	0x3eb4346d	0.35196248
109	0x3e1f44f4	0.15553647
110	0xbd8321dc	-0.064029425
111	0x3d6587c4	0.05603768
112	0xbde211f0	-0.110385776
113	0xbe3886cf	-0.18020175
114	0xbbd131bb	-0.006384102
115	0x3d93be5c	0.072140425
116	0x3d04bea3	0.032408368
117	0xbd643ddb	-0.055723052
118	0x3d325c23	0.0435449
119	0x3e1b001d	0.15136762
120	0x3de5d0b3	0.11221447
121	0xbd8f4a72	-0.06996621
122	0x3d99ef0a	0.07516296
123	0x3d4b6f61	0.049666766
124	0xbe30eecd	-0.17278595
125	0x3cef8287	0.029237045
126	0xbc8bce24	-0.017066069
127	0x3e258fb1	0.16168095
128	0xbbf3b598	-0.007437419
129	0x3cfabf52	0.030608807
130	0xbd04f74e	-0.03246241
131	0xbee3a47d	-0.44461432
132	0xbe1c10ca	-0.1524078
133	0x3e91706b	0.2840608
134	0xbd8573f9	-0.06516261
135	0xbb888657	-0.004166405
136	0x3e66e498	0.22548139
137	0x3d2be6ec	0.04196827
138	0xbe078ab6	-0.13236508
139	0xbd41cf1b	-0.04731665
140	0xbe07ad1a	-0.13249627
141	0xbd7930bb	-0.06083749
142	0x3cb28160	0.021790206
143	0x3d86d66e	0.06583868
144	0x3c5a8add	0.013338772
145	0x3e1b5382	0.15168574
146	0xbea2edff	-0.31822202
147	0xbd9846eb	-0.074354015
148	0x3d5f4b40	0.054515123
149	0xbd48fa0f	-0.0490666
150	0x3c740fa9	0.014896312
151	0x3c2c370c	0.010511171
152	0xbd803b27	-0.062612824
153	0x3de34170	0.110964656
154	0x3d3e29f7	0.04642674
155	0x3d7200d4	0.05908282
156	0xbbe5891d	-0.0070048706
157	0xbd80b28d	-0.06284056
158	0x3dc4faff	0.09618186
159	0xbb05994f	-0.0020385568
160	0x3e016b1a	0.12638512
161	0xbad0e0c0	-0.0015936121
162	0xbd300a8a	-0.0429788
163	0xbc1f4738	-0.00972157
164	0xbf22e446	-0.6362957
165	0xbb9492d1	-0.0045341034
166	0x3ca96d8e	0.020682123
167	0x3d36163a	0.04445479
168	0xbe836b13	-0.2566763
169	0x3f02b7ef	0.5106191
170	0xbe1e9f60	-0.15490484
171	0x3e96c02a	0.29443485
172	0x3cc7b2ec	0.024377309
173	0x3e9fc59a	0.31205446
174	0xbe514453	-0.2043622
175	0xbe63baff	-0.22239302
176	0xbded0e6a	-0.11575015
177	0x3d97401f	0.07385277
178	0x3ddb6565	0.10712699
179	0xbd6b5081	-0.05744982
180	0x3c59ebc9	0.0133008445
181	0x3d56ddbb	0.052457552
182	0x3bedf10e	0.007261402
183	0x3c9c9d5f	0.01911801
184	0x3b52a454	0.0032141404
185	0x3e1d8663	0.15383296
186	0xbe7e946c	-0.24861306
187	0x3dfed379	0.12442679
188	0x3dc17d2d	0.094477035
189	0xbcc3a321	-0.023881497
190	0x3e0edd99	0.1395172
191	0x3da1d35f	0.07901644
192	0xbcf4eb8c	-0.029897474
193	0xbde46509	-0.111520834
194	0xbcc0376d	-0.02346393
195	0x3d1ff0f6	0.039048158
196	0xbcf2272d	-0.029559696
197	0x3f1120ed	0.56690866
198	0xbe12aef0	-0.14324546
199	0xbf0783c4	-0.52935433
200	0x3d9bcb10	0.076070905
201	0xbc987440	-0.01861012
202	0xbe3db483	-0.18525891
203	0x3e8a6309	0.27028683
204	0xbe933be5	-0.28756633
205	0x3ccd698a	0.025074739
206	0xbe84456e	-0.2583422
207	0x3e4269a7	0.18985616
208	0x3d724d25	0.059155602
209	0xbdaf592a	-0.085619286
210	0xbd8c3f5a	-0.06848021
211	0x3d8d61bb	0.06903406
212	0x3ea73fb2	0.32665783
213	0xbdb6db20	-0.089285135
214	0xbd3d952f	-0.04628485
215	0x3cb82a75	0.022481183
216	0xbdf2a679	-0.118481584
217	0x3da82399	0.08209915
218	0x3e155625	0.14583643
219	0xbe19180a	-0.14950576
220	0xbe2b427d	-0.16724582
221	0x3c0cd874	0.008596528
222	0x3e03d3a9	0.1287371
223	0x3d7ac035	0.06121846
224	0x3c3417db	0.010992016
225	0xbd465efc	-0.048430428
226	0x3dd95036	0.10611002
227	0xbd3944a7	-0.045231488
228	0xbb4c6f8a	-0.0031194412
229	0x3cd673c2	0.026178245
230	0x3e05116e	0.1299493
231	0x3e820c5e	0.2540006
232	0xbd01197f	-0.031518456
233	0xbd0ceeae	-0.03440731
234	0xbdb12bc7	-0.08650928
235	0x3e4ce8e7	0.2001072
236	0xbc617fc8	-0.013763376
237	0x3dda7bd4	0.106681496
238	0x3cca5d9c	0.02470284
239	0x3e19e914	0.15030318
240	0x3e29f34e	0.1659672
241	0x3d9cc019	0.07653827
242	0x3af2dcb2	0.0018528907
243	0xbcd6efff	-0.026237486
244	0xbe8e62d5	-0.27809778
245	0x3dd1ec59	0.10250158
246	0x3e0716a6	0.13192233
247	0x3d40ba65	0.04705276
248	0xbcfa20f7	-0.030533297
249	0xbcb819f2	-0.02247331
250	0x3dc8ae33	0.09798851
251	0xbd09a9d1	-0.033609215
252	0x3b8c8cd5	0.0042892494
253	0x3d2cac05	0.042156238
254	0xbe44495a	-0.19168606
255	0x3cc4eef8	0.02403973

fc1.bias f4 [400]
0	0x3e1c19b4	0.1524418
1	0x3e03dcf0	0.1287725
2	0x3dbf48ee	0.09340082
3	0x3ddb4d26	0.10708074
4	0x3db95d12	0.09050955
5	0x3e219e53	0.15783052
6	0x3e03e081	0.1287861
7	0xbcc44a59	-0.023961233
8	0x3e199a3b	0.1500024
9	0xbd847447	-0.06467491
10	0x3e15764b	0.14595906
11	0x3dcabce4	0.09899309
12	0xbd178090	-0.03698784
13	0xbe2ef8b5	-0.17087062
14	0x3e21724f	0.15766262
15	0x3c7b0614	0.015321273
16	0x3c8a0134	0.016846277
17	0xbe09ba31	-0.13449933
18	0xbd6c95b7	-0.057759967
19	0x3e263844	0.16232401
20	0xbe0a0cd3	-0.13481455
21	0x3e28e1b3	0.16492347
22	0x3e245dd1	0.16051413
23	0xbd6a5083	-0.05720569
24	0xbdcecd4d	-0.10097752
25	0xbd5efbb8	-0.054439276
26	0xbcabae2a	-0.020957071
27	0xbd5eef30	-0.054427326
28	0xbd1cf6a7	-0.038321164
29	0xbdf7a77e	-0.120924935
30	0xbd4a8ed5	-0.04945262
31	0x3df14a56	0.117817566
32	0x3ded2604	0.115795165
33	0x3ae83265	0.0017715214
34	0x3e082d19	0.13298453
35	0xbd6f6bac	-0.058452293
36	0xbd1ebcfe	-0.038754456
37	0xbe0cf3f1	-0.13764931
38	0x3df53942	0.11973812
39	0xbd957745	-0.072981395
40	0xbd7737ab	-0.060355823
41	0xbe13a412	-0.14418057
42	0x3e11b8d0	0.14230657
43	0xbe1040d8	-0.14087236
44	0x3bbe0eaf	0.0058000903
45	0xbdf640b8	-0.12024063
46	0xbcfee6a9	-0.031115847
47	0x3d934793	0.07191386
48	0x3ddb218d	0.10699759
49	0xbe1277f2	-0.14303568
50	0xbe0a0eaa	-0.13482156
51	0x3d2a764c	0.041616723
52	0xbc4e7fef	-0.012603744
53	0xbdd1ebcf	-0.10250055
54	0xbe12d11f	-0.14337586
55	0x3dc2e004	0.09515384
56	0x3d100904	0.035164848
57	0x3ddc35dd	0.10752461
58	0x3b82c989	0.00399131
59	0x3d485faf	0.048919376
60	0x3cc3f313	0.023919618
61	0xbd75468b	-0.05988173
62	0x3c92b242	0.017907266
63	0xbc78335a	-0.015148962
64	0xbe120ae3	-0.14261965
65	0x3e062da6	0.13103351
66	0xbe1dbca8	-0.15403998
67	0xbdeace33	-0.11465111
68	0xbc5b6557	-0.0133908605
69	0x3e146c99	0.14494552
70	0xbe17448c	-0.14772242
71	0x3ca1e2f0	0.019761533
72	0xbba901ad	-0.0051576705
73	0xbd91f9e1	-0.07127739
74	0x3d82c8d2	0.0638596
75	0xbe12e355	-0.14344533
76	0x3b07c4ac	0.002071659
77	0xbe24e223	-0.1610189
78	0xbe0d65f5	-0.13808425
79	0xbddcd8f6	-0.107835695
80	0xbe270f93	-0.16314535
81	0x3daabbde	0.08336614
82	0xbe09748c	-0.13423365
83	0x3c657031	0.014003799
84	0xbdbf2660	-0.09333491
85	0xbe27c54c	-0.16383857
86	0x3e0686b4	0.13137323
87	0x3e1cc83d	0.1531076
88	0xbdd2dab3	-0.1029562
89	0xbe0cc72e	-0.13747856
90	0x3de8cf71	0.11367691
91	0x3e1c114e	0.15240976
92	0x3dda312e	0.106539115
93	0xbda52515	-0.080637135
94	0xbe0195a0	-0.12654734
95	0x3c960028	0.018310621
96	0x3e0ac359	0.13551082
97	0xbe2d5cb0	-0.16929889
98	0x3d1c98ac	0.038231537
99	0xbe062f68	-0.13104022
100	0xbdcde5dc	-0.10053608
101	0x3db6ed69	0.08932001
102	0x3c224f8a	0.009906659
103	0x3e254d84	0.16142851
104	0x3d327103	0.043564808
105	0xbd026ee2	-0.031844027
106	0x3e0c409f	0.13696526
107	0x3de4b39d	0.11167071
108	0xbe0e3d78	-0.13890636
109	0xbe041b45	-0.12901028
110	0x3e0c50b0	0.13702655
111	0x3d29d9c4	0.041467443
112	0x3df28703	0.11842158
113	0xbe0f6f98	-0.14007413
114	0x3d749e46	0.059721254
115	0xbdb1a2c4	-0.08673623
116	0xbe1c9c09	-0.15293898
117	0x3d8fa1eb	0.07013305
118	0x3ddf1423	0.10892513
119	0x3e291e1b	0.1651539
120	0x3e260a75	0.16214927
121	0xbe19b6f1	-0.15011193
122	0x3de18f83	0.11013701
123	0x3e13c349	0.14429964
124	0xbe1b0318	-0.15137899
125	0x3e1de0c8	0.15417778
126	0x3e1f0433	0.15528946
127	0x3e23fd1b	0.16014521
128	0xbe1f9f9d	-0.15588231
129	0x3de4f89b	0.1118023
130	0x3d193eb4	0.037413314
131	0x3c3f6855	0.01168259
132	0x3dc2c163	0.09509542
133	0xbd90457f	-0.07044505
134	0xbd196111	-0.037446085
135	0xbb723f90	-0.0036964156
136	0xbe322b0b	-0.17399232
137	0xbe1461fe	-0.14490506
138	0xbe1ee227	-0.15515958
139	0xbe09f6ec	-0.134731
140	0xbd8f702b	-0.07003816
141	0x3de63a19	0.1124155
142	0xbe3228bf	-0.17398356
143	0x3e195283	0.14972882
144	0xbb02b6c5	-0.0019945365
145	0xbe0f0eaf	-0.13970445
146	0x3dda9fd0	0.10675013
147	0x3dfc3789	0.1231528
148	0xbe139c6f	-0.14415143
149	0x3e1bb604	0.15206152
150	0xbdb06adc	-0.08614132
151	0x3d494895	0.049141485
152	0x3d3d71b8	0.04625103
153	0xbc19671c	-0.009362962
154	0xbe1605ab	-0.146506
155	0x3de3f3aa	0.111304596
156	0xbe1ada10	-0.15122247
157	0xbdcacce4	-0.09902361
158	0xbc2f3c52	-0.010695534
159	0x3d46fa9b	0.04857884
160	0x3e1bae0c	0.15203112
161	0xbbd97f37	-0.0066374796
162	0xbd055e53	-0.032560658
163	0xbdf060b4	-0.11737195
164	0x3e23b883	0.15988354
165	0xbe2ac509	-0.16676725
166	0xbd8da37e	-0.06915949
167	0xbda82403	-0.08209994
168	0xbe1dd27b	-0.15412323
169	0x3d8934a6	0.06699495
170	0x3dc9fa0a	0.09862144
171	0x3e07eed1	0.13274695
172	0xbc6f0a21	-0.014589817
173	0xbe311c49	-0.17295946
174	0x3dc8620c	0.09784326
175	0xbe2af340	-0.16694355
176	0xbdd11a72	-0.10210122
177	0x3d7eccaf	0.06220692
178	0x3d9d1d36	0.07671587
179	0x3d342158	0.04397711
180	0xbdd9d7de	-0.106368765
181	0xbdbbbb88	-0.09166628
182	0x3c8bd3ea	0.017068822
183	0x3da1c367	0.07898598
184	0xbc0ac5f5	-0.008470048
185	0xbdc0d8e0	-0.094163656
186	0x3d84c8fe	0.06483649
187	0x3d69e277	0.05710074
188	0xbd750247	-0.059816625
189	0xbb7c4291	-0.0038491825
190	0x3cc79956	0.024365108
191	0xbdae0597	-0.0849716
192	0xbd2dc978	-0.042428464
193	0xbd81f8b7	-0.06346267
194	0xbc3a101d	-0.011356381
195	0xbdd5d8e2	-0.10441758
196	0xbde9b0e6	-0.11410694
197	0xbde2d010	-0.11074841
198	0x3d0577b5	0.032584865
199	0x3b7a1deb	0.0038164805
200	0xbd5f40e6	-0.05450525
201	0xbac7ae85	-0.0015234506
202	0x3d33f67c	0.043936238
203	0x3d5129e1	0.05106533
204	0x3c416885	0.011804705
205	0xbd382c69	-0.044964228
206	0xbdcdc4ed	-0.10047326
207	0xbda4ad17	-0.08040827
208	0xbcc187b2	-0.023624275
209	0xbe049ba8	-0.12950003
210	0xbcaefee9	-0.021361785
211	0xbde8a49b	-0.11359521
212	0xbe276a54	-0.16349155
213	0x3d951854	0.07280031
214	0xbce4b8b1	-0.027920099
215	0xbd315c48	-0.043300897
216	0x3da136a1	0.07871748
217	0xbce65c4a	-0.028120179
218	0xbd1bb384	-0.038012996
219	0x3e306f36	0.17229924
220	0x3d9c0521	0.07618166
221	0xbe10fbfd	-0.14158626
222	0x3e02473a	0.12722483
223	0xbdba65d0	-0.091014504
224	0xbd201cf9	-0.03909013
225	0x3da65fbc	0.08123729
226	0x3e294a32	0.1653221
227	0xbe0f4460	-0.13990927
228	0xbdd8c82d	-0.105850555
229	0xbe1b1f81	-0.15148737
230	0xbe2738c0	-0.16330242
231	0xbe23ea4a	-0.16007343
232	0xbe0a944d	-0.13533135
233	0x3d1d3d55	0.03838857
234	0x3d8a46a0	0.06751752
235	0x3e0c4f8a	0.13702217
236	0x3de7615e	0.11297868
237	0xbe11fc5d	-0.14256425
238	0x3b6ccd1c	0.0036132997
239	0xbe22f549	-0.15913881
240	0x3e1d53be	0.15363976
241	0xbd038c00	-0.032115936
242	0x3d817dfb	0.06322857
243	0xbde504b6	-0.11182539
244	0x3e153223	0.14569907
245	0xbe036eea	-0.12835279
246	0x3d6d61b4	0.057954505
247	0xbd06a089	-0.032867942
248	0xbcb342f6	-0.021882515
249	0xbd1f2d21	-0.038861398
250	0x3dd4670f	0.10371219
251	0x3d2e2354	0.04251416
252	0x3dc04e57	0.09389942
253	0xbd737584	-0.059438244
254	0xbdc61cde	-0.09673475
255	0x3dea5292	0.1144153

bn1.weight f4 [400]
0	0x3ee67ccb	0.45017084
1	0x3f178d37	0.5919985
2	0x3f36f7f8	0.7147212
3	0x3f009335	0.5022462
4	0x3f1fce96	0.624246
5	0x3f4dca4f	0.80386823
6	0x3f35aa03	0.7096254
7	0x3f2f6577	0.685142
8	0x3f08a81e	0.53381526
9	0x3f8e72ff	1.1128844
10	0x3eb7d4c6	0.3590452
11	0x3f32c9b1	0.69839007
12	0x3e8403e2	0.25784212
13	0x3eb35036	0.35022134
14	0x3f5e1af3	0.8675987
15	0x3f7eb713	0.994981
16	0x3f1a527d	0.6028212
17	0x3f28749c	0.6580293
18	0x3ef41287	0.47670385
19	0x3ed497b3	0.41521987
20	0x3eae3d39	0.34031084
21	0x3efec54d	0.49759904
22	0x3f22d2e6	0.63603055
23	0x3f32b336	0.69804704
24	0x3ed349f0	0.41267347
25	0x3f2f3305	0.68437225
26	0x3f0764e5	0.5288833
27	0x3a079f1f	0.0005173552
28	0x3edf623c	0.43629634
29	0x3ee2168a	0.4415782
30	0x3f365765	0.71227103
31	0x3ef289af	0.4737067
32	0x3f6909af	0.910304
33	0x3eec14e6	0.46109694
34	0x3f0b8db1	0.5451308
35	0x3f1ef846	0.62097585
36	0x3f2f5422	0.6848775
37	0x3f66fd8b	0.90230626
38	0x3f3616b7	0.7112841
39	0x3ecda167	0.40162203
40	0x3f128fd3	0.5725071
41	0x3ec240fc	0.37940204
42	0x3f374b5c	0.71599364
43	0x3f302d69	0.6881929
44	0x3f200e69	0.6252199
45	0x3e70b2ab	0.23505656
46	0x3f095f8e	0.5366143
47	0x3f26ed7e	0.65206134
48	0x3f1b6048	0.6069379
49	0x3f0e33a4	0.5554755
50	0x3f2a7dba	0.66598094
51	0x3ef1a385	0.47195068
52	0x3f20c23d	0.62796384
53	0x3f5ceb2c	0.86296344
54	0x3f0d547b	0.5520703
55	0x3f0b9110	0.5451822
56	0x3f972b43	1.1810077
57	0x3f499fb7	0.7875933
58	0x3ecd5940	0.40107155
59	0x3f110a02	0.56655896
60	0x3eb8be46	0.36082667
61	0x3f4faa63	0.81119365
62	0x3f319b72	0.69377816
63	0x3f3612d8	0.71122503
64	0x3f413e28	0.7548547
65	0x3f1d1039	0.6135288
66	0x3edf7235	0.4364182
67	0x3edb517c	0.42835605
68	0x3ecf9ce1	0.40549377
69	0x3f6bf4a8	0.9217019
70	0x3ed07de0	0.40721035
71	0x3f203ea1	0.62595564
72	0x3f446c2e	0.7672757
73	0x3f4e587c	0.80603766
74	0x3f353a22	0.7079183
75	0x3ededeb2	0.43529278
76	0x3f295d50	0.6615801
77	0x3f21b899	0.631723
78	0x3f433f7e	0.76268756
79	0x3f3fb048	0.7487836
80	0x3f76d232	0.9641448
81	0x3f377d04	0.71675134
82	0x3f1fa9a5	0.6236823
83	0x3ee8f8ae	0.45502228
84	0x3f5f452b	0.87214917
85	0x3f2c6629	0.67343384
86	0x3f234814	0.6378186
87	0x3f051206	0.51980627
88	0x3f1ba894	0.60804105
89	0x3f341e14	0.70358396
90	0x3f2f2a8d	0.684243
91	0x3f0aa333	0.5415527
92	0x3f1e1c03	0.6176149
93	0x3f0c592e	0.5482358
94	0x3f455550	0.770833
95	0x3eb37cc0	0.35056114
96	0x3f5da209	0.8657537
97	0x3f60af8a	0.8776785
98	0x3edf714f	0.43641135
99	0x3f25530c	0.64579844
100	0x3e676ae3	0.22599368
101	0x3ed4a79a	0.4153412
102	0x3f49f431	0.7888823
103	0x3f44960b	0.7679145
104	0x3f20625e	0.62650096
105	0x3f249d66	0.6430267
106	0x3ec43758	0.38323474
107	0x3f583385	0.8445361
108	0x3f3c5fb2	0.7358352
109	0x3f37b468	0.71759653
110	0x3f4a6bae	0.79070556
111	0x3f18b85d	0.59656316
112	0x3f0b0251	0.5430041
113	0x3f38cf79	0.7219158
114	0x3f6e8267	0.9316773
115	0x3f52a6c4	0.82285714
116	0x3f5e12e4	0.86747575
117	0x3efc5b39	0.49288347
118	0x3f2d5fd9	0.67724377
119	0x3f0281b3	0.50979155
120	0x3f3f4496	0.7471403
121	0x3f1464d5	0.5796636
122	0x3f12f922	0.57411397
123	0x3f272995	0.65297824
124	0x3f16ce3b	0.5890843
125	0x3f3e2d52	0.74287903
126	0x3f005dc2	0.50143063
127	0x3f50db16	0.815843
128	0x3f4e8946	0.8067821
129	0x3f7607e4	0.9610579
130	0x3efab95e	0.4896955
131	0x3f57f6ca	0.84360945
132	0x3ee54f7c	0.44787204
133	0x3f3f9fdb	0.74853295
134	0x3f40a9a6	0.7525886
135	0x3f0cba46	0.5497173
136	0x3f0c024e	0.54691017
137	0x3f5f3f46	0.8720592
138	0x3f82cfc5	1.0219656
139	0x3f0494bb	0.51789445
140	0x3f1690ac	0.588145
141	0x3f18a3a7	0.59624714
142	0x3f44b74b	0.7684218
143	0x3ee16aa7	0.44026682
144	0x3ebac6ef	0.364799
145	0x3f3ae421	0.7300435
146	0x3edf81fd	0.4365386
147	0x3eb9e05a	0.3630398
148	0x3f2bcde3	0.67111033
149	0x3f04ecae	0.51923645
150	0x3f1bf440	0.6091957
151	0x3ee65f93	0.44994792
152	0x3f397e75	0.72458583
153	0x3f27faec	0.6561725
154	0x3f165a06	0.58731115
155	0x3eca2bec	0.39486635
156	0x3f1850c1	0.5949822
157	0x3f0a1f7c	0.5395429
158	0x3f129e03	0.57272357
159	0x3f5c25e1	0.859953
160	0x3f5468a8	0.8297219
161	0x3f0c207c	0.5473707
162	0x3f166595	0.5874875
163	0x3f27ac0c	0.654969
164	0x3ef0dddd	0.47044268
165	0x3f807215	1.0034815
166	0x3f4d4003	0.801758
167	0x3f24ec1e	0.64422786
168	0x3f537579	0.82601124
169	0x3f0b1374	0.5432656
170	0x3f6ea0b9	0.93213993
171	0x3f0c0f50	0.54710865
172	0x3e4bb28f	0.19892333
173	0x3f442481	0.766182
174	0x3f337ccf	0.7011232
175	0x3f141a90	0.5785303
176	0x3f56e9a1	0.8395024
177	0x3f2e04a9	0.6797586
178	0x3effb74b	0.4994453
179	0x3f500abc	0.8126638
180	0x3f374351	0.7158709
181	0x3f234952	0.6378375
182	0x3f3ea13b	0.7446477
183	0x3f65bf1d	0.8974474
184	0x3f0347aa	0.51281226
185	0x3edd0ef8	0.43175483
186	0x3f54d5e2	0.8313886
187	0x3f5a6601	0.85311896
188	0x3f26743a	0.650211
189	0x3f3d8bd6	0.740415
190	0x3ef00399	0.46877745
191	0x3f01beec	0.5068195
192	0x3fbb628b	1.4639448
193	0x3efc5985	0.49287048
194	0x3f2bd375	0.6711953
195	0x3f3928c9	0.7232786
196	0x3f33dbf9	0.70257527
197	0x3ed0a15a	0.407481
198	0x3f1927aa	0.5982615
199	0x3f4adebe	0.7924613
200	0x3f027737	0.5096316
201	0x3f0fe39a	0.5620667
202	0x3f289fef	0.6586904
203	0x3f21cc31	0.63202196
204	0x3f475aa2	0.7787267
205	0x3ebea0d2	0.3723207
206	0x3f209631	0.62729174
207	0x3ed650c3	0.4185849
208	0x3eea616e	0.45777458
209	0x3ef1a5ff	0.47196957
210	0x3ebb8b8e	0.3662991
211	0x3ee52f23	0.44762525
212	0x3f293da5	0.6610969
213	0x3f0bb406	0.5457157
214	0x3f3fe18e	0.74953544
215	0x3f28b89e	0.65906703
216	0x3f2205c0	0.63290024
217	0x3f2a828b	0.6660544
218	0x3f119b83	0.5687792
219	0x3f2ce235	0.67532665
220	0x3e99be79	0.30028132
221	0x3f0a639e	0.54058254
222	0x3f2a8fce	0.6662568
223	0x3ec2f28c	0.38075674
224	0x3ef65851	0.48114255
225	0x3f2c3c0f	0.6727914
226	0x3f50fbb3	0.8163406
227	0x3f0e7e6b	0.5566165
228	0x3f41accc	0.7565429
229	0x3f8b6afe	1.0892026
230	0x3eef0515	0.46683565
231	0x3f32b988	0.6981435
232	0x3f40e0f6	0.75343263
233	0x3f54ad9a	0.83077395
234	0x3f54c675	0.8311532
235	0x3f418d5f	0.7560634
236	0x3f215384	0.6301806
237	0x3f0b7124	0.54469514
238	0x3f5339d4	0.82510114
239	0x3f04e5c9	0.51913124
240	0x3efeb01f	0.49743745
241	0x3f318bc8	0.69353914
242	0x3f14a927	0.58070606
243	0x3f1509b6	0.5821794
244	0x3ef1dd8b	0.47239336
245	0x3f202364	0.62554
246	0x3f316fd4	0.6931126
247	0x3ead3b3c	0.33834255
248	0x3f47bc3f	0.78021616
249	0x3fa4ee2d	1.2885185
250	0x3f0f50b1	0.559825
251	0x3f4cef22	0.8005239
252	0x3f4fafa6	0.81127393
253	0x3f3f6ba9	0.7477365
254	0x3f4f5c6b	0.81000394
255	0x3f396518	0.7241988

bn1.bias f4 [400]
0	0xbe8d7e9e	-0.27635664
1	0xbe937f26	-0.28807944
2	0xbee4de77	-0.44700977
3	0xbf03a5ee	-0.51425064
4	0xbf39b90a	-0.7254797
5	0xbf4d0dc4	-0.8009913
6	0x3d7f3a32	0.06231136
7	0xbea634f4	-0.32462275
8	0xbe282967	-0.16422044
9	0xbf86f209	-1.0542613
10	0xbdd6a216	-0.10480134
11	0xbec860b6	-0.39136285
12	0x3eb9ed5e	0.3631391
13	0xbe3ae61f	-0.18251847
14	0xbe20103b	-0.15631191
15	0xbf49ccf6	-0.7882837
16	0xbec07a84	-0.37593472
17	0xbe87d205	-0.2652742
18	0xbdd4e901	-0.103960045
19	0xbe854ce6	-0.2603523
20	0xbe8fb70b	-0.28069338
21	0xbefdbc29	-0.49557617
22	0xbea7364f	-0.32658622
23	0xbeabb3a8	-0.33535504
24	0x3dac01e2	0.083987966
25	0xbf41061e	-0.7539996
26	0xbf01cbf8	-0.50701857
27	0xbbdb9a92	-0.006701776
28	0xbef2b532	-0.47403866
29	0xbeb34750	-0.35015345
30	0x3dd5d329	0.10440666
31	0xbe3dae2b	-0.18523471
32	0xbf63520f	-0.88797086
33	0xbe1bac0c	-0.1520235
34	0xbee1b9da	-0.44087106
35	0xbee4b7c2	-0.44671446
36	0xbee6b7d5	-0.45062128
37	0xbe8270d6	-0.25476712
38	0xbf0c9168	-0.5490937
39	0xbda09791	-0.07841409
40	0x3e02f680	0.12789345
41	0xbea68192	-0.3252073
42	0xbdfc1bbf	-0.1230998
43	0xbeaf58b3	-0.3424736
44	0xbf009b96	-0.50237405
45	0x3d559354	0.052142456
46	0xbeacaccf	-0.33725592
47	0xbe62038b	-0.22071664
48	0xbf097a03	-0.537018
49	0xbd97fbaf	-0.07421052
50	0xbf250f65	-0.64476615
51	0xbecd25b7	-0.40067837
52	0xbdd1e77f	-0.102492325
53	0xbf06b9fe	-0.5262755
54	0xbec5dfe7	-0.38647386
55	0xbf1be15f	-0.60890764
56	0xbeea2101	-0.45728305
57	0xbed74375	-0.42043653
58	0xbea2d545	-0.31803337
59	0xbee73934	-0.4516083
60	0x3d968e3b	0.07351347
61	0xbf3f8829	-0.7481714
62	0xbf024d7d	-0.5089949
63	0x3d9c1981	0.07622052
64	0xbf142ae6	-0.5787796
65	0xbeeded3d	-0.4647006
66	0xbec51ca3	-0.3849841
67	0xbe5f0bdb	-0.21781866
68	0xbea97cd5	-0.33103052
69	0xbf051b31	-0.51994616
70	0xbbcac71e	-0.0061882874
71	0xbd88b545	-0.066751994
72	0xbe113166	-0.14179
73	0xbe7e3d9b	-0.24828188
74	0xbf129166	-0.5725311
75	0x3dd276a5	0.10276536
76	0xbeeec18f	-0.46632048
77	0x3cc89568	0.024485305
78	0xbe8190c9	-0.25305775
79	0xbf6f158c	-0.9339225
80	0x3e4300a2	0.1904321
81	0xbed53cdc	-0.41647995
82	0x3db06e44	0.086147815
83	0xbe579000	-0.21051025
84	0xbf405bbe	-0.7513999
85	0xbf1612b2	-0.58622277
86	0xbe712516	-0.23549303
87	0xbc9bd7bd	-0.01902377
88	0xbf00c34b	-0.50297993
89	0xbf1aec17	-0.60516495
90	0xbf07ad72	-0.5299903
91	0xbef0431f	-0.4692621
92	0xbf2a687e	-0.6656569
93	0x3e9026a9	0.28154495
94	0xbee62347	-0.4494879
95	0xbd9f6cfc	-0.07784459
96	0xbed7d626	-0.4215557
97	0xbed73782	-0.42034537
98	0xbda7aefd	-0.08187673
99	0xbdbef755	-0.093245186
100	0x3e1b27fa	0.15151969
101	0xbea74ed7	-0.32677338
102	0xbf15bde0	-0.5849285
103	0xbec45e07	-0.38352987
104	0xbea0473a	-0.31304342
105	0xbf208b17	-0.62712234
106	0xbc292a97	-0.010325096
107	0xbefb8d90	-0.4913144
108	0xbf18757a	-0.59554255
109	0xbf14e9d2	-0.5816928
110	0x3ea59055	0.3233668
111	0xbefe75a6	-0.49699134
112	0xbea9f176	-0.33192033
113	0x3eb75663	0.35808095
114	0xbf13c3c7	-0.5772061
115	0xbf220c2f	-0.6329984
116	0xbee1263e	-0.4397449
117	0xbee639b6	-0.44965905
118	0xbf207cd6	-0.62690485
119	0xbf0d9a42	-0.55313504
120	0xbecb3ef3	-0.39696464
121	0xbd739529	-0.059468422
122	0x3f3c6b41	0.73601156
123	0xbf3f1095	-0.7463468
124	0xbef26ec2	-0.47350127
125	0xbf026f14	-0.5095074
126	0xbefef82c	-0.49798715
127	0xbf55148f	-0.83234495
128	0xbef4d8e1	-0.47821715
129	0xbf38da3d	-0.72208005
130	0xbb652a54	-0.0034967856
131	0xbf216125	-0.63038856
132	0xbe4e4798	-0.20144498
133	0xbef0ebf0	-0.47055006
134	0xbee4de2a	-0.44700748
135	0xbedd223b	-0.43190178
136	0xbedd1156	-0.4317729
137	0xbe49c67a	-0.19704619
138	0xbf5efae4	-0.8710158
139	0xbe98820c	-0.29786718
140	0xbe9f1723	-0.3107234
141	0xbee1c071	-0.44092134
142	0xbf0486ce	-0.51768196
143	0xbf2ad677	-0.667335
144	0xbbff8d20	-0.007798806
145	0xbf0aa772	-0.5416175
146	0xbe3d31ce	-0.1847603
147	0x3eaccfd6	0.33752316
148	0xbebff841	-0.3749409
149	0xbe6ef435	-0.23335345
150	0xbe9ead01	-0.30991367
151	0xbe182409	-0.14857496
152	0xbf5d2885	-0.8638995
153	0xbeda5d8c	-0.42649496
154	0xbefbf45a	-0.49209863
155	0xbec75cd2	-0.38938004
156	0xbf16c171	-0.5888892
157	0xbe9696fb	-0.29412064
158	0xbebbe444	-0.3669759
159	0xbf14cf92	-0.5812923
160	0xbf22bcb8	-0.6356921
161	0xbf1bbb72	-0.60832894
162	0xbf273d0a	-0.65327513
163	0xbeba3a30	-0.3637252
164	0xbe9f75d8	-0.31144595
165	0xbf65e045	-0.89795333
166	0xbf107323	-0.56425685
167	0x3e0e707c	0.13910097
168	0xbedf6093	-0.43628368
169	0xbead1d98	-0.3381164
170	0xbc6a9fb1	-0.0143203
171	0xbeb7c562	-0.3589278
172	0x3dcfb3ee	0.10141741
173	0xbeb886b4	-0.3604027
174	0xbe264ee7	-0.16241036
175	0xbcab78b0	-0.020931572
176	0xbf123452	-0.57111084
177	0xbed87428	-0.4227612
178	0xbec8de13	-0.3923193
179	0xbe37c57a	-0.17946425
180	0xbed99e69	-0.4250367
181	0xbf2936e9	-0.6609941
182	0xbf291f14	-0.66063046
183	0xbefcecf2	-0.49399525
184	0xbdecd891	-0.11564744
185	0xbe474ddd	-0.19463296
186	0xbe5055f5	-0.2034529
187	0xbecd22cd	-0.40065613
188	0xbee34514	-0.4438864
189	0xbecd0880	-0.40045547
190	0x3d37b089	0.04484609
191	0xbe23aeef	-0.159847
192	0xbf044d5a	-0.5168053
193	0xbeb2403f	-0.3481464
194	0xbe26fd79	-0.1630763
195	0xbe82ac1d	-0.25521937
196	0xbe913efe	-0.28368372
197	0xbdadc591	-0.084849484
198	0xbe39f73a	-0.18160716
199	0xbedbd881	-0.42938617
200	0xbe7f561d	-0.24935193
201	0xbe046167	-0.12927781
202	0xbcd124cc	-0.025530241
203	0xbf256a23	-0.64615077
204	0xbf073ddd	-0.5282877
205	0xbe6907b2	-0.22756842
206	0xbee9c208	-0.45655847
207	0xbe7836fd	-0.24239726
208	0xbe988fda	-0.2979725
209	0xbf0b59b2	-0.5443374
210	0x3dd4d40c	0.10392007
211	0xbca1968d	-0.019725109
212	0xbe04ae8a	-0.12957206
213	0x3de509c3	0.111835025
214	0xbe27154b	-0.16316716
215	0xbf16457a	-0.5869976
216	0xbf006356	-0.50151575
217	0xbf069aae	-0.5257977
218	0xbef597fa	-0.4796751
219	0xbf11c531	-0.56941515
220	0x3e83e317	0.25759193
221	0xbf132b7a	-0.57488215
222	0xbe17246c	-0.14759988
223	0x3e0e5e65	0.13903196
224	0xbf43e3ef	-0.76519674
225	0xbe7c49db	-0.24637549
226	0xbecb0a00	-0.39656067
227	0xbeaad178	-0.33362937
228	0xbe911525	-0.28336444
229	0xbf3689af	-0.7130384
230	0xbe9edd75	-0.31028333
231	0xbf081fa0	-0.53173256
232	0xbed97eee	-0.42479652
233	0xbf54e6c7	-0.8316464
234	0xbeb1bd29	-0.3471463
235	0xbebf9682	-0.37419516
236	0xbf692e60	-0.9108639
237	0xbf0f447a	-0.5596386
238	0xbc2aabdb	-0.01041695
239	0xbce83a65	-0.028348157
240	0xbdedfad1	-0.11620105
241	0x3e20e6ee	0.15713093
242	0xbed9f979	-0.42573145
243	0xbec81959	-0.3908184
244	0xbec4ae7f	-0.3841438
245	0xbf66362f	-0.8992643
246	0xbee749d2	-0.45173508
247	0xbe4ad8ac	-0.19809216
248	0xbf0eb053	-0.557378
249	0xbeb1e518	-0.34745097
250	0xbf06a251	-0.52591425
251	0xbf36967c	-0.7132337
252	0xbf6f2b18	-0.9342513
253	0xbe844dbe	-0.25840563
254	0xbef91097	-0.4864547
255	0xbf0e7ceb	-0.5565936

bn1.running_mean f4 [400]
0	0x3f8bdebb	1.0927347
1	0x3e82380c	0.25433385
2	0xbe5596f8	-0.20858371
3	0x3ec500c3	0.38477144
4	0x3f0fc69c	0.5616243
5	0x3e9142ce	0.2837128
6	0x3e8fb259	0.28065756
7	0xbec4ba23	-0.3842326
8	0x3f3dec0f	0.7418832
9	0xbd8618fa	-0.06547733
10	0xbf0659e2	-0.524809
11	0xbd2a30e1	-0.04155052
12	0xbdf4c3fe	-0.11951445
13	0x3dae5eeb	0.08514198
14	0x3d2732ce	0.040819936
15	0x3e62f7de	0.22164866
16	0x3e3fe8d8	0.18741167
17	0xbe2f2417	-0.17103611
18	0x3f0fdf22	0.5619985
19	0x3f1e4021	0.618166
20	0x3e77e4d9	0.24208392
21	0xbe3bcfa4	-0.18340927
22	0x3ddd7b82	0.10814573
23	0x3e76adc9	0.24089731
24	0xbf49b8a1	-0.78797346
25	0x3f27d78f	0.6556329
26	0xbf309446	-0.6897625
27	0xbe9c522f	-0.3053145
28	0x3d931ee4	0.07183626
29	0xbe12b8d8	-0.14328325
30	0xbea265df	-0.31718346
31	0xbf6fb7a8	-0.9363961
32	0x3cfe1292	0.031014714
33	0x3ed90460	0.4238615
34	0x3f15834e	0.5840348
35	0x3edfa7c0	0.4368267
36	0xbf0603ad	-0.5234936
37	0x3cea7344	0.028619416
38	0x3e25c79f	0.1618943
39	0xbf0ffd18	-0.56245565
40	0xbdccd857	-0.10002201
41	0xbdbdc30d	-0.092657186
42	0x3d3ed86d	0.04659312
43	0x3eca2275	0.39479414
44	0x3e541e71	0.20714737
45	0x3e61c586	0.22048005
46	0xbeb3ef10	-0.35143328
47	0x3e0486d9	0.12942065
48	0x3e22842a	0.15870729
49	0x3ddeacd5	0.10872809
50	0xbf3551f6	-0.7082819
51	0xbf1395a5	-0.57650214
52	0xbebff83f	-0.37494084
53	0xbe24c83d	-0.1609201
54	0x3eb38054	0.35058844
55	0x3f029583	0.51009387
56	0x3d376768	0.04477635
57	0x3e31d784	0.17367369
58	0x3e8fdbc2	0.2809735
59	0x3f0737e7	0.52819675
60	0xbf1a13c4	-0.6018641
61	0xbde5d8c5	-0.11222986
62	0x3e922181	0.28541186
63	0x3d65532b	0.05598752
64	0xbdcead13	-0.10091605
65	0x3cd752c2	0.02628458
66	0xbe14f7a6	-0.14547595
67	0xbf9a2f85	-1.2045752
68	0xbe888bb7	-0.26669094
69	0xbc8d3d20	-0.01724106
70	0xbceb6571	-0.028734894
71	0x3f3f9069	0.7482973
72	0x3e90bfe7	0.2827141
73	0x3e2371b6	0.15961346
74	0xbf1e22f6	-0.61772096
75	0x3dc4f902	0.09617807
76	0xbf713de5	-0.9423507
77	0x3e77bf20	0.24194002
78	0xbf2acd88	-0.66719866
79	0xbf97459b	-1.1818117
80	0xbe5a2395	-0.21302636
81	0xbdd26ce6	-0.10274677
82	0x3ee7410f	0.45166823
83	0x3f48dcba	0.784618
84	0xbe3e7df9	-0.18602742
85	0x3d6bf891	0.0576101
86	0xbe7e0221	-0.248055
87	0x3d694791	0.056953017
88	0xbe0bef82	-0.13665584
89	0xbf60a68d	-0.87754136
90	0x3e328a6a	0.17435613
91	0xbf63e298	-0.8901763
92	0xbd8b2465	-0.06794051
93	0xbf08b61b	-0.5340287
94	0x3e4a7a9a	0.19773331
95	0x3ea0d613	0.31413326
96	0xbeda8705	-0.42681137
97	0xbe434f24	-0.19073159
98	0xbebf7252	-0.37391907
99	0x3d9e84a9	0.07740147
100	0xbea07441	-0.31338695
101	0xbf73d283	-0.9524309
102	0xbc58466e	-0.0132003855
103	0x3d40e6c2	0.047095068
104	0xbcbb87d7	-0.022891922
105	0xbf1505e0	-0.5821209
106	0x3ee6a9d4	0.45051444
107	0x3dce42d0	0.10071337
108	0xbf799232	-0.974887
109	0xbcdcbd3e	-0.026945706
110	0x3e6fd8ce	0.23422548
111	0x3e98b746	0.29827327
112	0xbe19c998	-0.15018308
113	0x3f2d1fb4	0.676265
114	0xbd47090b	-0.04859261
115	0xbdd5ac28	-0.10433227
116	0xbd8912b6	-0.06693022
117	0xbe245210	-0.1604693
118	0xbeb4c4f5	-0.35306516
119	0xbe8aed09	-0.27133968
120	0xbde892b8	-0.113561094
121	0xbe2d5244	-0.16925913
122	0x3f979ca2	1.1844676
123	0xbd7a0460	-0.06103933
124	0xbecf0871	-0.40436128
125	0x3e1160e0	0.14197111
126	0xbe84b5bf	-0.2591991
127	0xbea0a351	-0.313746
128	0x3e4af9ef	0.19821905
129	0x3f2fecb2	0.68720543
130	0x3f78ba98	0.9715972
131	0x3d5d2850	0.053993523
132	0xbecfa8b4	-0.40558398
133	0xbeb91832	-0.36151272
134	0xbebd5cbd	-0.36984816
135	0x3e63fd7b	0.22264664
136	0xbf356ac3	-0.7086603
137	0xbe620a68	-0.22074282
138	0xbec1b791	-0.37835363
139	0x3ee8ed0a	0.45493346
140	0xbd1b74c0	-0.03795314
141	0x3eaecb83	0.34139642
142	0xbef78783	-0.48345575
143	0xbf83a44d	-1.0284516
144	0xbd7c6131	-0.061616126
145	0x3f242ec9	0.6413389
146	0x3d8075fd	0.062725045
147	0x3f42a92e	0.760394
148	0x3f8261eb	1.0186132
149	0xbed10eed	-0.408317
150	0x3e1f1f2d	0.15539236
151	0xbe51dff2	-0.20495585
152	0x3b0f903b	0.0021906036
153	0x3eba38ec	0.36371553
154	0x3e130a94	0.14359504
155	0xbea1fab2	-0.31636578
156	0xbec4130b	-0.3829578
157	0xbf300092	-0.6875087
158	0x3f1abe59	0.604467
159	0x3e7099aa	0.23496118
160	0xbe621984	-0.22080046
161	0x3dda662b	0.10664018
162	0xbeb35680	-0.35026932
163	0xbe18b176	-0.14911446
164	0x3e99f77e	0.30071634
165	0xbe885edd	-0.26634875
166	0xbea261ff	-0.3171539
167	0x3f341e99	0.7035919
168	0xbd8cf6ce	-0.06883012
169	0xbed0bf44	-0.40770924
170	0xbf03d2fc	-0.5149381
171	0x3e88fb2b	0.26754126
172	0xbe830df9	-0.25596598
173	0xbe823688	-0.2543223
174	0x3e233a49	0.15940203
175	0xbf315f30	-0.6928587
176	0x3fa96a2f	1.323553
177	0xbf241a5d	-0.6410273
178	0xbf005840	-0.5013466
179	0x3f0d1c40	0.5512123
180	0xbeebebf7	-0.46078464
181	0xbf3f3664	-0.7469237
182	0xbf8e84ed	-1.1134316
183	0x3e844cd0	0.25839853
184	0x3d4cd597	0.050008383
185	0x3f2fe045	0.68701583
186	0x3f14c0a1	0.5810643
187	0x3e8f7e05	0.28025833
188	0xbf01de43	-0.5072977
189	0xbef30fdd	-0.4747304
190	0xbe405a1a	-0.18784371
191	0xbe93542e	-0.28775162
192	0xbe3035ef	-0.17208074
193	0x3de5e208	0.11224753
194	0xbcafd950	-0.021465927
195	0x3ed43c29	0.4145215
196	0xbeec6ec6	-0.46178263
197	0x3e8acc06	0.27108783
198	0xbe074de7	-0.13213311
199	0xbdcf06bf	-0.101087086
200	0xbf049d0e	-0.51802146
201	0x3f57d34f	0.84306806
202	0x3f29bbfb	0.6630246
203	0xbe18e70f	-0.14931892
204	0x3ecb7026	0.39734
205	0xbf482362	-0.7817899
206	0xbec0d2eb	-0.37660918
207	0xbe3b1883	-0.18271069
208	0x3f51e7dc	0.81994414
209	0xbf8fb6fb	-1.1227716
210	0xbf8bce81	-1.0922395
211	0xbeb32973	-0.3499256
212	0xbecc2c38	-0.39877486
213	0x3f76e80d	0.9644783
214	0x3d7a5a6d	0.061121393
215	0x3dcdb7e1	0.10044838
216	0x3f7ba0ba	0.98292124
217	0xbe0044f5	-0.12526305
218	0xbd9214ce	-0.071328744
219	0xbc9130a2	-0.017723385
220	0xbec84ace	-0.3911957
221	0xbeebff05	-0.46093002
222	0xbe49df06	-0.19713983
223	0x3e9c04b1	0.3047233
224	0xbf977c72	-1.1834853
225	0x3d1b8456	0.037968002
226	0x3f0ee540	0.5581856
227	0xbf3cf0b7	-0.738048
228	0xbbe1140d	-0.0068688453
229	0xbe3f5c17	-0.18687473
230	0x3e0386c8	0.12844384
231	0x3dae4536	0.08509295
232	0xbe8ad4d1	-0.2711549
233	0x3ec09f8c	0.37621725
234	0x3dcdaf16	0.100431606
235	0x3f10735b	0.5642602
236	0x3e0c7a07	0.13718425
237	0xbda5806a	-0.08081134
238	0x3de3ce9d	0.11123393
239	0xbeb72d00	-0.3577652
240	0x3e72d8c1	0.23715498
241	0x3f065164	0.5246794
242	0xbedc68d2	-0.43048722
243	0x3d61b732	0.05510635
244	0xbf94c732	-1.162329
245	0x3f5e4013	0.8681652
246	0xbee0ce84	-0.4390756
247	0xbee57be3	-0.4482108
248	0xbdc6e0eb	-0.097108684
249	0xbd844278	-0.064579904
250	0xbb0b6a73	-0.0021273165
251	0xbcd148f4	-0.025547482
252	0x3e4b7e5c	0.19872421
253	0x3f601cbf	0.87543863
254	0xbea5bc5e	-0.32370275
255	0xbe511daa	-0.20421472

bn1.running_var f4 [400]
0	0x4071923a	3.77455
1	0x3f9128cb	1.1340574
2	0x3f945117	1.1587247
3	0x3fb30bf7	1.3988026
4	0x3fbeadd7	1.4896802
5	0x4016fa81	2.3590395
6	0x3f611161	0.87917143
7	0x3f89c177	1.0762166
8	0x3f881a0d	1.063295
9	0x3fc4dace	1.5379274
10	0x3f308e8e	0.6896752
11	0x40263e29	2.597544
12	0x40115209	2.270632
13	0x402eda92	2.7320905
14	0x3ffe84ad	1.988424
15	0x3f1cc423	0.6123678
16	0x3f229296	0.6350492
17	0x3f7bbb26	0.9833244
18	0x3fa5f3ca	1.2965024
19	0x3f9d2707	1.2277535
20	0x3f7634c3	0.9617426
21	0x3f64591c	0.8919847
22	0x4004d526	2.0755095
23	0x3f2bc6a1	0.6709996
24	0x404458c0	3.0679169
25	0x40be018a	5.937688
26	0x40936e54	4.607218
27	0x3e270281	0.16309549
28	0x401cd40e	2.4504428
29	0x3f23d478	0.63996077
30	0x406330e4	3.549859
31	0x3ffe5d0c	1.9872146
32	0x3fcd8a29	1.6057788
33	0x4013b745	2.308061
34	0x3fa81b54	1.313334
35	0x3f40eb2c	0.75358844
36	0x3f177134	0.5915711
37	0x3f72c040	0.948246
38	0x3f7b3623	0.9812948
39	0x3ff407ff	1.906494
40	0x3ff778b6	1.9333713
41	0x3f8d3e0c	1.103456
42	0x4004feb1	2.0780451
43	0x3f372fd5	0.7155736
44	0x402b786d	2.6792252
45	0x3f4b5177	0.7942118
46	0x3fd1b9d6	1.6384838
47	0x3f991938	1.1960821
48	0x3fce5139	1.6118537
49	0x3fb17ee3	1.3866848
50	0x3fa75a1f	1.3074378
51	0x3f5c6407	0.8609013
52	0x3f223b31	0.6337157
53	0x3f852163	1.0400814
54	0x40975907	4.7296176
55	0x40562c73	3.346463
56	0x3fbc7b79	1.4725181
57	0x3edbf4f2	0.42960316
58	0x3fa3b330	1.2789059
59	0x40c07c89	6.015202
60	0x3f8d45d0	1.103693
61	0x3f8cd750	1.1003208
62	0x3fc41633	1.5319275
63	0x3fc945e2	1.5724452
64	0x3ef82a17	0.48469612
65	0x405ad852	3.4194531
66	0x3fc36827	1.526616
67	0x3fd05e7e	1.6278837
68	0x40234ce6	2.5515685
69	0x3fa07dc1	1.2538377
70	0x3f86da8b	1.0535444
71	0x4026e63f	2.607803
72	0x3fcf0150	1.6172276
73	0x3f98e4f0	1.1944866
74	0x3f2d6722	0.67735493
75	0x400704f7	2.109678
76	0x400f1023	2.23536
77	0x3f98a5ba	1.1925576
78	0x3f7945e0	0.97372246
79	0x4001d40b	2.028567
80	0x3f877774	1.0583329
81	0x3f4c066a	0.7969729
82	0x3fe2834c	1.7696319
83	0x3edd60bf	0.43237874
84	0x3fbdc0a2	1.4824412
85	0x3fa867a9	1.3156635
86	0x3ff670a7	1.9253129
87	0x3f8e80da	1.1133072
88	0x400d9c1b	2.212653
89	0x3fcb714b	1.5893949
90	0x4011a868	2.2759037
91	0x3f9e3bda	1.2362015
92	0x401e7856	2.4760947
93	0x3fbafd9c	1.4608645
94	0x3f8736e9	1.0563632
95	0x3fe4f5f6	1.7887561
96	0x3f6056e9	0.87632614
97	0x3ff6a1e1	1.9268152
98	0x3fcc450a	1.5958569
99	0x3f49a849	0.7877241
100	0x4006988e	2.1030612
101	0x3f428277	0.75980324
102	0x3f2fb867	0.6864075
103	0x3f396bcc	0.7243011
104	0x3fdfbae6	1.7478912
105	0x402679db	2.6011875
106	0x403131d8	2.7686672
107	0x3f942cb3	1.1576141
108	0x3fe4d34b	1.7876981
109	0x3f8eff32	1.117163
110	0x3f62711a	0.8845383
111	0x408420bb	4.1289954
112	0x3fa9d6e3	1.3268703
113	0x3ff23cfe	1.8924863
114	0x3fa98d51	1.3246251
115	0x404afc8e	3.1716647
116	0x3eafa1ca	0.34303123
117	0x3f610aa8	0.87906885
118	0x401b0e78	2.422758
119	0x3ef4f75c	0.4784497
120	0x3f36c923	0.7140066
121	0x3f88d06f	1.0688609
122	0x3fbf08f1	1.4924604
123	0x402e1db9	2.7205641
124	0x3fc5259e	1.5402105
125	0x3f7a3fea	0.97753775
126	0x3f3f8178	0.7480693
127	0x3f147e79	0.5800548
128	0x3fa24073	1.2675918
129	0x4047b5e8	3.1204777
130	0x402a0e5b	2.6571262
131	0x3fb31c14	1.3992944
132	0x3fb87fee	1.4414041
133	0x3ed09868	0.40741277
134	0x3fdd0f49	1.727029
135	0x3f994c5d	1.1976429
136	0x3f3987cb	0.7247283
137	0x3f8d33c2	1.103142
138	0x3f74450e	0.9541787
139	0x3f32e6cf	0.69883436
140	0x3fb9701f	1.4487342
141	0x4016406d	2.3476822
142	0x3fbc0536	1.468909
143	0x3faeb14f	1.364786
144	0x3f5e8387	0.86919445
145	0x404ae627	3.1702974
146	0x40741e31	3.8143427
147	0x3f7d47b5	0.9893754
148	0x3ffe1a3e	1.9851758
149	0x3f0e6fa9	0.5563913
150	0x401c7681	2.444733
151	0x3fd5d561	1.6705743
152	0x3fccd0d9	1.6001235
153	0x3ef734cb	0.48282465
154	0x4051b06a	3.2763925
155	0x3fefac00	1.8724365
156	0x40a60f91	5.1894
157	0x3f4cba07	0.79971355
158	0x3fdab112	1.7085288
159	0x3ee26cef	0.44223735
160	0x3ff6f3dc	1.929317
161	0x3f84f500	1.0387268
162	0x3f71a70c	0.9439552
163	0x3f54503e	0.8293494
164	0x3fa4489b	1.2834657
165	0x3f8d0660	1.101757
166	0x40096168	2.1465702
167	0x40ec6411	7.387215
168	0x3f82e995	1.0227534
169	0x4016dce9	2.3572333
170	0x4004e040	2.0761871
171	0x3f91d671	1.1393567
172	0x3faea0f1	1.3642865
173	0x3fd9f73f	1.7028579
174	0x3fc54cbf	1.5414046
175	0x405bead3	3.4362075
176	0x40421888	3.0327473
177	0x4094a432	4.6450434
178	0x3fd1c279	1.6387473
179	0x3f869f7c	1.0517421
180	0x400320a3	2.048867
181	0x400a849a	2.1643434
182	0x40289700	2.6342163
183	0x3f34ba6b	0.7059695
184	0x3f04c103	0.5185701
185	0x401aaa0d	2.416629
186	0x3f3cd37b	0.73760194
187	0x40094d73	2.1453521
188	0x3fef678a	1.8703473
189	0x3fe0b842	1.7556231
190	0x4085b1e1	4.1779637
191	0x4040bc2c	3.011485
192	0x3f8da61d	1.1066319
193	0x3fdc78c1	1.7224351
194	0x3f8bfbb2	1.0936186
195	0x3f52299a	0.8209473
196	0x3f716bbe	0.94305027
197	0x3f9ee3ae	1.2413232
198	0x3eb18bcd	0.34676972
199	0x3ea3a8b4	0.31964648
200	0x3fdb9932	1.7156126
201	0x3fcc540d	1.596315
202	0x40352999	2.830664
203	0x405e4d91	3.4734843
204	0x404f7576	3.2415442
205	0x3eb63c08	0.35592675
206	0x3fd03808	1.6267099
207	0x40775840	3.8647614
208	0x40599a40	3.4000397
209	0x3fa665b7	1.2999791
210	0x3f3cf942	0.7381784
211	0x3f9a7fb6	1.2070224
212	0x3fb26b28	1.3938951
213	0x402a545b	2.6613986
214	0x3f722ddb	0.9460122
215	0x40395ef2	2.89642
216	0x4047fe22	3.124886
217	0x3f898d98	1.0746336
218	0x407c8ae5	3.9459774
219	0x3f3484f7	0.7051539
220	0x3f2d9e8f	0.67820066
221	0x3fa22d85	1.2670141
222	0x3fda371a	1.7048066
223	0x3feb7167	1.8393983
224	0x3fab5a79	1.3386985
225	0x3f9786d0	1.1838017
226	0x401b0504	2.4221811
227	0x3f9bc3de	1.2169149
228	0x3ee47a39	0.44624498
229	0x3fc6fb93	1.5545524
230	0x40407446	3.0070968
231	0x3fd01169	1.6255313
232	0x3ebb65e9	0.3660119
233	0x40414a4a	3.0201592
234	0x3f4edc68	0.80805063
235	0x3fc15ece	1.5107057
236	0x3fc232a3	1.5171703
237	0x3fc89ce7	1.5672883
238	0x40270d7e	2.6101985
239	0x3f40453e	0.75105655
240	0x3f701264	0.9377806
241	0x3f9dff03	1.2343448
242	0x40154234	2.3321657
243	0x403a9511	2.9153483
244	0x400019cb	2.0015743
245	0x3fdb009a	1.7109559
246	0x3fb915e9	1.4459811
247	0x3f06927a	0.52567255
248	0x3fd7761d	1.683292
249	0x3fb5fe6f	1.4218272
250	0x3f103e74	0.56345296
251	0x3f56d7d9	0.8392311
252	0x4029cb57	2.6530359
253	0x401c6a82	2.4440007
254	0x3f13cf2b	0.5773799
255	0x3f297f4c	0.66209865

fc2.weight f4 [300, 400]
0	0xbe832531	-0.25614312
1	0x3cf4cbe6	0.029882383
2	0xbdcf83cb	-0.101325594
3	0x3c07a191	0.0082782665
4	0x3d9d9f52	0.076964036
5	0x3d121eab	0.03567378
6	0x3dfe1517	0.12406366
7	0x3d925ae9	0.07146246
8	0xbcb42ade	-0.021993097
9	0x3ebc6a28	0.3679974
10	0xbe6e5667	-0.23275147
11	0xbe59cbcd	-0.2126915
12	0xbe0ce260	-0.1375823
13	0x3e2fd689	0.17171682
14	0x3d895a60	0.06706691
15	0x3e0130ae	0.12616226
16	0x3e1a8187	0.15088473
17	0xbcc9657b	-0.024584522
18	0xbd89bdbd	-0.06725643
19	0x3e1e5bf3	0.15464763
20	0xbe132a31	-0.14371563
21	0xbe956b94	-0.29183638
22	0xbd93f75d	-0.07224915
23	0xbd89a3b3	-0.06720676
24	0xbe559ad0	-0.20859838
25	0x3e089b3b	0.13340466
26	0x3f39c5f3	0.7256767
27	0x3ba2d46c	0.0049691703
28	0xbea68f85	-0.32531372
29	0x3d90e2f0	0.07074535
30	0x3e166662	0.14687493
31	0x3d66d01f	0.056350823
32	0xbdd8a2cf	-0.10577928
33	0xbdbd5098	-0.09243888
34	0x3e234b6e	0.15946743
35	0xbe9fbc34	-0.31198275
36	0x3e9a3ce7	0.3012459
37	0xbe8a6fe7	-0.270385
38	0x3e6aabf9	0.22917165
39	0x3e30e68b	0.17275445
40	0xbdfde6c7	-0.12397533
41	0x3e58bf67	0.21166764
42	0xbd83c9f4	-0.06435004
43	0x3d526ef5	0.051375348
44	0xbe194172	-0.14966372
45	0xbd609e37	-0.054838385
46	0xbe3a5f55	-0.18200429
47	0xbebc2da8	-0.36753583
48	0xbdd67dee	-0.10473238
49	0x3d663a94	0.05620821
50	0xbeaf5655	-0.34245554
51	0x3e973ce9	0.29538658
52	0xbedb520a	-0.42836028
53	0xbcd13727	-0.025538994
54	0xbe0d3eba	-0.1379346
55	0x3eae595e	0.34052557
56	0x3e6b01a7	0.22949849
57	0x3dda1c7c	0.10649964
58	0xbd917570	-0.071024776
59	0x3e8e7094	0.27820265
60	0xbdd3d7f3	-0.103439234
61	0x3d7c3fad	0.061584163
62	0xbe647d07	-0.22313319
63	0x3b20de11	0.0024546424
64	0xbc1d6fd7	-0.009609184
65	0x3e1a1afd	0.15049358
66	0x3e7a7b06	0.24460992
67	0xbe900f0f	-0.2813649
68	0xbd8ff6c4	-0.07029489
69	0xbe9189f3	-0.2842556
70	0x3d216170	0.039399564
71	0x3dcf62a9	0.1012624
72	0xbe892c71	-0.2679172
73	0xbe01da14	-0.12680846
74	0x39d1a07f	0.00039983165
75	0xbd8b66c9	-0.06806714
76	0xbe35f407	-0.1776887
77	0xbdffbb7a	-0.1248693
78	0x3d89d1a7	0.06729441
79	0x3e1e5018	0.15460241
80	0x3e1cc4df	0.15309475
81	0x3c71ff73	0.0147703765
82	0x3c6123ee	0.013741476
83	0x3d25c583	0.040471565
84	0xbdbf8ffb	-0.09353634
85	0x3d1206f9	0.03565118
86	0xbe24a144	-0.16077143
87	0xbcd889ad	-0.026432836
88	0xbd9549a1	-0.07289434
89	0x3e89bbb6	0.26901025
90	0xbd603b63	-0.054744136
91	0xbe24d989	-0.16098608
92	0x3d86288f	0.06550705
93	0xbcb3377b	-0.021877041
94	0xbddfc23f	-0.109257214
95	0x3cc388a2	0.023868863
96	0xbd37301a	-0.044723608
97	0xbeaa4ef9	-0.33263376
98	0xbd3c2fa5	-0.045943875
99	0x3e42b1e7	0.19013177
100	0xbe8c1be7	-0.27365038
101	0xbdb6cc9f	-0.08925747
102	0x3d823251	0.06357253
103	0xbe16d578	-0.1472987
104	0x3db70114	0.089357525
105	0xbe0a1195	-0.1348327
106	0x3d7060d9	0.05868611
107	0x3dfcb63b	0.12339445
108	0x3e44ac7f	0.19206427
109	0x3dab13ed	0.0835341
110	0x3e13a76f	0.1441934
111	0xbe22dd32	-0.15904692
112	0xbeb8ab65	-0.36068264
113	0x3e207aad	0.15671797
114	0xbeafbd8a	-0.34324294
115	0xbd0433f8	-0.032276124
116	0xbd86870a	-0.065687254
117	0x3ec4a2e9	0.3840554
118	0xbec7ae17	-0.39000008
119	0xbc9211fa	-0.017830838
120	0xbdf31a48	-0.11870247
121	0x3e8b3015	0.2718512
122	0xbcf6f334	-0.030145265
123	0xbe32f7d6	-0.17477354
124	0x3e10dd82	0.14146999
125	0x3ea54caa	0.32285053
126	0x3e951903	0.29120645
127	0x3f02c3d1	0.5108004
128	0x3d942425	0.072334565
129	0x3dca2862	0.09870984
130	0x3c733d8e	0.014846219
131	0xbe927aff	-0.28609464
132	0x3d8a3f62	0.067503706
133	0xbe047c5c	-0.12938064
134	0xbeaf47f3	-0.3423458
135	0xbba0e9c9	-0.004910682
136	0xbe27993b	-0.16367047
137	0xbc94e33a	-0.018174756
138	0xbdb57afb	-0.08861347
139	0x3e8b19c5	0.27168098
140	0xbe4b5f67	-0.19860612
141	0x3dce01c6	0.10058932
142	0x3d67619a	0.056489564
143	0xbd6e1c0c	-0.058132216
144	0xbe5f075c	-0.21780151
145	0x3e056f1e	0.13030669
146	0x3ca6f8bb	0.020382276
147	0xbe579c85	-0.21055801
148	0x3e6f6d1d	0.23381467
149	0x3db3fc26	0.08788328
150	0x3caad314	0.020852603
151	0x3bc8cc26	0.006127852
152	0xbd07ae81	-0.033125404
153	0x3e050101	0.12988664
154	0xbec8a31b	-0.3918694
155	0x3ebd3da3	0.36961088
156	0x3e096b66	0.13419876
157	0xbd98438c	-0.074347585
158	0x3e2f450e	0.17116186
159	0x3df5d254	0.120030075
160	0xbc9f9945	-0.019482264
161	0x3ec29688	0.3800547
162	0x3e476d79	0.19475354
163	0xbe236fa1	-0.15960552
164	0x3e12889f	0.1430993
165	0xbe0b241a	-0.1358799
166	0x3e32ad1f	0.17448853
167	0xbd36d287	-0.04463437
168	0xbd965692	-0.07340731
169	0x3e854a4c	0.26033247
170	0xbe439a3c	-0.19101804
171	0x3f1924f4	0.5982201
172	0xbdc64a94	-0.096821934
173	0xbe197b01	-0.14988329
174	0xbe242f2d	-0.16033621
175	0xbc491606	-0.012273317
176	0x3d1dfe15	0.03857239
177	0xbba18e37	-0.0049302834
178	0xbca7578e	-0.020427492
179	0xbe7bb9bc	-0.24582571
180	0xbd6f9a5f	-0.05849683
181	0xbe198e6a	-0.14995733
182	0xbdbf042a	-0.09326966
183	0xbe4875fa	-0.19576254
184	0xbd0c1544	-0.034199968
185	0x3e25fa2a	0.16208711
186	0xbe17f505	-0.14839561
187	0x3d907693	0.07053866
188	0xbe705ff2	-0.234741
189	0xbe091c66	-0.1338974
190	0xbddb52fe	-0.10709189
191	0x3d9b0689	0.07569606
192	0xbca0c16b	-0.019623479
193	0x3e77de58	0.24205911
194	0x3e4a6183	0.1976376
195	0x3d49c56d	0.049260546
196	0xbdfe35b6	-0.12412588
197	0x3cc4183f	0.023937343
198	0x3de7cb32	0.11318053
199	0xbe7138ee	-0.23556873
200	0x3df731e3	0.12070062
201	0xbe15509c	-0.14581531
202	0xbdaf954e	-0.085733995
203	0x3e47d4fd	0.19514842
204	0xbe9ea769	-0.309871
205	0xbe07bae0	-0.13254881
206	0xbe63a9eb	-0.22232787
207	0x3e87c02d	0.26513806
208	0x3f15348d	0.5828331
209	0xbe2988a0	-0.16556025
210	0xbd6e364d	-0.058157254
211	0x3bd02c74	0.0063529555
212	0x3b29dee1	0.00259202
213	0xbdf6e5ff	-0.12055587
214	0xbf0b8db0	-0.5451307
215	0x3d908185	0.07055954
216	0x3dd445bb	0.103648625
217	0x3d804d33	0.062647246
218	0x3d37547d	0.04475831
219	0xbe2248f8	-0.15848148
220	0xbe5c4dd4	-0.21514064
221	0xbe8c742b	-0.2743238
222	0x3d1dbee9	0.038512144
223	0x3e7cfbd7	0.24705444
224	0x3e9a7e20	0.3017435
225	0x3bc4b853	0.0060034185
226	0x3e29803b	0.16552822
227	0x3d1b8219	0.037965868
228	0x3db15282	0.08658315
229	0xbe3016e6	-0.17196235
230	0x3e1c6a49	0.1527492
231	0x3f102313	0.5630352
232	0xbe140704	-0.14455801
233	0xbd7b0f12	-0.06129367
234	0xbd444681	-0.0479188
235	0x3d0677aa	0.032828964
236	0x3d7d48ac	0.061836883
237	0x3d4d5799	0.050132368
238	0x3bcb4cc3	0.006204219
239	0xbe74f6b2	-0.23922232
240	0x3dd551cb	0.104159914
241	0x3cfabb72	0.030606959
242	0x3cf4874f	0.029849676
243	0x3dd3aafb	0.10335346
244	0xbdc35a2f	-0.095386855
245	0xbe4be6d4	-0.19912273
246	0xbcc8f8d8	-0.02453272
247	0xbe61b422	-0.22041371
248	0x3d31c236	0.043398105
249	0x3c57eba5	0.013178741
250	0x3e1bffb3	0.1523426
251	0x3ea37c5c	0.31930816
252	0x3e7ef539	0.24898233
253	0x3e28569a	0.16439286
254	0x3d80c66e	0.062878475
255	0xbed2dbf5	-0.4118344
