p2_continuous-control_single-agent/control_ddpg_critic.pth (torch_old, 549487 bytes, 9 tensors)

fcs1.weight f4 [400, 33]
000000 8b ed 15 3f 3b 06 88 3f 02 0a 19 3f 4b 4a 4e c0
       0.58565587 1.0626901 0.59780896 -3.2232845
000010 58 f2 66 bf 18 ae 0d c0 1f 21 81 40 6b 70 b4 3d
       -0.9021354 -2.2137508 4.035293 0.088105045
000020 2e 6a 1d 40 88 66 02 40 dd 03 7b bd 51 d8 c1 bd
       2.4596057 2.037508 -0.06128298 -0.09465087
000030 83 94 89 3c ee 8a 91 bf d5 a9 0a 3e 8b ed 50 be
       0.016794449 -1.1370523 0.13541348 -0.20403115
000040 2d ea 32 be c0 28 95 3f 9b 18 a4 3e b4 f6 90 bf
       -0.17472143 1.1653061 0.32050022 -1.1325288
000050 e4 a4 25 be bc f2 0c be 91 a4 ab bd 72 c1 b4 3e
       -0.16176182 -0.13764471 -0.08380998 0.35303837
000060 65 86 3d 3f 27 2b 04 bf 9b cd af 3f bb ae d3 3b
       0.74033195 -0.51628345 1.3734621 0.0064600385
000070 f3 9a c9 3e f7 ea 33 bd c3 7a 20 bd 70 36 8f bb
       0.3937603 -0.04392525 -0.039179575 -0.004370503
000080 4a 54 27 c1 ee 60 89 bf 73 47 02 c0 55 9b 53 be
       -10.458078 -1.0732706 -2.035611 -0.20664723
000090 3e f2 4d bf 84 63 d0 bd 3d 35 21 40 30 1c 9c 40
       -0.8044776 -0.10175231 2.5188744 4.878441
0000a0 f8 ee 09 bf 0c 74 d5 be 48 75 39 c0 e0 21 b4 bf
       -0.5388026 -0.416901 -2.8977833 -1.4072838
0000b0 fc 59 ef 3e d5 ce c0 bf e1 9b 58 bf 5d a6 9b 3f
       0.4674834 -1.506312 -0.8461285 1.2160145
0000c0 20 0c 91 3f 16 9a b3 3f 53 13 1c 3f 94 d7 38 3f
       1.1331825 1.4031398 0.60966986 0.72203946
0000d0 7a ef de bf 2f 46 66 3f 1f a9 d6 bf 59 2b 28 3f
       -1.7416832 0.8995084 -1.6770362 0.65691143
0000e0 d3 e1 28 bd 48 34 82 3e 8b 92 25 3f f4 9d d7 3f
       -0.041230988 0.25430512 0.6467673 1.6845078
0000f0 d7 94 b2 bc e4 86 87 3f 78 47 0a 3c 9a ca 60 ba
       -0.021799488 1.058804 0.008439891 -0.0008575112
000100 10 9d 26 bd bc 18 4c c0 16 30 2b 3e 8e 9f 2f 3f
       -0.04067713 -3.1890097 0.16717562 0.68602836
000110 6c 8e a6 3f f2 f6 43 bf c0 af c3 bf 57 a7 06 40
       1.3012214 -0.76548684 -1.528801 2.1039636
000120 1a b2 07 c0 a7 c9 fd 3e 72 fc 18 ba 40 5b 45 3f
       -2.1202455 0.4956791 -0.0005835957 0.7709236
000130 28 d8 9a be 79 cf c0 be 69 90 b2 3e d4 e7 60 bf
       -0.3024304 -0.3765829 0.348758 -0.8785374
000140 37 24 cb bd 4a b0 52 bf 7d ee 32 3e e7 0b 3a bf
       -0.09919017 -0.82300246 0.17473789 -0.7267441
000150 08 bc d5 3f 73 6a 39 40 6b 38 81 be 2f ef e9 be
       1.6698008 2.8971221 -0.25238356 -0.45690295
000160 31 4d 2b 3d 72 2d 1b bf 4b e1 c0 3e a0 de 18 bf
       0.041821662 -0.6061622 0.37671885 -0.597147
000170 0a f4 97 3f d2 d7 f9 3b 61 f4 57 3f d8 ac 1c bd
       1.187135 0.0076246047 0.8435727 -0.038250774
000180 a3 4e 3f 3d 9e 52 e7 3c 2f 85 30 41 a7 ed 23 3f
       0.046705853 0.028237637 11.032516 0.64034504
000190 1c ca 29 3f b4 06 04 bf 64 f3 97 3e cf 9d 0e c0
       0.6632402 -0.5157273 0.2967788 -2.2283819
0001a0 37 e9 10 c0 51 55 fc 3f 30 1b 10 3e 25 b0 01 bf
       -2.2642343 1.9713537 0.14072871 -0.506594
0001b0 a5 7f 03 40 a9 4e 6d 3f 40 49 63 3f 63 d1 3d 3e
       2.0546658 0.9269815 0.88783646 0.18536906
0001c0 6f fc 5b bf 76 af 74 bf 3a 04 14 40 ec 6e b5 3f
       -0.8593206 -0.9558023 2.312758 1.4174476
0001d0 5a 57 81 3f 70 aa 7f bf 6a 31 08 bf 68 30 da 3c
       1.0104783 -0.9986944 -0.532004 0.02663441
0001e0 af c7 c4 be 7f 0b 37 be b2 2b 55 bf 80 a4 e0 bf
       -0.38433596 -0.17875479 -0.832698 -1.7550201
0001f0 6d 2c a0 be fc 70 4b 3f e6 39 e7 3c d1 a4 f5 bf
       -0.31283894 0.79469275 0.02822585 -1.9190923
000200 e9 e4 2a 3d 7a 07 11 bd 92 06 b8 3c 67 7d 5c c0
       0.041722212 -0.03540752 0.02246407 -3.445154
000210 84 0a bb be 0e 3c c5 3e 9a 3f ff bd a8 11 7a c0
       -0.3653146 0.3852238 -0.12463303 -3.9073277
000220 49 b9 7f bd 36 dd 28 40 54 27 95 bd 88 b6 36 bf
       -0.06243256 2.6385016 -0.07282892 -0.7137227
000230 3a 6f 2d 3f bb 6f b1 bf 6a ed 1e bf a1 1f d3 3f
       0.67747843 -1.3862222 -0.62081015 1.6494027
000240 52 51 59 3d a2 71 8a 3d 7c d5 8d be 0d 5f d4 be
       0.05305607 0.06759955 -0.27701938 -0.41478768
000250 78 06 ec bf 95 00 98 3f 35 d0 c7 3e 0d cc 0c bf
       -1.8439474 1.1875178 0.39026037 -0.54998857
000260 cd 9f ae 3f e4 71 15 3f 21 9d d9 3e fc 36 0e 3f
       1.3642517 0.5837691 0.42502692 0.5555265
000270 9b 99 21 bf e7 45 21 be 7d 36 18 bf 1b a6 8d 3c
       -0.6312501 -0.15749322 -0.5945814 0.01729112
000280 d4 e4 fc 3f e7 d0 3d 3d 59 d8 57 bc b0 61 cb bc
       1.9757333 0.046341803 -0.01317414 -0.024826854
000290 6e 82 03 c1 47 36 c0 3f 5e 74 86 bf ba 70 83 bf
       -8.219343 1.5016564 -1.0504262 -1.0268776
0002a0 31 fa 05 be df e3 b9 bf 1e 40 94 3f 36 d2 0d 40
       -0.13083722 -1.4522666 1.1582067 2.2159553
0002b0 34 8d 91 3d 06 61 11 3f 34 d0 0f bf 5f d1 9c be
       0.071070105 0.5678867 -0.5617707 -0.30628487
0002c0 c7 12 a9 be 52 33 cc 3e 0f 6d 32 c0 4d e1 bf 3f
       -0.33022138 0.39882904 -2.7879064 1.4990631
0002d0 27 96 01 be 99 29 97 be 6c b0 38 3e 33 0f 2c 3e
       -0.12654935 -0.29523924 0.1803605 0.16802673
0002e0 3c f2 d8 3e b5 77 64 be 25 67 20 3d 03 cc 51 be
       0.4237231 -0.2231129 0.039160866 -0.2048798
0002f0 99 d5 d6 bf 6d 05 51 3f 01 75 21 be cc 39 cf 3f
       -1.6783935 0.81648904 -0.1576729 1.6189513
000300 b7 73 1c 3c 8b b2 c8 be 5a d4 2a bd eb c5 36 bc
       0.009549073 -0.39198717 -0.04170642 -0.011155586
000310 80 1c 94 bb 01 dd 02 3e d1 18 1d c0 10 97 62 3f
       -0.004519999 0.12779619 -2.4546397 0.88511753
000320 f3 99 81 bf e2 12 4c c0 7b 04 56 c0 4e 27 e1 bf
       -1.0125107 -3.1886525 -3.3440235 -1.759012
000330 06 f2 d4 c0 7c f5 74 3e 28 d7 17 c0 71 fd 06 c0
       -6.654544 0.2392177 -2.372507 -2.1092188
000340 e8 a4 41 bf 73 d0 57 3d 81 09 61 bf 19 64 cb 3f
       -0.7564225 0.052689027 -0.87905127 1.5889922
000350 75 0b 29 bf 28 1d ac 3f 6c 59 ff 3e 5f 3f 72 3f
       -0.6603311 1.3446398 0.4987291 0.94627947
000360 52 48 bc bf e4 6f b8 be 38 dd d4 3e 57 4a 40 bd
       -1.470957 -0.36022866 0.41575027 -0.046945896
000370 fc 4d ee bd dc a1 a5 3e 27 7f 8d 3d 53 c6 5a 3e
       -0.11635968 0.3235005 0.06909018 0.21364717
000380 3f 04 54 bf 13 f8 b9 bc 65 dc aa bf c8 8f 1a 3c
       -0.8281898 -0.022701299 -1.3348509 0.009433694
000390 8b 29 15 3d 46 b8 ea 3c 80 58 cb bf 3a cc a0 3c
       0.03641657 0.028652322 -1.5886383 0.019628633
0003a0 45 79 7d bf 2d 9f 13 c0 c0 f0 69 40 11 39 b6 3f
       -0.9901317 -2.3065903 3.6553192 1.4236165
0003b0 34 d6 15 40 ba cb 64 40 bc 7d c2 3f 90 be b8 40
       2.341199 3.5749345 1.5194621 5.773262
0003c0 9b b7 d0 bf ab 44 0a bf 0c 89 4d bf fe 22 0a 3c
       -1.6306032 -0.5401103 -0.8028724 0.008431194
0003d0 97 48 cb 3e 17 31 b5 3f b8 1f 7b 3f d1 88 5f 3d
       0.3970382 1.4155606 0.98095274 0.054573838
0003e0 af 85 48 bf 95 a1 e8 bb be 88 93 3c cf e7 9d be
       -0.78328985 -0.00709934 0.01800954 -0.30840918
0003f0 a6 fe 96 bf d2 92 e4 3d 75 a7 ba bf d8 b5 48 3f
       -1.1796463 0.11160816 -1.4582354 0.7840247

fcs1.bias f4 [400]
000000 7b ca 1b 3e 0f bd 03 3e 47 e2 c0 3d d2 e0 da 3d
       0.15213959 0.12865089 0.09418159 0.10687412
000010 41 89 b9 3d b9 63 20 3e 4b 9a 03 3e 84 82 bc bc
       0.09059382 0.15663041 0.12851827 -0.023011453
000020 23 26 19 3e 83 ce 84 bd 33 18 16 3e 94 c1 ca 3d
       0.14955954 -0.064847015 0.14657669 0.09900203
000030 bc 79 17 bd 61 e6 2e be 78 38 22 3e 89 a2 7b 3c
       -0.03698133 -0.1708007 0.15841854 0.015358576
000040 50 e3 88 3c b2 cc 09 be 99 01 6e bd 54 ca 25 3e
       0.016709954 -0.13456991 -0.058106992 0.16190463
000050 79 40 0a be 8a 85 28 3e 06 41 24 3e 8c 55 68 bd
       -0.13501157 0.16457191 0.1604043 -0.05672221
000060 3b 83 ce bd a0 ef 5b bd ad f7 aa bc 30 ef 5e bd
       -0.10083624 -0.05369532 -0.020870054 -0.054427326
000070 eb 66 1b bd 11 d0 f6 bd a5 57 4c bd c7 3d f1 3d
       -0.037939947 -0.12051404 -0.04988827 0.11779361
000080 6a 72 ed 3d db 7e de 3a 01 5c 08 3e 84 af 70 bd
       0.115940884 0.0016975062 0.13316347 -0.058761135
000090 31 85 1e bd cc 05 0d be 92 75 f5 3d ab a3 95 bd
       -0.03870124 -0.13771743 0.119853154 -0.07306608
0000a0 51 01 77 bd 8e 98 13 be e1 b8 11 3e 24 8c 11 be
       -0.06030399 -0.14413664 0.14230682 -0.14213616
0000b0 1b d0 b1 3b ee 74 f6 bd 8b b9 05 bd c6 ea 93 3d
       0.0054264194 -0.12034021 -0.03264765 0.07222514
0000c0 96 77 db 3d 57 5d 12 be 92 19 0a be a4 c1 28 3d
       0.107161686 -0.14293419 -0.13486317 0.041200295
0000d0 ee 13 4c bc da da d0 bd 55 e4 12 be a9 4f c3 3d
       -0.0124559235 -0.101979926 -0.14344914 0.09536678
0000e0 36 79 11 3d 03 18 dc 3d b9 50 8c 3b 82 a5 48 3d
       0.035515986 0.10746767 0.004282084 0.048985966
0000f0 ad 99 c4 3c ea 96 74 bd 54 96 8d 3c e0 2c 7b bc
       0.02399906 -0.059714235 0.017283596 -0.015330523
000100 7c b2 11 be 36 e9 05 3e 2d 9a 1d be 30 44 eb bd
       -0.14228243 0.13077244 -0.15390845 -0.11487615
000110 60 69 5c bc 10 25 15 3e 7c 55 17 be 0b dd a2 3c
       -0.013452858 0.1456492 -0.14778703 0.019880792
000120 d4 d0 b2 bb 04 af 91 bd ef 8b 82 3d 9f 84 12 be
       -0.005457023 -0.0711346 0.063743465 -0.14308403
000130 e5 cf 50 3b 38 c4 24 be 05 21 0d be bf 5b df bd
       0.0031862196 -0.16090477 -0.13782127 -0.10906171
000140 cf 91 26 be 12 0b ab 3d 44 e6 09 be 94 98 6b 3c
       -0.16266559 0.08351721 -0.13466746 0.014379639
000150 52 db be bd 68 45 28 be 57 44 06 3e c0 24 1d 3e
       -0.09319176 -0.16432726 0.13112007 0.1534605
000160 f1 32 d2 bd f3 9f 0c be c8 20 e8 3d 65 46 1c 3e
       -0.102636226 -0.13732891 0.113343775 0.15261228
000170 87 ab da 3d e1 bf a5 bd 2b 98 02 be b4 b0 99 3c
       0.106772475 -0.080932386 -0.1275336 0.018761016
000180 7f 19 0a 3e 77 6e 2d be d9 c7 1b 3d 92 a5 05 be
       0.13486288 -0.1693667 0.038032386 -0.13051441
000190 ff 2f cd bd 80 e6 b5 3d a8 3e 1a 3c b9 55 25 3e
       -0.1001892 0.08881855 0.0094143525 0.16145982
0001a0 8c dd 33 3d 78 8c 03 bd e3 1f 0c 3e 62 a3 e4 3d
       0.043912455 -0.032116383 0.13684039 0.11163975
0001b0 9a 0c 0e be 69 ca 04 be e6 f7 0b 3e 83 bc 29 3d
       -0.13871995 -0.12967838 0.13668784 0.041439544
0001c0 6d 15 f6 3d 3e 77 0f be 47 e3 75 3d 3e 3f b2 bd
       0.120158054 -0.14010331 0.0600312 -0.08703469
0001d0 e9 20 1d be 04 c5 8e 3d c0 18 de 3d f6 46 29 3e
       -0.15344585 0.069711715 0.108445644 0.16530976
0001e0 a4 32 26 3e 6e 65 19 be 79 13 e2 3d eb d2 13 3e
       0.16230255 -0.14980099 0.1103887 0.14435928
0001f0 0d ef 1a be 5a da 1d 3e e9 e6 1e 3e 8b b8 23 3e
       -0.15130253 0.15415326 0.15517773 0.15988366
000200 00 89 20 be fe 7e e3 3d f3 b3 18 3d e8 94 3d 3c
       -0.15677261 0.11108206 0.037280988 0.011571147
000210 d4 f0 c2 3d a1 9b 90 bd 5c 40 19 bd 1e 43 7c bb
       0.095185906 -0.07060934 -0.037414894 -0.0038492153
000220 7e 1d 32 be 68 19 14 be 75 47 1f be d4 6b 0a be
       -0.17394063 -0.14462817 -0.15554602 -0.13517696
000230 7a e3 8e bd e6 8d e5 3d 55 15 32 be 81 9a 19 3e
       -0.069769815 0.112087056 -0.1739095 0.15000345
000240 33 8f 0d bb 34 34 0f be aa 26 db 3d af f4 fb 3d
       -0.0021600246 -0.13984758 0.10700734 0.12302529
000250 33 97 13 be 2d 9a 1b 3e e6 c3 b1 bd ae 70 45 3d
       -0.14413147 0.15195532 -0.08679943 0.048203163
000260 9a 29 3f 3d 8d bf 10 bc a2 73 15 be c4 63 e2 3d
       0.046670534 -0.008834732 -0.14594892 0.11054185
000270 ec 90 1a be 92 f8 cb bd 90 48 2d bc a4 2a 4a 3d
       -0.15094346 -0.099595204 -0.010576382 0.04935707
000280 43 74 1b 3e 63 46 d3 bb d4 a2 05 bd 91 05 ef bd
       0.15181069 -0.0064475997 -0.032625988 -0.116709836
000290 7e 84 23 3e 59 93 2a be 9a f9 8d bd d6 6e a7 bd
       0.1596851 -0.16657771 -0.06932373 -0.08175437
0002a0 97 f3 1d be 76 98 88 3d 5f f5 c4 3d 3b a8 07 3e
       -0.15424953 0.066697046 0.09617113 0.13247769
0002b0 12 44 73 bc 65 18 31 be f1 da c7 3d d9 06 2b be
       -0.014847772 -0.17294462 0.09758557 -0.16701831
0002c0 48 51 d0 bd 54 92 7e 3d 6f 47 9d 3d 7f 7d 33 3d
       -0.10171753 0.062151268 0.076796405 0.043820854
0002d0 65 c4 d8 bd 87 b3 bb bd bb 99 89 3c 9c bc a2 3d
       -0.10584334 -0.091651015 0.016796937 0.07946131
0002e0 86 10 0f bc c6 08 c1 bd 8f 4f 84 3d 56 fd 66 3d
       -0.008731967 -0.094255015 0.06460487 0.056393944
0002f0 81 37 74 bd 9f f8 87 bb 09 19 c4 3c 5b 74 ad bd
       -0.059623245 -0.004149511 0.023937719 -0.08469459
000300 ec d5 2b bd 8d f5 81 bd 59 6e 45 bc 25 06 d7 bd
       -0.04195206 -0.06345663 -0.012050235 -0.10499219
000310 79 fe e9 bd 88 7e e2 bd 6d a3 07 3d 40 01 92 3b
       -0.1142549 -0.1105929 0.03311484 0.0044557154
000320 7d 88 5e bd e1 fb d3 ba 4d 1b 31 3d 1b 05 4f 3d
       -0.054329384 -0.0016173088 0.043238927 0.05054198
000330 d4 30 40 3c 1b 5a 3a bd 40 51 cd bd a5 8d a6 bd
       0.0117303915 -0.045496088 -0.10025263 -0.08132485
000340 0a 79 bf bc 65 61 04 be fc 50 b1 bc 8a 28 e8 bd
       -0.023373146 -0.12927778 -0.021645062 -0.11335857
000350 0c 91 27 be 0c 80 94 3d 01 53 e4 bc 19 d4 2f bd
       -0.16363925 0.072509855 -0.02787161 -0.04292688
000360 bc c9 a1 3d 7c 22 e9 bc 0c 00 1b bd de d9 2f 3e
       0.07899806 -0.028458826 -0.03784184 0.17172953
000370 ed 32 9c 3d 77 ae 10 be 6a a2 02 3e 3e 68 ba bd
       0.07626901 -0.14129053 0.12757269 -0.09101914
000380 22 6c 21 bd bb 58 a7 3d 7c a4 29 3e 04 9c 0f be
       -0.039409764 0.08171221 0.16566652 -0.14024359
000390 52 d2 d9 bd 30 39 1b be c5 cf 27 be 4e 09 24 be
       -0.106358185 -0.15158534 -0.16387852 -0.16019174
0003a0 44 44 0a be 7c 47 1f 3d 72 37 8a 3d 00 de 0d 3e
       -0.13502604 0.038886532 0.067488566 0.13854218
0003b0 77 91 e6 3d 04 16 12 be c4 8e 6e 3b 8d 25 23 be
       0.11258214 -0.14266211 0.0036401013 -0.15932293
0003c0 6b 13 1d 3e 69 0b 01 bd ec 52 82 3d 0f eb e3 bd
       0.15339439 -0.031505022 0.06363472 -0.11128818
0003d0 1b 08 15 3e 37 75 03 be 58 f5 65 3d 75 c0 06 bd
       0.14553873 -0.12837683 0.05614218 -0.032898385
0003e0 c1 a1 b2 bc ee 0e 1f bd 34 0b d4 3d 6d 0b 32 3d
       -0.021805646 -0.038832597 0.10353699 0.043467928
0003f0 40 e4 c0 3d 9a e2 72 bd 78 cb c6 bd 47 ed e9 3d
       0.09418535 -0.059298135 -0.09706777 0.1142221

bn1.weight f4 [400]
000000 c4 11 10 3f a2 f4 1d 3f fd 2d d8 3e 10 ac b1 3e
       0.5627711 0.61701405 0.42222586 0.34701586
000010 3f 38 0f 3f 41 89 c4 3e 2f 73 c3 3e 52 6a ee 3e
       0.559452 0.38385966 0.38173816 0.4656549
000020 a9 ba 42 3f f3 f5 72 3f 68 a1 c3 3e 57 77 4d 3f
       0.7606607 0.9490654 0.3820908 0.80260223
000030 f9 87 06 ba 26 15 ac 3e 41 23 09 3f 9b de c6 3e
       -0.0005131956 0.33609885 0.5356942 0.3884171
000040 0a af ed 3e 33 63 73 3e ef 0b da 3e e1 e2 f9 3e
       0.46422607 0.2376831 0.4258723 0.48805907
000050 57 30 00 3f 01 8b d1 3e de f7 ff 3e 92 1c d2 3e
       0.5007376 0.40926364 0.49993795 0.41037422
000060 79 d5 21 3f 83 04 12 3f 43 83 2b 3f 94 7a 79 ba
       0.6321636 0.57038134 0.66997164 -0.0009516862
000070 87 6c 11 3f 0f ca d5 3e 32 fb af 3e bc fe d9 3e
       0.56806225 0.4175572 0.34371334 0.4257716
000080 bf ef fc 3e a7 bb 5f 3b d3 3c bc 3e a8 02 2b 3f
       0.49401662 0.003413895 0.36765155 0.6680093
000090 f7 ca a6 3e 11 f1 f1 3e 31 14 cf 3e fa ea 2d 3f
       0.32576725 0.47254232 0.40445092 0.6793667
0000a0 3c 8a e8 3e 17 05 92 3e 06 b7 95 3e 69 0e 6e 3f
       0.45417964 0.28519508 0.29241198 0.9299074
0000b0 60 0a fd 3e 0c 61 a0 3e 0a 10 80 3f 33 f4 a6 3e
       0.49421978 0.3132404 1.0004895 0.32608184
0000c0 27 6d 42 3f f8 d0 92 3e d7 12 0d 3f 46 4d 03 3f
       0.75947803 0.28675056 0.5510687 0.51289785
0000d0 0a 51 92 3e a6 65 e3 3e 66 61 e2 3e a6 d4 90 3e
       0.28577453 0.4441349 0.44214934 0.28287238
0000e0 58 5b f2 3e 36 c8 fa 3e e0 23 d8 3e f7 84 de 3e
       0.47335315 0.48980874 0.4221487 0.4346082
0000f0 c2 f1 09 3f 17 5b 0d 3f 35 2b b7 3e 2d de 9b 3b
       0.5388452 0.5521712 0.35775152 0.00475671
000100 25 c4 d5 3e 28 9e 7d 3e 71 60 f9 3e a9 c9 ae 3e
       0.4175121 0.24767363 0.4870639 0.3413823
000110 90 8e e6 3b 39 25 69 3f 88 3f 93 3e c1 ce 0a 3f
       0.0070360377 0.9107242 0.28759408 0.5422173
000120 4b 15 0c 3f 23 07 0d 3f f2 6b 15 3f 6e 9d c3 3e
       0.5471999 0.55089015 0.58367836 0.38206047
000130 df 4e 86 3f 61 de ab 3e e1 a8 b7 3e 83 dc dc 3e
       1.049282 0.335681 0.35871032 0.43136987
000140 0b 3d 1b 3f 23 dd 0d 3f fb 28 0d 3f d7 c1 87 3e
       0.6064002 0.5541555 0.55140656 0.26515076
000150 e8 33 a2 3e 50 dd 3f 3f e8 a1 6b 3e bd 10 22 3f
       0.31680226 0.7494707 0.23010981 0.6330679
000160 0d a3 24 3f 43 b8 1a 3f f3 e4 c5 3e 8f 1b 61 3e
       0.64311296 0.6043741 0.38651237 0.21983169
000170 32 a0 02 3f bb 69 ef 3e df 92 19 3f c1 d0 0e 3f
       0.5102569 0.46760353 0.5998973 0.55787283
000180 80 6b 60 3e cd f1 29 3f 07 6f e4 3e c1 7c e0 3e
       0.21916008 0.66384584 0.44615957 0.4384518
000190 11 66 e8 3e 6b 3c 51 3f e5 ea d3 3e 73 f9 44 3f
       0.4539037 0.81732816 0.41390148 0.7694313
0001a0 c0 68 77 3e 55 6f 2a 3f 52 b0 35 3f 16 37 98 3e
       0.24161053 0.6657613 0.7097217 0.29729527
0001b0 5b bd 06 3f 49 f3 93 3e 3d 91 c9 3e 71 f5 ef 3e
       0.52632684 0.2889655 0.3936862 0.46866944
0001c0 41 1f 86 3f 43 48 12 3f b1 35 d0 3e b5 46 c5 3e
       1.0478288 0.5714151 0.40665963 0.38530508
0001d0 dc f3 f2 3e 2b 09 e0 3e ca 67 0d 3f 1a ad bc 3e
       0.47451675 0.43756995 0.55236495 0.36850816
0001e0 36 5d e1 3e 15 be 02 3f b1 ad a8 3e 69 8e 08 3f
       0.44016427 0.5107129 0.32945016 0.533423
0001f0 06 20 93 3e 18 d7 d4 3e b5 bf 33 3f 12 34 17 3f
       0.2873537 0.41570354 0.70214397 0.5906383
000200 de 19 8c 3e 5d 47 2e 3f a7 cc da 3e 59 e4 29 3f
       0.27363485 0.6807764 0.42734262 0.66364056
000210 e8 a7 0e 3f b8 89 ff 3e 8a 51 05 3f e4 8c 15 3f
       0.55724955 0.4990976 0.52077544 0.5841811
000220 aa db 25 3f 5a 4a 24 3f 8b 99 51 3e e6 25 24 3f
       0.64788306 0.6417595 0.20468728 0.6412033
000230 7e b0 13 3f 70 92 0e 3f 46 a6 09 3f 69 52 a9 3e
       0.5769118 0.55692196 0.5376934 0.33070686
000240 dc 4f ce 3e e3 b7 41 3e 4e d5 07 3f 1d c1 19 3f
       0.40295303 0.18917803 0.5305985 0.6006029
000250 bd 20 c6 3e e7 7a 00 3f f5 53 4b 3f 0f 12 13 3f
       0.38696852 0.50187534 0.79424983 0.5744943
000260 01 9a 0b 3f 69 8b d5 3e 44 19 a2 3e cd 84 4b 3f
       0.54531866 0.41707924 0.316599 0.7949951
000270 70 01 9f 3e 05 26 e2 3e 31 78 4f 3e 38 56 ab 3e
       0.31055784 0.44169632 0.20260693 0.33464217
000280 ec 81 4b 3f 78 20 b1 3e 56 fe 11 3f bb 2c 1a 3f
       0.7949512 0.34595084 0.5702871 0.60224503
000290 18 81 03 3f f5 8e ec 3e 09 95 56 3f 09 8f 08 3f
       0.51368856 0.46202818 0.8382116 0.53343254
0002a0 c0 e1 7e 3e 70 f1 bc 3e 30 cd c6 3f 63 42 ff 3e
       0.24890804 0.36902952 1.5531368 0.49855337
0002b0 0f 7f 13 3f 6c e5 0e 3f 19 d6 41 3f 8b 77 1a 3f
       0.5761575 0.5581882 0.7571731 0.6033866
0002c0 f6 d9 19 3f 4c 1b a0 3e aa 8e c2 3e 9b 6c 15 3f
       0.60098207 0.31270826 0.3799947 0.58368844
0002d0 8f b3 64 3f 27 33 ec 3e 95 85 20 3f c2 0e fc 3e
       0.89336485 0.46132776 0.6270383 0.4923001
0002e0 ea d3 b3 3e c0 1e c1 bb cd 97 8f 3e a9 6a 69 3f
       0.35122615 -0.0058935583 0.28045502 0.91178375
0002f0 cc 8a 71 3e 9e c5 10 3f 01 54 f2 3e 6b 9b 05 3f
       0.23588103 0.5655154 0.47329715 0.52190274
000300 58 8c fe 3e 0c f0 3f 3e 8d cb 0a 3f 16 70 85 3f
       0.4971645 0.18743914 0.54216844 1.0424831
000310 84 d4 07 3f e6 c5 0d 3f 8b 84 c6 3e f8 14 0f 3f
       0.5305865 0.55380094 0.38772997 0.5589137
000320 10 b6 2c 3f 7c 3f ca 3e 96 1d ca 3e 5f a0 19 3f
       0.67465305 0.3950156 0.39475697 0.6001033
000330 91 b1 55 3f 99 a4 01 3f de 58 02 3f a6 c7 23 3f
       0.8347407 0.5064178 0.5091685 0.63976514
000340 bc 25 d2 3e b2 74 80 3e 11 87 3c 3f 52 d9 97 3e
       0.41044414 0.2508903 0.73643595 0.2965799
000350 90 82 1b 3f 26 32 a3 3e 58 ef 01 3f 0f 99 8f 3e
       0.607461 0.31874198 0.50755835 0.28046462
000360 66 fa c2 3e 56 c9 48 3e 97 b5 cf 3e 0b e2 78 3f
       0.38081664 0.19608054 0.4056823 0.97219914
000370 84 95 d0 3e 76 7c f6 3e 4f 6e 05 3f 9d 67 86 3e
       0.4073907 0.4814183 0.5212144 0.26250926
000380 ba 5d 28 3f 12 87 74 3e 13 ab f1 3e 2b 94 1a 3f
       0.65768015 0.2387965 0.47200832 0.60382336
000390 ed 61 db 3e 7f 00 ac 3e 7a 22 d6 3e f4 23 c7 3e
       0.4284815 0.33594128 0.4182318 0.38894618
0003a0 20 b1 26 3f 5f 46 42 3f d5 f7 8d 3e 4e 35 58 3f
       0.6511402 0.7588863 0.27728143 0.84456336
0003b0 43 76 12 3f 2c c7 8c 3b 70 07 3f 3f 97 16 e9 3e
       0.57211703 0.004296204 0.74620724 0.45525047
0003c0 2b 6d 26 3f a7 63 97 3e 9e 1b d5 3e e4 7d 41 3f
       0.6501033 0.29568216 0.41622633 0.7558272
0003d0 85 df 08 3f 2b 13 e9 3e 28 df 27 3f c4 e1 22 3f
       0.53466064 0.45522436 0.65574884 0.6362574
0003e0 16 22 ae 3e 73 65 b8 3e 97 bc d2 3e 3f 9d 42 3f
       0.3401038 0.360149 0.41159508 0.7602119
0003f0 43 a1 18 3f b9 7a 07 3f d4 be e3 3e b0 c9 6a 3f
       0.59621066 0.52921635 0.44481528 0.91714

bn1.bias f4 [400]
000000 bf 09 5e bf 0e 2f 85 bf 1c e2 99 be f1 4e ca be
       -0.8673362 -1.0404985 -0.3005532 -0.39513353
000010 33 eb 62 bf 1d 6c 6d be 67 cb 9e be 55 03 15 bf
       -0.88640136 -0.23185773 -0.3101456 -0.5820821
000020 59 6f 7d bf 1d 63 2f bf 88 13 9b be b0 fe 85 bf
       -0.9899803 -0.6851061 -0.3028834 -1.046835
000030 69 c1 8e bd 36 06 9b be 04 92 4d bf ca 16 ca be
       -0.06970484 -0.30278176 -0.8030093 -0.39470512
000040 2e 75 de be 29 ab c0 bc 1a 00 ea be 65 f6 df be
       -0.43448776 -0.023519116 -0.45703202 -0.43742672
000050 10 04 f0 be c4 84 ed be bc 33 0d bf 2c 8d 89 bf
       -0.468781 -0.46390355 -0.55157065 -1.0746207
000060 26 db 5f bf af ae e8 be 18 6a 7b bf 42 8a 8f bc
       -0.8744377 -0.45445773 -0.9820876 -0.017521981
000070 34 d6 21 bf 2b ca 20 bf 9c 68 bb be 24 fc 11 bf
       -0.63217473 -0.62808484 -0.36603248 -0.5702536
000080 0f 78 08 bf b6 82 71 bd 4d 03 7c be dd 09 45 bf
       -0.53308195 -0.058962546 -0.24610634 -0.76968175
000090 6b 2b dc be a7 fa a3 be f6 c5 ec bd d0 9d 9f bf
       -0.43001875 -0.3202717 -0.115611956 -1.2470036
0000a0 9e 0a 4a bf 57 9e 2a be 3a 3a 93 be 06 34 af be
       -0.7892245 -0.16661964 -0.2875536 -0.34219378
0000b0 7a c3 e0 be f3 73 cc be d4 fa 47 bf 0b e1 8e be
       -0.43899137 -0.39932212 -0.7811711 -0.2790607
0000c0 1c 11 b2 bf 82 40 c7 bd 0f 83 21 bf d9 1e 03 bf
       -1.3911471 -0.09729101 -0.63090605 -0.51218945
0000d0 6d 69 f3 bd 27 3f 0d bf ba 5f 38 bf 2e 00 e5 bd
       -0.11885343 -0.5517449 -0.7202107 -0.11181675
0000e0 dd d2 ca be 52 4e 6a bf 1a bd 03 bf bf bc b4 be
       -0.39614 -0.9152576 -0.5146042 -0.35300252
0000f0 5c 84 3e be bd ec 11 bf 20 f3 6c bd 88 73 ad bd
       -0.18605179 -0.5700186 -0.05784905 -0.084693015
000100 62 d0 9b be cb c9 78 be 46 90 1e bf 80 5b bb be
       -0.3043242 -0.24295728 -0.61938894 -0.36593246
000110 e6 19 28 bd fe 6a 6f bf a6 40 30 bb ca 56 f5 be
       -0.041040324 -0.9352263 -0.0026894002 -0.47917777
000120 29 dd 88 bf 9f ea d6 be af 32 39 bf f1 57 d1 be
       -1.0692493 -0.41975877 -0.7234296 -0.40887406
000130 cb 43 23 bf 6f 06 51 bd 34 b5 ae be 0d 8b 33 be
       -0.6377532 -0.051031526 -0.34122622 -0.17533512
000140 e7 da 18 bf d3 cb d7 be 57 da 86 bf ce 2c d7 bd
       -0.5970902 -0.42147693 -1.0535382 -0.10506593
000150 e7 37 1e be 3c 3f 4e bf f2 4b cd 3b a6 25 89 bf
       -0.15451013 -0.8056524 0.006265157 -1.0714614
000160 db b1 37 bf dc d8 56 bf 83 c6 f0 be 66 e2 f9 bd
       -0.7175576 -0.8392465 -0.47026452 -0.12201385
000170 c1 63 ce be c8 99 2f bf 4a 40 c9 be fa 04 42 bf
       -0.4031048 -0.68594027 -0.3930686 -0.75788844
000180 1c f9 3f 3e 61 74 93 bf 7d 94 21 bf 55 4d 15 bf
       0.18747371 -1.1519891 -0.631172 -0.58321124
000190 77 c4 97 be f0 a2 8b bf 50 60 e8 be b2 01 66 bf
       -0.29642078 -1.09091 -0.4538598 -0.89846337
0001a0 e6 b3 83 bd eb 19 9f bf ea 52 8f bf e7 60 a5 be
       -0.06430797 -1.2429785 -1.1197178 -0.32300493
0001b0 db 35 23 bf 69 7f 9e bc 20 59 22 bf 1b 9e 22 bf
       -0.6375405 -0.019347863 -0.63417244 -0.635225
0001c0 50 8d a8 bf 79 dd 83 bf 0e 7f 7c be 1c 7b 77 bd
       -1.3168125 -1.0301963 -0.24657843 -0.06042014
0001d0 c5 e9 d4 be 44 f8 f0 be 90 dd 18 bf f8 92 9a be
       -0.41584602 -0.47064412 -0.5971308 -0.30190253
0001e0 9d c8 93 bf 4a c4 34 bf 3d 41 fa be cf 63 39 bf
       -1.1545597 -0.70612013 -0.48877898 -0.7241792
0001f0 3a 2c 96 be 27 75 fa be 08 73 8f bf 69 c7 22 bf
       -0.29330617 -0.48917505 -1.120698 -0.63585526
000200 b3 61 73 bc 8e 61 16 bf 8a cd a6 be 42 29 3b bf
       -0.014854836 -0.58742607 -0.3257869 -0.7310983
000210 1f f7 60 bf f7 4a f5 be e9 5a 5a bf 01 5f 0f bf
       -0.87877077 -0.47908756 -0.8529497 -0.5600434
000220 51 ed 83 bf 5f 3a 61 bf d3 52 bc bd 72 5a 41 bf
       -1.0306798 -0.8797969 -0.09195485 -0.75528634
000230 c9 68 32 bf 1a 91 49 bf 05 9c 50 bf 7e 3f 19 be
       -0.6969114 -0.7873703 -0.81488067 -0.14965627
000240 21 fe d1 bd 06 d2 32 bd 01 99 47 bf 64 5e 5f bf
       -0.10253549 -0.043657325 -0.7796784 -0.87253404
000250 51 26 35 bf 51 88 30 bf 43 35 b6 be 96 8b f1 be
       -0.7076159 -0.68958 -0.3558751 -0.47176808
000260 e3 d6 0b bf c8 28 ff be 0e c0 5c be 47 ec 54 bf
       -0.54624766 -0.498358 -0.21557638 -0.8317303
000270 42 91 95 3d 28 3d b5 be d1 9a 21 be 25 a8 24 3e
       0.07303096 -0.3539822 -0.15781714 0.16079767
000280 98 14 7e bf 8d 64 94 be 7f 1d 02 bf 1c 31 40 bf
       -0.99250174 -0.28982964 -0.5082626 -0.75074935
000290 50 56 3f bf 5f c7 f3 be 69 14 75 bf c3 3d 8c bf
       -0.7474108 -0.47613046 -0.9573427 -1.0956348
0002a0 c3 fb 86 be 91 8d 91 be b2 61 c2 be d0 d0 0e bf
       -0.26363954 -0.2842832 -0.3796516 -0.5578737
0002b0 eb fe 50 bf f7 0c f2 be 40 9d 63 bf 58 65 51 bf
       -0.81638974 -0.47275516 -0.8891182 -0.81795263
0002c0 89 66 31 bf 14 df 35 be e0 d7 a0 be f4 9f aa be
       -0.6929708 -0.17760879 -0.314147 -0.3332516
0002d0 73 f5 9d bf 7a 24 2c bf cb db 69 bf 91 dd e0 be
       -1.234053 -0.6724316 -0.91351 -0.43919042
0002e0 91 e2 bc be 69 03 60 bd 59 d9 d6 bc d1 f6 c3 bf
       -0.36891606 -0.054690752 -0.026226686 -1.5309697
0002f0 22 c2 91 be f8 ff 24 bf 1e ae 48 bf 43 11 f1 be
       -0.28468424 -0.6445308 -0.7839068 -0.47083482
000300 f4 b7 1c bf fb 43 86 bd c8 19 06 bf 7e 85 b5 be
       -0.6121819 -0.06555935 -0.5238309 -0.3545341
000310 87 d4 fb be 17 10 32 bf 30 fd b5 be dd 99 27 bf
       -0.49185583 -0.695558 -0.3554473 -0.6546915
000320 72 24 d2 be 6b 11 12 bf 7b b3 44 be f4 ab da be
       -0.4104343 -0.5705783 -0.19209091 -0.42709315
000330 cb 1b 95 bf 4a 7c f4 be b0 17 c9 be 9f 73 37 bf
       -1.1649107 -0.47751075 -0.39275885 -0.716608
000340 92 e1 21 be 08 18 98 bd 3d f6 5d bf 43 db 87 be
       -0.15808704 -0.074264586 -0.86703855 -0.2653447
000350 25 d7 03 bf 13 7f b1 3c 79 c8 21 bf 06 ee 3c be
       -0.5150016 0.021667039 -0.6319652 -0.18450174
000360 0f 16 fa be 29 25 e3 bd 6e 1a 55 3e 39 71 b1 bf
       -0.48844954 -0.11091072 0.20810863 -1.3862678
000370 c3 d6 e1 be 96 d0 df be 79 04 ba be 0d bd 22 3c
       -0.44109163 -0.43713826 -0.36331537 0.0099327685
000380 51 89 22 bf 83 72 e9 bd 1d cf a7 be 5f fa 76 bf
       -0.6349078 -0.113987945 -0.32775202 -0.96475786
000390 85 af 82 be 79 f0 97 be 52 dd 28 bf e3 ee 32 be
       -0.25524536 -0.29675654 -0.6596271 -0.1747394
0003a0 67 48 30 bf 5a 34 82 bf b9 35 3b be 6f 0b 27 bf
       -0.6886048 -1.0172226 -0.18282212 -0.6525182
0003b0 ad cb 9e bf 22 7c 4e bd 22 09 57 bf 39 8c d7 be
       -1.2405907 -0.05041135 -0.8399831 -0.4209917
0003c0 d9 c5 36 bf 2b 38 04 be 96 49 06 bf 2a 95 85 bf
       -0.7139564 -0.12912051 -0.52456033 -1.0436146
0003d0 bb 4c 33 bf bc 03 aa be d8 03 01 bf 5d b2 51 bf
       -0.70038956 -0.33205974 -0.5039649 -0.81912786
0003e0 c0 09 cd be 44 12 b0 be 3c fc e0 be c9 8d 7b bf
       -0.400465 -0.34388936 -0.4394244 -0.9826322
0003f0 59 86 1b be de 58 29 bf cf 19 ab be d4 7e 36 bf
       -0.15187968 -0.66151226 -0.33418128 -0.71287274

bn1.running_mean f4 [400]
000000 5c 2d b5 c0 25 de 45 bf 71 7f 0b c0 41 57 22 3f
       -5.661787 -0.7729209 -2.1796534 0.6341439
000010 b1 36 f8 bf b3 17 36 c0 2d 64 de bf 85 2b 6c 3f
       -1.939169 -2.8451965 -1.7374321 0.92253906
000020 52 98 e9 3f 37 d6 3b bd f7 39 6a bf 1e 3b 09 c0
       1.824961 -0.045858588 -0.914947 -2.1442332
000030 0e 26 fd bd f5 0c 27 40 7c 3e 54 c0 04 d4 4b c0
       -0.12360774 2.6101658 -3.3163137 -3.1848154
000040 a6 64 1c bf 04 00 8d 3f 4c 77 d3 bf 4e 23 23 c0
       -0.6109108 1.101563 -1.6520782 -2.5490298
000050 dd fb 69 40 65 23 66 40 15 36 8e 40 50 5c 1d c1
       3.6559975 3.5959103 4.444102 -9.835037
000060 17 c0 e0 c0 fe 95 5b bf bd 34 76 c0 7e 94 87 be
       -7.0234485 -0.85775745 -3.846969 -0.26480478
000070 01 51 d7 3f 12 e8 00 c0 f5 dd 54 be 2b 13 b7 be
       1.6821595 -2.0141644 -0.20787795 -0.35756811
000080 ad 16 85 c0 46 4f df 3e 08 64 51 be f9 84 ae 3e
       -4.159018 0.43615168 -0.20448315 0.34085825
000090 fa ce 14 c1 ca 50 46 40 b6 4d 0b 3f 5e 6f 91 c0
       -9.300531 3.098681 0.5441545 -4.5448446
0000a0 ed 9a cf c0 07 a8 ed c0 99 3b 68 c0 c5 f5 11 bf
       -6.487662 -7.426761 -3.6286376 -0.5701564
0000b0 96 cc b1 bf e9 0b 18 c1 72 a6 2e 3f 72 b5 5e be
       -1.389056 -9.502908 0.68222725 -0.21748903
0000c0 b8 3a ad c0 0a 40 d9 3e 8e 10 19 c0 ec e4 e0 bf
       -5.413418 0.4243167 -2.3916354 -1.7569861
0000d0 c4 84 14 c0 e0 c7 37 c1 f7 87 04 c1 3a 38 b6 40
       -2.3206034 -11.486298 -8.283195 5.6943636
0000e0 38 49 cb bf e1 b4 a7 bf ab ce ed c0 ad a3 16 40
       -1.588172 -1.3102075 -7.431478 2.35374
0000f0 7a 78 c3 3f 46 dd 3c c0 5f 02 aa bf ef a1 1f 3d
       1.5271142 -2.9510055 -1.3281974 0.03897279
000100 2c df b2 bf 46 a7 69 bf 15 21 fd c0 3a 5f 40 c0
       -1.3974357 -0.91270864 -7.9102883 -3.0058122
000110 3e e2 b7 3d 66 c8 0f 40 fb 3f 8f 40 ca 60 86 c0
       0.08978699 2.2466063 4.47656 -4.199315
000120 5e 3c 71 c0 9b 37 63 40 16 15 5e 40 13 e8 e7 3e
       -3.7693095 3.550269 3.470037 0.45294246
000130 97 55 80 3d d4 16 6e 40 63 67 c4 c0 ba d5 57 3f
       0.06266325 3.7201433 -6.1376204 0.84310496
000140 cf 15 c7 3f 7b 87 9a 40 54 7d 4f 40 e4 45 ab 40
       1.555353 4.829038 3.2420244 5.3522816
000150 be 8e e8 bf 79 aa 38 c0 85 fa c3 40 ce 24 43 c0
       -1.8168561 -2.8854048 6.124331 -3.0491214
000160 88 b6 11 c0 69 6d 1d 40 e3 5e b1 3f 6a 90 e1 bd
       -2.2767658 2.4598029 1.3857082 -0.11013873
000170 18 92 a4 be fa f4 ac c0 5c 88 48 c0 c2 87 2c 40
       -0.3214271 -5.4049044 -3.1333227 2.695786
000180 50 c2 09 41 32 cf 05 40 f0 8d 16 c0 b7 fc b3 c0
       8.60994 2.0907712 -2.3524132 -5.624599
000190 ec de a5 3d 46 a6 9e 3f b5 dc 23 c0 1b 1d f4 40
       0.080991596 1.2394493 -2.560346 7.628553
0001a0 e4 42 b7 40 3e f4 fe c0 af 9f 99 be 9c 2f 24 c0
       5.7269154 -7.9673147 -0.3000464 -2.5654058
0001b0 2c 96 30 c0 72 bb 8f 40 21 1a 17 40 d7 b5 e3 40
       -2.7591658 4.4916315 2.3609698 7.1159472
0001c0 ca 89 1e c0 b0 e7 0e 40 14 7b b6 be aa cd ac bf
       -2.47716 2.232891 -0.35640776 -1.3500264
0001d0 87 a3 77 c0 79 82 b1 40 df 21 e9 c0 8c 82 17 40
       -3.869356 5.547177 -7.2853847 2.367343
0001e0 b8 32 a1 3f 2d e9 5c 3f 94 57 a2 c0 2b 7d 77 40
       1.2593603 0.862933 -5.0731907 3.8670146
0001f0 fd a9 f1 c0 bf a0 9c c0 4b 85 92 40 78 31 cf bf
       -7.5520005 -4.8946223 4.578771 -1.6186972
000200 16 25 de bd 38 eb 68 3e e8 ac 6c be c1 92 04 3e
       -0.10846917 0.22745979 -0.23112833 0.12946607
000210 94 1e ec be 7e cc 23 40 88 b6 25 c1 34 a7 69 3d
       -0.4611708 2.5593562 -10.357063 0.057044223
000220 2b 16 2b c0 f0 8f a9 40 1d f4 bc c0 6a 10 3c 41
       -2.673228 5.2988205 -5.904799 11.754007
000230 1f 54 9a 40 d3 7f 8b 3f d4 8c 51 bf f2 bf 34 41
       4.8227687 1.0898384 -0.8185551 11.296862
000240 a2 98 95 3f ce 2a 16 3f a1 c3 86 3f 66 91 c1 c0
       1.1687205 0.58659065 1.0528451 -6.048999
000250 51 e5 07 c1 55 dc c5 3c a2 c1 85 bd cd c1 60 bd
       -8.493485 0.024152914 -0.06531073 -0.054872323
000260 57 72 d6 bf d1 4c 74 bf ae 75 18 c0 38 b6 26 c0
       -1.6753644 -0.9542971 -2.3821826 -2.6048717
000270 4b 7e 17 3d 85 f6 22 40 84 f0 8f c0 1c e0 82 40
       0.036985677 2.5462964 -4.49811 4.089857
000280 01 d0 84 40 ec 71 26 c0 9c 77 cf c0 cb 71 09 c0
       4.150391 -2.6007032 -6.4833508 -2.1475704
000290 7d 1c d0 bf 45 9c 8e 3f 54 6d 05 c0 60 30 47 c0
       -1.6258694 1.114144 -2.0847979 -3.1123276
0002a0 d4 b3 35 c1 78 7f 39 3f 14 18 ac be f7 13 76 40
       -11.356403 0.72460127 -0.3361212 3.8449686
0002b0 b1 31 17 c0 e8 e4 c2 c0 16 f6 26 c0 5f 34 c9 c0
       -2.362408 -6.0904427 -2.60877 -6.287643
0002c0 f5 f2 27 c0 66 8b 09 40 db 9f 11 c0 38 82 c4 be
       -2.624204 2.1491332 -2.2753818 -0.383806
0002d0 30 52 92 bf 62 45 8e 3f ef d5 0c c0 ec 6b cb 3f
       -1.1431332 1.1114924 -2.2005575 1.589231
0002e0 0f f3 92 3e ba 68 3e be e1 81 82 40 f1 3d b0 c0
       0.28701064 -0.18594638 4.0783544 -5.507561
0002f0 73 1c b0 40 87 47 c9 3f 04 15 b2 bf cf b9 8b bf
       5.503473 1.5724953 -1.3912663 -1.0916079
000300 82 1a 9d c0 33 d0 1e 41 51 7a 82 40 fb 7c e5 3e
       -4.909486 9.92583 4.077431 0.44821915
000310 ab c9 9e bf d2 70 80 40 3e 61 c6 c0 0c 5c cd 40
       -1.2405294 4.013772 -6.1993704 6.417486
000320 5c 9e 94 bf 6e ea d7 40 ca 9c 14 bf 54 ca 8b bf
       -1.1610827 6.747367 -0.5805174 -1.0921121
000330 a4 8b c6 3f 52 f6 77 40 fc 7e 47 3f ae 42 9d bf
       1.5511365 3.8744092 0.7792814 -1.2285974
000340 bb 7a 9e c0 aa 84 99 40 13 be 18 40 aa 1e f9 bf
       -4.9524817 4.7974443 2.3866012 -1.9462483
000350 30 1e 09 3f 2c 91 28 40 80 02 0b c0 3f d7 04 c0
       0.5356169 2.6338606 -2.1720276 -2.0756376
000360 e3 e4 04 3e ee f5 bb 40 5b 26 87 40 31 eb c9 3f
       0.12977938 5.8737707 4.223432 1.57749
000370 fc fa e3 c0 4c 0f 10 3e 73 a0 f3 3f 8a 5b 88 40
       -7.1243877 0.14068335 1.903334 4.261174
000380 12 24 56 3f 7a 80 32 c1 5f 78 7c 3f 8c b4 02 c0
       0.8364879 -11.156366 0.9862117 -2.0422697
000390 d7 3b a9 40 b6 8f 5e c0 b0 67 a4 c0 16 0d be 3f
       5.2885547 -3.4775214 -5.137657 1.4847744
0003a0 f0 ff 8b 3f 79 f6 05 c0 c2 9f 0e 40 1e 14 a1 bf
       1.0937481 -2.0931685 2.2285008 -1.2584264
0003b0 34 f6 23 c0 04 4b 79 3d c6 14 8d 3f 0a dc dd 40
       -2.561902 0.060862556 1.1021965 6.93311
0003c0 3f 27 65 3f 94 1d ad 3f 0c ab be c0 50 e8 c7 bf
       0.8951301 1.3524652 -5.9583797 -1.5617771
0003d0 35 58 f3 c0 97 c6 4a 3f 03 6a b2 3f bc 1b 01 c0
       -7.6045175 0.79209274 1.3938602 -2.0173178
0003e0 be af c7 40 bd d3 99 bf 22 b6 07 40 10 f5 d3 3d
       6.240203 -1.2017742 2.1204915 0.10349476
0003f0 ae b6 7e 3e 50 f2 39 40 67 36 99 bf b7 0d e3 bf
       0.24874374 2.9054146 -1.1969727 -1.773856

bn1.running_var f4 [400]
000000 f8 2f 97 42 77 c0 61 43 2c e7 92 42 f5 81 85 42
       75.59369 225.75182 73.45151 66.75382
000010 9f 88 02 43 e1 67 85 42 3f 9e 7a 42 55 d5 d4 42
       130.53368 66.70289 62.654537 106.416664
000020 4c b7 fd 43 2e 15 f7 42 a9 34 bb 42 04 88 90 43
       507.432 123.54137 93.60285 289.06262
000030 8b 6d 02 3e 44 08 fd 42 61 e0 d4 42 a8 c5 39 42
       0.127371 126.51614 106.43824 46.443024
000040 c8 48 a2 42 89 83 a8 42 78 6c 42 42 e2 d6 16 43
       81.14215 84.256905 48.605927 150.83939
000050 b4 43 e8 42 f5 69 a3 42 8f 87 fd 43 ce 04 c3 42
       116.13223 81.70695 507.05905 97.509384
000060 50 6f ce 42 f0 68 9c 42 e9 be 5c 43 34 48 5a 3e
       103.21741 78.204956 220.74574 0.21316606
000070 4a 3c 01 43 51 01 e4 41 c4 6b e4 42 e2 29 00 43
       129.2355 28.500643 114.21048 128.1636
000080 de da ee 42 09 22 8a 3e 69 1b bf 41 1a e3 69 43
       119.427475 0.26979092 23.888384 233.88712
000090 1a 3f 6b 42 1d d6 af 43 c1 5a b4 42 72 eb 0d 43
       58.811623 351.67276 90.17725 141.91971
0000a0 b7 71 ae 42 9f 2a 45 42 7a 80 01 42 aa 90 35 43
       87.2221 49.291622 32.375465 181.5651
0000b0 0b de 1a 42 b0 0d cc 42 ef b8 ce 42 d8 18 09 43
       38.71684 102.02673 103.3612 137.09705
0000c0 45 88 cf 42 89 67 ff 41 bd 61 a0 43 5c 2d 22 43
       103.76615 31.925554 320.76358 162.17719
0000d0 f3 52 18 42 91 63 4d 43 d9 c4 6e 42 07 92 19 43
       38.081005 205.38893 59.692234 153.57042
0000e0 cc 9a e4 41 ed 52 ba 43 af 60 a1 42 af 18 c6 42
       28.575584 372.64786 80.688835 99.04821
0000f0 19 61 d7 42 5a 17 26 43 71 12 f1 42 68 ea ef 3e
       107.689644 166.09122 120.53602 0.46858525
000100 5a 88 9b 42 76 85 87 42 37 6d 1a 43 5e ad 41 43
       77.76631 67.760666 154.42662 193.67722
000110 ff 83 bd 3e 66 c5 52 44 38 9a 25 43 1a 7b 50 43
       0.37014768 843.08435 165.60242 208.48087
000120 84 29 48 42 1e 38 b5 43 32 1d 77 42 45 96 02 43
       50.040543 362.43842 61.77851 130.58699
000130 b2 fe ed 42 8d a3 af 42 a5 c0 c8 42 c1 ed 5b 42
       118.99745 87.819435 100.37626 54.98218
000140 24 70 39 43 ab c8 04 43 30 50 24 43 fa fc dc 42
       185.43805 132.78386 164.31323 110.494095
000150 86 a4 17 42 86 be b9 42 7a cf 87 43 95 2d e3 42
       37.910667 92.872116 271.6209 113.58903
000160 95 35 19 43 ae af 1d 43 6f ff b0 41 45 4e a7 42
       153.2093 157.68625 22.124723 83.65287
000170 0b 2e 02 43 2e de c9 42 44 93 f3 42 f7 2e ea 42
       130.17986 100.933945 121.78763 117.09173
000180 87 18 00 43 da be 49 43 84 41 d4 42 d9 42 d1 42
       128.09581 201.74551 106.12796 104.63056
000190 d9 59 89 43 e1 b3 55 43 4c cc 10 42 68 dc 8e 43
       274.70193 213.70265 36.19951 285.72192
0001a0 16 59 b0 42 73 ee c5 42 b1 09 5a 43 a8 f5 af 42
       88.173996 98.96572 218.03786 87.9798
0001b0 8f 9c 8e 42 5a c3 2a 43 27 ac 3f 43 26 e8 0e 43
       71.30578 170.76309 191.67247 142.90683
0001c0 a1 55 16 43 81 bb c2 42 9d c5 02 43 a5 fa 05 43
       150.33449 97.36622 130.77193 133.97908
0001d0 7a c9 ec 42 14 75 64 43 89 67 e3 42 86 b7 ff 41
       118.39351 228.45734 113.70222 31.964611
0001e0 db ff f1 42 43 ca de 42 22 71 88 42 b0 c7 9a 43
       120.99972 111.39504 68.22096 309.56006
0001f0 d5 61 3d 42 b7 68 3f 43 f5 e4 c4 42 6f 18 53 43
       47.34554 191.40904 98.44718 211.09544
000200 27 10 d8 42 c1 51 07 43 02 55 16 42 55 d6 fb 43
       108.03155 135.31935 37.583015 503.67447
000210 2e e3 8f 42 49 d3 ca 42 bf 27 c3 42 e1 d0 cc 42
       71.94371 101.41267 97.57763 102.40797
000220 76 eb 9f 42 30 5d 9a 43 7d a6 92 42 9f 2f 9f 43
       79.959885 308.72803 73.32517 318.37204
000230 be 5e dc 43 7e 7d 34 43 1a 09 cc 42 17 f2 b1 42
       440.74017 180.4902 102.01778 88.97283
000240 40 bd 73 42 44 86 ee 42 00 5c 06 43 a3 fc 36 43
       60.934814 119.26224 134.35938 182.98686
000250 49 1e c0 42 b9 50 f5 42 7c 1c 20 43 c9 2d 18 43
       96.05915 122.65766 160.11127 152.17885
000260 b4 81 d4 42 91 a8 54 43 40 de fa 42 31 3b d5 42
       106.25333 212.65846 125.43408 106.61561
000270 c1 dd 06 42 cb da e6 42 e2 9e d7 42 6f 72 83 42
       33.716557 115.42733 107.81032 65.7235
000280 2e 4f 21 43 d1 32 68 42 22 7e ed 43 c0 28 b4 43
       161.3093 58.049625 474.9854 360.31836
000290 9a 49 4a 43 eb 2d 40 43 ef 8f 08 43 44 5d 89 42
       202.2875 192.17937 136.56224 68.68216
0002a0 44 29 38 42 93 9d e9 42 93 84 7a 43 be 18 f5 42
       46.0403 116.80776 250.51787 122.548325
0002b0 aa a0 65 42 65 fd a7 43 d8 3d c5 43 d7 9d f4 42
       57.4069 335.97964 394.48315 122.30828
0002c0 35 2e ac 42 35 24 06 43 c0 df 0f 43 ad 4b 34 43
       86.09025 134.14143 143.87402 180.29561
0002d0 cd bf 9c 42 16 ed 2f 43 27 c5 a2 42 26 89 d7 42
       78.37461 175.92612 81.38506 107.76787
0002e0 83 ca 88 42 8a 30 0b 3f 16 cd 04 43 88 d3 9c 42
       68.39553 0.5437094 132.80112 78.41315
0002f0 d8 5b 96 42 ec bd 44 43 ee 44 7d 43 84 b5 46 43
       75.17938 196.74188 253.26926 198.70905
000300 5e c2 b7 42 25 17 ec 42 26 fe 11 43 b0 79 c1 42
       91.87962 118.045204 145.99277 96.73767
000310 47 07 8d 42 d1 0e 09 43 6d 6f 29 43 be fb 1a 43
       70.51421 137.05788 169.43526 154.98337
000320 af 81 7f 43 ea d2 49 42 2c 74 1c 42 02 f1 9a 42
       255.50658 50.45597 39.11345 77.47072
000330 10 86 20 43 e2 8b 17 42 74 b8 44 43 ad 06 e9 42
       160.52368 37.886604 196.72052 116.51304
000340 75 06 84 42 ac 1e 34 42 5c 01 e8 43 cf 94 a1 42
       66.01261 45.029953 464.01062 80.79064
000350 64 4e 17 43 b9 94 16 43 88 e9 7d 42 ee a6 08 43
       151.30621 150.58095 63.478058 136.65207
000360 42 ae 3b 42 45 9d a8 42 9b 53 be 43 21 dd df 42
       46.920174 84.30717 380.65317 111.93189
000370 06 d9 e5 42 66 a9 14 43 c5 69 34 43 f4 2a d3 42
       114.923874 148.66171 180.41316 105.58389
000380 cb 1b b0 42 01 a0 42 42 b3 30 3b 42 9e 9b 67 42
       88.05428 48.656254 46.797558 57.90197
000390 95 c0 61 42 4d b5 4a 42 85 79 84 42 86 43 5c 43
       56.43807 50.67705 66.23734 220.26376
0003a0 7f f8 7c 42 d6 ae bb 42 98 36 31 43 ac c6 c5 42
       63.242672 93.84148 177.21326 98.88803
0003b0 80 1c 82 42 52 bd f0 3f 6d 7b 98 43 01 5a 43 43
       65.055664 1.8807776 304.96426 195.35158
0003c0 fa 62 d5 42 27 1c 67 42 2b d1 5a 43 0c 19 b2 42
       106.69331 57.777493 218.81706 89.04892
0003d0 60 89 ec 42 69 7d db 42 41 2d ff 42 8d ab ce 42
       118.26831 109.74494 127.58839 103.33506
0003e0 c7 2f bc 42 a2 ad e3 42 f4 90 05 43 89 43 03 43
       94.093315 113.83913 133.56622 131.26381
0003f0 95 7e 89 42 e3 a1 6c 42 65 c8 d0 42 63 75 f9 42
       68.74723 59.158092 104.391396 124.72927

fc2.weight f4 [300, 404]
000000 59 4d 88 bd 22 71 99 bd d3 4f d4 3c e2 32 03 3d
       -0.06655378 -0.074922815 0.02591697 0.032030948
000010 1c d8 8b 3b 00 db 82 bc 9e 61 50 bd 2d 86 2c bd
       0.0042677056 -0.015973568 -0.050874345 -0.042120147
000020 3c fd 1c 3b 27 5c 0b bd d2 3e 9c 3c ff b6 7e bb
       0.002395465 -0.03402343 0.019072924 -0.0038866398
000030 59 55 36 3d 9d 59 89 3b 29 e6 77 bd 1f cb 53 bc
       0.044514988 0.004191591 -0.060522232 -0.012926846
000040 3b 75 74 bd cf 7a 7f bd 2f ed c1 bb 68 3e 9d bd
       -0.059682112 -0.06237298 -0.005918167 -0.07677919
000050 40 8a 21 3c f5 53 8f 3c 87 bb 65 bd 45 04 f5 bc
       0.0098596215 0.017496089 -0.056087043 -0.029909262
000060 b3 43 87 bd 8b 1f 10 3d 69 d3 56 bd b7 99 f4 ba
       -0.066047095 0.03518633 -0.05244771 -0.0018661533
000070 69 f7 a1 bc b9 76 57 bc ee c6 cf bb c6 a2 d1 bd
       -0.019771295 -0.013150864 -0.006340853 -0.10236125
000080 7a 37 cb bb 36 a6 4e bd 70 6e dc 3c d4 4d 42 bc
       -0.0062016817 -0.05045148 0.02690813 -0.011859376
000090 98 b2 54 bd 9d c5 8a bd b1 f4 b5 bd 75 c9 cc 3b
       -0.051928133 -0.06775973 -0.08884562 0.0062496015
0000a0 05 d5 ed bc 9f ac 8c ba 46 4e c0 bc b5 50 cf bc
       -0.02903224 -0.0010732597 -0.023474824 -0.025307039
0000b0 e7 b2 dc bc 95 81 14 bd cf 09 74 bd 37 4e b9 bc
       -0.026940776 -0.03625639 -0.059579667 -0.022620304
0000c0 b3 f7 b3 ba 10 dc 93 ba 6d 5a 36 bd 18 24 69 bc
       -0.0013730436 -0.0011280794 -0.04451983 -0.014229797
0000d0 d8 d9 9b bc f7 fe 2f bd 7f 3c a5 bc 41 ec 26 bd
       -0.019024774 -0.042967763 -0.020170448 -0.040752653
0000e0 81 38 63 bd 96 6c 1d 3c ff d7 2b bd 96 20 51 3c
       -0.05547381 0.009608408 -0.041954037 0.012764117
0000f0 58 c5 ba 3c c0 4e 9c bc d5 10 48 3c cb 96 5a bd
       0.022799179 -0.01908052 0.012211044 -0.053366464
000100 4a 73 89 bb 6a 51 fc bc db f8 4c 3c 0b cf 6f 3c
       -0.0041946517 -0.03080054 0.012510504 0.014636765
000110 20 f0 1f 3d 16 04 94 bd bb 8c 74 bd a5 a0 d4 bc
       0.03904736 -0.07227342 -0.059704524 -0.025955508
000120 96 20 a1 bc 57 1f 3e 3d 4e 77 91 bb e0 05 a6 bc
       -0.019668858 0.046416607 -0.004439271 -0.020266473
000130 1a c8 c6 bc a3 91 b1 bd 37 5a 42 bd d3 c5 28 bd
       -0.024265338 -0.08670356 -0.047449317 -0.041204285
000140 cf bd 7d bd 91 62 97 bc 80 b5 15 3d 33 d4 bc bc
       -0.061948594 -0.018479617 0.036550045 -0.023050403
000150 6a 3e 2a 3c 85 0d 36 bd 8f 7a c7 3c d6 c3 29 3c
       0.010390857 -0.044446487 0.024350433 0.010361632
000160 cc 52 c6 bd 33 d0 ca 3b 55 e7 37 3c 7e 2d 99 bc
       -0.09683761 0.00618937 0.011224587 -0.01869845
000170 4e 1b 9c bd 62 27 eb 3c 7e 3b 69 bd 29 d3 76 bd
       -0.076223955 0.028705303 -0.0569415 -0.06025997
000180 4c 70 39 bd 03 6c 54 bd 3a 3b a2 bd 46 06 ee 3b
       -0.04527311 -0.05186082 -0.07921453 0.0072639314
000190 0d d9 c1 bb 72 fa bf bb 8e f9 9a bd 37 db a2 bc
       -0.005915767 -0.005858713 -0.0756713 -0.01987992
0001a0 52 0d 5a bd 2e d7 5e bd fc bf e8 bc d0 0c f4 3c
       -0.05323536 -0.05440443 -0.028411858 0.029791266
0001b0 dd 56 42 bd 78 c6 8c bd d4 d6 56 bd 45 29 af bc
       -0.04744612 -0.068737924 -0.05245097 -0.021381984
0001c0 ed fc 42 3d d6 5e 83 bd 3c ae 60 3c e0 02 73 bc
       0.04760449 -0.06414573 0.013713416 -0.014832228
0001d0 e6 d5 27 bd 4a 30 67 bb c6 a2 c6 bc 2e cc d6 3b
       -0.040975474 -0.0035276585 -0.024247538 0.006555102
0001e0 4a 6e 46 bd 23 bb 0f 3b d3 b7 ce 3c 69 69 b5 3a
       -0.048445024 0.002193161 0.025234139 0.0013840619
0001f0 b5 98 5e bd 38 c1 13 bb 3c 52 62 3c d0 16 a2 bd
       -0.05434485 -0.0022545587 0.0138135515 -0.079145074
000200 3a 63 03 3c 7d c4 30 3d d9 38 0c 3d a2 03 9a bd
       0.008019263 0.043156136 0.0342339 -0.07520224
000210 75 6f 7f bd 34 ba 48 bd 57 b3 a3 bd de 0c bd bc
       -0.062362153 -0.049005702 -0.07993191 -0.023077425
000220 62 44 25 bd 0c c5 76 bd 87 42 4f bc 5e 65 90 bd
       -0.040348418 -0.060246512 -0.012650139 -0.07050584
000230 8e 49 9c 3c 39 7b 5a bd 95 6c 77 bd 21 4a 5b bc
       0.019078042 -0.05334017 -0.060406286 -0.013384373
000240 13 a9 6a 3c 63 b2 61 3c 40 1a fd bb 8b d1 79 bc
       0.014322537 0.013775441 -0.0077240765 -0.015247713
000250 ad 5e ea 3c 71 45 59 bd 5d 6d de bc 32 63 39 3d
       0.028609598 -0.05304474 -0.027151758 0.045260616
000260 81 71 0c bd e6 dd bf bd 37 3a 31 bc 00 ac 0e bd
       -0.034287933 -0.09368496 -0.010817102 -0.034832
000270 85 36 1d bd b9 99 56 bb 13 e1 90 3b 2f e1 d0 3a
       -0.038382072 -0.0032745434 0.004421362 0.001593625
000280 07 40 6a ba 7f f3 a9 bd 11 8e 94 bd 80 e2 aa bd
       -0.00089359324 -0.08298396 -0.072536595 -0.08343983
000290 e3 03 72 3c ab f7 80 bd 7b 9a ce 3b 39 d1 b0 bd
       0.0147714345 -0.06297239 0.0063050366 -0.08633656
0002a0 c0 36 c9 bd 67 41 e7 3c eb 91 6d bd 8c 83 eb bc
       -0.09824896 0.028229428 -0.058000486 -0.02874925
0002b0 2a 40 b7 bc 88 66 85 bd 7e 51 04 3d 5f e1 ef bb
       -0.022369463 -0.06513697 0.03230428 -0.0073205675
0002c0 c4 9c ed 3c f2 04 98 bd e8 e7 00 3d 27 35 93 3c
       0.029005416 -0.07422818 0.031471163 0.017969681
0002d0 7f 84 bb 3c bc ef de 3b 59 45 85 bd d4 00 40 bd
       0.022890327 0.006803481 -0.06507368 -0.04687579
0002e0 89 e9 ba bd 87 fe 0e bd a2 39 39 bd 16 76 a7 bd
       -0.091265745 -0.034910705 -0.04522098 -0.0817682
0002f0 bc dd 95 bd 81 8e 25 bb b0 4a 93 3c fb 51 c1 bd
       -0.07317683 -0.002526194 0.01797995 -0.09439465
000300 3d 86 16 bd 01 83 98 3b d2 a8 c2 ba 95 78 8e bd
       -0.036749113 0.0046542888 -0.0014851338 -0.06956593
000310 c0 4a 89 3c 87 f7 b0 ba bb 5b c7 3c 25 a2 c1 bd
       0.016759276 -0.0013501503 0.024335733 -0.09454755
000320 f6 1d bb bc 53 8d e3 3c fd 1a e7 bc e8 f8 aa bd
       -0.022841435 0.02777735 -0.028211111 -0.08348256
000330 e7 bf 85 bd 6a a5 54 bb 46 f3 e7 bc ec ae 2c bd
       -0.06530743 -0.0032447227 -0.028314244 -0.042159006
000340 ac 4e 23 bd 13 14 3f 3c d7 6a bc bd ca 07 62 bc
       -0.03986995 0.011662501 -0.092000656 -0.013795802
000350 ff 1c 82 bc 07 21 7e bd 64 de b6 bc 58 4d 57 bd
       -0.015882967 -0.062043216 -0.022322841 -0.052563995
000360 6d 66 b6 bb 7f 2f 44 3c 9b 96 f9 3b a3 75 95 bd
       -0.0055664093 0.011974215 0.0076168305 -0.07297828
000370 48 60 1e bc 31 74 ad bc af 36 a3 3c 32 47 13 bd
       -0.00966651 -0.021173568 0.019923536 -0.03595657
000380 02 e3 9b bc e2 3f 92 bd 20 88 9b 3c 38 ab 60 3c
       -0.019029144 -0.07141091 0.018985808 0.013712697
000390 69 ab f3 bc 34 8b 14 bd d9 8c 35 3d db 73 aa bb
       -0.02974482 -0.036265567 0.044323776 -0.0052017993
0003a0 ff 21 a4 bd 82 18 64 bd f6 61 32 bd 7d 3d 4e 3c
       -0.08014297 -0.055687435 -0.043550454 0.012587902
0003b0 b2 43 fb 3c ae b6 ef bc a8 c7 a8 3b db b0 9b bd
       0.030671928 -0.029261913 0.005150754 -0.07602092
0003c0 da 50 61 bc a3 ad 63 bd e7 3d 07 3d 64 1f 5c 3c
       -0.013752187 -0.055585515 0.03301802 0.0134352185
0003d0 8f 38 ee bb 45 5e bb 3a b5 03 51 bd 15 f2 e0 bc
       -0.007269926 0.0014295062 -0.051028926 -0.027459184
0003e0 6f a4 28 bd 85 4b f1 bc 67 87 d4 3b b8 42 19 bc
       -0.04117244 -0.029454956 0.006485868 -0.009354286
0003f0 6f 10 f6 bc be 69 37 bd cb a7 5f bd 1b ce ad 3c
       -0.030037133 -0.044778578 -0.05460338 0.021216443
